submission/code/models/penneAlPesto5.pth (torch, 413042 bytes, 15 tensors)

main.0.weight f4 [10, 3, 4, 4]
0.020824501 0.00034226626 0.076447956 -0.02866673 0.030456033 0.16306579 -0.17736848 -0.14779182
0.078334756 -0.092155665 -0.12253372 0.064960055 0.17759514 0.13735284 0.14639945 -0.112222984
-0.07357209 -0.017646879 -0.012615828 0.06512542 0.107578546 -0.092228234 -0.16761163 -0.16555853
-0.04632567 -0.062774345 -0.12874877 0.0017933635 -0.0767049 -0.10375746 0.09384092 0.042166144
0.04226968 0.09175441 -0.11688521 -0.05117973 -0.17896467 0.09696837 -0.15999903 -0.019641567
-0.08543178 -0.12974584 -0.14929384 -0.10380352 0.014298033 -0.11303325 -0.0058082906 0.13252068
-0.090936296 0.13028081 0.032098625 0.025987115 0.11285925 -0.075666964 0.11032264 -0.095877916
0.12630285 -0.08919251 0.010155458 0.08036457 0.01143254 -0.18058111 0.020685485 -0.025936166
0.045852736 0.12362891 -0.080664754 0.107757024 0.052551 -0.026975654 0.07263543 -0.060885392
0.08619421 0.06598382 0.095388286 0.046116814 0.07291832 -0.12450386 -0.06697222 -0.064059876
-0.06084847 0.04491928 -0.08813816 0.010450197 0.0007365228 -0.114580855 0.0020282487 -0.04823671
-0.134526 0.115554385 0.02876219 0.12568642 -0.19262838 -0.104107216 -0.027470343 -0.08438499
-0.05552706 0.11312416 -0.0018472354 0.06725721 0.02377027 -0.0976328 0.09800702 -0.13104905
-0.106054224 -0.056525465 0.095141314 0.025573201 -0.105349265 0.060809206 -0.1088626 -0.08231986
0.09769743 -0.13865288 -0.0776983 -0.03782796 -0.031121686 0.021480648 0.057345185 0.052327592
0.14228061 -0.11283898 0.15343332 -0.008335655 0.0790307 -0.13965054 -0.122236006 -0.098677054
0.08571609 -0.17665036 -0.075271 0.011181737 0.009188998 -0.12337196 0.060577165 0.050326463
-0.016868241 -0.0046389694 0.11288568 -0.07470596 -0.009878963 0.063347 0.14464578 -0.14334863
0.051388334 0.16009098 0.111394726 0.10316347 -0.042011 -0.017585175 -0.12588912 -0.10858116
0.01467465 -0.075913705 -0.17069699 -0.038149603 0.08700216 0.07261881 0.16776043 0.14809878
0.015670707 0.063547224 0.045185074 0.15059972 0.07829936 -0.015795488 -0.15824337 -0.051814456
-0.059256647 -0.104506366 -0.13530436 0.1109798 0.041870147 0.095863014 0.1490852 0.16466132
0.054144796 0.05885699 0.08730323 0.17660482 0.06984714 0.039402254 -0.020566138 -0.120422795
-0.16565639 -0.013426289 0.069152094 -0.075926535 0.052455902 0.09651999 -0.06055906 -0.012901322
0.1427315 -0.1370214 0.040122252 -0.095402345 -0.059542637 -0.06952185 -0.06741452 0.16996174
0.026442535 0.08558022 -0.09877717 0.046164706 0.06453743 0.18225165 0.16399531 0.072880454
0.10854745 -0.07624587 0.027855566 0.01680506 0.121083066 -0.047768954 0.14730147 -0.0622291
-0.021037344 0.07069667 0.111300424 -0.007881422 -0.07174552 -0.030188246 0.015266442 -0.08747248
-0.05522815 -0.06969987 0.09953336 0.099966355 0.11702052 -0.0023148132 0.016298776 -0.15634511
-0.015953682 -0.048211772 0.04383449 0.04427545 -0.11882307 0.09458183 -0.024092548 -0.03713384
0.05105783 -0.083994165 0.14144665 0.13888504 0.1377357 -0.03884628 0.12584056 0.055080004
0.083598785 0.10939909 0.122397855 -0.10935823 -0.06118513 -0.019454625 -0.0402743 -0.024524955
00000000: 2598 aa3c 3372 b339 bf90 9c3d 7dd6 eabc
00000010: ee7e f93c b8fa 263e 15a0 35be bd56 17be
00000020: f96d a03d 1cbc bcbd f6f2 fabd c709 853d
00000030: 80db 353e 39a6 0c3e bde9 153e 2ad5 e5bd
00000040: f7ac 96bd 3090 90bc 9eb2 4ebc 7a60 853d
00000050: 2452 dc3d 28e2 bcbd 62a2 2bbe 2d88 29be
00000060: fcbf 3dbd d68f 80bd b8d6 03be 4b0f eb3a
00000070: 7517 9dbd cb7e d4bd ab2f c03d 68b6 2c3d
00000080: f922 2d3d bce9 bb3d 8361 efbd d6a1 51bd
00000090: 8442 37be 5a97 c63d c9d6 23be 5ae7 a0bc
000000a0: dbf6 aebd 18dc 04be 7ce0 18be f196 d4bd
000000b0: 4c42 6a3c fa7d e7bd 7953 bebb 80b3 073e
000000c0: cf3c babd 5568 053e d979 033d eee2 d43c
000000d0: c022 e73d 48f7 9abd d6f0 e13d a45b c4bd
000000e0: 8955 013e 90aa b6bd 1463 263c 2e96 a43d
000000f0: 8c4f 3b3c 41ea 38be 9b74 a93c 1578 d4bc
00000100: 14d0 3b3d 2731 fd3d 9033 a5bd b7af dc3d
00000110: b83f 573d 0cfc dcbc e2c1 943d f662 79bd
00000120: 9786 b03d 8622 873d ef5a c33d fce4 3c3d
00000130: 3356 953d e1fb febd bb28 89bd d331 83bd
00000140: 3f3c 79bd 47fd 373d c881 b4bd 4e37 2b3c
00000150: 3513 413a 5ea9 eabd 5eec 043b db93 45bd
00000160: 2fc1 09be c7a7 ec3d af9e eb3c f1b3 003e
00000170: 6040 45be 2a36 d5bd 7c09 e1bc 0ad2 acbd
00000180: 5870 63bd a4ad e73d ef1e f2ba 26be 893d
00000190: dfb9 c23c b5f3 c7bd e8b7 c83d b931 06be
000001a0: f532 d9bd 3f87 67bd 73d9 c23d e47e d13c
000001b0: 5bc1 d7bd 1313 793d 5bf3 debd 5197 a8bd
000001c0: 9715 c83d 05fb 0dbe 4920 9fbd 7ef1 1abd
000001d0: e8f2 febc 2ff8 af3c c9e2 6a3d 7555 563d
000001e0: 02b2 113e 2018 e7bd a01d 1d3e 4592 08bc
000001f0: d9da a13d 8d00 0fbe df56 fabd 3217 cabd
00000200: eb8b af3d d5e3 34be af27 9abd 9b33 373c
00000210: 738d 163c 70aa fcbd c31f 783d 1f23 4e3d
00000220: 442f 8abc 7f02 98bb 9b30 e73d 70ff 98bd
00000230: 60db 21bc 12bc 813d 061e 143e fcc9 12be
00000240: 937c 523d e4ee 233e eb22 e43d 5f47 d33d
00000250: ba13 2cbd c90e 90bc 14e9 00be cd5f debd
00000260: f16d 703c a578 9bbd 31cb 2ebe c242 1cbd
00000270: 302e b23d 2cb9 943d 64c9 2b3e 35a7 173e
00000280: db5f 803c 0c25 823d fc13 393d d036 1a3e
00000290: 6a5b a03d 8a65 81bc 8d0a 22be 653b 54bd
000002a0: 19b7 72bd 6f07 d6bd 3a8d 0abe 6149 e33d
000002b0: 0880 2b3d d453 c43d caa9 183e fa9c 283e
000002c0: efc6 5d3d 0714 713d 09cc b23d e5d7 343e
000002d0: 040c 8f3d 4264 213d 517a a8bc 3aa0 f6bd
000002e0: d4a1 29be f0f9 5bbc 9d9f 8d3d 5f7f 9bbd
000002f0: 00dc 563d 46ac c53d c70c 78bd 1160 53bc
00000300: 3528 123e 564f 0cbe 3b57 243d 4e62 c3bd
00000310: fbe2 73bd 7961 8ebd a010 8abd 730a 2e3e
00000320: 049e d83c af44 af3d af4b cabd 3417 3d3d
00000330: 332c 843d 2da0 3a3e 63ee 273e 5942 953d
00000340: 204e de3d cb26 9cbd 5b31 e43c c4aa 893c
00000350: 66fa f73d 61a9 43bd 32d6 163e f1e3 7ebd
00000360: 8256 acbc 6ac9 903d 7af1 e33d 1421 01bc
00000370: 51ef 92bd 574d f7bc 1920 7a3c c624 b3bd
00000380: ea36 62bd cebe 8ebd 25d8 cb3d 29bb cc3d
00000390: 74a8 ef3d 1fb4 17bb 0385 853c ef18 20be
000003a0: 4cb1 82bc b579 45bd cb8b 333d 2d5a 353d
000003b0: 8259 f3bd 1eb4 c13d bc5d c5bc a719 18bd
000003c0: 0422 513d 2205 acbd 64d7 103e e137 0e3e
000003d0: 960a 0d3e 471d 1fbd 59dc 003e 929b 613d
000003e0: d735 ab3d a10c e03d baab fa3d 35f7 dfbd
000003f0: 429d 7abd 4e5f 9fbc aaf6 24bd 8fe8 c8bc

main.3.weight f4 [20, 10, 4, 4]
-0.03846231 0.0053975037 0.02954503 -0.119918264 0.03330384 -0.0014013579 -0.003936382 -0.062307388
0.0506722 0.011048299 -0.050373387 -0.10117385 0.00046441163 0.08489517 -0.03433939 -0.056744978
0.052567888 0.07527862 0.11164894 -0.028105132 -0.103092976 0.047281012 0.022328265 -0.031791188
0.0072181043 -0.043043762 0.044818886 -0.09593953 0.043742385 -0.08289147 -0.09540819 -0.03550341
0.05973057 -0.08761566 0.056113746 -0.056851055 -0.09455576 -0.05949373 0.07396555 -0.091732375
-0.0015394583 -0.04366119 -0.040075548 -0.054015204 -0.009761186 -0.01274376 -0.010403205 -0.06771875
-0.10224878 -0.017439608 -0.007229014 0.014516829 -0.045970913 -0.05443819 -0.017615134 -0.0864914
-0.034444895 -0.017874148 0.08899145 -0.06845062 0.0038729066 0.07296349 0.10205704 -0.109174676
-0.005735028 -0.10454464 -0.031205988 0.047550067 -0.078583315 -0.041488487 0.025853835 -0.0028785001
-0.06927335 -0.019564083 -0.050102826 -0.016047698 -0.025957137 -0.0149922 0.040645756 -0.02384207
-0.08359608 0.056529623 -0.07596183 0.014974292 0.010158299 0.029022623 0.009626491 -0.08330135
-0.07309896 0.03715474 -0.046335053 -0.10036894 0.054252774 0.061407547 0.035631847 -0.061576597
0.046312228 0.0035394458 0.005172779 0.094289824 0.032764416 -0.013505871 -0.01905378 -0.00066160806
-0.05488081 -0.03926873 0.009844824 0.07528837 0.03261238 0.0750446 0.0130739445 -0.044629183
0.043353878 0.042634875 0.050777737 0.003502402 0.0003536084 -0.0052242815 0.0561226 -0.020352213
0.06012726 0.028618954 -0.06652136 -0.06722782 -0.079447135 -0.056645952 0.03244898 -0.044858757
0.048789144 -0.04043857 0.050109234 -0.066673994 -0.028086152 0.008186786 0.063067205 -0.0065398677
0.026215535 -0.036671408 0.00738435 -0.05290332 0.0011650069 -0.049026374 -0.05706174 -0.06942775
0.02595457 0.046819516 -0.012905986 -0.015350209 -0.007818282 -0.004509935 0.038601596 0.006501609
0.03521383 -0.008502756 0.003973246 -0.023221731 -0.03584186 0.05071357 -0.04151311 0.05802375
-0.06666564 -0.012106916 -0.05400175 0.017565733 -0.07438226 0.0066105025 0.008476015 0.07099559
-0.009096275 -0.0020515327 0.034886207 -0.004129199 0.09360245 0.051201895 0.04659926 0.07553285
0.07755727 -0.03648238 -0.041399848 -0.068843976 0.007891922 0.008996212 -0.08397595 0.045913786
0.09740829 0.029688265 0.018754987 0.034390446 0.028121307 -0.0015463018 0.014817749 -0.09294062
0.018545758 0.018702015 -0.06945629 -0.009731518 0.0020314052 0.020726502 0.042857397 -0.007868559
0.049626876 0.014646359 0.048825882 -0.0070986156 -0.027713845 -0.082861006 0.00039872294 0.05537603
-0.07148074 -0.023462348 0.054973472 -0.033126093 0.09246971 0.056627184 -0.033728085 -0.047119737
0.05778654 -0.08261752 0.06310047 -0.07983796 0.06177324 0.030444153 -0.057482384 -0.0071062483
0.018382624 -0.049816765 -0.071333855 0.054089144 -0.067670055 0.023143716 0.08914505 0.05053192
-0.0070053292 -0.02342735 0.049365252 -0.033647984 -0.027947454 -0.04135272 -0.021102471 0.05783409
0.029401552 -0.0863422 -0.056523 0.021922207 -0.0017539538 0.026326101 -0.008680922 0.019596886
0.08063168 -0.048937734 -0.029410616 -0.04691807 0.016368208 -0.09152116 -0.10653684 -0.071554944
00000000: a88a 1dbd 8bdd b03b 6b08 f23c b597 f5bd
00000010: 9b69 083d c5ad b7ba c4fc 80bb 0836 7fbd
00000020: a78d 4f3d ed03 353c 5354 4ebd 3c34 cfbd
00000030: 467c f339 85dd ad3d 76a7 0cbd 6c6d 68bd
00000040: 6d51 573d ad2b 9a3d 33a8 e43d bc3c e6bc
00000050: 6922 d3bd bca9 413d c4e9 b63c 7a37 02bd
00000060: d985 ec3b a84e 30bd 0294 373d f27b c4bd
00000070: 372b 333d 01c3 a9bd 5e65 c3bd 066c 11bd
00000080: 0ba8 743d d76f b3bd 87d7 653d a7dc 68bd
00000090: 73a6 c1bd b3af 73bd 407b 973d 2fde bbbd
000000a0: a6c7 c9ba 13d6 32bd 4226 24bd 0c3f 5dbd
000000b0: 62ed 1fbc 34cb 50bc 3472 2abc 21b0 8abd
000000c0: cf67 d1bd 82dd 8ebc 5de1 ecbb fed7 6d3c
000000d0: ff4b 3cbd 94fa 5ebd 9d4d 90bc 6722 b1bd
000000e0: 1716 0dbd ce6c 92bc 2641 b63d d72f 8cbd
000000f0: 97d0 7d3b e26d 953d 4803 d13d f996 dfbd
00000100: e7ec bbbb 801b d6bd b3a3 ffbc dcc3 423d
00000110: 4af0 a0bd d5ef 29bd 6ccb d33c 38a5 3cbb
00000120: 30df 8dbd db44 a0bc 9f38 4dbd 7676 83bc
00000130: 10a4 d4bc d8a1 75bc 2a7c 263d 7250 c3bc
00000140: 6c34 abbd 9b8b 673d e091 9bbd bc56 753c
00000150: fe6e 263c dac0 ed3c 6eb8 1d3c e699 aabd
00000160: e8b4 95bd 922f 183d d3c9 3dbd 3b8e cdbd
00000170: 2838 5e3d 7b86 7b3d b3f2 113d be37 7cbd
00000180: e4b1 3d3d 0cf6 673b 6a80 a93b 061b c13d
00000190: fb33 063d bb47 5dbc ac16 9cbc c46f 2dba
000001a0: b3ca 60bd 3fd8 20bd 2f4c 213c ca30 9a3d
000001b0: 8f94 053d fcb0 993d 1934 563c 17cd 36bd
000001c0: d693 313d e8a1 2e3d 51fc 4f3d 8e88 653b
000001d0: 8464 b939 7330 abbb d0e0 653d afb9 a6bc
000001e0: 0048 763d 4c72 ea3c 5a3c 88bd bdae 89bd
000001f0: 2eb5 a2bd 9605 68bd 39e9 043d d1bd 37bd
00000200: 20d7 473d eaa2 25bd 573f 4d3d 608c 88bd
00000210: ee14 e6bc df21 063c 6129 813d 634c d6bb
00000220: f6c1 d63c c234 16bd 6bf8 f13b 27b1 58bd
00000230: 25b3 983a e1cf 48bd 92b9 69bd 2330 8ebd
00000240: ae9e d43c d2c5 3f3d a173 53bc 717f 7bbc
00000250: 4018 00bc 14c8 93bb b51c 1e3d 730b d53b
00000260: 613c 103d 254f 0bbc 0132 823b 803b bebc
00000270: eace 12bd 08b9 4f3d a709 2abd 50aa 6d3d
00000280: ff87 88bd 165c 46bc f030 5dbd 03e6 8f3c
00000290: ba55 98bd ea9c d83b fcde 0a3c 2366 913d
000002a0: 8b08 15bc 0273 06bb d7e4 0e3d 3b4e 87bb
000002b0: a4b2 bf3d 14b9 513d dede 3e3d f8b0 9a3d
000002c0: 59d6 9e3d 8c6e 15bd e392 29bd 12fe 8cbd
000002d0: 1f4d 013c d964 133c 95fb abbd 1810 3c3d
000002e0: ff7d c73d ce34 f33c 0fa4 993c ffdc 0c3d
000002f0: a85e e63c 47ad caba 25c6 723c a757 bebd
00000300: 46ed 973c f834 993c 193f 8ebd f270 1fbc
00000310: 5321 053b a0ca a93c 3d8b 2f3d 21eb 00bc
00000320: 8d45 4b3d 48f7 6f3c a6fd 473d 819b e8bb
00000330: 2508 e3bc 08b3 a9bd b00b d139 fad1 623d
00000340: 7f64 92bd 1c34 c0bc dd2b 613d 3aaf 07bd
00000350: c260 bd3d e8f1 673d 7626 0abd a000 41bd
00000360: 94b1 6c3d 6033 a9bd d23a 813d 1682 a3bd
00000370: f005 7d3d 0466 f93c a672 6bbd 88db e8bb
00000380: 2897 963c aa0c 4cbd 7c17 92bd 948c 5d3d
00000390: 9996 8abd e497 bd3c ae91 b63d 8ffa 4e3d
000003a0: f68c e5bb b7ea bfbc 3833 4a3d 78d2 09bd
000003b0: 0ff2 e4bc 7861 29bd 17df acbc 70e3 6c3d
000003c0: 86db f03c 2ed4 b0bd a984 67bd 3396 b33c
000003d0: ece4 e5ba d6a9 d73c 6d3a 0ebc a689 a03c
000003e0: 3922 a53d ef72 48bd 88ee f0bc 2a2d 40bd
000003f0: 9f16 863c 726f bbbd fd2f dabd 668b 92bd

main.4.weight f4 [20]
0.9825329 0.99618304 0.8836702 0.97811866 0.9856229 0.94097114 0.98240536 1.0643519
0.9478538 0.95993847 0.98644626 0.9883059 0.9869023 1.0511191 0.9505122 1.0458493
1.0363369 1.0728992 0.9619661 1.0765064
00000000: 4787 7b3f da05 7f3f 3638 623f fc65 7a3f
00000010: c851 7c3f 7ce3 703f eb7e 7b3f af3c 883f
00000020: 8ca6 723f 87be 753f be87 7c3f 9e01 7d3f
00000030: a1a5 7c3f 128b 863f c454 733f 64de 853f
00000040: b0a6 843f c354 893f 6943 763f f6ca 893f

main.4.bias f4 [20]
-0.038852885 0.014006993 0.028931959 0.056235064 0.021221807 0.031996723 0.033566494 0.014927005
0.0046597254 -0.010602019 0.02881305 -0.10916132 -0.13641788 -0.00053720485 0.013489764 -0.03757688
-0.031635985 0.0098988125 0.022922127 -0.012609176
00000000: 3424 1fbd 967d 653c b702 ed3c bd56 663d
00000010: 5bd9 ad3c ff0e 033d 057d 093d 6690 743c
00000020: 9cb0 983b 17b4 2dbc 5809 ec3c f88f dfbd
00000030: 21b1 0bbe 35d3 0cba 2c04 5d3c 37ea 19bd
00000040: bc94 01bd a12e 223c 2fc7 bb3c b896 4ebc

main.4.running_mean f4 [20]
-0.007884806 -0.005956204 0.0100189 -0.0011079661 0.016189435 0.004626352 0.006092396 -0.013344664
0.015631352 -0.003105809 -0.0027276725 -0.008974779 -0.008044976 -0.012770604 0.006337237 -0.014731012
-0.015972998 -0.01211619 0.016051302 -0.009164786
00000000: 462f 01bc 432c c3bb 5026 243c 2c39 91ba
00000010: b59f 843c a798 973b b9a2 c73b 94a3 5abc
00000020: 520d 803c d48a 4bbb c0c2 32bb f40a 13bc
00000030: 13cf 03bc cc3b 51bc 99a8 cf3b 585a 71bc
00000040: ced9 82bc fc82 46bc 057e 833c e627 16bc

main.4.running_var f4 [20]
0.000112075584 0.00013678022 0.0002229688 0.00011730498 0.00040355133 0.00023290122 9.94628e-05 0.00034290264
0.0004948427 8.814953e-05 0.00012240926 0.00028296566 0.0001782988 0.000296526 0.0003516521 0.00059788034
0.0006103299 0.00027651858 0.00053698785 0.00017400633
00000000: 1f0a eb38 a96c 0f39 bbcc 6939 a201 f638
00000010: be93 d339 f236 7439 af96 d038 9dc7 b339
00000020: 55b8 013a ebdc b838 fc5a 0039 025b 9439
00000030: b8f5 3a39 0c77 9b39 f25d b839 12bb 1c3a
00000040: 8cfe 1f3a b2f9 9039 a5c4 0c3a 7875 3639

main.6.weight f4 [40, 20, 4, 4]
-0.071523875 0.06453275 0.044079382 0.009476558 -0.060999483 0.03613299 0.058808163 0.019130647
0.01587877 -0.00018928331 -0.071089685 -0.0951897 -0.042973287 -0.04744168 0.005125638 0.028603187
0.003926543 0.032089617 0.051786948 -0.031299785 -0.06307254 0.037013352 -0.016175497 -0.059666704
0.048175033 0.05685796 0.04592772 0.059231356 0.05662413 0.049113426 0.06056656 0.010053228
-0.028280532 -0.059279907 0.04298662 0.009876599 -0.010060881 0.032102518 -0.0531732 0.024874782
-0.035956938 0.058216855 0.01382456 -0.007088428 0.037738446 -0.012577406 0.0009982693 -0.02460835
0.024902636 -0.051513113 -0.03901889 0.0024273049 -0.034248654 -0.05621414 -0.0019082624 -0.03520298
0.019183053 0.005075871 -0.05525878 -0.022830276 -0.025763687 0.05838883 -0.063468985 0.033762727
0.0123257255 -0.07403312 0.0019767783 0.029774686 0.0023661882 0.021217851 -0.031538334 -0.006381049
-0.012195138 0.013422402 -0.017374221 -0.07516752 0.029326513 -0.057249974 -0.06408964 -0.00020702026
-0.043017127 -0.040110596 -0.040006887 0.008462055 -0.019919064 0.007842089 -0.0062525165 0.02946803
0.03284794 -0.022452077 -0.040666748 0.028446285 -0.024371732 0.007316976 -0.011448649 0.04901181
0.02916741 -0.028968282 0.010878663 -0.018993646 0.012555667 0.020129822 -0.014838332 0.008688245
-0.014097788 0.041848894 -0.029815264 -0.0047090724 0.0050518936 -0.043310784 -0.03891984 0.029015893
0.026901335 0.054169893 -9.329332e-05 -0.014876778 -0.0073140753 -0.022821628 0.041918825 0.042778526
0.0055139144 -0.027559072 -0.033712264 -0.043841314 -0.033668477 0.008874463 -0.055557247 0.02015981
-0.010050779 -0.06344105 -0.03631324 0.008548173 0.04393006 -0.048987933 -0.060752735 0.0049968963
0.01701813 -0.016886264 -0.03602026 -0.03613124 -0.008771736 0.0045064595 0.042239677 -0.055924788
0.05139816 -0.037918676 -0.0031086635 -0.036444955 -0.016523808 -0.017492596 -0.073909454 -0.09613522
-0.047615815 -0.033382535 -0.043220595 -0.03914277 -0.04711873 -0.005586786 -0.005480615 -0.045376375
-0.027490959 0.04400759 0.067675896 -0.020155894 -0.025524221 -0.0019882023 -0.02470791 0.022455797
-0.03720048 -0.028822191 -0.08257412 -0.059351746 -0.02164004 -0.017171323 -0.048769373 -0.065553725
0.015725316 0.041547943 0.042802628 -0.03913025 -0.012919976 0.057477966 0.0325792 -0.009572323
-0.04739256 -0.026393967 0.037998807 -0.013052971 -0.06654138 0.00392109 0.011456271 0.026681576
-0.013114357 -0.041400786 0.067921944 0.012727299 0.021506004 -0.0019096812 0.037960388 -0.028176954
-0.05136288 0.046530917 0.07066909 0.016248565 0.014989826 0.04314599 0.026868435 -0.02095679
0.015423087 0.040397014 0.042655338 0.048761126 -0.056376424 0.0054544923 0.006719243 0.0717048
-0.08900778 -0.017254686 -0.022685677 0.006628604 -0.07557833 0.0021286341 0.010112635 -0.0074539236
0.01977214 0.010223284 -0.06643194 0.012780774 -0.007319892 -0.017519316 0.0137481885 -0.04845679
-0.03863097 -0.038822018 0.011151206 0.030685266 -0.048952926 -0.04960747 -0.023207974 -0.00825095
-0.044049524 -0.055548247 0.065677345 -0.014666174 0.017495813 -0.007818225 0.0144242905 0.032358427
-0.020483522 -0.011930803 0.03716621 -0.019288003 0.0037304442 0.021476561 0.0032353993 0.039642815
00000000: 1c7b 92bd bf29 843d 958c 343d 9143 1b3c
00000010: 98da 79bd 3000 143d d4e0 703d e0b7 9c3c
00000020: 3214 823c 5a7a 46b9 7897 91bd d1f2 c2bd
00000030: c204 30bd 3552 42bd f8f4 a73b 3b51 ea3c
00000040: 3baa 803b 6770 033d 8d1e 543d 3434 00bd
00000050: 2d2c 81bd 509b 173d 7a82 84bc 1365 74bd
00000060: 2f53 453d e4e3 683d b41e 3c3d 949c 723d
00000070: b4ee 673d 292b 493d a414 783d 4bb6 243c
00000080: 93ac e7bc 7dcf 72bd bd12 303d 75d1 213c
00000090: 65d6 24bc ee7d 033d 24cc 59bd 33c6 cb3c
000000a0: 9547 13bd cc74 6e3d 6880 623c 0b46 e8bb
000000b0: a193 1a3d 7711 4ebc 5cd8 823a 7397 c9bc
000000c0: 9d00 cc3c 6aff 52bd 46d2 1fbd 6b13 1f3b
000000d0: 5148 0cbd cc40 66bd a91e faba 0031 10bd
000000e0: c725 9d3c 7e53 a63b 0857 62bd 8f06 bbbc
000000f0: 5e0e d3bc 2029 6f3d 07fc 81bd c94a 0a3d
00000100: d7f1 493c ad9e 97bd d68c 013b 0bea f33c
00000110: 0d12 1b3b 0fd1 ad3c 572e 01bd 1e18 d1bb
00000120: 1ece 47bc a2e9 5b3c 6254 8ebc 6ef1 99bd
00000130: 283e f03c f37e 6abd 6e41 83bd 9413 59b9
00000140: ba32 30bd 024b 24bd 43de 23bd 6ea4 0a3c
00000150: 4e2d a3bc 1b7c 003c e9e1 ccbb f066 f13c
00000160: 908b 063d 6bed b7bc 2d92 26bd 2f08 e93c
00000170: 3aa7 c7bc 3ec3 ef3b 1d93 3bbc 9cc0 483d
00000180: 7ef0 ee3c e44e edbc 6b3c 323c 9098 9bbc
00000190: 49b6 4d3c 4ce7 a43c 7a1c 73bc 2459 0e3c
000001a0: 69fa 66bc bf69 2b3d 243f f4bc 904e 9abb
000001b0: 5b8a a53b a666 31bd 696a 1fbd bdb2 ed3c
000001c0: 3060 dc3c 40e1 5d3d 78a6 c3b8 bbbd 73bc
000001d0: e9aa efbb 6cf4 babc 13b3 2b3d 8938 2f3d
000001e0: 11ae b43b 90c3 e1bc df15 0abd f392 33bd
000001f0: f5e7 09bd 3266 113c ff8f 63bd 3026 a53c
00000200: 06ac 24bc 62ed 81bd 31bd 14bd a30d 0c3c
00000210: 02f0 333d 92a7 48bd dcd7 78bd 01bd a33b
00000220: 9b69 8b3c 1055 8abc fb89 13bd 5afe 13bd
00000230: 54b7 0fbc ecaa 933b 8303 2d3d 6411 65bd
00000240: e186 523d 9d50 1bbd b8ba 4bbb 4e47 15bd
00000250: f05c 87bc a24c 8fbc d75d 97bd 8be2 c4bd
00000260: cd08 43bd 20bc 08bd 1408 31bd 2b54 20bd
00000270: 92ff 40bd 5c11 b7bb bb96 b3bb 94dc 39bd
00000280: b834 e1bc 4d41 343d a999 8a3d f91d a5bc
00000290: 2c18 d1bc 804c 02bb 3e68 cabc 38f5 b73c
000002a0: 885f 18bd 841c ecbc 9f1c a9bd d11a 73bd
000002b0: 7446 b1bc e0aa 8cbc 65c2 47bd 0841 86bd
000002c0: 61d2 803c 2d2e 2a3d cf51 2f3d 0b47 20bd
000002d0: 4fae 53bc 046e 6b3d c471 053d 3cd5 1cbc
000002e0: b31e 42bd 2938 d8bc a3a4 1b3d 21dc 55bc
000002f0: d946 88bd 7d7c 803b 15b3 3b3c 5293 da3c
00000300: 9add 56bc df93 29bd a91a 8b3d 2986 503c
00000310: 5c2d b03c 454e faba 5a7c 1b3d 5bd3 e6bc
00000320: e261 52bd 3497 3e3d f5ba 903d b61b 853c
00000330: e397 753c dab9 303d 311b dc3c 93ad abbc
00000340: 1eb1 7c3c 5777 253d 5db7 2e3d bfb9 473d
00000350: f7ea 66bd 99bb b23b 182d dc3b f7d9 923d
00000360: b649 b6bd b359 8dbc 50d7 b9bc c334 d93b
00000370: d0c8 9abd 8e80 0b3b 77af 253c 0b40 f4bb
00000380: 2ff9 a13c 907f 273c 780d 88bd 7466 513c
00000390: b4db efbb ab84 8fbc 1540 613c a17a 46bd
000003a0: 823b 1ebd d603 1fbd 8cb3 363c ab5f fb3c
000003b0: dd82 48bd 3431 4bbd a61e bebc fe2e 07bc
000003c0: 466d 34bd 8f86 63bd d881 863d 644a 70bc
000003d0: 6153 8f3c 0318 00bc dc53 6c3c 458a 043d
000003e0: 0fcd a7bc 6a79 43bc 993b 183d e001 9ebc
000003f0: 787a 743b 9def af3c fe08 543b 8160 223d

main.7.weight f4 [40]
1.0226015 1.0371861 1.0336055 1.0463746 1.0118815 1.0571399 1.0502712 1.0406749
1.1063937 1.0352038 1.038502 1.0107054 1.0521702 1.0208321 1.0572653 1.0509509
0.999691 1.0107837 1.0539829 1.0550517 1.0613383 1.0084592 1.0592203 1.0391899
1.0282894 1.0503075 1.0478246 1.0439363 1.0596715 1.0453981 1.0217896 1.0069088
1.0445246 1.0246972 1.0647006 1.0009063 1.042617 1.0665808 1.0544174 1.0649099
00000000: 9be4 823f 84c2 843f 2f4d 843f 9aef 853f
00000010: 5585 813f 5c50 873f 496f 863f d634 853f
00000020: 4f9e 8d3f 8f81 843f a2ed 843f cb5e 813f
00000030: 83ad 863f a0aa 823f 7854 873f 8f85 863f
00000040: c0eb 7f3f 5c61 813f e9e8 863f ef0b 873f
00000050: efd9 873f 3115 813f 8894 873f 2d04 853f
00000060: fd9e 833f 7a70 863f 1e1f 863f b49f 853f
00000070: 51a3 873f 9bcf 853f 00ca 823f 63e2 803f
00000080: fbb2 853f 4729 833f 1c48 883f b31d 803f
00000090: 7974 853f b885 883f 26f7 863f f84e 883f

main.7.bias f4 [40]
0.0031299514 0.021839011 -0.0028617175 0.01062036 -0.0092019765 0.034584552 0.012572922 0.03573704
0.039842334 0.020673944 0.019741692 0.011451673 0.022223912 0.013460481 0.021077631 0.037865993
-0.009388614 -0.018956296 0.034344073 0.021556882 0.0389772 -0.009776553 0.007830398 0.012647144
0.023445085 0.028582867 0.020376608 0.012615827 0.01701554 0.028112972 0.025805587 0.016436443
-0.0014913374 0.025704581 0.018263042 0.013410085 0.0078661 0.03832004 0.01319173 0.038335074
00000000: df1f 4d3b bae7 b23c a78b 3bbb 0501 2e3c
00000010: e3c3 16bc 88a8 0d3d a8fe 4d3c 0161 123d
00000020: b731 233d 675c a93c 54b9 a13c cc9f 3b3c
00000030: ec0e b63c 5989 5c3c ffaa ac3c 5f19 1b3d
00000040: b4d2 19bc 3c4a 9bbc 5fac 0c3d 0f98 b03c
00000050: 8ea6 1f3d d62d 20bc 124b 003c f735 4f3c
00000060: e80f c03c 9e26 ea3c d8ec a63c 9db2 4e3c
00000070: 2c64 8b3c 2d4d e63c 3d66 d33c b8a5 863c
00000080: fb78 c3ba 6a92 d23c 609c 953c f9b5 5b3c
00000090: d1e0 003c 79f5 1c3d 2022 583c 3d05 1d3d

main.7.running_mean f4 [40]
-0.20241353 -0.71578735 0.7525414 0.59361166 -0.080839574 -0.97856516 0.9277845 -0.6410283
-0.6351731 -0.5843637 -0.35404858 0.08561951 -0.42605206 -0.12204161 0.5621359 -0.55299836
0.2870506 0.1306676 -0.7354187 -0.55883694 -0.76410574 0.13208884 0.93438697 0.55863446
0.08101731 -0.7715512 0.77529603 0.81455773 0.7846621 -0.6808479 0.24636203 -0.29508626
0.20649454 -0.5184436 0.49222675 -0.58555377 0.83328897 0.023502922 0.98123676 -0.54097366
00000000: 7e45 4fbe d73d 37bf 8ea6 403f eff6 173f
00000010: 388f a5bd 3f83 7abf 4983 6d3f 6e1a 24bf
00000020: b49a 22bf dc98 15bf db45 b5be 4859 af3d
00000030: 7f23 dabe f4f0 f9bd 23e8 0f3f 4d91 0dbf
00000040: 4cf8 923e bacd 053e 6644 3cbf f00f 0fbf
00000050: 6f9c 43bf 4c42 073e fc33 6f3f ab02 0f3f
00000060: 67ec a53d 6184 45bf cd79 463f db86 503f
00000070: 9edf 483f 0c4c 2ebf 5446 7c3e 8c15 97be
00000080: 4e73 533e b8b8 04bf 2505 fc3e dae6 15bf
00000090: 6d52 553f 3389 c03c 5532 7b3f 407d 0abf

main.7.running_var f4 [40]
0.39538983 0.5386941 0.36452377 0.29604912 0.42116433 0.5440472 0.40560952 0.32182628
0.30336803 0.34062436 0.24828926 0.6557739 0.25050607 0.18133457 0.27208027 0.6536719
0.20119162 0.3224767 0.24926172 0.25174963 0.5101262 0.2758485 0.33850092 0.6369572
0.8582642 0.33518466 0.3887115 0.23610616 0.26405236 0.27264136 0.6604759 0.54901123
0.11254125 0.5180132 0.20555623 0.47013402 0.44898424 0.2929884 0.33481288 0.57120717
00000000: 8970 ca3e dbe7 093f dca2 ba3e c093 973e
00000010: daa2 d73e ad46 0b3f 0dac cf3e 6ac6 a43e
00000020: 0e53 9b3e 5166 ae3e 8a3f 7e3e cce0 273f
00000030: 5542 803e c5af 393e 1b4e 8b3e 0b57 273f
00000040: 2d05 4e3e ab1b a53e 773e 7f3e 54e5 803e
00000050: a197 023f 043c 8d3e fe4f ad3e a10f 233f
00000060: 34b7 5b3f 539d ab3e 3205 c73e d0c5 713e
00000070: df31 873e a697 8b3e f314 293f 008c 0c3f
00000080: 077c e63d 839c 043f 557d 523e 68b5 f03e
00000090: 43e1 e53e 9302 963e 986c ab3e a23a 123f

main.10.weight f4 [180, 360]
-0.08369104 0.0349711 0.0026481722 0.05036324 -0.016764566 -0.017646609 0.03440536 -0.03380804
0.02321721 -0.019978886 0.062924854 0.013525387 -0.030601231 0.0960271 -0.031243952 0.06593644
0.036566895 -0.023677744 0.07557193 0.016441032 0.019490635 -0.035265733 -0.013768574 -0.006989758
0.07682745 -0.08577248 -0.0075684525 0.045973964 -0.06015569 -0.0064470624 0.022144658 -0.015906028
0.03261111 0.05139999 0.04867349 -0.008070472 0.017034063 -0.0013355225 0.023727592 -0.061442677
-0.026356034 -0.056380887 -0.041758534 -0.002897861 -0.055975597 -0.09096341 0.034619063 0.010650022
-0.10853191 -0.055631794 0.04813006 -0.021565689 -0.0047645345 0.046769828 0.04359993 -0.05372854
-0.030758519 0.06396421 -0.048577257 0.04112379 0.09603391 -0.041958924 -0.022790354 0.021538936
0.019396933 0.012711793 0.043534204 0.052234247 0.021387063 0.023662772 0.009039859 0.042711537
0.0550323 0.057322703 0.051388554 0.0088417735 0.08314598 0.0009691228 0.15233247 0.048447926
-0.011851948 -0.014294912 -0.038604774 0.029694153 -0.022627778 0.03135714 0.0009677593 -0.044374887
-0.04353355 0.039212905 0.036792524 0.07978209 0.04000592 -0.025397833 -0.029350312 -0.00569062
-0.04303006 -0.07186082 -0.02992034 0.03827269 -0.084090896 -0.012300876 0.05040343 -0.05371774
-0.060676705 0.09532358 0.018346341 -0.016564116 -0.057302278 0.023781378 0.027061125 0.018414771
-0.02210849 -0.010063596 -0.072720155 0.038548164 -0.06743481 -0.06805365 -0.07797106 0.07721977
-0.030538311 0.040894195 0.04482722 0.10062324 0.07874414 0.0888072 0.087169245 0.08561938
-0.047349107 0.093966804 0.095991604 -0.025741292 0.038343836 0.034670822 -0.034216058 0.033158723
-0.013328289 -0.0094518205 -0.027313353 -0.009401186 -0.04788195 0.043547142 0.11186184 -0.03141029
0.014409297 0.088921405 -0.07297909 -0.04121532 0.09336284 0.03051083 -0.02159733 0.03855107
0.000105640494 0.052866496 0.00186861 0.10326326 -0.067017816 0.03722077 -0.02674983 -0.0021680398
-0.046454296 -0.026255103 -0.042869665 0.101252586 -0.026164852 0.03284373 0.009126769 -0.04145087
-0.09120408 0.07354977 0.023422142 -0.06269597 0.04315122 -0.02510757 -0.068164095 -0.1376111
-0.025137274 -0.016613362 -0.034285687 0.056940623 0.02120716 0.10590477 0.07920435 0.08364064
0.106192455 0.031126356 -0.010558963 0.08850588 0.024744567 -0.038734443 -0.029523406 0.023214519
-0.045161627 -0.043371707 0.00093975477 -0.014253278 -0.013056381 0.009597668 0.084477775 0.003313896
-0.011254191 0.055849027 0.00357058 -0.015455517 -0.049498662 -0.014351641 0.057507187 0.07010535
0.072973624 0.028704355 -0.008758715 -0.0022886673 0.04707619 0.139594 0.058447964 -0.0058136047
0.04066634 0.04446238 0.0284068 0.035034478 0.028029967 -0.02766978 0.04423608 0.004805871
-0.015008706 -0.043517318 0.06408995 -0.0036518553 -0.06796024 -0.103803456 0.05633997 -0.07417415
-0.09481202 0.024833567 0.034683883 0.089856744 0.055437624 0.1413822 0.108452894 -0.018458284
0.10498999 -0.020780915 -0.037183836 0.10894672 0.07751101 -0.019342821 0.023932585 0.057297938
0.08240824 0.03378925 -0.06148251 0.009176151 0.12625445 0.009458971 -0.046820782 -0.008347835
00000000: 3566 abbd db3d 0f3d f58c 2d3b af49 4e3d
00000010: d855 89bc 9f8f 90bc a3ec 0c3d 4d7a 0abd
00000020: 0532 be3c c3aa a3bc bfde 803d 9699 5d3c
00000030: 6faf fabc dba9 c43d 51f3 ffbc af09 873d
00000040: 2bc7 153d d4f7 c1bc 75c5 9a3d 58af 863c
00000050: d3aa 9f3c cd72 10bd 9695 61bc 570a e5bb
00000060: b657 9d3d 7ba9 afbd c800 f8bb 324f 3c3d
00000070: d065 76bd e141 d3bb b768 b53c 5c4d 82bc
00000080: 3a93 053d cc88 523d da5d 473d 033a 04bc
00000090: 058b 8b3c b30c afba 5e60 c23c 51ab 7bbd
000000a0: 9ce8 d7bc a5ef 66bd ff0a 2bbd 0aea 3dbb
000000b0: ab46 65bd 064b babd b8cc 0d3d 6e7d 2e3c
000000c0: fa45 debd 2ade 63bd 0724 453d 87aa b0bc
000000d0: d01f 9cbb b891 3f3d d795 323d 7512 5cbd
000000e0: 4af9 fbbc abff 823d f2f8 46bd 6b71 283d
000000f0: 6dad c43d 1fdd 2bbd d6b2 babc 6c72 b03c
00000100: 51e6 9e3c 2045 503c ec50 323d 94f3 553d
00000110: ec33 af3c 6ed8 c13c eb1b 143c 4bf2 2e3d
00000120: 8d69 613d 36cb 6a3d ce7c 523d 16dd 103c
00000130: 7148 aa3d bb0c 7e3a 0bfd 1b3e 5571 463d
00000140: ac2e 42bc 3535 6abc 0a20 1ebd 2741 f33c
00000150: e45d b9bc 5870 003d 3ab1 7d3a 71c2 35bd
00000160: 3c50 32bd b69d 203d c2b3 163d cb64 a33d
00000170: 3fdd 233d 1e0f d0bc 1170 f0bc 6178 babb
00000180: 4a40 30bd c42b 93bd 801b f5bc d3c3 1c3d
00000190: d937 acbd 9d89 49bc d473 4e3d 2207 5cbd
000001a0: 2388 78bd 0239 c33d 114b 963c 78b1 87bc
000001b0: cbb5 6abd 2ad1 c23c 4baf dd3c 93da 963c
000001c0: dd1c b5bc c8e1 24bc 4eee 94bd aee4 1d3d
000001d0: 431b 8abd b65f 8bbd 4baf 9fbd 6625 9e3d
000001e0: 7b2b fabc ac80 273d bf9c 373d 8f13 ce3d
000001f0: 9c44 a13d 8de0 b53d ca85 b23d 3759 af3d
00000200: 23f1 41bd ab71 c03d 3f97 c43d 67df d2bc
00000210: 6d0e 1d3d fe02 0e3d 2326 0cbd 71d1 073d
00000220: e55e 5abc cfdb 1abc 41c0 dfbc 6f07 1abc
00000230: dd1f 44bd 7d5e 323d d217 e53d 14a8 00bd
00000240: f914 6c3c 6d1c b63d 1076 95bd 65d1 28bd
00000250: 0435 bf3d d9f1 f93c e2ec b0bc bae7 1d3d
00000260: 4f8b dd38 8a8a 583d 26ec f43a b07b d33d
00000270: a340 89bd ce74 183d 7622 dbbc ac15 0ebb
00000280: dc46 3ebd f114 d7bc 1a98 2fbd 845d cf3d
00000290: ac57 d6bc 2687 063d 7288 153c 63c8 29bd
000002a0: 34c9 babd 43a1 963d cbdf bf3c bf66 80bd
000002b0: 55bf 303d 64ae cdbc 9e99 8bbd ede9 0cbe
000002c0: afec cdbc bf18 88bc 266f 0cbd 923a 693d
000002d0: a3ba ad3c 9ae4 d83d e435 a23d c94b ab3d
000002e0: 6e7b d93d b3fc fe3c 80ff 2cbc 9242 b53d
000002f0: 1eb5 ca3c 02a8 1ebd 12db f1bc 602c be3c
00000300: 66fb 38bd 88a6 31bd e059 763a 9586 69bc
00000310: 6eea 55bc 8a3f 1d3c af02 ad3d f32d 593b
00000320: 8063 38bc f3c1 643d 6400 6a3b 2339 7dbc
00000330: 1cbf 4abd 2523 6bbc a88c 6b3d 6593 8f3d
00000340: 3273 953d 6525 eb3c b780 0fbc 77fd 15bb
00000350: f7d2 403d bbf1 0e3e 2267 6f3d 0d80 bebb
00000360: c091 263d 2f1e 363d 61b5 e83c 5080 0f3d
00000370: 1a9f e53c bcab e2bc e430 353d 917a 9d3b
00000380: 13e7 75bc 373f 32bd 9741 833d f753 6fbb
00000390: bd2e 8bbd e896 d4bd bec4 663d 9ee8 97bd
000003a0: ce2c c2bd c46f cb3c b010 0e3d d006 b83d
000003b0: 9012 633d 7fc6 103e 8d1c de3d d435 97bc
000003c0: fe04 d73d bd3c aabc 144e 18bd 751f df3d
000003d0: 18be 9e3d d674 9ebc 450e c43c 3eb1 6a3d
000003e0: a7c5 a83d 9966 0a3d 16d5 7bbd 9157 163c
000003f0: d948 013e cdf9 1a3c 26c7 3fbd 5cc5 08bc

main.12.weight f4 [90, 180]
0.08366884 -0.058861464 0.048337333 -0.033092935 -0.1368619 0.037231427 -0.04395732 -0.08167579
-0.040877722 0.06712965 -0.07690071 0.032224018 0.04076395 -0.05441293 0.0053436323 0.03527995
0.03252942 0.07319318 0.0024610118 -0.060679104 0.032418787 0.03731896 -0.080053695 -0.04676629
0.010512543 -0.034114726 0.052212495 -0.03887135 -0.066221364 0.012386776 0.0802896 -0.015965125
0.07361179 0.024679935 -0.024498345 -0.06264882 0.0074959034 -0.031266466 -0.041223273 0.0936761
0.0257937 -0.03016675 0.081302196 0.041082386 -0.029464154 -0.039299257 0.0091898125 0.08039497
0.05661772 -0.032259814 -0.07972528 0.05705782 0.025762822 0.028167764 0.090991355 0.0022471563
-0.03990757 -0.04000547 0.10272002 -0.02731689 -0.038986705 0.05636638 0.062209547 0.12842515
0.069500394 0.0043542474 0.005849486 0.022796009 0.044566758 0.0027727722 -0.055226665 0.04358917
-0.096142545 0.04721314 0.07490179 -0.023006797 -0.029346205 0.031866573 0.012287908 0.07747753
-0.050696794 -0.14231196 0.038001444 -0.052549597 0.050495267 -0.04123826 0.03118039 0.07224914
0.08768344 -0.015222628 -0.002609417 0.016856862 -0.026325531 -0.03755298 0.06357084 0.04555536
0.007324227 0.01274664 -0.036867954 0.025811233 -0.10302591 -0.084399745 0.00029827145 -0.07521557
-0.011704053 0.01731388 -0.039217174 0.08315276 -0.043488484 -0.0061671752 0.038721424 0.10655183
0.08206185 -0.020505792 -0.025426507 -0.047558196 0.052657474 -0.0017720422 -0.016307151 0.03720185
-0.039831262 0.02081441 0.016210323 -0.038380466 0.0104784025 0.067865774 -0.056201264 -0.05396793
-0.037204165 0.0147204865 -0.054689046 0.067850925 0.051930077 0.055599447 -0.042422023 -0.040299445
0.006094403 0.03811647 -0.016677484 0.065731816 0.022101214 0.01821101 -0.022146292 -0.00042509753
0.0035220208 -0.0020676507 -0.086630896 -0.0043464783 0.0475988 -0.008202435 0.04835731 -0.08944884
0.0014588743 0.06813583 0.02069522 0.03619144 0.03397512 -0.015948746 0.0768601 0.06424761
-0.0150177935 -0.052717883 0.012301787 0.11866102 0.02512326 0.04316832 -0.049034737 0.054841384
0.017645791 -0.02818566 0.061101425 0.0007204369 0.078551434 0.027792733 0.025803974 -0.058510613
0.0761411 0.023461327 -0.08734011 0.049486764 -0.07596452 0.07636043 -0.06449673 0.0646566
0.12888512 0.037424225 0.07173921 0.029324252 0.097458586 0.030123122 -0.01023725 -0.03063769
-0.09045231 -0.09046489 0.06433784 0.029654643 -0.01740574 0.009060642 0.047510903 0.008460916
-0.04573911 -0.013749876 0.003365198 -0.029181331 0.0037226835 -0.01957468 0.014323249 0.097886845
-0.062340297 -0.044769317 -0.06025294 -0.046076562 0.027398746 0.0296776 -0.0234126 -0.0072370977
0.0184964 -0.017406566 0.0864599 0.052623533 -0.0049031302 0.05335216 -0.05112083 0.046931766
-0.010286788 0.036735952 0.048091747 -0.03655368 0.00036585855 -0.08788154 -0.04072641 -0.048639294
-0.023087034 0.053764265 0.055806257 0.024420524 0.09165253 0.038706526 -0.08376917 0.045557436
-0.014807261 -0.041386265 0.048796758 -0.05531815 0.071932964 -0.10566022 -0.082476065 0.01579542
0.0431223 0.028606582 -0.016361605 -0.019049892 0.032400694 -0.04403281 -0.044090096 0.02818168
00000000: 925a ab3d b818 71bd 5efd 453d 758c 07bd
00000010: 8725 0cbe fb7f 183d 970c 34bd a345 a7bd
00000020: 666f 27bd 457b 893d 1f7e 9dbd 55fd 033d
00000030: 1af8 263d 18e0 5ebd a319 af3b b581 103d
00000040: 923d 053d 4ee6 953d ed48 213b a78a 78bd
00000050: 90c9 043d c4db 183d 31f3 a3bd 028e 3fbd
00000060: cd3c 2c3c e2bb 0bbd c5dc 553d 9137 1fbd
00000070: 119f 87bd e7f1 4a3c e06e a43d 4bc9 82bc
00000080: c7c1 963d 932d ca3c c1b0 c8bc 064e 80bd
00000090: 32a0 f53b 4411 00bd bcd9 28bd 41d9 bf3d
000000a0: 4f4d d33c 4320 f7bc c481 a63d 0146 283d
000000b0: cf5e f1bc 42f8 20bd de90 163c 1ea6 a43d
000000c0: fbe7 673d de22 04bd 0247 a3bd 76b5 693d
000000d0: 8e0c d33c 15c0 e63c ad59 ba3d 0745 133b
000000e0: 1f76 23bd c7dc 23bd e05e d23d acc7 dfbc
000000f0: 86b0 1fbd 6fe0 663d 70cf 7e3d e281 033e
00000100: 3956 8e3d 13ae 8e3b 0cad bf3b b2be ba3c
00000110: a28b 363d 66b7 353b 5b35 62bd 8f8a 323d
00000120: 62e6 c4bd 9162 413d 1c66 993d c078 bcbc
00000130: 7467 f0bc 8686 023d 3953 493c 8aac 9e3d
00000140: 71a7 4fbd 3aba 11be 67a7 1b3d 3f3e 57bd
00000150: 20d4 4e3d 73e9 28bd 046e ff3c 5bf7 933d
00000160: 6093 b33d 5468 79bc c102 2bbb 6717 8a3c
00000170: a4a8 d7bc 27d1 19bd 6e31 823d 4298 3a3d
00000180: 1200 f03b 48d7 503c da02 17bd 1472 d33c
00000190: 40ff d2bd c6d9 acbd 5161 9c39 9f0a 9abd
000001a0: 5bc2 3fbc d7d5 8d3c 30a2 20bd ff4b aa3d
000001b0: fb20 32bd 0416 cabb 5b9a 1e3d d937 da3d
000001c0: 0b10 a83d c3fb a7bc 404b d0bc 62cc 42bd
000001d0: 5daf 573d df43 e8ba 9396 85bc f860 183d
000001e0: 1b26 23bd fb82 aa3c 83cb 843c d634 1dbd
000001f0: 9bad 2b3c 36fd 8a3d 4c33 66bd 7a0d 5dbd
00000200: 6563 18bd 322e 713c 9f01 60bd 6df5 8a3d
00000210: a2b4 543d 3fbc 633d b7c2 2dbd 0811 25bd
00000220: 8fb3 c73b 0420 1c3d 389f 88bc 679e 863d
00000230: 9b0d b53c 422f 953c 246c b5bc a0df deb9
00000240: b4d1 663b 6c81 07bb 8a6b b1bd e76c 8ebb
00000250: f6f6 423d 8263 06bc 5112 463d f430 b7bd
00000260: b337 bf3a cc8a 8b3d 0689 a93c 7a3d 143d
00000270: 7f29 0b3d f2a6 82bc d468 9d3d 4094 833d
00000280: 310d 76bc b5ee 57bd 6f8d 493c 8d04 f33d
00000290: 4ccf cd3c 44d1 303d a6d8 48bd 5ca1 603d
000002a0: e88d 903c 9de5 e6bc 7d45 7a3d b4db 3c3a
000002b0: 93df a03d 96ad e33c db62 d33c d3a8 6fbd
000002c0: ddef 9b3d f831 c03c 5fdf b2bd a2b2 4a3d
000002d0: 4993 9bbd db62 9c3d dd16 84bd ae6a 843d
000002e0: 76fa 033e 254a 193d 02ec 923d 6a39 f03c
000002f0: 5e98 c73d c4c4 f63c 23ba 27bc e5fb fabc
00000300: 103f b9bd a845 b9bd 8fc3 833d 4bee f23c
00000310: 7c96 8ebc 1673 143c cb9a 423d a79f 0a3c
00000320: ef58 3bbd 2947 61bc a78a 5c3b b00d efbc
00000330: 44f8 733b 145b a0bc 10ac 6a3c e678 c83d
00000340: 8a58 7fbd 0860 37bd c9cb 76bd c7ba 3cbd
00000350: 5673 e03c 701e f33c c8cb bfbc 2d25 edbb
00000360: c385 973c 3798 8ebc e311 b13d c68b 573d
00000370: 70aa a0bb cb87 5a3d 1364 51bd 863b 403d
00000380: eb89 28bc 7078 163d dafb 443d 50b9 15bd
00000390: b4d0 bf39 3dfb b3bd bcd0 26bd ff39 47bd
000003a0: 0521 bdbc eb37 5c3d 1a95 643d 8d0d c83c
000003b0: 52b4 bb3d bc8a 1e3d 2c8f abbd 6f9a 3a3d
000003c0: 279a 72bc a584 29bd 1cdf 473d 4995 62bd
000003d0: 9751 933d 6364 d8bd 36e9 a8bd 6665 813c
000003e0: 02a1 303d 5a58 ea3c c608 86bc 850e 9cbc
000003f0: 97b6 043d bf5b 34bd d197 34bd 44dd e63c

main.14.weight f4 [45, 90]
-0.0036422203 -0.06278905 -0.029884547 0.09050809 0.06831771 -0.118093975 0.06031066 -0.017048094
0.041999366 0.053925734 -0.1722549 -0.10545125 -0.00087939214 -0.091229714 0.110042445 -0.018011784
0.07519106 0.11387389 -0.07818148 -0.029524885 -0.116530895 -0.020683262 -0.079549536 -0.06899816
0.040620018 -0.034668446 0.073715456 0.021666141 0.014184633 0.035837542 -0.09857913 0.03974478
-0.005905833 0.12539907 0.029264947 0.0010789151 0.12427118 -0.057941288 -0.04677065 -0.114071
0.053511158 -0.026267583 -0.032181635 -0.14537586 -0.12841226 0.117303126 0.035449732 -0.09217773
-0.086154535 -0.013620463 -0.0022667411 0.10732674 -0.09468714 -0.005010709 0.0697957 -0.02845478
0.06726641 0.104155 -0.021505952 -0.051853016 -0.038719945 0.023904707 -0.100614816 -0.023551764
0.07226193 -0.08409768 -0.1167141 -0.009281895 0.11197265 0.09622527 -0.117626466 -0.07526488
-0.030674176 -0.04546712 0.07498438 0.10977869 -0.016459161 -0.052416164 0.11439343 0.12134966
0.025627745 -0.031718746 0.01504118 -0.075080335 0.059110247 -0.030078331 -0.010115794 -0.012676312
0.00044620046 -0.036143273 0.10630038 0.05731002 -0.061150685 0.06997039 -0.05631287 -0.010921491
-0.04707582 -0.05859938 -0.14490838 -0.026200945 -0.11709822 -0.004181076 -0.0380728 0.14048055
0.060644172 -0.076834045 0.03761547 0.13580765 0.07295878 -0.07773367 0.0672387 -0.073544286
0.07365568 0.11641711 -0.0064105727 -0.05108985 -0.04567719 0.007764731 -0.036843047 0.10755518
-0.13239254 -0.021107893 0.095237345 0.09628396 0.11928665 0.038357154 0.08032344 0.099385634
0.058274888 0.07642072 0.03200153 -0.031824306 0.06297572 -0.11698225 0.021322535 0.13984644
-0.086140685 0.13893823 -0.05138554 -0.10523732 0.07725646 -0.06465545 -0.113495216 0.10203037
-0.018769497 -0.024143673 0.009005353 -0.0487214 0.0153075745 0.008289406 -0.016203474 -0.07708978
-0.04626398 0.059435587 -0.10333966 0.1327379 -0.07812315 0.09140878 0.13318375 0.083190285
0.0012358241 -0.13395964 0.02779326 -0.029708678 0.052083336 0.09501474 0.012900641 0.11495365
-0.050799437 0.037208736 -0.00946897 -0.016237784 0.04216573 0.01498277 0.13761549 -0.057896174
0.084893376 -0.034935903 -0.07349055 0.052745987 -0.0015529089 0.053722873 -0.047974594 -0.040982727
-0.12642804 0.022442047 -0.13660407 0.015269129 0.13277394 -0.06068543 0.11772414 0.14655635
0.08340755 -0.03722448 -0.08670566 0.08273018 0.041405402 -0.011622424 0.024887184 -0.03657152
0.115175426 0.14695153 0.098429605 0.041205637 -0.09958162 0.023384672 -0.03640615 0.124785446
0.0057479716 -0.034314487 0.13076682 0.07481274 -0.09601968 0.06919272 -0.053150427 0.011604941
0.067614265 -0.06303754 -0.0030255076 0.022462992 -0.07540848 0.042513818 -0.028581433 0.039331216
0.13073365 -0.07698237 0.10950016 -0.056393012 0.14847343 0.0419558 0.016809152 0.0051906165
0.11598742 -0.011841673 -0.105374455 -0.018065615 -0.024773514 0.037009712 0.109959945 -0.106927626
-0.08986383 0.031734932 0.08894349 -0.10453807 -0.012353949 -0.023042427 0.004738842 -0.009083781
0.061530028 0.07025523 0.002911792 0.08402471 -0.0618261 -0.029983927 0.054118842 -0.091391675
00000000: 51b2 6ebb 8c97 80bd 70d0 f4bc 4e5c b93d
00000010: 28ea 8b3d 41db f1bd 5008 773d 72a8 8bbc
00000020: 8707 2c3d 3be1 5c3d 9763 30be d3f6 d7bd
00000030: 0287 66ba a5d6 babd ef5d e13d 738d 93bc
00000040: c5fd 993d b736 e93d 9d1d a0bd 2cde f1bc
00000050: c0a7 eebd f26f a9bc deea a2bd e84e 8dbd
00000060: 2d61 263d 8000 0ebd 21f8 963d 317d b13c
00000070: aa66 683c 63ca 123d dbe3 c9bd 6ccb 223d
00000080: b885 c1bb 9d68 003e 0bbd ef3c 626a 8d3a
00000090: e381 fe3d d853 6dbd 9592 3fbd 0e9e e9bd
000000a0: 842e 5b3d 1d2f d7bc e4d0 03bd 69dd 14be
000000b0: 817e 03be 9f3c f03d bd33 113d adc7 bcbd
000000c0: ca71 b0bd 5d28 5fbc 9b8d 14bb 1fce db3d
000000d0: 55eb c1bd e030 a4bb 0cf1 8e3d 001a e9bc
000000e0: f9c2 893d 374f d53d 402d b0bc d463 54bd
000000f0: ce98 1ebd ced3 c33c 240f cebd a1ef c0bc
00000100: 10fe 933d 683b acbd cd07 efbd 1713 18bc
00000110: eb51 e53d c111 c53d 25e6 f0bd 7924 9abd
00000120: 6948 fbbc bb3b 3abd 6991 993d a6d3 e03d
00000130: 5dd5 86bc 55b2 56bd 1a47 ea3d 2c86 f83d
00000140: 47f1 d13c 84eb 01bd 486f 763c b8c3 99bd
00000150: 961d 723d d566 f6bc b7bc 25bc 4eb0 4fbc
00000160: 03f0 e939 f80a 14bd 03b4 d93d e9bd 6a3d
00000170: 2479 7abd a34c 8f3d 53a8 66bd 0ef0 32bc
00000180: 93d2 40bd e705 70bd dd62 14be 5da3 d6bc
00000190: 31d1 efbd 6801 89bb 39f2 1bbd 22da 0f3e
000001a0: 0666 783d 2b5b 9dbd ae12 1a3d 2911 0b3e
000001b0: 6a6b 953d d532 9fbd 72b4 893d 639e 96bd
000001c0: cad8 963d 186c ee3d c80f d2bb 9743 51bd
000001d0: 0118 3bbd 496f fe3b bce8 16bd e445 dc3d
000001e0: e991 07be 76ea acbc cc0b c33d 8630 c53d
000001f0: 8f4c f43d 641c 1d3d 9e80 a43d b28a cb3d
00000200: a6b1 6e3d 7782 9c3d 0914 033d 345a 02bd
00000210: 6af9 803d 6494 efbd 99ac ae3c e833 0f3e
00000220: 876a b0bd d345 0e3e a579 52bd aa86 d7bd
00000230: a338 9e3d 146a 84bd 2e70 e8bd 4cf5 d03d
00000240: 7dc2 99bc f4c8 c5bc 308b 133c 1790 47bd
00000250: 9fcc 7a3c 4ad0 073c 26bd 84bc 3fe1 9dbd
00000260: 4d7f 3dbd bb72 733d bea3 d3bd 72ec 073e
00000270: 08ff 9fbd 8734 bb3d 5261 083e ab5f aa3d
00000280: 60fb a13a b72c 09be b1ae e33c 9d5f f3bc
00000290: 5655 553d 1797 c23d 365d 533c d26c eb3d
000002a0: 1213 50bd 3068 183d bd23 1bbc 1a05 85bc
000002b0: f9b5 2c3d 4b7a 753c 13eb 0c3e 8a24 6dbd
000002c0: 94dc ad3d f318 0fbd 3782 96bd 2d0c 583d
000002d0: fa8a cbba 840c 5c3d 0281 44bd 81dd 27bd
000002e0: 5a76 01be 62d8 b73c f0e1 0bbe 5e2b 7a3c
000002f0: e4f5 073e 4991 78bd 5b19 f13d de12 163e
00000300: 94d1 aa3d b278 18bd bd92 b1bd 716e a93d
00000310: b698 293d fb6b 3ebc 35e0 cb3c 05cc 15bd
00000320: 18e1 eb3d 767a 163e 7695 c93d 3ec7 283d
00000330: 73f1 cbbd 3691 bf3c 9d1e 15bd 838f ff3d
00000340: 7b59 bc3b 598d 0cbd bde7 053e 6c37 993d
00000350: f7a5 c4bd eab4 8d3d 43b4 59bd a722 3e3c
00000360: 5979 8a3d d319 81bd 9847 46bb 4f04 b83c
00000370: c36f 9abd f822 2e3d 9c23 eabc c519 213d
00000380: 0bdf 053e efa8 9dbd 9f41 e03d 5cfc 66bd
00000390: 6b09 183e d8d9 2b3d 59b3 893c 0c16 aa3b
000003a0: d08a ed3d 9403 42bc 90ce d7bd 57fe 93bc
000003b0: d3f1 cabc 7f97 173d ae32 e13d dffc dabd
000003c0: 870a b8bd 7dfc 013d 0128 b63d 0e18 d6bd
000003d0: 3868 4abc 79c3 bcbc 4a48 9b3b 24d4 14bc
000003e0: e906 7c3d f9e1 8f3d c3d3 3e3b 2615 ac3d
000003f0: 5d3d 7dbd daa0 f5bc b8ab 5d3d 8f2b bbbd

main.16.weight f4 [4, 45]
-0.038765658 -0.09876177 0.12180578 0.120998554 0.08178425 -0.16315894 0.14628224 -0.08319378
-0.11471169 -0.1690301 0.07680963 -0.1286539 -0.03904276 -0.1228768 -0.086903326 0.12926096
-0.02643032 0.009506395 -0.0348351 -0.08529737 0.018018123 -0.09125053 0.16235217 -0.034968182
-0.14330338 0.14800261 0.13665594 -0.105384365 -0.20422302 0.06569685 -0.10567268 0.13806812
-0.18966435 -0.16518815 0.048618004 -0.12580588 0.08622545 0.07480831 0.12932542 -0.07588081
0.095590845 0.03890508 -0.09901824 0.053645432 -0.104800045 0.0057457346 0.114343055 -0.06980973
0.055272877 -0.1364589 -0.0312667 -0.13046588 0.15285785 -0.011441274 0.21037346 -0.038639504
-0.07481222 -0.049811006 0.09426089 -0.0832063 -0.15179087 -0.15541495 0.10767079 0.09027189
0.08612101 -0.13252448 -0.076410495 0.098067075 -0.18461654 -0.14204572 -0.07614826 -0.14955069
0.13882403 -0.048026074 -0.19229212 -0.06830306 -0.08978411 0.015274866 -0.1500487 0.0070510283
0.036534928 0.1208591 -0.17781052 -0.10199391 0.21197967 -0.06256714 -0.16406454 -0.056904964
-0.03943492 -0.15702772 0.16345905 0.064582564 -0.111043476 -0.04722551 0.08985088 -0.022924727
-0.13581935 0.08543694 0.111380994 -0.122308105 -0.17995752 -0.065745205 0.089581385 -0.12198205
0.043770026 -0.14104068 0.16266045 -0.041135125 0.16375457 0.052585524 0.08056849 0.07414539
0.09267007 0.07896485 0.09808147 -0.0015635826 0.096392706 -0.10731884 -0.06022807 0.10635157
0.046593703 -0.0028125988 0.08807372 -0.06755786 0.12100622 0.0821673 -0.16731134 0.07187325
0.08772866 -0.09405135 0.0703562 0.081025414 -0.16901529 0.025857782 -0.07986111 0.09293334
-0.1933253 -0.12985104 -0.1792246 -0.10349682 -0.09160703 -0.05166972 -0.17672488 -0.0038700083
-0.1623029 0.1731527 0.13944502 -0.022943305 -0.038200237 0.12392932 0.0019333943 0.0937371
0.18483067 -0.0129161915 0.14884812 -0.0528717 -0.13575408 0.07992949 0.14590514 -0.0797899
-0.150788 -0.08039672 0.027055295 0.14169542 -0.038005274 0.10278811 -0.071004525 0.06431832
-0.10738907 0.13340044 -0.026828585 0.06977779 0.07247796 0.064193875 0.017587304 -0.20360695
-0.19093156 0.06425691 -0.15102662 0.038163114
00000000: bdc8 1ebd 9c43 cabd 4f75 f93d 17ce f73d
00000010: 807e a73d 2313 27be 03cb 153e 8061 aabd
00000020: f6ed eabd 3a16 2dbe 5e4e 9d3d d9bd 03be
00000030: 4deb 1fbd d5a6 fbbd 5ffa b1bd fc5c 043e
00000040: 6684 d8bc b6c0 1b3c 40af 0ebd 63b0 aebd
00000050: be9a 933c 8fe1 babd a63f 263e cc3a 0fbd
00000060: 1fbe 12be ff8d 173e 89ef 0b3e c2d3 d7bd
00000070: d71f 51be 128c 863d eb6a d8bd bb61 0d3e
00000080: 5f37 42be 1527 29be ac23 473d 42d3 00be
00000090: f896 b03d 1935 993d e26d 043e 6667 9bbd
000000a0: 22c5 c33d ef5a 1f3d 13ca cabd 50bb 5b3d
000000b0: 68a1 d6bd b746 bc3b b12c ea3d 67f8 8ebd
000000c0: d065 623d e2bb 0bbe 8311 00bd d998 05be
000000d0: c586 1c3e 2e74 3bbc 246c 573e 7544 1ebd
000000e0: 2637 99bd a006 4cbd da0b c13d 1168 aabd
000000f0: 116f 1bbe 1925 1fbe 8182 dc3d 78e0 b83d
00000100: 3660 b03d 7fb4 07be 1b7d 9cbd 64d7 c83d
00000110: 1e0c 3dbe 6f74 11be 9ef3 9bbd d123 19be
00000120: e327 0e3e fdb6 44bd 3ae8 44be 7ae2 8bbd
00000130: bbe0 b7bd 6e43 7a3c 5ea6 19be 500c e73b
00000140: a6a5 153d fa84 f73d f613 36be 2fe2 d0bd
00000150: 3311 593e 3323 80bd 8900 28be 2e15 69bd
00000160: 8386 21bd e0cb 20be cf61 273e dd43 843d
00000170: c36a e3bd 896f 41bd bd03 b83d a3cc bbbc
00000180: 3a14 0bbe 90f9 ae3d b81b e43d ac7c fabd
00000190: c946 38be 6ca5 86bd 7276 b73d bad1 f9bd
000001a0: 3348 333d f86c 10be 7690 263e 4e7d 28bd
000001b0: 47af 273e eb63 573d 1801 a53d 8ad9 973d
000001c0: cec9 bd3d 53b8 a13d f0de c83d 20f1 ccba
000001d0: 8a69 c53d fbc9 dbbd b5b1 76bd dace d93d
000001e0: 0ad9 3e3d 9453 38bb ff5f b43d c65b 8abd
000001f0: 1cd2 f73d 5447 a83d aa53 2bbe 4832 933d
00000200: 15ab b33d ff9d c0bd e916 903d a7f0 a53d
00000210: 5812 2dbe b3d3 d33c 398e a3bd d653 be3d
00000220: 11f7 45be acf7 04be a786 37be 24f6 d3bd
00000230: 779c bbbd a1a3 53bd 5ef7 34be f79f 7dbb
00000240: bb32 26be f14e 313e adca 0e3e 99f3 bbbc
00000250: da77 1cbd a8ce fd3d f369 fd3a 3df9 bf3d
00000260: 4044 3d3e 6f9e 53bc a46b 183e ff8f 58bd
00000270: 1e03 0bbe 13b2 a33d 2868 153e e368 a3bd
00000280: 2b68 1abe 09a7 a4bd 11a3 dd3c 9b18 113e
00000290: 6bab 1bbd 9382 d23d d26a 91bd 53b9 833d
000002a0: cdee dbbd 209a 083e 9fc7 dbbc a8e7 8e3d
000002b0: 536f 943d 1478 833d 4013 903c 577e 50be
000002c0: 9083 43be 2099 833d b9a6 1abe ed50 1c3d
