submission/code/models/penneAlbologneseEPesto2.pth (torch, 413042 bytes, 15 tensors)

main.0.weight f4 [10, 3, 4, 4]
0	0xbcf50406	-0.029909145
1	0x3d6bd1ef	0.057573255
2	0x3c5cf26d	0.013485533
3	0x3de18560	0.110117674
4	0x3cd76997	0.026295466
5	0x3a821776	0.0009925205
6	0xbde70eb0	-0.11282098
7	0x3e054b1e	0.13016936
8	0xbdff2dc0	-0.12459898
9	0xbdc86004	-0.097839385
10	0xbdba7eb5	-0.09106199
11	0x3d951187	0.07278734
12	0x3cbdd6fc	0.023173802
13	0x3db6175f	0.088911764
14	0x3d1a189b	0.03762112
15	0x3d06ca49	0.032907758
16	0xbe0958c7	-0.13412772
17	0x3dc8d89f	0.09806942
18	0x3e478db5	0.1948765
19	0xbcb4b0c5	-0.022056947
20	0x3c331805	0.01093102
21	0xbd283308	-0.041064292
22	0x3cb8673f	0.02251017
23	0xbda4c074	-0.0804452
24	0xbd8ebfa4	-0.06970146
25	0x3c69e3ac	0.014275473
26	0x3e25562c	0.16146153
27	0x3af00d89	0.0018314581
28	0x3da47d64	0.08031729
29	0xbded60b0	-0.11590707
30	0xbb538996	-0.0032278053
31	0xbdcf37d7	-0.101180725
32	0x3cb67838	0.022274122
33	0x3e02e284	0.12781721
34	0x3e17c4a6	0.14821109
35	0xbd89b4b1	-0.06723917
36	0xbd5e024a	-0.0542014
37	0xbcea28a4	-0.028583832
38	0x3c45d2db	0.012074198
39	0xbe00f013	-0.12591581
40	0x3e11510d	0.14191075
41	0xbdbf4769	-0.09339792
42	0x3db25bb7	0.087088995
43	0x3cf5c08e	0.029999044
44	0xbd2dca52	-0.042429276
45	0xbbbd8fc7	-0.005784962
46	0xbe21487d	-0.15750308
47	0x3d33966e	0.043844633
48	0x3d7a0778	0.06104228
49	0xbd00c336	-0.031436168
50	0x3e12bbe6	0.1432949
51	0xbd438576	-0.0477347
52	0x3dd359fa	0.10319896
53	0xbe2c1d8b	-0.16808145
54	0x3ccf69d5	0.02531902
55	0xbcd28752	-0.025699291
56	0x3da12366	0.0786808
57	0xbe3aab59	-0.18229426
58	0xbe24903c	-0.16070646
59	0xbe0c2ca7	-0.13688909
60	0x3d9eb7d5	0.07749907
61	0x3d35c03e	0.04437279
62	0xbc82f5f7	-0.015986426
63	0xbe6b2603	-0.22963719
64	0xbc0c33bb	-0.008557255
65	0x3d857aef	0.06517588
66	0xbd6d94cc	-0.058003232
67	0xbc329910	-0.010900751
68	0x3e0a1b41	0.13486959
69	0xbe1a83d6	-0.15089354
70	0xbb23dc31	-0.002500307
71	0xbd451dce	-0.048124127
72	0xbd0862c4	-0.033297315
73	0x3d7872c3	0.06065632
74	0xbd554762	-0.05207003
75	0xbe0a0a0d	-0.13480397
76	0x3e2d44a7	0.1692072
77	0xbde34b09	-0.11098296
78	0x3be080a7	0.006851274
79	0x3a92ed3e	0.001120962
80	0x3e33dd79	0.17564954
81	0xbdd274f7	-0.102762155
82	0x3e4deae7	0.2010914
83	0x3e07c5e1	0.13259079
84	0x3dc59cc6	0.09649043
85	0xbdcc864a	-0.09986551
86	0xbda3431b	-0.07971784
87	0x3bb5c27d	0.0055468665
88	0x3d18ed61	0.037335757
89	0xbe2a3a0f	-0.1662371
90	0xbe3d0813	-0.18460111
91	0x3d3e6c65	0.04649009
92	0xbd2dc583	-0.04242469
93	0xbe06ad34	-0.13152009
94	0xbdd12c8f	-0.10213577
95	0xbe645638	-0.22298515
96	0xbe090cd7	-0.13383804
97	0xbe3d836a	-0.18507162
98	0xbd8577fb	-0.06517025
99	0xbd679492	-0.056538172
100	0xbe46807f	-0.19384955
101	0xbdba1598	-0.0908615
102	0xbe1076c9	-0.14107813
103	0xbe4c035d	-0.19923158
104	0xbe0bb6c9	-0.13643946
105	0x3d4b4e93	0.04963548
106	0x3d7450a7	0.05964723
107	0x3c59437a	0.013260717
108	0x3bff83e4	0.007797705
109	0xbd851f83	-0.06500151
110	0xbd1f8df6	-0.038953744
111	0xbd164363	-0.03668536
112	0xbde4cc62	-0.111717954
113	0xbda9eade	-0.082967505
114	0xbe40d643	-0.18831734
115	0xbdc7eb8e	-0.09761725
116	0xbe36c5be	-0.1784887
117	0x3d444566	0.047917746
118	0xbe02f7ef	-0.12789892
119	0x3ccd5d2b	0.02506884
120	0xbe16225d	-0.14661546
121	0x3d1d1d49	0.038358007
122	0xbe46ab4f	-0.19401287
123	0xbe20dae9	-0.15708508
124	0xbe20d18f	-0.1570494
125	0xbe1fd182	-0.15607265
126	0x3d9f60b6	0.07782118
127	0xbe44f75c	-0.19234985
128	0xbd214b6a	-0.03937856
129	0xbe14b4ea	-0.14522138
130	0x3a1223ae	0.00055747747
131	0xbcfc9772	-0.030833934
132	0x3ae497b7	0.0017440234
133	0xbe498918	-0.19681203
134	0xbdb097c2	-0.086226955
135	0xbe40265b	-0.18764631
136	0x3c3d9568	0.011571266
137	0x3ca3289f	0.01991683
138	0xbe0d56c2	-0.13802627
139	0x3cd7d0cb	0.026344677
140	0xbd6860e1	-0.056733016
141	0xbe509134	-0.2036789
142	0x3a722874	0.00092375954
143	0xbe263fa6	-0.16235217
144	0x3d4d726f	0.05015796
145	0x3d5721e4	0.052522555
146	0xbbbd4fed	-0.00577735
147	0xbd3f5a78	-0.046717137
148	0x3d8f2950	0.069903016
149	0x3c98242e	0.01857194
150	0x3ba2a340	0.0049633086
151	0x3e0349c1	0.12821104
152	0xbc7c7312	-0.015408294
153	0x3d808ddf	0.0627706
154	0xbdd1ccee	-0.10244165
155	0xbd473fc5	-0.0486448
156	0xbd666d06	-0.056256317
157	0x3e022b39	0.127118
158	0xbce886ef	-0.028384654
159	0xbc80eb3a	-0.015737165
160	0x3dcb971b	0.099409305
161	0xbd94908d	-0.072541334
162	0x3df0e542	0.117624775
163	0x3df8a09a	0.12140007
164	0xbca32036	-0.01991282
165	0x3c96a34e	0.018388417
166	0xbe02a267	-0.12757264
167	0xbda798b1	-0.081834204
168	0x3e22bcca	0.1589233
169	0xbd3ee608	-0.046606094
170	0xbdc6e514	-0.09711662
171	0x3d6ee50e	0.058323912
172	0xbc45739e	-0.012051491
173	0x3d23ff0a	0.040038146
174	0xbdfe48a3	-0.12416198
175	0x3dd00724	0.10157612
176	0x3d64c9ba	0.055856444
177	0x3cb5dbbc	0.022199504
178	0x3daecc23	0.0853503
179	0x3d6806a0	0.056646943
180	0xbd08dfed	-0.033416677
181	0xbe01bbf7	-0.12669359
182	0xbe064714	-0.13113052
183	0x3ddb0002	0.10693361
184	0x3d20244b	0.03909711
185	0xbd8b8dbd	-0.06814144
186	0xbd061cb9	-0.032742236
187	0x3e07e028	0.13269103
188	0x3e1475d1	0.14498068
189	0xbd8ae318	-0.06781596
190	0xbcca9fc5	-0.024734387
191	0x3d23f2f3	0.040026616
192	0x3e4f4a63	0.2024322
193	0xbc5e5fc8	-0.013572641
194	0xbd99bb20	-0.075063944
195	0x3d5191cc	0.051164433
196	0x3e106ad3	0.1410325
197	0x3c831095	0.015999118
198	0x3ddcf468	0.10788804
199	0xbda5b686	-0.08091454
200	0xbcb94168	-0.022614196
201	0xbde9cad6	-0.11415641
202	0x3e15a375	0.14613135
203	0x3d2c3a7a	0.042047955
204	0x3c8cf4cc	0.017206572
205	0x3d1b3683	0.037893783
206	0xbdd3e976	-0.103472635
207	0x3e1a333e	0.1505861
208	0x3dc30a13	0.09523406
209	0xbd946330	-0.07245481
210	0xbe12a87f	-0.14322089
211	0xbd0e6fb5	-0.0347745
212	0xbdeb501e	-0.114898905
213	0xbdd0c5dd	-0.101939894
214	0x3d1b008e	0.037842326
215	0x3e0f303f	0.13983248
216	0xbd9de053	-0.07708802
217	0x3e4050f8	0.18780887
218	0x3d5b27c1	0.05350471
219	0x3d7cf36e	0.06175559
220	0xbe31f2c2	-0.17377761
221	0xbe15334e	-0.14570352
222	0xbe0c350c	-0.13692111
223	0x3a80b6fe	0.0009820161
224	0xbdf7d804	-0.121017486
225	0xbdc1d444	-0.094643146
226	0xbd608630	-0.05481547
227	0xbd65ad0b	-0.05607323
228	0x3daaa614	0.08332458
229	0xbd492511	-0.049107615
230	0x3d9e5448	0.07730919
231	0x3e17ab35	0.14811404
232	0x3d6ad806	0.057334922
233	0xbdb0fd04	-0.08642009
234	0xbd2233e4	-0.039600268
235	0xbc9b1acf	-0.018933682
236	0xbdbf25f8	-0.09333414
237	0x3d06b31c	0.032885656
238	0x3d8424ea	0.06452353
239	0xbd072bb2	-0.033000655
240	0x3d60c56d	0.05487578
241	0x3d700015	0.05859383
242	0xbd82ccb0	-0.06386697
243	0xbe7c63bb	-0.24647419
244	0xbd44e679	-0.04807136
245	0xbdcf2f8b	-0.1011649
246	0xbd92280f	-0.07136547
247	0xbde891a5	-0.113559045
248	0xbd1d0f44	-0.038344637
249	0x3d88fee7	0.06689244
250	0xbe166c4b	-0.14689748
251	0xbd8ec9b2	-0.06972064
252	0x3e01e10a	0.12683502
253	0x3a8220d4	0.0009927996
254	0xbe1e8c88	-0.15483296
255	0xbda48fb6	-0.08035223

main.3.weight f4 [20, 10, 4, 4]
0	0x3d600135	0.05468865
1	0x3cb1e966	0.021717738
2	0x3d754a0e	0.059885077
3	0xbd63d077	-0.05561873
4	0xbe1b5a0a	-0.15171066
5	0xb98298a1	-0.0002490925
6	0xbdbfd180	-0.09366131
7	0x3d84bbd6	0.06481139
8	0x3dd98c84	0.10622504
9	0xbd15e0b2	-0.03659124
10	0x3e104047	0.1408702
11	0x3da1408d	0.0787364
12	0x3d3d13f5	0.04616161
13	0x3bb3efd2	0.0054912353
14	0x3d46021b	0.04834185
15	0x3b59a878	0.0033211987
16	0xbdc43335	-0.095800795
17	0xbdb281e5	-0.08716182
18	0xbd181266	-0.03712692
19	0xbac3d4da	-0.0014940754
20	0x3b7d1284	0.0038615773
21	0x3ce19e3f	0.027541278
22	0xbd4489e6	-0.047983073
23	0xbd08df6a	-0.03341619
24	0xbcbaf726	-0.022822928
25	0xbd787e2d	-0.060667206
26	0x3c54e26b	0.012993435
27	0x3def3b33	0.11681213
28	0xbdc0ac19	-0.09407825
29	0xbdbda572	-0.09260072
30	0xbcd4a5d9	-0.025957989
31	0x3cb0d0da	0.021583963
32	0xbd0e8ce3	-0.03480233
33	0xbd36b98e	-0.044610552
34	0x3a31d8b9	0.00067843084
35	0xbd95cac2	-0.073140636
36	0x3dcc7529	0.09983284
37	0x3cb06989	0.021534698
38	0xbd17acb5	-0.03702994
39	0xbcfa8592	-0.03058127
40	0xbd2158ff	-0.039391514
41	0xbccf4f89	-0.02530648
42	0xbd006235	-0.031343658
43	0x3c9f93e7	0.019479705
44	0x3d3524d3	0.04422457
45	0xbb5873e3	-0.0033028058
46	0xbdbc521c	-0.091953486
47	0x3d3c630d	0.0459929
48	0xbc2fdb91	-0.010733501
49	0xbdd8faab	-0.10594686
50	0xbd579264	-0.052629843
51	0xbc779091	-0.015110151
52	0xbdf3cb15	-0.11903969
53	0xbcba9c6f	-0.022779671
54	0xbda30e97	-0.07961767
55	0xbcc0d1f6	-0.023537617
56	0x3acd9e3d	0.0015687417
57	0x3d05ff2b	0.03271405
58	0x3d07f506	0.033192657
59	0xbd470c07	-0.048595455
60	0x3d92d6d4	0.071698815
61	0x3d5e9bd2	0.05434782
62	0xbafdbb44	-0.0019358178
63	0x3d3fda11	0.046838824
64	0xbc9845c3	-0.018587952
65	0xbd4b643d	-0.04965614
66	0x3d3bcdad	0.045850445
67	0x3cf9d1ec	0.030495606
68	0xbaebb47f	-0.0017982869
69	0xbd82353a	-0.063578084
70	0x3d882bda	0.06648989
71	0xba71be34	-0.0009221763
72	0xbcea0716	-0.028567832
73	0x3c8a8ea5	0.016913721
74	0x3d701b8f	0.058620032
75	0xbc7c711c	-0.015407827
76	0x3cf5cf6e	0.030006137
77	0xbbc870ea	-0.006116976
78	0x3d542f92	0.05180318
79	0x3d321514	0.043477133
80	0xbce7dbd8	-0.028303072
81	0x3b8ab3ad	0.004232845
82	0x3cdcce0a	0.026953716
83	0xbd4176ac	-0.047232315
84	0x3a8f149b	0.0010916175
85	0xbc2bc814	-0.010484714
86	0xbd641145	-0.055680532
87	0xbd04d2b4	-0.032427505
88	0xbde81a9f	-0.113332026
89	0xbd92b692	-0.07163729
90	0xbc697a71	-0.014250384
91	0x3bfcd39c	0.0077156555
92	0xbd64fd49	-0.055905614
93	0xbd1d41bf	-0.03839278
94	0xbcb0d98f	-0.021588115
95	0xbd2749cf	-0.040841874
96	0xbc91e383	-0.017808681
97	0x3da2d561	0.07950855
98	0xbdaf3aae	-0.08556114
99	0xbda6ad0b	-0.08138474
100	0x3dddf7be	0.10838269
101	0xbd482ad4	-0.04886897
102	0xbc31a6e6	-0.010843014
103	0xbc395763	-0.0113123385
104	0xbd1726ec	-0.036902353
105	0x3dec9ff1	0.11553944
106	0x3de261da	0.1105382
107	0x3c54c5df	0.012986629
108	0xbcee268e	-0.029071119
109	0xbd969106	-0.0735188
110	0x3d6fe7a9	0.058570538
111	0x3e22db1e	0.15903899
112	0x3de22d48	0.11043793
113	0x3d8d387f	0.068955414
114	0x3d9155fb	0.070964776
115	0x3cef16d9	0.0291857
116	0xbd1ae353	-0.03781445
117	0x3dc4714c	0.09591922
118	0x3db3e93b	0.087847196
119	0x3e28f643	0.16500191
120	0x3c07d02b	0.008289377
121	0xbd6c5522	-0.057698376
122	0x3d49f6a7	0.04930749
123	0x3da56130	0.08075178
124	0x3d591b73	0.053004693
125	0xbbd92647	-0.0066268775
126	0xbca5f0c0	-0.0202564
127	0xbab70b17	-0.0013965097
128	0xbd7cf87e	-0.061760418
129	0x3d3a2a2d	0.04545038
130	0x3d6c3078	0.05766341
131	0xbd9d49d5	-0.07680098
132	0xbd30540a	-0.043048896
133	0x3ca2cdf4	0.019873597
134	0x3d316a2b	0.04331414
135	0xbd8c5f89	-0.068541594
136	0xbbc0e8ac	-0.0058871116
137	0xbc4d8363	-0.012543532
138	0x3cd2cbed	0.025732005
139	0xbc75b5f7	-0.014996997
140	0xbdae2964	-0.085039884
141	0xbcef0715	-0.029178182
142	0xbd628b91	-0.055308882
143	0xbce16cf0	-0.027517766
144	0xbd9afa66	-0.07567291
145	0x3cedead8	0.029042646
146	0xbcfdd574	-0.030985571
147	0x3c958246	0.018250596
148	0xbc82e3fc	-0.015977852
149	0xbc956544	-0.018236764
150	0xbda05c5d	-0.07830117
151	0x3d2f0ed5	0.042738754
152	0x3c1ff096	0.00976195
153	0xbce1f63a	-0.02758323
154	0xbd23d3b2	-0.03999681
155	0xbd5ab186	-0.053391956
156	0x3d848249	0.064701624
157	0xbd5fd0fc	-0.054642662
158	0xbd8217f9	-0.06352229
159	0x3d27ac73	0.040935945
160	0xbd3a53a6	-0.04548993
161	0x3d9dcf17	0.07705515
162	0x3ac0cf09	0.0014710139
163	0x3d0e5dcf	0.03475743
164	0xbbc07119	-0.0058728573
165	0xbcfd63f7	-0.030931456
166	0xba60850e	-0.00085647486
167	0xbcd7d468	-0.0263464
168	0xbe0b8d61	-0.1362815
169	0xbc98a2b8	-0.018632278
170	0xbd51a7d8	-0.05118546
171	0xbe1a08ee	-0.15042469
172	0xbca43e60	-0.020049274
173	0xbd9287f6	-0.07154839
174	0xbd386645	-0.045019407
175	0x3d912124	0.07086399
176	0x3da8dc17	0.08245104
177	0x3d82df1f	0.06390213
178	0xbd4e385d	-0.05034672
179	0x3d896682	0.06709005
180	0xbd049bd2	-0.032375164
181	0xbcddcf01	-0.027076246
182	0x3ddfc6f9	0.10926623
183	0x3c88e795	0.01671199
184	0xbc8aa46c	-0.016924106
185	0x3d8ffabf	0.07030248
186	0x3da71ef8	0.08160204
187	0x3db2d231	0.08731497
188	0x3d2bd680	0.04195261
189	0x3d0aedbd	0.03391813
190	0x3d28f978	0.041253537
191	0x3d8251db	0.06363269
192	0x3d578077	0.052612748
193	0x3d93da3e	0.07219361
194	0x3b2fe94e	0.0026841941
195	0xbd982286	-0.0742846
196	0x3cd6b32b	0.02620848
197	0xbd88cc78	-0.06679624
198	0xbd627140	-0.055283785
199	0x3ceb793d	0.028744334
200	0x3dd232b8	0.1026358
201	0xbb789ef2	-0.0037936536
202	0xbd87e7c8	-0.06636006
203	0xbd6ebca4	-0.05828537
204	0x3d4a40f9	0.04937837
205	0xbdcb247d	-0.09919069
206	0xbc400057	-0.011718831
207	0xbdca6731	-0.098829634
208	0x3cc0b262	0.02352256
209	0xbd446de1	-0.04795635
210	0x3cb4e74d	0.022082949
211	0x3b9cd05d	0.004785581
212	0x3d8dd2a0	0.06924939
213	0x3d4beecc	0.04978828
214	0x3bad63be	0.005291431
215	0x3d66a78a	0.05631212
216	0xbde7b83e	-0.11314438
217	0xbcc172af	-0.023614256
218	0xbd8b6665	-0.068066396
219	0xbd58183e	-0.052757494
220	0x3ca06494	0.01957921
221	0x3c258274	0.010101903
222	0x3da33e87	0.079709105
223	0x3c8908c1	0.016727807
224	0x3c03a009	0.008033761
225	0x3cd77774	0.026302077
226	0xbcee0155	-0.02905337
227	0x3d5026ae	0.050818138
228	0x3d959a34	0.073048025
229	0x3d8c3797	0.068465404
230	0xbd71fdec	-0.05908005
231	0x3d5283e9	0.05139533
232	0xbd855946	-0.06511168
233	0xbdab260d	-0.08356867
234	0x3d2be912	0.04197032
235	0x3cf70552	0.030153904
236	0x3cb90dc2	0.022589568
237	0xbd06e4e9	-0.03293315
238	0xbc26a764	-0.010171745
239	0xbcff4bd9	-0.031164097
240	0x3c2cc5a8	0.010545172
241	0xbc53bbbe	-0.012923179
242	0x3d853cfe	0.06505774
243	0xbbf01af5	-0.0073274323
244	0x3d9de36f	0.07709395
245	0x3d7691e0	0.06019771
246	0x3d88373b	0.066511594
247	0xbcbbc2d0	-0.022920042
248	0x3d1ca5c0	0.03824401
249	0xbc90c707	-0.017673029
250	0xbdbcf4d8	-0.09226388
251	0xbd817061	-0.06320263
252	0x3cb7bca9	0.022428827
253	0x3e065c38	0.13121116
254	0x3caba727	0.020953728
255	0xbd949967	-0.07255822

main.4.weight f4 [20]
0	0x3f71edc0	0.945034
1	0x3f816c8e	1.0111253
2	0x3f69058c	0.9102409
3	0x3f694c68	0.9113221
4	0x3f815389	1.0103618
5	0x3f7ae75c	0.98009276
6	0x3f81be4d	1.01362
7	0x3f7e82cd	0.99418336
8	0x3f8fda1a	1.1238434
9	0x3f83ec2a	1.0306447
10	0x3f82e2c5	1.0225455
11	0x3f821bbd	1.0164715
12	0x3f80363d	1.0016552
13	0x3f7b3597	0.98128647
14	0x3f839082	1.0278475
15	0x3f7e057a	0.99227107
16	0x3f8420cb	1.0322508
17	0x3f7aa13a	0.9790226
18	0x3f802880	1.001236
19	0x3f6b9aea	0.92033255

main.4.bias f4 [20]
0	0x3c24495e	0.010027258
1	0xbe772e0c	-0.24138659
2	0xbcfb5b1c	-0.030683093
3	0x3c293936	0.010328582
4	0xbe110551	-0.14162184
5	0xbdbd9110	-0.09256184
6	0x3adb5def	0.0016736368
7	0xbd316a1a	-0.043314077
8	0xbe044a7b	-0.12919037
9	0xbdcc33c1	-0.09970809
10	0xbdfd88b2	-0.12379588
11	0xbcb710ce	-0.02234688
12	0xbd7c42df	-0.06158721
13	0x3d9fda9c	0.07805368
14	0xbdd83752	-0.105574265
15	0xbd78fc30	-0.06078738
16	0x3c46493b	0.01210242
17	0xbd8e7e11	-0.06957639
18	0xbd8df729	-0.06931908
19	0x3d89a4ae	0.06720863

main.4.running_mean f4 [20]
0	0x3b45e3af	0.0030195524
1	0xbc1e001c	-0.009643581
2	0x3c4633e6	0.0120973345
3	0x3c592735	0.013253977
4	0xbbc70de9	-0.0060746563
5	0xbb5e849a	-0.0033953548
6	0xbbd65d1a	-0.0065418603
7	0xbc0e2f1c	-0.008678224
8	0xbc2d1796	-0.010564705
9	0xbb8df663	-0.00433235
10	0xbc01aed9	-0.007915222
11	0xbc1b6230	-0.009483859
12	0xbc3c73bc	-0.011502203
13	0x3bc9a6c9	0.0061539155
14	0xbbf86e1f	-0.007581487
15	0xbbc44783	-0.00598997
16	0xbb837d0f	-0.004012711
17	0xbb6e5883	-0.0036368675
18	0xbbd19d23	-0.006396906
19	0x3c37bd75	0.011214604

main.4.running_var f4 [20]
0	0x3960c920	0.0002143723
1	0x3998efa6	0.0002917025
2	0x399738e3	0.00028843348
3	0x39a6d32a	0.00031819317
4	0x38e46125	0.00010889982
5	0x390d8192	0.00013495077
6	0x392a4ff6	0.00016242251
7	0x39a8605c	0.0003211525
8	0x3a1dc870	0.0006018942
9	0x3926e8a8	0.00015917665
10	0x39832124	0.0002501096
11	0x3937177a	0.00017460986
12	0x398f98da	0.0002738897
13	0x39799817	0.00023803148
14	0x392ef55c	0.00016685337
15	0x38d3751f	0.000100830795
16	0x396534e7	0.0002185885
17	0x39117ab6	0.00013873991
18	0x38e435cf	0.0001088191
19	0x39acc94b	0.0003295637

main.6.weight f4 [40, 20, 4, 4]
0	0x3c513b09	0.012770423
1	0xb9d22afc	-0.00040086347
2	0x3cc1098c	0.023564123
3	0xbbd1640e	-0.0063901013
4	0xbcfac065	-0.030609319
5	0x3cd3527e	0.025796171
6	0x3c899b46	0.016797673
7	0x3cb2dc59	0.021833586
8	0xbce16b5a	-0.02751701
9	0x3d63965d	0.05556332
10	0x3ce0f867	0.027462197
11	0x3ba207b9	0.0049447683
12	0xbc83b1d2	-0.016076002
13	0xbc931a3f	-0.017956851
14	0x3d70d06f	0.058792528
15	0x3cb191ed	0.021676028
16	0x3c5e4dfc	0.013568398
17	0x3bed2450	0.007236995
18	0x3d84431a	0.06458111
19	0x3d124978	0.035714597
20	0xbbae6302	-0.0053218612
21	0x3cddffc5	0.0270995
22	0xbc80a383	-0.015702968
23	0xbcba5616	-0.022746127
24	0x3b997b9e	0.004683926
25	0xbcb802f0	-0.022462338
26	0x3d4fe578	0.050755948
27	0xbce3d3de	-0.027810987
28	0xbca0baf7	-0.019620402
29	0xbccf0a2a	-0.025273401
30	0x3d3542aa	0.04425303
31	0xbcb432d7	-0.021996899
32	0xbd8d825b	-0.06909629
33	0x3ba162ec	0.0049251225
34	0xbcfcb548	-0.03084816
35	0xbd36156f	-0.044454034
36	0xbcf06406	-0.02934457
37	0xbd0c9874	-0.034325078
38	0xbc95407f	-0.01821923
39	0xbd88aa38	-0.06673092
40	0xbd08db45	-0.033412237
41	0x3d19bb76	0.037532292
42	0x3d11e8d4	0.035622433
43	0x399d592f	0.0003001182
44	0x3d1b9a16	0.037988745
45	0x3cf02ff6	0.029319745
46	0xbd273d8d	-0.040830184
47	0xbd5efe9e	-0.05444204
48	0x3c9e7b2b	0.01934584
49	0x3d1d5aa4	0.03841652
50	0xbc7ad663	-0.015309903
51	0x3d10144b	0.035175603
52	0xbd4d1e6c	-0.05007784
53	0xbd40ad9b	-0.047040563
54	0x3d1012d5	0.03517421
55	0x3c589cbd	0.013220963
56	0x3b12ffde	0.002243034
57	0xbd07ca0a	-0.033151664
58	0xbba66e64	-0.0050790776
59	0xbd83a415	-0.064277805
60	0xbb55b9ba	-0.0032611922
61	0x3c4de101	0.012565852
62	0x3bd88d82	0.006608666
63	0x3aed9c0b	0.001812817
64	0x3d1bcd6c	0.038037702
65	0xbd131486	-0.035908245
66	0xbc94e384	-0.018174894
67	0xbd66178c	-0.0561748
68	0x3c0769bc	0.008264955
69	0x3d10bcd5	0.035336334
70	0x3d745550	0.059651673
71	0xbcb20bba	-0.021734107
72	0xbd3c1487	-0.045918014
73	0x3b1f2cbe	0.0024288143
74	0x3b5a95f0	0.003335353
75	0xbc95086c	-0.018192492
76	0x3b5aad97	0.0033367628
77	0x3c042362	0.008065077
78	0xbbaf9f70	-0.0053595826
79	0x3d3da7a3	0.04630245
80	0xbd70a512	-0.058751173
81	0xb750d0ae	-1.2446353e-05
82	0xbce702c9	-0.02819957
83	0x3c98b564	0.018641181
84	0xbd6c85e0	-0.05774486
85	0x3cfd1ed4	0.030898489
86	0x3d09c0b8	0.033631057
87	0xbd661aed	-0.056178022
88	0xbd196742	-0.03745199
89	0x3cd5cfac	0.026100002
90	0x3d10281a	0.035194494
91	0x3cbec380	0.023286581
92	0x3d2573f5	0.04039379
93	0xbce2bbe4	-0.027677484
94	0x3c905501	0.017618658
95	0x3d24200f	0.040069636
96	0xbcaf90d8	-0.021431372
97	0xbd0cdb9c	-0.034389123
98	0x3cbbf04b	0.022941729
99	0x3c110e51	0.008853511
100	0xbd010e8d	-0.031508017
101	0xbd149dde	-0.036283366
102	0x3d1e7be3	0.038692366
103	0xbcc90949	-0.02454056
104	0xbd40b44a	-0.047046937
105	0xbd125c1d	-0.035732377
106	0x3d56a287	0.052401092
107	0x3c8b8da1	0.017035307
108	0xbd1aca3b	-0.03779052
109	0x3c60fb83	0.01373184
110	0x3c465020	0.012104064
111	0x3c5a0c43	0.0133085875
112	0xbb14c180	-0.0022698343
113	0x3ce81fa4	0.0283354
114	0xbd17b5b6	-0.037038527
115	0xbcc8f76a	-0.024532039
116	0x3cd1b228	0.025597647
117	0x3d43f743	0.04784323
118	0x3ca3a6dd	0.019977028
119	0x3cf22265	0.029557416
120	0xbcd948d2	-0.026523981
121	0x3d6dd6cf	0.058066186
122	0xbb674626	-0.0035289614
123	0xbcd0fab8	-0.025510177
124	0x3d21582a	0.03939072
125	0xbd22c7da	-0.039741375
126	0xbc37abd4	-0.011210401
127	0x3d0d4374	0.034488156
128	0xbc1e67d5	-0.00966831
129	0xbcd92179	-0.026505219
130	0xbd03dd5d	-0.03219353
131	0xbd34142e	-0.043964557
132	0xbc3d9b50	-0.011572674
133	0x3ca326d9	0.019915985
134	0xbd5867a7	-0.052833226
135	0x3b82ba2b	0.003989478
136	0xbbfa5a09	-0.0076401276
137	0x3d586c11	0.052837435
138	0x3cc73177	0.024315579
139	0xbce14029	-0.027496414
140	0xbd89d05e	-0.06729196
141	0xbcdbdc45	-0.026838431
142	0xbd2dc119	-0.04242048
143	0xbce1a174	-0.027542807
144	0xbbe24267	-0.0069048884
145	0x3cce92be	0.025216457
146	0xbd14db41	-0.03634191
147	0x3c127a66	0.008940315
148	0x3cf39d61	0.02973813
149	0xbbdcb9c8	-0.006736014
150	0xbcfd7d92	-0.030943666
151	0xbccb6518	-0.024828479
152	0x3d88c656	0.066784546
153	0xbce170d4	-0.027519621
154	0x3b4a894c	0.003090459
155	0x3ce90f0c	0.028449558
156	0x3ca6e943	0.0203749
157	0xbcdbdbc7	-0.026838196
158	0xbd2b1b89	-0.041774306
159	0xbd229abd	-0.03969835
160	0xbd1dc133	-0.038514327
161	0xbcf74b9d	-0.030187422
162	0xbd04bf1a	-0.03240881
163	0xbbeba7bf	-0.0071916278
164	0xbc50bf0f	-0.012740864
165	0xbd1c4687	-0.038153198
166	0x3d41080d	0.04712682
167	0x3bb3f8a3	0.0054922863
168	0xbbe24266	-0.006904888
169	0x3c4b4f08	0.012408979
170	0xbc765a4d	-0.015036178
171	0x3bf629df	0.0075123156
172	0xbc74ede7	-0.014949298
173	0xbcb3660b	-0.021899244
174	0xbcf425cc	-0.02980318
175	0x3c43d27a	0.011952037
176	0xbd0a4fb5	-0.03376742
177	0xbc33ba7a	-0.010969752
178	0x3d448ed1	0.047987763
179	0xbd685c2b	-0.056728523
180	0xba8bc451	-0.0010663365
181	0xba855a51	-0.0010174011
182	0xbd08223e	-0.03323578
183	0x3d045b34	0.03231354
184	0xbd3c13b6	-0.045917235
185	0xbd8a3ba9	-0.067496605
186	0x3c100576	0.0087903645
187	0xbd013b62	-0.031550772
188	0xbd3b056a	-0.04565946
189	0xbbb36f05	-0.005475881
190	0x3d3c2eae	0.045942955
191	0xbd6d2cdd	-0.057904113
192	0x3d6cea13	0.057840418
193	0xbcce2691	-0.025164874
194	0x3d827f6e	0.063719615
195	0xbd76cdac	-0.060254738
196	0x3d073ffe	0.033020012
197	0xbbb259bf	-0.0054428275
198	0x3d0cf7e2	0.034416087
199	0xbd8cfdf1	-0.06884373
200	0xbc8e1113	-0.017342126
201	0x3ca532a8	0.020165756
202	0x3cc039bf	0.023465035
203	0x3c0a30bc	0.008434471
204	0xbc0bdfd2	-0.00853725
205	0x3c4475bb	0.01199096
206	0x3d32fa58	0.043695778
207	0x3d2b2364	0.041781798
208	0xbb2a7532	-0.0026009795
209	0x3c4fc4c9	0.012681195
210	0x3d5baa14	0.053628996
211	0xbcfbe9c7	-0.030751122
212	0xbc8e1808	-0.017345443
213	0x3d313c71	0.043270532
214	0xbbb11405	-0.005403998
215	0xbd2bf0e0	-0.041977763
216	0x3d40053e	0.04688
217	0x3d7e5b84	0.062098995
218	0xbd2e7668	-0.04259339
219	0xbb6c2d93	-0.0036037907
220	0x3cf7fe07	0.030272497
221	0x3d26b013	0.04069526
222	0x3be6822a	0.0070345597
223	0xbc77c371	-0.01512228
224	0xbbe5e5ad	-0.007015905
225	0x3d23e1ee	0.040010385
226	0xbd16112d	-0.036637474
227	0xbcc645dc	-0.024203233
228	0xbd241642	-0.04006029
229	0xba5c3b33	-0.00084011554
230	0xbb40aa0e	-0.0029398235
231	0xbccafcd2	-0.024778757
232	0x3d4578eb	0.04821102
233	0xbc4beba5	-0.012446319
234	0x3d45c075	0.048279244
235	0x3d869972	0.06572236
236	0x3d4b23a3	0.049594533
237	0x3d96f906	0.07371716
238	0x3c1f7828	0.009733237
239	0xbd1b6652	-0.037939377
240	0xbd42417d	-0.047425736
241	0xbbc3ec7b	-0.0059791184
242	0x3d502e03	0.05082513
243	0x3c5e6c13	0.013575572
244	0xbcd21be3	-0.025648063
245	0xbc9b26fa	-0.018939484
246	0x3cf5a47a	0.029985655
247	0xbceddc39	-0.029035674
248	0xbcbff44c	-0.02343192
249	0xbb832a3d	-0.004002838
250	0x3d177758	0.03697905
251	0xbd727e5d	-0.05920254
252	0xbc96f703	-0.018428331
253	0xbbe8dd4e	-0.0071064597
254	0x3ca0689e	0.019581135
255	0xbaa36533	-0.0012466073

main.7.weight f4 [40]
0	0x3f861bd7	1.0477246
1	0x3f8c5e69	1.0966312
2	0x3f8424cb	1.0323728
3	0x3f84586b	1.0339483
4	0x3f85fe47	1.0468224
5	0x3f8fd885	1.1237952
6	0x3f842f22	1.0326884
7	0x3f8559cc	1.0418029
8	0x3f858efa	1.0434258
9	0x3f8c22b1	1.0948087
10	0x3f89c7e8	1.0764132
11	0x3f8808cd	1.0627686
12	0x3f8e404c	1.1113372
13	0x3f8671bb	1.0503458
14	0x3f8517bb	1.0397867
15	0x3f89a6c8	1.0754023
16	0x3f85bed3	1.044886
17	0x3f8a1324	1.0787091
18	0x3f85071b	1.0392793
19	0x3f8b95c2	1.0905077
20	0x3f87b84f	1.0603122
21	0x3f882be9	1.06384
22	0x3f889b58	1.0672407
23	0x3f8f6cd2	1.1205084
24	0x3f871534	1.0553346
25	0x3f820767	1.0158509
26	0x3f889242	1.0669634
27	0x3f95b05e	1.1694448
28	0x3f8ba2d5	1.0909067
29	0x3f83713e	1.0268934
30	0x3f8df615	1.1090723
31	0x3f880335	1.0625979
32	0x3f9c9c13	1.223513
33	0x3f89a027	1.0752
34	0x3f8764bc	1.0577617
35	0x3f8517e4	1.0397916
36	0x3f8b37ab	1.0876364
37	0x3f845476	1.0338275
38	0x3f833382	1.0250094
39	0x3f8fb7a2	1.1227915

main.7.bias f4 [40]
0	0x3d0a5711	0.03377444
1	0x3c9a4fb7	0.01883684
2	0x3c73b298	0.014874123
3	0x3c810079	0.015747296
4	0x3c45a18f	0.012062444
5	0x3d07b1df	0.033128615
6	0x3d14e9bb	0.036355715
7	0x3c87f869	0.016597943
8	0x3cecc201	0.028901102
9	0x3cf882ad	0.030335749
10	0x3c88bcce	0.016691592
11	0x3cf83d18	0.03030257
12	0x3d4c8a1b	0.049936395
13	0x3c9f5b85	0.01945282
14	0x3cffc579	0.031222092
15	0x3cbfc004	0.02340699
16	0x3cf6b82d	0.030117119
17	0x3c026cff	0.007960557
18	0x3cc11f06	0.023574363
19	0x3d4d6e26	0.050153874
20	0x3d18a498	0.037266344
21	0x3cfb350e	0.030664947
22	0x3cf113be	0.02942836
23	0x3ce3a960	0.027790725
24	0x3cbdde00	0.023177147
25	0x3c29ecc9	0.010371395
26	0x3cf5295b	0.029926946
27	0x3cdaa5e3	0.02669043
28	0x3cdee6e1	0.027209701
29	0x3cba4081	0.022735836
30	0x3c8a7d05	0.016905317
31	0x3c9b1d35	0.018934825
32	0x3d0267fc	0.03183745
33	0x3cd99863	0.026561921
34	0x3c713132	0.014721202
35	0x3c86cd80	0.016455412
36	0x3ca37d38	0.01995717
37	0x3c4bce56	0.012439331
38	0x3ceb84a9	0.02874978
39	0x3cc422fe	0.023942467

main.7.running_mean f4 [40]
0	0x3c1e7d48	0.009673424
1	0xbcb0e715	-0.021594563
2	0xbdf5289a	-0.11970635
3	0xbd835ad5	-0.06413809
4	0x3dc319ca	0.09526403
5	0xbd9c654a	-0.07636507
6	0x3d2d6c27	0.04233947
7	0xbdd1995f	-0.10234331
8	0x3da34526	0.079721734
9	0x3d879b38	0.066214025
10	0xbd836040	-0.064148426
11	0xbd709f2b	-0.058745544
12	0xbd24ec81	-0.04026461
13	0xbd2f5d46	-0.04281356
14	0xbd2f3e9e	-0.042784326
15	0x3db5cd49	0.08877046
16	0xbdc0c260	-0.09412074
17	0x3e453119	0.1925701
18	0xbc095852	-0.008382874
19	0xbca62191	-0.020279678
20	0x3c85f1e3	0.016350692
21	0xbd1bbffe	-0.038024895
22	0xbd09a53a	-0.033604838
23	0xbe1b9729	-0.15194382
24	0xbdc26105	-0.09491161
25	0x3c50e60b	0.012750159
26	0xbc67ea4b	-0.014154981
27	0x3e165767	0.14681779
28	0xbcce7505	-0.025202284
29	0xbdb1904a	-0.08670099
30	0xbd35024a	-0.044191636
31	0x3c366393	0.011132139
32	0x3e2aecd5	0.16691907
33	0x3d06e055	0.032928783
34	0xbdbe59d7	-0.09294479
35	0xbde11722	-0.1099074
36	0xbd3f21c3	-0.046663057
37	0x3d7feb53	0.062480282
38	0xbd8dab24	-0.06917408
39	0xbd3938d7	-0.045220222

main.7.running_var f4 [40]
0	0x3ca95644	0.020671017
1	0x3c8175dc	0.01580327
2	0x3c8f4e30	0.017493337
3	0x3c96b84e	0.01839843
4	0x3c99b123	0.018761223
5	0x3c8a014a	0.016846318
6	0x3c82ced2	0.01596776
7	0x3d0c8130	0.03430289
8	0x3caaea82	0.020863775
9	0x3c22b970	0.009931907
10	0x3c41bb80	0.011824489
11	0x3c921bcb	0.017835518
12	0x3c38c5b6	0.011277607
13	0x3cd25d76	0.025679331
14	0x3cdd9555	0.027048746
15	0x3c1d3083	0.009594086
16	0x3c0064c2	0.007836523
17	0x3c885783	0.016643291
18	0x3caff238	0.021477804
19	0x3c537812	0.012907045
20	0x3cba77f8	0.022762284
21	0x3c4d6a08	0.012537487
22	0x3c4a44a8	0.0123454705
23	0x3c55ee40	0.0130572915
24	0x3c1a629f	0.009422927
25	0x3d2546a7	0.040350582
26	0x3c2414c3	0.010014716
27	0x3cb2d12a	0.021828253
28	0x3c7bd7f6	0.015371313
29	0x3caa1d6d	0.020765984
30	0x3c1dc9f4	0.009630669
31	0x3c2c7b58	0.010527454
32	0x3c765958	0.01503595
33	0x3c15b94e	0.009138418
34	0x3c317999	0.010832214
35	0x3db153f4	0.08658591
36	0x3c36dfdc	0.011161771
37	0x3cee5abc	0.029096
38	0x3d243788	0.04009202
39	0x3c08ea40	0.008356631

main.10.weight f4 [180, 360]
0	0x3cda95c5	0.026682744
1	0x3d2df954	0.042474106
2	0xbc2e4c38	-0.010638289
3	0x3d076d76	0.033063374
4	0x3c1215be	0.008916317
5	0x3c8d700c	0.017265342
6	0xbb93396f	-0.0044929306
7	0xbd359ce0	-0.04433906
8	0x3b99d83b	0.004694966
9	0xbcd1c4fb	-0.025606623
10	0xbd412158	-0.04715094
11	0x3ba6bfac	0.005088767
12	0xbcc04049	-0.023468154
13	0x3d187c68	0.037228018
14	0xbbece6c0	-0.007229656
15	0x3cb09cb8	0.021559104
16	0xbd28d9ca	-0.041223325
17	0x3ccdf98e	0.025143411
18	0xbc1025a8	-0.00879804
19	0x3bd3626c	0.006450942
20	0xbcab53cb	-0.020913979
21	0xbd36e2ab	-0.04464976
22	0x3d0ef0aa	0.034897484
23	0x3d05e2ea	0.032687105
24	0x3c02f94e	0.007994009
25	0x3c25df8c	0.0101240985
26	0x3d006976	0.031350575
27	0xbd15fead	-0.03661983
28	0xbcaff906	-0.021481048
29	0xbd4a6f84	-0.049422756
30	0xbc307a80	-0.010771394
31	0xbc2cbbb5	-0.0105428
32	0x3d02a1f0	0.031892717
33	0xbca93b7e	-0.02065825
34	0x3cbd403c	0.023101918
35	0x3d5bedd7	0.05369362
36	0xbc8a0852	-0.01684967
37	0x3d30ebf8	0.043193787
38	0xbc4ca094	-0.012489457
39	0x3c1ad318	0.009449743
40	0x3d09ad1d	0.03361236
41	0xbaae1f7b	-0.0013284528
42	0x3ba31def	0.0049779336
43	0xbbcde62d	-0.0062835426
44	0xbce7c318	-0.02829127
45	0x3d48b97d	0.04900502
46	0x3ce821fb	0.028336516
47	0xbcc87f59	-0.024474787
48	0x3c1402bb	0.009033854
49	0x3d2118da	0.03933034
50	0xbbb7f5b4	-0.005614007
51	0xbc0fc0ce	-0.008773996
52	0x3a559b97	0.000814849
53	0xbd044e40	-0.032301188
54	0x3d20b3e7	0.03923407
55	0xbd3f50c6	-0.04670789
56	0x3cdca669	0.02693482
57	0x3cb64460	0.0222494
58	0x3d3db69a	0.04631672
59	0xbcb11acb	-0.021619221
60	0x3cea8adb	0.028630665
61	0x3cb14a92	0.021642003
62	0x3d4a5e2b	0.04940621
63	0xbbb30cdb	-0.005464179
64	0x3bad071f	0.00528039
65	0x3d02b383	0.031909477
66	0x3b4f8dbf	0.003167018
67	0x3d1b2e13	0.037885737
68	0xbc8b037d	-0.016969437
69	0xbd220dcc	-0.03956394
70	0x3ca21adf	0.019788204
71	0x3b6acdd1	0.0035828243
72	0x3d3edcf2	0.04659743
73	0xbb031154	-0.0019999342
74	0x3cd8d067	0.026466561
75	0x3cae68d0	0.021290213
76	0x3d18608d	0.037201453
77	0xbc8e0340	-0.017335534
78	0x3cc557f3	0.024089789
79	0x3cda7643	0.02666772
80	0xbd0e3563	-0.034718882
81	0xbb9fb284	-0.0048735756
82	0x3d07be8d	0.033140708
83	0x3bc4737b	0.0059952117
84	0xbb033ca2	-0.0020025154
85	0xbc8f7fdd	-0.017517025
86	0xbd327903	-0.043572437
87	0x3d270f29	0.040785942
88	0x3c3d369e	0.011548666
89	0xbc74ae12	-0.01493408
90	0x3b163499	0.0022919534
91	0x3c8b1125	0.016975949
92	0x3d381990	0.044946253
93	0x3cc8a02f	0.024490444
94	0x3ae4f73f	0.0017468705
95	0x3d3459b3	0.044030856
96	0x3c93d945	0.018047938
97	0xbd2941fb	-0.04132269
98	0xbc36ed63	-0.011164996
99	0x3c218ae9	0.009859779
100	0x3d27b3a9	0.04094282
101	0xbbee8186	-0.007278624
102	0xbcd669d4	-0.02617351
103	0x3cdc95ab	0.026926836
104	0xbd3b3251	-0.045702282
105	0x3d4fbbe5	0.0507163
106	0xbc94af9c	-0.018150143
107	0xbcd997ac	-0.02656158
108	0x3d355e72	0.044279523
109	0x3d91263e	0.07087372
110	0x3d2102ec	0.039309427
111	0x3d01b250	0.031664193
112	0xbd225987	-0.03963616
113	0xbc9c1e85	-0.019057522
114	0xbadfb745	-0.0017068168
115	0xbd34f23a	-0.044176318
116	0xbbcb7e2b	-0.0062101088
117	0xbd0674a5	-0.032826085
118	0x3bcdc003	0.006278993
119	0x3d5a8035	0.053344924
120	0xbcfdea1c	-0.030995421
121	0xbd222d15	-0.039593775
122	0xbc66ac47	-0.01407916
123	0x3d432b88	0.047648937
124	0xbd23f3aa	-0.040027298
125	0xbd24b3bd	-0.040210474
126	0x3d24aae0	0.04020202
127	0x3b992745	0.0046738707
128	0x3cf49b42	0.029859189
129	0xbb61bc15	-0.003444438
130	0xbd23e689	-0.040014777
131	0xbadebdc1	-0.0016993807
132	0x3d06bb14	0.032893255
133	0xbc4d22be	-0.01252049
134	0x3c018b7c	0.007906791
135	0xbcccd157	-0.025002165
136	0xbd1def0f	-0.038558062
137	0xbcf41b0f	-0.029798059
138	0x3cd1400c	0.025543235
139	0x3d5f4f52	0.054519005
140	0xbc02340f	-0.007946982
141	0x3c6a020d	0.0142827155
142	0x3c22fe1e	0.009948282
143	0x3d364d5d	0.044507373
144	0x3cbabe27	0.02279575
145	0x3c010832	0.007875489
146	0x3c4442a5	0.01197878
147	0xbd150315	-0.036379892
148	0x3c636c63	0.013880822
149	0xbc2ec3d3	-0.010666805
150	0xbd4dd3e0	-0.050250888
151	0xbd101294	-0.035173967
152	0x3d24a4a2	0.04019607
153	0x3d737e97	0.059446897
154	0xbc26f351	-0.010189847
155	0x3c35eaf5	0.011103381
156	0xbb67d566	-0.0035374998
157	0x3d964145	0.07336668
158	0xbc9447ca	-0.018100638
159	0x3d06ce58	0.03291163
160	0xbc071f39	-0.00824719
161	0xbd1f59e6	-0.038904093
162	0xbd2b6272	-0.04184193
163	0xbc414af7	-0.011797658
164	0xbc8b30ec	-0.016991101
165	0xbc073bab	-0.008253972
166	0xbcb1da97	-0.021710677
167	0x3d30d0c3	0.04316784
168	0x3c854d09	0.016272085
169	0xbd2e056f	-0.04248565
170	0xbd0c7059	-0.03428683
171	0xbbf7bc8a	-0.0075603174
172	0x3d681bc4	0.056667104
173	0x3c173139	0.009228044
174	0x3c22c625	0.009934937
175	0x3b4036b3	0.0029329478
176	0xbcb2e5c6	-0.02183808
177	0x3cf8deb2	0.030379627
178	0xbd383f28	-0.044982105
179	0x39be84e6	0.0003633864
180	0x3d3c97cf	0.046043213
181	0xbcf26d8b	-0.02959325
182	0x3ce221d4	0.027604021
183	0x3d2a7960	0.04161966
184	0x3d3ee3b4	0.046603873
185	0x3c9107d8	0.017703936
186	0x3cfae02d	0.030624473
187	0xbd522bb9	-0.05131123
188	0xbce2bf9a	-0.027679253
189	0x3d5fa040	0.054596186
190	0xbcfa82bf	-0.030579923
191	0xbd4d5bb9	-0.0501363
192	0x3c4430b5	0.011974503
193	0x3d19e9eb	0.037576597
194	0x3d24c43d	0.04022621
195	0x3d741821	0.059593324
196	0xbc65ead9	-0.014033043
197	0xbaff710e	-0.0019488649
198	0x3c187631	0.009305523
199	0x3bb5f791	0.005553194
200	0x3cade68e	0.021228101
201	0xbc570e81	-0.013126017
202	0x3c9718ba	0.018444408
203	0xbc8eab8d	-0.017415786
204	0x3ba9c88a	0.005181377
205	0xbc94f068	-0.01818104
206	0xbd59f8b7	-0.05321571
207	0xbca1a527	-0.019732071
208	0xbd168a66	-0.03675308
209	0xbd354e01	-0.044263843
210	0xbd110b3e	-0.035411112
211	0xbc3421c4	-0.0109943785
212	0x3d6f99ce	0.05849629
213	0xbc3dec6a	-0.01159201
214	0x3d84fd89	0.064936705
215	0xbd0afcdd	-0.033932555
216	0xbd3e1855	-0.046409924
217	0x3c78f5c3	0.015195313
218	0x3d268cfa	0.04066179
219	0x3c6f1bc5	0.014594023
220	0x3ba37c0f	0.004989154
221	0xbd20fbb8	-0.039302558
222	0xbc3671cc	-0.01113553
223	0x3d3fb5c7	0.046804216
224	0x3cb79901	0.022411825
225	0x3ce9de24	0.028548308
226	0x3c5f710e	0.013637794
227	0x3cf2ae9a	0.029624272
228	0xbcabdc43	-0.020979052
229	0x3cdbc9ba	0.02682959
230	0xbc85edbd	-0.016348714
231	0xbd06d63f	-0.032919165
232	0x3c374b4d	0.011187387
233	0x3cfb0004	0.030639656
234	0xbba92d71	-0.0051628877
235	0x3d45ba17	0.048273172
236	0xbc924a0b	-0.017857572
237	0x3d56092b	0.052254837
238	0x3d53f504	0.051747337
239	0x3cc72fed	0.024314845
240	0x3d44e232	0.04806728
241	0x3d58b414	0.05290611
242	0x3d7676d5	0.06017192
243	0x3befc7f4	0.0073175374
244	0x3c089005	0.008335118
245	0x3c19275e	0.009347765
246	0x3cc14d4b	0.023596426
247	0x3d0a2fff	0.03373718
248	0x3d15537b	0.036456566
249	0x3c9a330b	0.018823167
250	0x3cc8b652	0.024501
251	0x3c1dff23	0.009643349
252	0xbd3a6e4e	-0.04551535
253	0xbd2fdab6	-0.04293319
254	0xbd298990	-0.041390955
255	0x3d558db0	0.052137077

main.12.weight f4 [90, 180]
0	0xbd5d6da2	-0.054059632
1	0x3d902785	0.07038788
2	0xbc70c7dd	-0.014696089
3	0xbc1d1c86	-0.00958932
4	0xbd9ea982	-0.07747175
5	0x3c4bb61f	0.012433558
6	0x3d718400	0.058963776
7	0x3d63e3d4	0.055637196
8	0xbd9396bd	-0.072064854
9	0x3d82a923	0.063799165
10	0x3dd46c07	0.10372167
11	0x3b4689e7	0.0030294599
12	0xbc99ad15	-0.01875929
13	0x3da5bf55	0.08093134
14	0x3d774e17	0.060377207
15	0x3c0f5b99	0.008749866
16	0xbd42ddf6	-0.04757496
17	0x3bdd441f	0.0067525054
18	0x3c6aa71c	0.014322069
19	0x3d248b28	0.040171772
20	0xbd17a5a1	-0.03702319
21	0x3d98fa9e	0.074696764
22	0xbce26bd0	-0.0276393
23	0x3d3099e5	0.043115515
24	0xbd282170	-0.041047513
25	0x3c5d8289	0.013519892
26	0xbd52dc36	-0.05147954
27	0xbcd2a95a	-0.025715519
28	0x3ba93a84	0.0051644463
29	0xbcf4ef28	-0.029899195
30	0x3d86ee6d	0.06588445
31	0x3dc7cb8a	0.09755619
32	0x3b32356f	0.0027192493
33	0xbca5a27f	-0.020219086
34	0x3ce346ed	0.027743781
35	0x3d34a135	0.04409905
36	0xbc98c5ba	-0.01864897
37	0xbd81acd6	-0.06331794
38	0x3d4e48cd	0.050362397
39	0xbc45c61d	-0.01207116
40	0x3d9987fd	0.07496641
41	0x3dedf5ed	0.11619172
42	0xbcd72bd0	-0.026266009
43	0x3c15556d	0.009114605
44	0xbd2549e4	-0.04035367
45	0xbd23dd6b	-0.040006083
46	0x3ca6bc22	0.02035338
47	0xbccbc93f	-0.024876235
48	0xba7fa6df	-0.0009752344
49	0xbbfc9af0	-0.0077088997
50	0x3d50b9e8	0.050958544
51	0xbcfe3e63	-0.031035608
52	0x3d647aa1	0.05578101
53	0x3cd9aff0	0.026573151
54	0xbc832d3b	-0.016012779
55	0x3d62f284	0.055407062
56	0x3d491a3d	0.04909729
57	0xbbdfcece	-0.006830073
58	0xbc13b8bf	-0.009016215
59	0x3ccfea9f	0.02538043
60	0x3d20e7db	0.039283615
61	0x3dd748e4	0.1051195
62	0x3e038271	0.12842728
63	0x3da9775b	0.082747184
64	0xbc6cae01	-0.014445783
65	0xbd3b92a3	-0.04579414
66	0x3d1e9169	0.038712893
67	0xbcd52ff9	-0.026023852
68	0xbc383737	-0.011243633
69	0x3d6c361c	0.05766879
70	0x3d6afc70	0.05736965
71	0xbb29b91a	-0.0025897683
72	0xbd4b9f94	-0.049712732
73	0x3d2d4545	0.04230239
74	0xbd609ae1	-0.054835204
75	0x3d40acaa	0.047039665
76	0x3d0f2192	0.034944125
77	0x3d9d255f	0.076731436
78	0x3bbca03c	0.005756406
79	0x3afb6583	0.0019180033
80	0xbd241e14	-0.040067747
81	0xbcf4baa1	-0.029874148
82	0x3d84ef4c	0.06490955
83	0xbccd2b0d	-0.025044942
84	0xbaa91f93	-0.0012903087
85	0x3d20cf39	0.039260123
86	0x3dc8161c	0.09769842
87	0xbbcaf18d	-0.006193346
88	0x3d2cd633	0.042196464
89	0x3d60908b	0.054825347
90	0xbd1ed825	-0.03878035
91	0xbd4ab599	-0.04948959
92	0x3ba5ad7e	0.0050560823
93	0xbcd112bf	-0.025521634
94	0xbd8f319c	-0.06991884
95	0xbbcf3882	-0.006323875
96	0x3ab4e322	0.0013800601
97	0x3d2ed8ed	0.042687345
98	0xbcfd566d	-0.030925
99	0x3df2bdd0	0.1185261
100	0xbcac5f07	-0.021041406
101	0x3d6242d4	0.055239514
102	0xbd83b793	-0.064314984
103	0x3cac1074	0.02100394
104	0x3b21a58f	0.002466533
105	0x3ccc651f	0.024950562
106	0x3daf435c	0.0855777
107	0xbd12292f	-0.035683807
108	0x3d8b5039	0.06802411
109	0xbd9d0a49	-0.07667977
110	0xbd79a2eb	-0.060946386
111	0x3d22107e	0.03956651
112	0x3d2da02e	0.042389087
113	0xbdb4d02d	-0.08828769
114	0x3bbe2139	0.0058023003
115	0xbd143210	-0.036180556
116	0xbc41db8d	-0.01183213
117	0xbd44c560	-0.048039794
118	0x3d8579ea	0.06517394
119	0xbcf3fc3c	-0.02978336
120	0xbb8ce8ff	-0.0043002362
121	0xbd2ce059	-0.042206142
122	0xbc9dc2fa	-0.019258011
123	0x3dbd362b	0.09238847
124	0x3d62276e	0.055213384
125	0xbd010746	-0.031501077
126	0x3d5fd57f	0.054646965
127	0x3cbbf137	0.022942169
128	0xbd830d62	-0.06399037
129	0x3d477344	0.04869391
130	0x3da32681	0.079663284
131	0xbd7007c8	-0.05860117
132	0x3d72c6f8	0.059271783
133	0xbd0f83a3	-0.035037648
134	0x3cba7041	0.022758605
135	0x3db2238e	0.08698188
136	0xbc5c4a5c	-0.013445463
137	0xbd531001	-0.051528934
138	0xbd582617	-0.0527707
139	0xbd8b7542	-0.068094745
140	0x3d1c5296	0.038164698
141	0xbcffcfae	-0.03122696
142	0xbd9e0195	-0.077151455
143	0xbc8afaf5	-0.016965369
144	0xbd83975d	-0.06425355
145	0x3c8f6bbd	0.017507428
146	0xbce123e3	-0.027482932
147	0xbd21be70	-0.039488256
148	0x3b9ad759	0.0047253785
149	0x3c9f964f	0.019480852
150	0xbd502139	-0.050812934
151	0x3d49d573	0.049275827
152	0x3c7f71af	0.015591069
153	0xbd10494f	-0.035226163
154	0x3c9ecafa	0.019383896
155	0x3de398ac	0.11113104
156	0x3d1cb6cb	0.038260262
157	0xbd695741	-0.056967977
158	0xbca4522e	-0.020058718
159	0xbc468292	-0.012116091
160	0x3ce84daf	0.028357355
161	0x3d934747	0.071913294
162	0xbd73ce19	-0.059522722
163	0x3d8fc7c3	0.070205234
164	0xbac29ec8	-0.0014848346
165	0x3d21500f	0.03938299
166	0xbd5e6671	-0.054296914
167	0xbcc7ec29	-0.024404602
168	0x3a3b50c1	0.0007145517
169	0x3d63e929	0.05564228
170	0xbc1dfe7a	-0.0096431915
171	0x3d89bc9f	0.0672543
172	0xbd81106e	-0.06301962
173	0x3da66be7	0.081260495
174	0x3dcd642c	0.10028872
175	0xbd000a30	-0.031259716
176	0x3ca325cc	0.019915484
177	0x3daa3df0	0.08312595
178	0xbc91bbf8	-0.017789826
179	0x3cc73d2a	0.024321157
180	0x3d01a917	0.031655397
181	0x3d309168	0.04310742
182	0x3d2ac354	0.041690186
183	0xbc047554	-0.008084614
184	0xbcb8e482	-0.022569899
185	0x3c9afda8	0.01891978
186	0xbce9e98d	-0.028553749
187	0x3d334042	0.043762453
188	0xbd1fcc95	-0.039013464
189	0xbd398d06	-0.045300506
190	0x3d125024	0.03572096
191	0xbc8da373	-0.017289853
192	0xbd1113b8	-0.035419196
193	0x3d8a518b	0.06753834
194	0xbd5c6c63	-0.053814303
195	0xbd3ecb2a	-0.04658047
196	0x3d217d06	0.039425872
197	0x3d82521d	0.06363318
198	0x3a5a226c	0.00083211693
199	0xbd935a94	-0.07195011
200	0x3d5cab17	0.0538741
201	0xbd7feed7	-0.062483635
202	0xbd48dd03	-0.0490389
203	0xbc3e6cb2	-0.011622595
204	0xbd7b539d	-0.061359037
205	0xbd92cc4d	-0.071678735
206	0xbd47b825	-0.0487596
207	0xbcede030	-0.029037565
208	0x3cc5acc6	0.024130236
209	0xbd59a243	-0.05313326
210	0x3d907445	0.07053427
211	0x3d560c08	0.052257568
212	0xbd7589de	-0.059945934
213	0xbd6b0ba1	-0.057384137
214	0xbc62e7d3	-0.0138492165
215	0xbd42c4eb	-0.047551077
216	0x3c0cac2b	0.00858597
217	0x3c38d7c9	0.011281916
218	0xbd549daa	-0.051908173
219	0xbc0b6b15	-0.008509417
220	0x3d4a7d85	0.04943611
221	0xbd7c4155	-0.061585743
222	0xbd36d3de	-0.044635646
223	0x3d221fb2	0.03958101
224	0xbc8d7499	-0.017267512
225	0xbd0acdfe	-0.033887856
226	0xbd919747	-0.07108932
227	0xbd838dea	-0.06423552
228	0xbc9f9bdb	-0.019483497
229	0xbd6d29cb	-0.057901185
230	0x3b16048b	0.0022890891
231	0xbd344ba5	-0.044017453
232	0xbd8e7c44	-0.069572955
233	0xbcf7e57f	-0.0302608
234	0xbd812102	-0.06305124
235	0xbcdd6393	-0.02702502
236	0x3c692409	0.014229783
237	0xbd918141	-0.07104731
238	0xbd7b17eb	-0.061302107
239	0xbd89dfc9	-0.06732137
240	0x3d20f0c3	0.03929211
241	0x3d48dbc7	0.04903772
242	0x3da08f4c	0.07839832
243	0xbb583393	-0.0032989725
244	0x3c8bb6b4	0.017054893
245	0xbcf93a12	-0.030423198
246	0xbd1c9188	-0.038224727
247	0x3d607921	0.054803018
248	0x3d7b79b7	0.061395373
249	0xbc71f501	-0.014767886
250	0xbc9c8a96	-0.019109052
251	0x3d4810c8	0.04884413
252	0x3d940f9d	0.072295405
253	0xbd87db47	-0.06633621
254	0xbc9af8c7	-0.018917454
255	0x3b9ef7e2	0.0048513273

main.14.weight f4 [45, 90]
0	0x3e190ee4	0.14947087
1	0xbda83508	-0.0821324
2	0x3e0a54e0	0.1350894
3	0x3d90a2cc	0.07062301
4	0xbcf1871b	-0.029483369
5	0xbdcc33a6	-0.09970789
6	0xbcc98166	-0.024597835
7	0x3dbabd37	0.09118121
8	0x3d460f27	0.048354294
9	0xbdd91e13	-0.10601439
10	0xbd6ac065	-0.057312388
11	0x3c61560e	0.013753427
12	0xbd98f868	-0.07469255
13	0x3d55102c	0.052017376
14	0x3dae78ce	0.085191354
15	0xbca6abc2	-0.020345572
16	0xbc8dc99e	-0.017308053
17	0x3da31eee	0.07964884
18	0x3e34fdc2	0.17674926
19	0xbd4e4c1e	-0.05036556
20	0xbc56d65c	-0.013112631
21	0x3de56aa7	0.11201983
22	0x3e0d9f06	0.13830194
23	0xbddc669f	-0.10761761
24	0xbd422ccc	-0.047406003
25	0x3d1a8eae	0.037733726
26	0x3c31d2e2	0.010853501
27	0x3d1b3d43	0.03790022
28	0xbd866c1e	-0.065635905
29	0x3daa6f41	0.08322001
30	0x3c9ba663	0.019000238
31	0x3ca5eb2b	0.020253738
32	0xbd33bd21	-0.04388154
33	0xbd0ba239	-0.034090254
34	0x3d30399e	0.043023698
35	0xbdb65d8f	-0.08904564
36	0xbdf0ee13	-0.11764159
37	0x3d0fb57d	0.03508519
38	0xbe016bbe	-0.12638757
39	0xbd0a8983	-0.033822548
40	0x3d787947	0.060662534
41	0xbb52900e	-0.003212932
42	0x3e0cc8fd	0.13748546
43	0x3e28b3e5	0.16474874
44	0xbd0ea5fc	-0.034826264
45	0x3dc5304b	0.09628352
46	0x3dd99eda	0.10626002
47	0x3dd46f41	0.103727825
48	0xbd58c9c1	-0.052926783
49	0x3d7e1221	0.062029008
50	0x3ce6eda6	0.028189491
51	0x3db8182f	0.08988988
52	0xbd12d268	-0.03584519
53	0xbdb1f3a3	-0.08689048
54	0x3d3beec7	0.045882013
55	0x3d74041b	0.059574228
56	0xbd9bfd18	-0.07616633
57	0xbdb1ffd0	-0.086913705
58	0x3d809fab	0.06280454
59	0xbd5d567f	-0.054037567
60	0x3da0dd5e	0.078547224
61	0x3db39584	0.08768752
62	0xbdc9e12f	-0.098574035
63	0x3d0b9554	0.034077957
64	0x3d93ddf2	0.07220067
65	0xbdc6975e	-0.0969684
66	0xbdd1fbb1	-0.102530845
67	0xbc71bf3d	-0.014755067
68	0xbd9e9e54	-0.077450424
69	0xbd6c71af	-0.057725605
70	0x3c1e2eb1	0.009654687
71	0xbdc941ed	-0.098270275
72	0xbdbc0314	-0.091802746
73	0xbd6b8338	-0.057498187
74	0xbd8e0ed4	-0.06936422
75	0x3b50279a	0.0031761886
76	0x3e04b985	0.12961395
77	0xbd87c472	-0.06629266
78	0xbcee0607	-0.029055608
79	0x3dca1b6b	0.09868511
80	0x3b86d98a	0.004115288
81	0xbdb92783	-0.090407394
82	0xbdc122a1	-0.09430433
83	0x3d8ebc22	0.06969477
84	0xbd81b863	-0.06333997
85	0x3ca8cb5f	0.020604787
86	0x3da3e35c	0.0800235
87	0xbe28d91e	-0.16489074
88	0xbd6fdf06	-0.0585623
89	0x3c851d2f	0.016249267
90	0x3e0c0a9b	0.1367592
91	0x3d6f91c8	0.058488637
92	0x3e0fe6c4	0.14052874
93	0x3bb91a05	0.0056488537
94	0xbdde7524	-0.108621866
95	0xbc7af6bc	-0.015317615
96	0xbc094f28	-0.008380689
97	0xbd169e8f	-0.036772307
98	0xbdc6fbac	-0.09715971
99	0x3ad71012	0.0016407988
100	0xbc733f3d	-0.01484662
101	0x3d8f804d	0.07006893
102	0x39e918db	0.00044459742
103	0x3e05a699	0.13051833
104	0x3cd87cef	0.02642676
105	0x3d9d8abb	0.07692476
106	0x3e1702e6	0.147472
107	0xbc2cc5b1	-0.01054518
108	0x3e256eda	0.16155568
109	0xbd103e79	-0.03521583
110	0x3d180c73	0.037121248
111	0x3adf93d3	0.0017057605
112	0x3b238bf1	0.0024955238
113	0xbd2a9d6d	-0.04165404
114	0x3d80a68a	0.06281765
115	0x3a7ab749	0.0009564055
116	0xbdb34e03	-0.08755114
117	0xbdb0d53d	-0.08634422
118	0xbdb6ab3f	-0.08919381
119	0x3bccd07c	0.006250439
120	0xbdb8e536	-0.090280935
121	0x3d7a4c88	0.061108142
122	0x3b638dc8	0.003472196
123	0xbd31a625	-0.04337134
124	0xbc9e4692	-0.01932076
125	0xbd405584	-0.046956554
126	0x3df208cb	0.118180834
127	0xbd973547	-0.07383209
128	0xbe086949	-0.13321413
129	0x3dcd36fc	0.10020253
130	0x3d210ae8	0.03931704
131	0x3ccace64	0.024756618
132	0x3c24b756	0.010053476
133	0x3e287d46	0.16454038
134	0xbdac6f65	-0.08419684
135	0x3c4676db	0.012113298
136	0x3dac4972	0.08412446
137	0xbccb8899	-0.024845408
138	0xbcdfd4f9	-0.027323233
139	0xbc3c2e16	-0.011485597
140	0x3dc2c6ef	0.095106
141	0x3c890cfa	0.01672982
142	0x3d3dced5	0.04633983
143	0x3de112b7	0.10989898
144	0xbd4990c4	-0.049210325
145	0xbd9e3fcb	-0.07727011
146	0xbc7a6f54	-0.015285332
147	0x397c965e	0.00024088609
148	0x3e13ca7f	0.14432715
149	0x3ca15951	0.01969591
150	0x3d386549	0.045018468
151	0xbdc2fd88	-0.095210135
152	0x3c86f601	0.016474726
153	0xbd19032e	-0.037356548
154	0xbcd9fa7f	-0.026608704
155	0x3ac1a7d0	0.0014774743
156	0x3d7e0ba4	0.06202282
157	0x3d34a98b	0.044107
158	0xbd7695c6	-0.06020143
159	0xbdcdad64	-0.10042837
160	0xbdc5bd9b	-0.09655305
161	0x3cc00d79	0.023443924
162	0xbddffb4e	-0.109366044
163	0xbdba04b1	-0.09082926
164	0x3d26eb35	0.040751655
165	0x3d919cd8	0.07109994
166	0x3d975ef9	0.073911615
167	0xbdf1aea0	-0.11800885
168	0x3ded2540	0.115793705
169	0x3e09f4ad	0.13472243
170	0x3c5f6941	0.013635934
171	0x3d553550	0.052052796
172	0xbd96e678	-0.07368177
173	0xbda57360	-0.08078647
174	0xbdc592d6	-0.09647147
175	0x3d6629fd	0.056192387
176	0x3c8add7f	0.01695132
177	0xbe21e098	-0.15808332
178	0x3dc12195	0.094302334
179	0x3c9cf990	0.01916197
180	0xbdff86ef	-0.124769084
181	0xbd280584	-0.041020885
182	0xbd891800	-0.06694031
183	0x3dbd3333	0.09238281
184	0x3d815c13	0.0631639
185	0x3e0097ea	0.1255795
186	0x3d989aaa	0.07451375
187	0xbb91f0f0	-0.004453771
188	0xbc22d7ad	-0.009939116
189	0xbdb296ab	-0.08720144
190	0xbd5d90ee	-0.054093294
191	0x3d0b32a0	0.033983827
192	0x3dc3b5cf	0.095561616
193	0xbd8868ce	-0.06660615
194	0xbd2a3b40	-0.04156041
195	0x3d886fcf	0.06661951
196	0xbdb6574c	-0.08903369
197	0x3dc97303	0.0983639
198	0x3c22c3bf	0.009934365
199	0x3deff8ae	0.11717354
200	0x3d745049	0.05964688
201	0x3ce0860d	0.02740767
202	0xbdaf16a3	-0.085492395
203	0x3aa5e06b	0.0012655383
204	0x3dc5c3b2	0.096564665
205	0xbe026300	-0.12733078
206	0xbd1bdf41	-0.03805471
207	0xbd91a829	-0.07112152
208	0x3a5f6798	0.00085222116
209	0x3cc74ea0	0.024329484
210	0x3c0cec1d	0.008601216
211	0x3c5f6ab0	0.013636276
212	0x3d9f0e10	0.07766354
213	0xbd582a05	-0.052774448
214	0xbcba1628	-0.022715643
215	0xbd8b2001	-0.06793214
216	0xbd5eb944	-0.0543759
217	0x3dcf9c32	0.10137214
218	0x3e0013c4	0.1250754
219	0xbd3adcae	-0.045620613
220	0x3df9f283	0.122044586
221	0x3dbdcc0c	0.092674345
222	0xbd94d6ea	-0.07267554
223	0x3ceccbf3	0.028905844
224	0x3d91a639	0.071117826
225	0xbca8d8d1	-0.020611199
226	0xbbd63620	-0.006537214
227	0xbcc84dfe	-0.024451252
228	0x3b477290	0.0030433275
229	0xbdb56449	-0.088570185
230	0x3db38d1a	0.08767147
231	0x3dbbc286	0.09167962
232	0x3c8db4e5	0.017298171
233	0x3d763ebc	0.060118422
234	0xbc6d3fb6	-0.014480522
235	0xbd739f88	-0.059478313
236	0x3d03a665	0.032141108
237	0xbc832cfb	-0.01601266
238	0xbd8dafa0	-0.069182634
239	0xbd6a475c	-0.05719696
240	0xbbc5b0da	-0.0060330452
241	0xbc439f1a	-0.011939788
242	0xbd941669	-0.07230837
243	0xbdef978f	-0.116988294
244	0x3e071d34	0.13194734
245	0x3cf42faa	0.029807884
246	0x3bffbd5f	0.007804557
247	0x3d5dc410	0.054142058
248	0x3d12dcf0	0.035855234
249	0xbd8e7f3c	-0.06957862
250	0x3c57135b	0.013127173
251	0x3ccb8e3a	0.024848092
252	0xbcfe3331	-0.03103027
253	0xbd5d386f	-0.054008897
254	0x3d9aca8c	0.07558164
255	0x3bc122b0	0.0058940277
