submission/code/models/penne2Albolognese1EPesto1.pth (torch, 413042 bytes, 15 tensors)

main.0.weight f4 [10, 3, 4, 4]
0.0010596247 0.015889524 0.042723954 -0.16660847 -0.120633714 -0.0029838206 0.068838835 -0.22513555
0.048639864 -0.0046601994 0.033741836 -0.087203965 -0.11466762 0.05134942 -0.10202049 -0.06986571
0.16065751 0.19458275 -0.014012457 -0.12666456 0.057571612 -0.06766121 -0.030362146 0.15699998
0.1133739 0.07915339 0.13557044 -0.041631356 0.08405536 0.009916955 0.006248957 -0.11788878
0.0033355532 0.0032490154 -0.10602314 -0.067805454 0.049074244 0.14066601 -0.014562922 0.03425802
0.14711033 0.14854726 0.015622051 -0.107783265 0.12192021 -0.012235473 0.013264691 0.10949331
0.13192503 0.15996194 0.015979199 0.020315774 -0.0003744402 -0.00031232915 0.04097374 0.04277721
0.14587936 0.05765259 0.156536 -0.019349765 -0.064075336 0.17196245 -0.024684584 0.03901226
0.04497095 0.06809541 0.060057156 0.06606668 -0.051322557 -0.06606087 0.04580281 -0.050681286
0.03846193 0.050516136 -0.06012355 0.06881843 0.010423771 0.063707374 -0.038069114 0.09027096
0.01852944 -0.08640872 -0.04950987 -0.0024263137 0.06510633 -0.01952921 0.037549585 -0.07269665
0.035528746 0.079781614 0.019412702 0.18699066 0.0018094144 -0.02352733 0.17277434 0.021844283
-0.114646 -0.119668655 -0.1441977 -0.07841118 -0.14189836 0.022904124 -0.023083137 -0.16182812
-0.1579717 -0.0010223294 -0.2065124 0.003267679 0.15831365 -0.022927452 0.18241964 -0.11939477
-0.1442597 -0.044242043 -0.09336114 -0.07392028 -0.17690217 0.06718753 -0.13362455 0.035896227
-0.20202881 0.029210819 -0.103079244 -0.11601509 0.111812524 -0.17249955 -0.1596054 -0.060368843
-0.22671106 0.100036465 -0.12788898 -0.18835184 0.2124225 0.013283159 0.065335065 0.19502723
0.010627443 -0.02077232 -0.11426889 0.03333115 -0.23129874 0.094623126 0.049608506 0.04021881
-0.074312136 0.0991249 -0.036612224 0.070251174 -0.021359963 0.13743544 -0.21996796 0.19192436
-0.14428031 -0.099929675 0.07669376 0.15935709 0.1329707 0.00045064872 0.035881 -0.21472101
0.10277645 -0.110606 -0.089787446 0.015710792 0.15098518 0.08747758 -0.1576812 0.0029944608
-0.06987551 0.08402309 0.059495594 -0.118374825 0.0976205 0.05524921 -0.15140052 0.103839345
-0.003279665 0.069360524 -0.00700614 -0.02799266 -0.08503415 -0.15203823 0.1641862 -0.078349225
-0.0744614 0.058695335 -0.04505982 -0.12742293 -0.042879947 -0.007513266 0.18717782 0.036010895
0.07530635 -0.014676448 0.048260354 -0.013530726 -0.13785233 0.0869189 -0.18906395 0.19933748
0.058703948 -0.08275825 -0.08440326 0.010115368 -0.055395465 -0.049199995 -0.009385488 0.008942931
-0.028910346 0.0031693876 0.05676235 0.08357228 0.08092305 -0.009364611 0.038818195 0.08712902
0.08117019 -0.01190162 -0.027000705 0.033292405 -0.15931018 0.029421136 -0.06872453 -0.10016023
0.09344155 0.0020409096 0.060521245 -0.102175705 -0.06892788 0.14535807 -0.0033684177 0.004626109
0.09582273 -0.081413634 0.10588782 0.073144704 0.11726765 -0.022551248 -0.13785857 -0.08192357
-0.097672395 0.05153297 0.021074707 0.082900494 0.079109736 -0.0066794115 0.12042701 0.006872383
0.07396674 0.048983864 0.06944342 0.1785693 0.06971179 0.037152063 0.012725619 0.10677198
00000000: 1be3 8a3a bf2a 823c 50ff 2e3d 699b 2abe
00000010: cf0e f7bd 348c 43bb 60fb 8c3d ef89 66be
00000020: 983a 473d 96b4 98bb e134 0a3d fe97 b2bd
00000030: dbd6 eabd c553 523d 1ef0 d0bd c115 8fbd
00000040: 6783 243e b340 473e 8194 65bc 5bb4 01be
00000050: 36d0 6b3d f691 8abd 09ba f8bc 9ac4 203e
00000060: 9330 e83d 2c1b a23d fad2 0a3e a485 2abd
00000070: 3725 ac3d b97a 223c 0dc4 cc3b ac6f f1bd
00000080: 4c99 5a3b 6fed 543b a922 d9bd 96dd 8abd
00000090: 1302 493d c00a 103e 5299 6ebc 2352 0c3d
000000a0: 17a4 163e c61c 183e a2f3 7f3c 79bd dcbd
000000b0: 4eb1 f93d 4b77 48bc 2654 593c 073e e03d
000000c0: 5b17 073e 10cd 233e cfe6 823c 446d a63c
000000d0: 8350 c4b9 1cc0 a3b9 15d4 273d 2837 2f3d
000000e0: 6661 153e 1f25 6c3d f94a 203e 6683 9ebc
000000f0: ee39 83bd ed16 303e 5337 cabc 52cb 1f3d
00000100: 7533 383d 9b75 8b3d 7efe 753d f84d 873d
00000110: 9a37 52bd ec4a 87bd ba9b 3b3d 2e97 4fbd
00000120: 428a 1d3d 02ea 4e3d 1d44 76bd adf0 8c3d
00000130: 77c8 2a3c 0379 823d 5cee 1bbd fbdf b83d
00000140: 0dcb 973c 0ef7 b0bd ddca 4abd ca02 1fbb
00000150: 7856 853d b9fb 9fbc 98cd 193d fbe1 94bd
00000160: 9786 113d 8b64 a33d 6307 9f3c 7b7a 3f3e
00000170: df29 ed3a 63bc c0bc c2eb 303e c8f2 b23c
00000180: 86cb eabd d714 f5bd 90a8 13be 0a96 a0bd
00000190: ce4d 11be 6ea1 bb3c d918 bdbc 45b6 25be
000001a0: 55c3 21be afff 85ba fd77 53be 8e26 563b
000001b0: f91c 223e 5ad2 bbbc 37cc 3a3e 3f85 f4bd
000001c0: d1b8 13be 2537 35bd 2034 bfbd 8463 97bd
000001d0: d825 35be 9e99 893d e0d4 08be ec07 133d
000001e0: a4e0 4ebe 874b ef3c 361b d3bd 5299 edbd
000001f0: f7fd e43d b9a3 30be 996f 23be 5245 77bd
00000200: f226 68be ebdf cc3d 54f5 02be 4edf 40be
00000210: 4985 593e 9ba1 593c 64ce 853d 38b5 473e
00000220: ba1e 2e3c b62a aabc cf05 eabd 3e86 083d
00000230: 94d9 6cbe c5c9 c13d 4a32 4b3d 7bbc 243d
00000240: f630 98bd ff01 cb3d b3f6 15bd d9df 8f3d
00000250: 17fb aebc e0bb 0c3e 483f 61be d287 443e
00000260: 38be 13be eea7 ccbd 9e11 9d3d 812e 233e
00000270: 7929 083e 0c45 ec39 f5f7 123d d3df 5bbe
00000280: 767c d23d 6685 e2bd 7be2 b7bd ebb3 803c
00000290: dc9b 1a3e 7227 b33d 2e77 21be b73e 443b
000002a0: e41a 8fbd 4c14 ac3d a7b1 733d 806e f2bd
000002b0: 42ed c73d ff4c 623d bd08 1bbe b9a9 d43d
000002c0: a6ef 56bb e40c 8e3d c393 e5bb dd50 e5bc
000002d0: 6226 aebd e9af 1bbe 6d20 283e 8f75 a0bd
000002e0: 387f 98bd 856a 703d a590 38bd 287b 02be
000002f0: e2a2 2fbd d831 f6bb 8bab 3f3e 2980 133d
00000300: 373a 9a3d 7c75 70bc a6ac 453d faaf 5dbc
00000310: 2929 0dbe 8902 b23d fb99 41be 201f 4c3e
00000320: 8d73 703d 287d a9bd 9edb acbd eeba 253c
00000330: 5be6 62bd ef85 49bd 97c5 19bc 5f85 123c
00000340: 64d5 ecbc 80b5 4f3b a37f 683d f227 ab3d
00000350: fcba a53d 066e 19bc d4ff 1e3d b370 b23d
00000360: 8e3c a63d 03ff 42bc 9530 ddbc 9e5d 083d
00000370: 3522 23be 9804 f13c 72bf 8cbd cf20 cdbd
00000380: 495e bf3d c8c0 053b 20e5 773d 7f41 d1bd
00000390: 0f2a 8dbd bfd8 143e acc0 5cbb 9d96 973b
000003a0: b53e c43d 31bc a6bd b7db d83d e4cc 953d
000003b0: 062a f03d 65bd b8bc cc2a 0dbe 8bc7 a7bd
000003c0: 7708 c8bd 3c14 533d dda4 ac3c bcc7 a93d
000003d0: 4904 a23d f7de dabb 70a2 f63d ba31 e13b
000003e0: e07b 973d 4ea3 483d 5a38 8e3d dfda 363e
000003f0: 0ec5 8e3d c32c 183d 1d7f 503c 45ab da3d

main.3.weight f4 [20, 10, 4, 4]
0.12349179 -0.037417352 -0.0518497 -0.014760091 -0.008208946 0.1346843 0.030042041 0.028296342
0.019200569 0.0074597797 -0.011188687 0.055935074 -0.05406509 -0.029304428 0.013029238 0.08121057
-0.032159135 0.023478456 0.039117217 0.07433289 0.08367117 0.018368624 -0.21807954 0.0064894175
-0.04105445 0.026257118 -0.02336441 0.0046226536 -0.08422452 -0.11249786 -0.086107 0.005005976
0.019337563 -0.030159172 -0.10840419 -0.03844939 0.053118546 0.0028357499 0.05734382 0.05883551
-0.028669585 0.0014460273 0.017119221 -0.041890275 0.0862442 -0.014824101 0.07749889 0.04240891
-0.02711345 -0.03556904 -0.010467476 -0.035615876 0.014915 -0.06274838 -0.12526444 -0.08133013
0.00062460284 0.00035304515 0.06937337 0.031117626 -0.015884088 0.011719413 -0.016145192 0.0628838
-0.12251718 -0.027535621 -0.00858047 0.038922325 0.008809707 0.027869346 -0.03641517 0.009696297
-0.018118212 0.073344104 -0.036256563 0.0229407 -0.041236896 0.060926985 0.036477517 0.08492935
0.026560185 -0.08295538 -0.017225929 -0.049556356 0.029023666 0.06480439 0.047440108 0.05870021
-0.03549247 0.05115801 -0.06130544 -0.052787658 -0.05235627 -0.036742684 -0.001899284 -0.03809275
-0.13393946 0.03271055 0.050955515 0.0004977093 0.051062316 -0.014531581 0.037680864 0.028511615
0.06734248 0.036999702 0.008620129 -0.06769798 0.029090943 -0.037527937 -0.009010562 -0.029486235
0.004054028 0.02798862 -0.08980887 -0.09799259 -0.055349182 0.056969035 0.0035895708 0.018742517
-0.00634386 -0.014914832 -0.014641162 -0.04531187 -0.008572177 -0.084491864 -0.051887956 -0.019189129
-0.06423666 -0.078666136 0.06449913 0.008355874 0.04100439 0.0048419735 0.044445466 -0.090845175
-0.03482075 0.06902716 0.08355748 -0.11852607 0.09600923 0.071868174 0.013063414 -0.0895277
-0.039065093 0.043253962 -0.005604187 -0.003843125 0.022466568 -0.0020797406 -0.036187083 0.024179142
0.0115772765 0.038562007 0.077408716 0.020788394 -0.07139412 -0.0014805696 0.047153916 -0.03465024
-0.07545873 0.021909185 -0.017122883 -0.01452733 0.03838033 -0.0813505 0.035280086 -0.063420095
-0.066102594 0.074984044 0.034360062 -0.07167451 -0.027358666 0.045896508 0.004142304 0.0002822076
-0.08023289 -0.017653223 -0.0013553037 0.05177226 -0.041319862 0.009427855 -0.009579259 0.07553822
0.0014888017 -0.0626855 0.03797683 -0.07638511 -0.043727674 -0.027279612 0.01984064 0.037439343
0.015240689 -0.03127757 -0.073456906 -0.00984409 -0.05237692 0.03987888 -0.075329244 0.060737334
0.020931438 0.024264498 -0.02646904 0.04573349 -0.02833599 -0.07147685 -0.023295697 -0.073876575
-0.034661155 0.030977098 0.019690666 0.041922085 -0.08604308 -0.03821623 -0.0460982 0.031585854
0.06224864 -0.05051654 -0.062571265 0.0008129723 0.031687368 -0.08340916 0.028377498 0.0075734137
0.0008015652 0.0071706725 -0.026581956 0.030070188 0.028669443 0.024140783 -0.051339176 -0.058554333
0.016317297 -0.040728033 -0.08618337 -0.06305151 0.061705906 -0.070866145 0.00049640844 -0.0022861706
-0.04186264 0.03375634 -0.04699061 -0.014470724 0.0596956 -0.032919627 -0.09447043 -0.056576993
0.09914605 -0.008520849 -0.011551287 -0.07126032 -0.070371255 0.070972756 -0.038217977 -0.006987808
00000000: 43e9 fc3d f042 19bd 5a60 54bd 4fd4 71bc
00000010: d17e 06bc aeea 093e ba1a f63c bbcd e73c
00000020: 834a 9d3c 2b71 f43b c150 37bc 2d1c 653d
00000030: 5b73 5dbd d70f f0bc 9678 553c ba51 a63d
00000040: 4cb9 03bd e455 c03c 6039 203d d83b 983d
00000050: ca5b ab3d cc79 963c 3e50 5fbe 2ea5 d43b
00000060: b628 28bd 2b19 d73c b866 bfbc a179 973b
00000070: e87d acbd 4765 e6bd de58 b0bd 2c09 a43b
00000080: cf69 9e3c 5e10 f7bc 0403 debd 1c7d 1dbd
00000090: d592 593d fdd7 393b 5ae1 6a3d 81fd 703d
000000a0: 7adc eabc a088 bd3a 9c3d 8c3c 2395 2bbd
000000b0: cda0 b03d c9e0 72bc bdb7 9e3d f7b4 2d3d
000000c0: 071d debc d7b0 11bd c77f 2bbc f4e1 11bd
000000d0: 0b5e 743c 3982 80bd 5245 00be 6990 a6bd
000000e0: 63bc 233a eb18 b939 a013 8e3d 64ea fe3c
000000f0: 591f 82bc c802 403c ec42 84bc 39c9 803d
00000100: 4aea fabd 6292 e1bc 1a95 0cbc 046d 1f3d
00000110: 9756 103c 414e e43c 1328 15bd 38dd 1e3c
00000120: a56c 94bc 6f35 963d c381 14bd 23ee bb3c
00000130: 05e8 28bd 938e 793d 7369 153d 70ef ad3d
00000140: bf94 d93c 83e4 a9bd 641d 8dbc 9bfb 4abd
00000150: 0ac3 ed3c 2ab8 843d 8f50 423d a26f 703d
00000160: 8d60 11bd 108b 513d 6a1b 7bbd df37 58bd
00000170: 8773 56bd 7f7f 16bd 65f1 f8ba 2507 1cbd
00000180: 6d27 09be 7ffb 053d bbb6 503d b578 023a
00000190: b826 513d de15 6ebc 4057 1a3d 3191 e93c
000001a0: dbea 893d 008d 173d 713b 0d3c 3da5 8abd
000001b0: 2150 ee3c e5b6 19bd 09a1 13bc 1e8d f1bc
000001c0: a7d7 843b 6448 e53c b6ed b7bd 57b0 c8bd
000001d0: d3b5 62bd 5d58 693d 013f 6b3b e889 993c
000001e0: 28e0 cfbb 575d 74bc 7ce1 6fbc f098 39bd
000001f0: 5172 0cbc 120a adbd 7788 54bd 8532 9dbc
00000200: 838e 83bd b61b a1bd 1f18 843d 13e7 083c
00000210: 38f4 273d 6ba9 9e3b 730c 363d 090d babd
00000220: 34a0 0ebd 1d5e 8d3d 2f20 ab3d ccbd f2bd
00000230: 7da0 c43d 9f2f 933d ee07 563c 4c5a b7bd
00000240: b802 20bd 112b 313d 54a3 b7bb f0dc 7bbb
00000250: cf0b b83c 424c 08bb e838 14bd 5613 c63c
00000260: 9eae 3d3c 32f3 1d3d 7688 9e3d 6c4c aa3c
00000270: 1537 92bd ac0f c2ba 7724 413d 69ed 0dbd
00000280: 1b8a 9abd e47a b33c 4a45 8cbc 0a04 6ebc
00000290: b134 1d3d 179b a6bd da81 103d 65e2 81bd
000002a0: cc60 87bd 3c91 993d 23bd 0c3d 16ca 92bd
000002b0: 481f e0bc fafd 3b3d 2abc 873b 43f5 9339
000002c0: 2451 a4bd 7e9d 90bc 72a4 b1ba 260f 543d
000002d0: 043f 29bd 4a77 1a3c 53f2 1cbc c8b3 9a3d
000002e0: e523 c33a 4161 80bd 988d 1b3d cc6f 9cbd
000002f0: ca1b 33bd 7e79 dfbc d688 a23c ff59 193d
00000300: 15b4 793c e91c 00bd 9370 96bd 1b49 21bc
00000310: 2e89 56bd 0958 233d 3846 9abd b6c7 783d
00000320: 6878 ab3c 57c6 c63c 9ad5 d8bc 0a53 3b3d
00000330: e120 e8bc 7462 92bd 9ed6 bebc 9a4c 97bd
00000340: dbf8 0dbd afc3 fd3c 524e a13c 7eb6 2b3d
00000350: 5b37 b0bd 9f88 1cbd 77d1 3cbd 2b60 013d
00000360: 6ef8 7e3d 6eea 4ebd 5d25 80bd a61d 553a
00000370: 9dca 013d 6cd2 aabd ed77 e83c 662a f83b
00000380: 2120 523a f6f7 ea3b 67c2 d9bc c155 f63c
00000390: 2edc ea3c e4c2 c53c 0749 52bd abd6 6fbd
000003a0: daab 853c 70d2 26bd e880 b0bd 2621 81bd
000003b0: 55bf 7c3d 4522 91bd 6821 023a 94d3 15bb
000003c0: 2978 2bbd 1744 0a3d 3a79 40bd 9e16 6dbc
000003d0: 6083 743d bbd6 06bd b679 c1bd 47bd 67bd
000003e0: 160d cb3d 089b 0bbc 9c41 3dbc eef0 91bd
000003f0: ce1e 90bd 2a5a 913d 748a 1cbd fbf9 e4bb

main.4.weight f4 [20]
1.0541683 1.0025324 1.0055343 1.0186757 1.0030838 0.9471717 1.0109837 0.9632934
0.9518708 0.95603335 0.9565482 0.996914 0.9716649 1.1652052 0.99260354 0.9709891
0.95768946 1.0013559 1.0261425 1.0232812
00000000: fdee 863f fb52 803f 59b5 803f f763 823f
00000010: 0d65 803f d879 723f ea67 813f 659a 763f
00000020: cead 733f 9abe 743f 58e0 743f c235 7f3f
00000030: 08bf 783f 7225 953f 441b 7e3f be92 783f
00000040: 232b 753f 6e2c 803f a358 833f e1fa 823f

main.4.bias f4 [20]
0.009860894 0.0036936514 -0.02640043 -0.0025535452 0.02392629 -0.029849317 -0.045000672 -0.015515595
-0.044103134 -0.0121013 -0.02126734 -0.040433418 -0.01357997 -0.00254239 -0.01934954 -0.023873556
-0.011826939 -0.013582262 0.021961011 -0.0073236343
00000000: 968f 213c 3011 723b b745 d8bc 6159 27bb
00000010: 1101 c43c 8e86 f4bc a052 38bd 1f35 7ebc
00000020: 7da5 34bd 8844 46bc d838 aebc 839d 25bd
00000030: 867e 5ebc 3a9e 26bb ed82 9ebc 7a92 c3bc
00000040: c7c5 41bc 2388 5ebc 94e7 b33c 19fb efbb

main.4.running_mean f4 [20]
-1730.8182 -3441.172 -2649.1592 -1953.5413 -1118.4805 5741.3594 -3078.3364 -96.52614
959.0504 -346.55112 2420.4587 -2481.1958 -882.419 -2559.5918 763.36487 513.42896
667.66205 -2872.5308 -3142.7473 -1358.9778
00000000: 2f5a d8c4 c112 57c5 8c92 25c5 5231 f4c4
00000010: 60cf 8bc4 e06a b345 6265 40c5 620d c1c2
00000020: 3ac3 6f44 8b46 adc3 5747 1745 2213 1bc5
00000030: d19a 5cc4 78f9 1fc5 5ad7 3e44 745b 0044
00000040: 5fea 2644 7e88 33c5 f56b 44c5 4adf a9c4

main.4.running_var f4 [20]
6.0912605e+06 1.7652478e+07 1.7595552e+07 1.1491039e+07 4.378425e+06 6.3128664e+07 1.8315242e+07 6.127621e+06
1.865653e+07 1.656341e+07 2.16789e+07 8.999272e+06 1.3677995e+07 2.3115038e+07 1.1492335e+07 1.0349283e+07
4.8298275e+06 1.7444824e+07 1.3044153e+07 6.6459695e+06
00000000: f9e3 b94a 7fad 864b 503e 864b df56 2f4b
00000010: 729e 854a 16d1 704c f5bb 8b4b 0a00 bb4a
00000020: 8956 8e4b d2bc 7c4b 9a65 a54b 6851 094b
00000030: abb5 504b 8f5a b04b ef5b 2f4b e3ea 1d4b
00000040: 0765 934a ec17 854b b909 474b a3d1 ca4a

main.6.weight f4 [40, 20, 4, 4]
-0.0034628068 -0.014069977 -0.059810143 0.05057182 0.07735902 0.0030673342 0.038323734 -0.038149893
-0.041991882 -0.038962573 0.020795258 -0.025312314 0.00560389 0.02787893 -0.054794688 0.051847488
0.03246675 -0.057892315 -0.018157795 -0.051745377 0.023711208 -0.018037904 0.028830817 0.009234896
-0.031766616 -0.04539416 -0.024790095 0.0038929658 -0.038584433 0.020861201 -0.04808477 0.021161616
-0.024527919 -0.029471455 0.054622747 0.03259287 0.012016059 0.0041660536 -0.007749375 0.044614054
0.004212508 0.001999882 0.013917672 0.016764883 0.04411457 -0.009366451 0.025682712 -0.050372243
-0.0006067277 -0.034928236 0.016846009 -0.023760375 -0.057426006 0.023399737 -0.04756103 0.0032820841
0.067925364 -0.0024403688 0.051481172 0.04501789 0.02995957 0.047119 -0.046204757 0.03329811
0.031438746 0.02022322 -0.042047903 0.0037088604 0.00868634 0.0031923426 -0.03647688 -0.017827759
-0.012215728 -0.023386894 -0.042971954 -0.019658955 -0.0050660996 -0.017545754 0.010289609 0.0056247455
-0.02287594 0.009447064 -0.027593499 0.04816594 0.0077715428 -0.029594947 0.041451924 -0.022327654
0.021584446 -0.046769127 -0.016327312 0.042751543 -0.0074820966 0.033037256 0.0023414735 0.024263326
-0.031809013 -0.021010999 -0.0007270356 0.070729844 -0.045920197 -0.00872479 -0.035758022 0.0007627156
-0.006929861 0.0069271564 -0.06124442 0.05316435 0.05479353 -0.053271774 0.03989719 -0.011154507
0.052170344 0.009011239 0.015943337 -0.025565863 -0.04882921 0.039130878 0.0031753452 -0.002781961
-0.05502144 0.0040542446 -0.03611095 -0.0059660967 -0.0032334898 0.007252186 -0.023300871 -0.007913284
0.0003274228 -0.004894849 0.04679115 -0.053278726 0.0008833186 -0.009852391 -0.033511955 0.004498592
-0.018864742 -0.030716069 0.047205914 -0.016708469 0.055227082 -0.0021188299 0.028510543 -0.051048048
-0.024484698 -0.0454557 0.03057006 0.034972165 -0.008420034 -0.025860652 -0.05428495 0.0031282243
-0.010134819 -0.0419558 -0.03189346 0.03613719 -0.030191127 -0.05956173 0.041905575 -0.028634198
0.03257937 0.009733158 -0.002432882 0.060543563 0.036479156 -0.015038311 0.0022983719 0.05792527
0.043627813 0.056087002 0.008246929 0.018905193 0.024567185 -0.006375083 -0.035328362 0.037542332
0.046559714 0.016315391 0.04632506 -0.017272245 0.0070523922 0.030288266 0.026554829 -0.03349955
0.052810438 0.05628228 -0.04914539 -0.00643377 0.043236274 0.0381527 0.027695855 0.013616985
-0.06466162 0.020248039 -0.0061135916 0.020080484 -0.0144900875 0.013442571 0.05139393 -0.018756943
0.054087855 -0.014961199 -0.0064094868 0.033905134 0.01872242 -0.00160869 -0.0052344752 0.04232467
0.029864343 -0.032963913 -0.057005644 0.044465132 0.010712104 -0.025371673 -0.043541353 0.048160896
0.11371647 -0.0332095 0.010204561 0.041597273 0.082129404 -0.015941089 -0.05579111 -0.0754494
0.024895238 0.013817056 -0.025852714 0.0044063022 -0.03346551 0.021974878 0.06687317 -0.0056486153
-0.09683912 -0.06023921 -0.046913628 0.019644149 0.020330463 0.08441912 -0.03391483 0.001577879
-0.0024628795 -0.045902047 -0.04030221 0.024993611 0.022359656 0.01957587 -0.037657473 0.022389524
0.046499252 -0.008586985 -0.0507823 -0.04404602 -0.043581985 -0.028794851 0.0003402424 -0.030133493
00000000: 42f0 62bb c385 66bc 7bfb 74bd 6624 4f3d
00000010: 686e 9e3d 5405 493b 59f9 1c3d 1043 1cbd
00000020: aeff 2bbd 3897 1fbd d15a aa3c c55b cfbc
00000030: d6a0 b73b 5b62 e43c 6570 60bd 085e 543d
00000040: dbfb 043d 7e20 6dbd a8bf 94bc f6f2 53bd
00000050: 023e c23c 3ac4 93bc 9b2e ec3c f64d 173c
00000060: b61d 02bd 3aef 39bd 9914 cbbc 2121 7f3b
00000070: b60a 1ebd 1ce5 aa3c 89f4 44bd 205b ad3c
00000080: c6ee c8bc 1f6e f1bc 1abc 5f3d 1a80 053d
00000090: 01df 443c 6483 883b 78ee fdbb 3abd 363d
000000a0: 1409 8a3b 7410 033b f306 643c 8256 893c
000000b0: 7bb1 343d be75 19bc 8d64 d23c 2053 4ebd
000000c0: cf0c 1fba e910 0fbd a400 8a3c 1ea5 c2bc
000000d0: 8837 6bbd ceb0 bf3c 5bcf 42bd 3c18 573b
000000e0: 741c 8b3d 98ee 1fbb ecdd 523d ae64 383d
000000f0: c66d f53c daff 403d 3341 3dbd 9963 083d
00000100: eac5 003d 2bab a53c 6c3a 2cbd 5a10 733b
00000110: 2751 0e3c 9f36 513b c868 15bd 850b 92bc
00000120: 7a24 48bc df95 bfbc 5c03 30bd d10b a1bc
00000130: 8601 a6bb 1dbc 8fbc c095 283c c94f b83b
00000140: 5366 bbbc dcc7 1a3c c30b e2bc a649 453d
00000150: 6da8 fe3b 1a71 f2bc 7ec9 293d 7ce8 b6bc
00000160: ddd1 b03c fc90 3fbd dbc0 85bc 3e1c 2f3d
00000170: 602c f5bb 1352 073d 6873 193b e2c3 c63c
00000180: 2b4a 02bd 421f acbc 8996 3eba cfda 903d
00000190: d116 3cbd 6cf2 0ebc 0177 12bd faf0 473a
000001a0: e313 e3bb 33fd e23b 6edb 7abd ddc2 593d
000001b0: 2e6f 603d 8133 5abd 3c6b 233d 65c1 36bc
000001c0: 92b0 553d e0a3 133c 9a9b 823c 806f d1bc
000001d0: 2301 48bd b347 203d 7419 503b 9051 36bb
000001e0: 295e 61bd 78d9 843b 13e9 13bd 3f7f c3bb
000001f0: f5e8 53bb bfa3 ed3b 78e1 bebc b8a6 01bc
00000200: f2a9 ab39 f864 a0bb 14a8 3f3d cb3a 5abd
00000210: 828e 673a ec6b 21bc d543 09bd ed68 933b
00000220: 3b8a 9abc 44a0 fbbc fd5a 413d 33e0 88bc
00000230: cb35 623d 11dc 0abb f18e e93c c217 51bd
00000240: 2294 c8bc c22f 3abd 106e fa3c f93e 0f3d
00000250: 2ff4 09bc b8d9 d3bc e559 5ebd e502 4d3b
00000260: 830c 26bc d8d9 2bbd b7a2 02bd 9704 143d
00000270: 6253 f7bc 00f7 73bd 2ea5 2b3d 4492 eabc
00000280: f271 053d d377 1f3c fd70 1fbb 87fc 773d
00000290: 2b6b 153d 3f63 76bc 48a0 163b 0c43 6d3d
000002a0: 14b3 323d 7cbb 653d 211e 073c 10df 9a3c
000002b0: 1f41 c93c 12e6 d0bb 79b4 10bd fdc5 193d
000002c0: 66b5 3e3d dba7 853c 59bf 3d3d 867e 8dbc
000002d0: c117 e73b 191f f83c 8389 d93c d336 09bd
000002e0: c24f 583d 3f88 663d ad4c 49bd 60d2 d2bb
000002f0: 8518 313d 0146 1c3d 6be2 e23c c619 5f3c
00000300: 506d 84bd 37df a53c 8654 c8bb d47f a43c
00000310: d567 6dbc 3b3e 5c3c 7182 523d 29a8 99bc
00000320: 3a8b 5d3d d11f 75bc ac06 d2bb 1ce0 0a3d
00000330: c35f 993c aeda d2ba f685 abbb a25c 2d3d
00000340: 11a6 f43c 2b05 07bd c07e 69bd 1221 363d
00000350: d281 2f3c 41d8 cfbc 6b58 32bd 5c44 453d
00000360: 2ee4 e83d af06 08bd 0831 273c e761 2a3d
00000370: 7633 a83d e396 82bc 3885 64bd 3785 9abd
00000380: 19f1 cb3c ef60 623c 12c9 d3bc be62 903b
00000390: 2113 09bd a904 b43c cdf4 883d 0518 b9bb
000003a0: 9753 c6bd 64bd 76bd 8128 40bd c4ec a03c
000003b0: 128c a63c eee3 ac3d 47ea 0abd d5d0 ce3a
000003c0: 4368 21bb c903 3cbd ee13 25bd 67bf cc3c
000003d0: 992b b73c 935d a03c b93e 1abd 3c6a b73c
000003e0: 0076 3e3d 6db0 0cbc 1a01 50bd 9969 34bd
000003f0: 0683 32bd 2ee3 ebbc 9062 b239 84da f6bc

main.7.weight f4 [40]
1.0849844 1.0766796 1.1419247 1.0333554 1.0456522 1.0531828 1.0488104 1.0486547
1.0712737 1.0650275 1.028098 1.0286281 1.0947622 1.0865098 1.0936564 1.0376246
1.0405976 1.0178672 1.0702823 1.0372996 1.0372086 1.0829341 1.0659066 1.0420578
1.0484036 1.0433278 1.1095911 1.1059067 1.1027766 1.0450217 1.1503074 1.1453211
1.0697865 1.0465719 1.041597 1.0404081 1.1027138 1.0453105 1.0354682 1.0453752
00000000: c5e0 8a3f a3d0 893f 972a 923f fd44 843f
00000010: eed7 853f b2ce 863f 6b3f 863f 513a 863f
00000020: 7f1f 893f d252 883f b798 833f 16aa 833f
00000030: 2b21 8c3f c112 8b3f effc 8b3f e2d0 843f
00000040: 4d32 853f 7949 823f 03ff 883f 3cc6 843f
00000050: 40c3 843f 969d 8a3f a16f 883f 2662 853f
00000060: 1732 863f c48b 853f 1507 8e3f 5a8e 8d3f
00000070: c927 8d3f 45c3 853f 463d 933f e299 923f
00000080: c4ee 883f 11f6 853f 0d53 853f 182c 853f
00000090: ba25 8d3f bccc 853f 398a 843f dbce 853f

main.7.bias f4 [40]
0.022615146 0.032292444 0.034229312 0.011234893 0.018739367 0.015797898 0.022415988 0.008325794
0.010168093 0.025786933 0.012689773 0.019479923 0.05064416 0.023928024 0.020623092 0.012469913
0.01687197 0.0152379535 0.023440557 0.019431094 0.02097695 0.013198384 0.011082228 0.011197654
0.019100228 0.011960029 0.028534181 0.044689894 0.019634468 0.011569831 0.047088403 0.027929924
0.02884075 0.0064175483 0.021985915 0.025023835 0.01120644 0.020132117 0.021953939 0.020080375
00000000: 6643 b93c 1545 043d 0934 0c3d 8f12 383c
00000010: 4d83 993c 986a 813c bca1 b73c e968 083c
00000020: 1398 263c 1e3f d33c c4e8 4f3c 5c94 9f3c
00000030: 4070 4f3d b404 c43c c2f1 a83c 9b4e 4c3c
00000040: 1637 8a3c 9ca8 793c 6906 c03c f52d 9f3c
00000050: dad7 ab3c 093e 583c 3c92 353c 5d76 373c
00000060: 1578 9c3c fff3 433c 84c0 e93c c00c 373d
00000070: 77d8 a03c 638f 3d3c c5df 403d 4ccd e43c
00000080: 7043 ec3c 4c4a d23b ce1b b43c c9fe cc3c
00000090: 379b 373c 1cec a43c bfd8 b33c 997f a43c

main.7.running_mean f4 [40]
-0.25062275 0.039218877 -0.197578 0.15535642 -0.20501934 0.0015836937 -0.31083366 -0.12308269
0.17654489 -0.100428306 -0.026449889 -0.070585854 0.25299376 0.20997271 0.3233142 0.077013135
-0.06698874 -0.022231948 0.043418027 0.115367435 -0.0053513544 -0.044920288 -0.014961497 0.06196862
-0.08573907 0.13493055 -0.011686531 -0.16065885 0.005375177 0.011434678 0.100858614 0.15538959
-0.085286364 -0.24927169 -0.13821281 -0.04175583 0.21855801 0.24718143 -0.071725614 -0.07257046
00000000: a051 80be f9a3 203d e351 4abe c115 1f3e
00000010: 97f0 51be f193 cf3a 9725 9fbe c712 fcbd
00000020: 2fc8 343e 5bad cdbd 70ad d8bc 518f 90bd
00000030: 6688 813e 1603 573e 7089 a53e 10b9 9d3d
00000040: 6431 89bd c61f b6bc 1ad7 313d c345 ec3d
00000050: 6a5a afbb 56fe 37bd 1121 75bc cfd2 7d3d
00000060: f797 afbd 3c2b 0a3e dd78 3fbc c183 24be
00000070: 4122 b03b 8458 3b3c f68e ce3d 731e 1f3e
00000080: 9eaa aebd 1441 7fbe a987 0dbe 2908 2bbd
00000090: accd 5f3e 211d 7d3e e1e4 92bd d29f 94bd

main.7.running_var f4 [40]
0.028114066 0.019781267 0.014720676 0.04187689 0.018961458 0.05391317 0.036138628 0.027374508
0.015919473 0.018681932 0.074155815 0.017092424 0.026242053 0.029781621 0.017169397 0.030523002
0.0251684 0.13196021 0.026645511 0.045523178 0.071763456 0.03644179 0.01980002 0.023961028
0.061412863 0.063110024 0.045632664 0.024164885 0.019612873 0.040477313 0.016032817 0.018703198
0.0167461 0.019900154 0.043887164 0.03751738 0.049653552 0.043277226 0.07875005 0.119422905
00000000: 784f e63c 530c a23c fd2e 713c 1a87 2b3d
00000010: 0f55 9b3c 0ed4 5c3d 1906 143d 8140 e03c
00000020: 8e69 823c da0a 993c 01df 973d 6905 8c3c
00000030: 93f9 d63c 96f8 f33c d6a6 8c3c 600b fa3c
00000040: f62d ce3c 9420 073e b047 da3c 8376 3a3d
00000050: b8f8 923d fd43 153d a733 a23c eb49 c43c
00000060: 0e8c 7b3d d43f 813d 51e9 3a3d 70f5 c53c
00000070: 2dab a03c 8acb 253d 4157 833c 7337 993c
00000080: 1e2f 893c a605 a33c 07c3 333d d3ab 193d
00000090: 8661 4b3d 7643 313d b547 a13d ff93 f43d

main.10.weight f4 [180, 360]
-0.032358192 -0.0009858744 0.053231273 -0.019079695 0.01708271 0.042262882 0.002455744 -0.00787503
0.01955869 0.02945149 -0.03396266 0.058414817 -0.00090653653 0.021444187 -0.03854962 -0.012303353
0.06598841 0.0016465286 0.04153959 -0.022530153 0.034769908 0.030191068 0.059666023 0.045878544
-0.0359443 0.026357392 -0.04050532 0.018050037 -0.048968066 0.0366507 -0.027802872 0.022830015
0.015031528 0.04029134 -0.047391146 0.015624514 0.04882753 0.022830673 -0.042922966 0.030883774
-0.0009208571 0.044361237 -0.013829798 0.024766766 -0.009032412 -0.042439356 -0.01626249 -0.024487512
-0.018398637 0.043773454 -0.04566542 0.022623857 0.011827163 0.0044163405 0.015326753 0.024784096
-0.051362474 -0.01667042 0.035630282 -0.042381607 -0.026967138 -0.014753098 0.020932017 0.048555594
0.026003018 -0.03176042 0.0006775929 -0.008983307 0.044804085 -0.032864437 0.0055832253 0.003899301
0.023800977 -0.020876039 -0.043032136 -0.021648217 0.005128178 -0.03590644 0.054205723 -0.03354343
0.004498468 0.044520937 -0.047185306 -0.0132767 0.027099924 -0.047060806 -0.027440831 0.047844402
-0.05533141 0.03598742 -0.041172735 0.041451458 0.048210982 0.028109778 0.0036031466 0.022097185
0.016430546 -0.019144488 -0.02244655 0.04132972 0.027605375 0.050509855 0.0037663318 0.04774333
0.051547684 -0.025366772 -0.011525808 -0.007695746 0.008409856 -0.035866167 -0.01597111 0.0065202946
0.035524428 0.02419291 -0.015733866 0.05267198 -0.014532613 0.032692365 -0.005983918 0.04075011
0.035823725 -0.045172513 -0.03150996 0.05396154 0.021474086 -0.008438537 0.039473083 0.00023835959
0.017075008 -0.013185421 -0.019086154 0.022840397 -0.042687874 0.01518617 -0.017459556 -0.0019278477
-0.02874853 0.027088964 -0.00096473505 0.019371014 0.014285099 -0.027857987 -0.04795167 -0.05024177
-0.015868073 0.04969004 0.050006732 0.009926522 0.0041777664 -0.024003208 -0.026642459 -0.04062066
0.026559507 -0.021369414 0.027338622 0.043400172 -0.00744049 0.012972592 -0.02813539 0.021499077
0.017482443 -0.008807802 -0.0028555158 -0.014537149 -0.03255805 -0.027090335 -0.023042839 -0.023936328
0.032498874 -0.04096224 -0.017102096 0.04479525 -0.010720577 -0.04438108 -0.040829048 -0.023296766
0.0151986275 0.021458328 -0.014812534 -0.04454879 -0.038231842 -0.029429117 0.005799225 -0.045630556
0.017663104 -0.0082248505 0.036019567 -0.051852647 -0.0041849096 0.049901646 -0.02110033 -0.034838703
0.013152173 -0.03024691 -0.00030987972 -0.027451364 -0.0016086773 0.04979044 -0.027776174 -0.00016501974
0.02200641 0.012669094 0.023655921 -0.029941581 0.027589848 -0.009060858 0.022969868 -0.030276878
-0.02380764 0.05518278 -0.02022717 0.0010896502 0.0339288 -0.02354878 -0.026003258 -0.036607336
-0.0009319666 -0.029841555 -0.034064896 0.067792244 0.002198405 0.00675933 0.043110922 0.0020659808
0.012910595 0.04744535 -0.044234496 0.0076222126 0.036593985 -0.048787177 -0.042275913 -0.0030865648
0.0023685354 -0.035552785 -0.049137183 -0.022275586 0.040340923 -0.00969242 0.016064417 -0.048375092
-0.026946798 -0.050788514 0.03246068 -0.027470602 0.041348934 0.028668718 -0.032437187 -0.0052969684
-0.023849918 0.052030448 -0.020119237 -0.0021146995 0.042476792 0.05520323 -0.036481664 -0.0096353255
00000000: 068a 04bd 7538 81ba 0909 5a3d 054d 9cbc
00000010: 0af1 8b3c d81b 2d3d 8cf0 203b 4506 01bc
00000020: 8c39 a03c 4044 f13c 6e1c 0bbd 6044 6f3d
00000030: a3a4 6dba b8ab af3c 35e6 1dbd 0194 49bc
00000040: ee24 873d 55d0 d73a 6b25 2a3d 2891 b8bc
00000050: e46a 0e3d 4253 f73c 5c64 743d 24eb 3b3d
00000060: 553a 13bd 75eb d73c e8e8 25bd acdd 933c
00000070: bd92 48bd 0b1f 163d d9c2 e3bc 0306 bb3c
00000080: cc46 763c 8808 253d 381d 42bd f6fd 7f3c
00000090: 60ff 473d 6407 bb3c fecf 2fbd f8ff fc3c
000000a0: ad65 71ba 21b4 353d 6196 62bc ace3 ca3c
000000b0: affc 13bc e4d4 2dbd ea38 85bc 099a c8bc
000000c0: bdb8 96bc cb4b 333d aa0b 3bbd ab55 b93c
000000d0: b8c6 413c f3b6 903b 101d 7b3c 0408 cb3c
000000e0: 7561 52bd 6890 88bc 0ff1 113d 5698 2dbd
000000f0: 30ea dcbc fab6 71bc 9f79 ab3c 3be2 463d
00000100: 4804 d53c 3717 02bd 7da0 313a b82e 13bc
00000110: 7d84 373d dc9c 06bd 7df3 b63b 6a8b 7f3b
00000120: 44fa c23c 3a04 abbc 7742 30bd 9a57 b1bc
00000130: 460a a83b a212 13bd d206 5e3d d664 09bd
00000140: e267 933b 965b 363d 6145 41bd 8486 59bc
00000150: a900 de3c d5c2 40bd 98cb e0bc 7ef8 433d
00000160: 30a3 62bd 8b67 133d bea4 28bd 01c9 293d
00000170: e178 453d 7a46 e63c c522 6c3b 2805 b53c
00000180: 5a99 863c e7d4 9cbc d4e1 b7bc 5a49 293d
00000190: ab24 e23c 6ce3 4e3d 90d4 763b 838e 433d
000001a0: aa23 533d facd cfbc bed6 3cbc 992c fcbb
000001b0: 7ec9 093c 67e8 12bd d8d5 82bc 32a8 d53b
000001c0: 1082 113d 3630 c63c 4fe4 80bc 93be 573d
000001d0: 321a 6ebc 6ee8 053d be14 c4bb 96e9 263d
000001e0: e6bb 123d d006 39bd 9610 01bd c706 5d3d
000001f0: 6cea af3c ca41 0abc 87ae 213d 2af0 7939
00000200: e3e0 8b3c aa07 58bc 915a 9cbc c91b bb3c
00000210: 7bd9 2ebd 6acf 783c 5807 8fbc d6af fcba
00000220: 0a82 ebbc ade9 dd3c 46e6 7cba f6af 9e3c
00000230: 0c0c 6a3c 6f36 e4bc f868 44bd 50ca 4dbd
00000240: c3fd 81bc c987 4b3d dcd3 4c3d daa2 223c
00000250: a5e5 883b 60a2 c4bc 4941 dabc d961 26bd
00000260: 5393 d93c e90e afbc 3ff5 df3c 61c4 313d
00000270: 5bcf f3bb ff8a 543c 307c e6bc d51e b03c
00000280: 5737 8f3c 994e 10bc 9b23 3bbb 392d 6ebc
00000290: 975b 05bd 8dec ddbc 56c4 bcbc 1e16 c4bc
000002a0: 8a1d 053d 06c8 27bd b219 8cbc 397b 373d
000002b0: 5ca5 2fbc efc8 35bd 5c3c 27bd dcd8 bebc
000002c0: aa03 793c 60c9 af3c 45b0 72bc cb78 36bd
000002d0: fe98 1cbd 5515 f1bc 6d07 be3b 1be7 3abd
000002e0: 37b2 903c 86c1 06bc 4189 133d 7163 54bd
000002f0: 9121 89bb ab65 4c3d 99da acbc 07b3 0ebd
00000300: 367c 573c 5ec8 f7bc 5a77 a2b9 afe1 e0bc
00000310: 41da d2ba 0ff1 4b3d dc8a e3bc 2609 2db9
00000320: c946 b43c 0892 4f3c 10ca c13c 0c48 f5bc
00000330: 1b04 e23c fe73 14bc 4e2b bc3c 3707 f8bc
00000340: 3d08 c3bc 5707 623d 73b3 a5bc 98d2 8e3a
00000350: edf8 0a3d 5fe9 c0bc c904 d5bc 93f1 15bd
00000360: 384f 74ba 4776 f4bc a287 0bbd a9d6 8a3d
00000370: 1e13 103b 5f7d dd3b 1495 303d 6865 073b
00000380: f686 533c 0e56 423d 3b2f 35bd c1c3 f93b
00000390: 93e3 153d 10d5 47bd 8229 2dbd f747 4abb
000003a0: 6e39 1b3b cc9f 11bd 1244 49bd 4a7b b6bc
000003b0: 863c 253d f5cc 1ebc 8699 833c f624 46bd
000003c0: 88bf dcbc 9e07 50bd 7df5 043d 070a e1bc
000003d0: 805d 293d a9da ea3c dbdc 04bd 3192 adbb
000003e0: e760 c3bc e11d 553d 19d1 a4bc c596 0abb
000003f0: 25fc 2d3d c81c 623d cc6d 15bd 7cdd 1dbc

main.12.weight f4 [90, 180]
0.052135274 0.09927799 -0.06260425 -0.066455446 -0.047315393 -0.06609123 0.032697737 -0.03952881
0.0728314 0.035564147 0.008822311 0.07775189 0.08532552 0.109824345 0.058458097 -0.03149866
0.092196785 -0.080239415 0.09837092 0.019833008 0.008497387 -0.016401477 0.00015206687 0.00242724
0.059040025 -0.054944836 0.048992798 -0.044424973 -0.011543858 0.067350864 0.030139463 -0.014467913
-0.070454486 0.063980766 0.015175372 -0.009156395 0.0878649 0.02369597 0.08496135 -0.028862223
0.07148534 0.011068093 -0.01352536 0.033787113 -0.07858987 0.026638927 -0.02271326 -0.015263651
-0.021105733 0.030497683 -0.010937792 -0.006573574 0.0034083424 0.00031715672 -0.09569021 -0.015493484
-0.0634033 -0.03432162 -0.052881934 0.070707515 -0.069840714 -0.066691875 0.046669133 0.060943577
0.03551894 0.11551116 0.044812158 -0.009140299 -0.044271726 -0.05016651 0.070608094 0.09221983
0.092288055 -0.017377155 -0.044609666 0.1051113 0.08986849 0.092957996 -0.015353306 0.03698243
0.08432851 0.067945346 -0.07178998 -0.0013775866 0.06641603 0.11478449 0.044569757 -0.021212086
0.07883115 -0.09489591 0.006612823 -0.040056307 -0.017525699 0.080439694 0.16933425 -0.0627693
0.0024350432 0.013002516 0.03127481 0.0659335 0.068361394 -0.033172194 0.043908883 0.017174799
0.03012928 0.034374084 -0.0016588082 0.07378806 -0.0641447 0.048263203 -0.07475455 0.0067168465
0.049356587 0.078817084 0.05628702 0.049317278 0.011828864 -0.038803592 0.0343695 0.0548491
0.08281617 0.05716757 -0.00010813317 -0.010672124 0.043525122 0.034699343 -0.104584254 -0.014249619
-0.051622625 0.04720846 0.025788445 -0.0015162365 0.030567046 0.105366014 -0.07108184 -0.0359112
0.043326527 -0.02584248 -0.0034054555 0.07132883 0.051917855 0.020579495 0.10179184 -0.074281566
0.07210928 0.04253877 -0.010976939 0.0050849114 0.0045952857 -0.06590575 0.009989192 0.007020124
-0.0014053312 -0.07430258 -0.07511512 0.039237615 -0.045500252 0.08197289 0.04547553 0.063586965
0.014365054 0.068905935 -0.04827397 0.028243389 -0.021009598 -0.037765734 -0.047812197 -0.023037193
-0.07406451 0.046692096 0.016425975 0.06501637 -0.019158652 0.043539133 0.011118594 -0.013708337
-0.03763463 0.032791704 -0.06535154 0.03888147 0.048352934 0.055738002 -0.014048986 -0.075542524
0.060447272 -0.07652875 -0.03397509 -0.058209494 -0.009650239 -0.026502062 -0.03264114 -0.037244372
0.021700049 -0.046275016 -0.06438479 -0.014170029 0.09571813 0.03397646 0.012417839 -0.083151884
0.04277303 -0.03247317 0.033073545 0.024873365 -0.06258488 -0.017421316 0.056924414 -0.019492883
0.051074326 -0.05574812 -0.00575466 -0.02768994 -0.054558232 0.004407677 -0.05839079 -0.008486355
0.015912527 -0.03174616 0.031737752 -0.050845858 0.016879424 0.058319774 -0.02089309 -0.019440804
-0.033880338 -0.04696432 0.011983107 -0.002260343 -0.06764242 0.0112537 -0.0031674334 0.027882997
-0.087708086 -0.03659056 0.067771524 0.04982725 0.030960822 -0.009917889 0.03417675 0.036118306
0.08831408 0.037106358 0.093741074 0.038773052 -0.06358426 0.08958236 0.032990444 -0.010522561
-0.025237512 -0.038567137 0.08275631 0.10274538 0.09773142 -0.002291353 0.015333834 -0.024469657
00000000: cc8b 553d 4252 cb3d a836 80bd cb19 88bd
00000010: c9cd 41bd d75a 87bd 10ee 053d f6e8 21bd
00000020: a128 953d b6ab 113d 748b 103c 623c 9f3d
00000030: 25bf ae3d 96eb e03d c271 6f3d bd04 01bd
00000040: abd1 bc3d 9054 a4bd b176 c93d d578 a23c
00000050: a038 0b3c 645c 86bc 2474 1f39 5412 1f3b
00000060: f4d3 713d d60d 61bd acac 483d f6f6 35bd
00000070: 7322 3dbc 40ef 893d 09e7 f63c d30a 6dbc
00000080: 714a 90bd 5908 833d 20a2 783c b404 16bc
00000090: 83f2 b33d 0d1e c23c 3700 ae3d 7870 ecbc
000000a0: e866 923d f256 353c 7999 5dbc 5b64 0a3d
000000b0: baf3 a0bd e139 da3c 2911 babc 6414 7abc
000000c0: eee5 acbc 47d6 f93c 6d34 33bc 2367 d7bb
000000d0: 7f5e 5f3b 0e48 a639 3bf9 c3bd 62d8 7dbc
000000e0: 97d9 81bd d494 0cbd ba9a 58bd 1acf 903d
000000f0: a608 8fbd c095 88bd 2228 3f3d f99f 793d
00000100: 4f7c 113d 1d91 ec3d f48c 373d 31c1 15bc
00000110: 4556 35bd 667b 4dbd fa9a 903d c0dd bc3d
00000120: 8501 bd3d 895a 8ebc a0b8 36bd 9844 d73d
00000130: f90c b83d c360 be3d 6f8c 7bbc e37a 173d
00000140: 6db4 ac3d ee26 8b3d a006 93bd 2390 b4ba
00000150: 2105 883d 2114 eb3d c78e 363d f8c4 adbc
00000160: 3a72 a13d c958 c2bd 61b0 d83b 1512 24bd
00000170: 0e92 8fbc 91bd a43d f565 2d3e 318d 80bd
00000180: 3f95 1f3b 8108 553c 041a 003d 2508 873d
00000190: 0f01 8c3d 91df 07bd cdd9 333d 2ab2 8c3c
000001a0: aed1 f63c d7cb 0c3d 5e6c d9ba 321e 973d
000001b0: 4c5e 83bd a3af 453d ea18 99bd fe18 dc3b
000001c0: 222a 4a3d da6a a13d 388d 663d ea00 4a3d
000001d0: dacd 413c 84f0 1ebd 08c7 0c3d 73a9 603d
000001e0: 869b a93d 8b28 6a3d 8ec5 e2b8 22da 2ebc
000001f0: 6647 323d e620 0e3d 4530 d6bd 3c77 69bc
00000200: 3f72 53bd a85d 413d 4a42 d33c 74bc c6ba
00000210: be67 fa3c 23ca d73d 5b93 91bd 9f17 13bd
00000220: 2877 313d 9cb3 d3bc 102e 5fbb da14 923d
00000230: d1a7 543d 5496 a83c 3d78 d03d ef20 98bd
00000240: 08ae 933d 223d 2e3d 9fd8 33bc 549f a63b
00000250: 0d94 963b 98f9 86bd b5a9 233c 1109 e63b
00000260: 1733 b8ba f32b 98bd f5d5 99bd 9fb7 203d
00000270: 795e 3abd 67e1 a73d 8d44 3a3d e239 823d
00000280: 675b 6b3c 8e1e 8d3d edba 45bd ae5e e73c
00000290: 521c acbc 3eb0 1abd b9d6 43bd 7fb8 bcbc
000002a0: 22af 97bd 3640 3f3d c48f 863c 4d27 853d
000002b0: 9bf2 9cbc 1756 323d c32a 363c ef98 60bc
000002c0: c526 1abd 9850 063d 07d7 85bd 2d42 1f3d
000002d0: ba0d 463d 884d 643d b82d 66bc 0ab6 9abd
000002e0: 8f97 773d 1bbb 9cbd 7729 0bbd 146d 6ebd
000002f0: 091c 1ebc da1a d9bc b7b2 05bd 8e8d 18bd
00000300: 4dc4 b13c df8a 3dbd 2cdc 83bd 6929 68bc
00000310: de07 c43d e72a 0b3d 3174 4b3c 894b aabd
00000320: c632 2f3d 9602 05bd 2078 073d 3ac3 cb3c
00000330: 802c 80bd 26b7 8ebc 9329 693d 8aaf 9fbc
00000340: 5033 513d 2458 64bd 9691 bcbb 03d6 e2bc
00000350: 7478 5fbd 466e 903b 2e2b 6fbd 5a0a 0bbc
00000360: fd5a 823c 4308 02bd 72ff 013d bf43 50bd
00000370: b846 8a3c b7e0 6e3d fc27 abbc 5242 9fbc
00000380: 1cc6 0abd a95d 40bd cb54 443c 4322 14bb
00000390: 1c88 8abd 7061 383c b794 4fbb e26a e43c
000003a0: 4ca0 b3bd fcdf 15bd cccb 8a3d a917 4c3d
000003b0: 8da1 fd3c a47e 22bc ebfc 0b3d caf0 133d
000003c0: 03de b43d d6fc 173d 52fb bf3d 7ed0 1e3d
000003d0: 7738 82bd f576 b73d fd20 073d d266 2cbc
000003e0: e6be cebc 93f8 1dbd 247c a93d 2b6c d23d
000003f0: 6927 c83d 862a 16bb c33a 7b3c 9774 c8bc

main.14.weight f4 [45, 90]
-0.01322257 0.02592698 -0.039854854 0.034137167 0.042846635 0.0006702202 0.010383216 -0.05235801
-0.051142022 0.078246154 -0.070979014 0.0356784 0.0024990563 0.050310157 -0.030623225 -0.029403074
-0.058462802 0.0156138195 -0.07485169 0.08765448 0.027128642 -0.0892649 0.06328425 0.08908215
0.072326764 0.029111665 0.044237003 -0.044307053 0.057301976 0.011434023 -0.080263786 -0.011599143
-0.0005345392 -0.03666813 -0.034368314 -0.021803467 0.06507314 -0.081304975 -0.06681607 -0.0034344685
-0.0065662568 -0.023833532 0.07532151 0.030676836 -0.05105075 0.009372167 -0.100954175 -0.0022451712
0.015256158 -0.025134128 -0.09799504 0.07960036 0.09881128 0.07546897 -0.083128646 -0.0249617
0.054641783 -0.092908785 0.045623228 0.087349385 0.08428164 0.02301344 0.09498414 0.033939235
-0.092585154 -0.018168319 -0.030818194 0.04134479 0.05677422 -0.0046226075 0.08888622 0.05845909
0.10074356 -0.026675748 0.04048694 -0.0067769038 0.037777007 0.09124432 0.10325501 0.04808906
0.05940066 0.043758973 -0.10056476 -0.0022769102 -0.04808222 -0.072271094 -0.09307206 -0.026885726
0.062484145 -0.017055983 0.16089088 0.014125217 0.097737074 -0.017935837 0.09539644 -0.057587985
-0.03758777 0.06591872 0.058856413 0.08328308 0.013809301 0.0043787123 0.049729016 -0.030649528
0.039763656 0.043635514 0.1694395 -0.025033692 0.13323177 0.08926897 0.06163234 -0.08584804
-0.07955135 -0.097389 0.044008583 -0.08164941 -0.109206766 -0.08604032 0.038096916 -0.065652676
-0.06912726 -0.033370003 0.0036468117 0.07069106 -0.08389622 0.054165248 0.121219635 -0.09008871
-0.018775843 -0.030355446 -0.102655366 0.061473683 0.053695593 0.14749336 -0.069767065 0.123603374
-0.006881029 -0.06858604 -0.058275573 -0.0393239 0.0012185622 0.0029822493 -0.010220175 -0.0069871265
-0.08418689 -0.029597979 -0.04991556 -0.033680953 0.10184583 0.028718183 -0.031408675 0.06869896
-0.06637885 0.03657989 0.0018512616 0.1513968 0.056911714 -0.05771547 -0.12358171 0.05250727
-0.0304499 -0.09472182 0.05299585 -0.021107817 -0.050014652 0.02148619 0.020219784 0.01674303
0.065958254 -0.08847706 0.07039396 0.069509506 -0.10241635 0.08329016 0.13161327 -0.0024835335
0.077319555 -0.05467781 0.01864155 0.09577787 -0.09565031 -0.00857499 0.036867887 0.08263204
0.042939212 -0.06665287 0.08612985 0.013812588 -0.063078225 0.0164956 0.09932262 0.009712501
-0.09341644 0.099545665 0.07889248 -0.003337942 0.09393853 -0.0056849592 -0.058613606 0.10487509
-0.032305475 0.040376216 0.094958395 -0.01812557 -0.09802822 -0.07052505 -0.082286015 -0.06622757
0.08106621 -0.041946415 0.016592337 0.001499438 -0.0944543 -0.009311734 -0.064520665 0.10269266
0.0108398935 -0.054563925 -0.012249565 0.009852705 0.06935845 -0.030574165 0.023801945 0.053209912
-0.08989325 0.028359912 0.06035029 0.019874046 -0.095743656 0.006614951 0.08118689 -0.093863785
0.085179076 -0.03337162 0.021125712 0.08784603 0.048023757 -0.032510057 -0.08887549 -0.0983348
0.05712485 -0.0629796 -0.004717333 0.03222561 -0.0014600294 -0.0005471785 -0.11229679 0.027660849
0.035903208 0.026959363 0.06581079 -0.044601317 0.09824484 -0.063965894 0.014511068 -0.038118094
00000000: 7aa3 58bc d164 d43c d83e 23bd 6ad3 0b3d
00000010: f47f 2f3d b7b1 2f3a 5d1e 2a3c 5a75 56bd
00000020: 4c7a 51bd 853f a03d 725d 91bd 8423 123d
00000030: 35c7 233b 0612 4e3d 8fdd fabc b7de f0bc
00000040: b176 6fbd 1bd1 7f3c d84b 99bd 3184 b33d
00000050: e33c de3c 84d0 b6bd 2c9b 813d b470 b63d
00000060: 0e20 943d 967b ee3c dc31 353d 507b 35bd
00000070: 7ab5 6a3d c555 3b3c 5761 a4bd 550a 3ebc
00000080: 5220 0cba 5231 16bd cac5 0cbd 2f9d b2bc
00000090: 1145 853d 3983 a6bd ddd6 88bd d214 61bb
000000a0: c129 d7bb 8a3e c3bc 2a42 9a3d fd4d fb3c
000000b0: 971a 51bd b88d 193c 10c1 cebd b923 13bb
000000c0: f7f4 793c 16e6 cdbc a0b1 c8bd 8305 a33d
000000d0: 925d ca3d 7a8f 9a3d 5a3f aabd 7b7c ccbc
000000e0: 10d0 5f3d f646 bebd 6cdf 3a3d 3ce4 b23d
000000f0: da9b ac3d af86 bc3c 0b87 c23d de03 0b3d
00000100: 499d bdbd bad5 94bc 7076 fcbc 2859 293d
00000110: 168c 683d 3e79 97bb fa09 b63d cc72 6f3d
00000120: a452 ce3d 1987 dabc a2d5 253d ca10 debb
00000130: 10bc 1a3d 4dde ba3d 5d77 d33d 09f9 443d
00000140: 1b4e 733d 9c3c 333d e6f4 cdbd 3738 15bb
00000150: ddf1 44bd de02 94bd 909c bebd 743f dcbc
00000160: 60ef 7f3d fdb8 8bbc 94c0 243e 746d 673c
00000170: 602a c83d 2dee 92bc 355f c33d 61e1 6bbd
00000180: a2f5 19bd 6500 873d 6c13 713d 5290 aa3d
00000190: 6840 623c 4d7b 8f3b a7b0 4b3d b814 fbbc
000001a0: 37df 223d 27bb 323d 8c81 2d3e 7513 cdbc
000001b0: e96d 083e a6d2 b63d 3172 7c3d 19d1 afbd
000001c0: d1eb a2bd e273 c7bd 5842 343d ce37 a7bd
000001d0: cca7 dfbd e835 b0bd 830b 1c3d e974 86bd
000001e0: 9892 8dbd fcae 08bd 59ff 6e3b 79c6 903d
000001f0: c8d1 abbd 61dc 5d3d 0042 f83d 6e80 b8bd
00000200: cccf 99bc fcab f8bc fa3c d2bd d4cb 7b3d
00000210: e9ef 5b3d 8008 173e 09e2 8ebd c423 fd3d
00000220: 417a e1bb d676 8cbd 5eb2 6ebd 1912 21bd
00000230: 2ab8 9f3a d771 433b 8572 27bc 44f4 e4bb
00000240: 2d6a acbd 7677 f2bc 4274 4cbd 0af5 09bd
00000250: 8c94 d03d 6542 eb3c 62a6 00bd 0ab2 8c3d
00000260: a2f1 87bd cbd4 153d 08a6 f23a c307 1b3e
00000270: 421c 693d 0f67 6cbd 6818 fdbd dd11 573d
00000280: 1272 f9bc 83fd c1bd 2d12 593d 4dea acbc
00000290: 2adc 4cbd ce03 b03c f6a3 a53c ae28 893c
000002a0: 1f15 873d 7633 b5bd b52a 903d 005b 8e3d
000002b0: aabf d1bd 0894 aa3d a1c5 063e c7c2 22bb
000002c0: b759 9e3d d7f5 5fbd 2ab6 983c 3027 c43d
000002d0: 4fe4 c3bd 1d7e 0cbc c802 173d fd3a a93d
000002e0: 07e1 2f3d 4d81 88bd d964 b03d 314e 623c
000002f0: 282f 81bd c821 873c a869 cb3d 2f21 1f3c
00000300: 1e51 bfbd 99de cb3d 6192 a13d 60c1 5abb
00000310: d862 c03d e548 babb d214 70bd c0c8 d63d
00000320: bf52 04bd 8861 253d 8c79 c23d 137c 94bc
00000330: 05c3 c8bd 706f 90bd 9285 a8bd 52a2 87bd
00000340: 0b06 a63d 01d0 2bbd a7ec 873c ca88 c43a
00000350: 4271 c1bd 3e90 18bc 6923 84bd 8850 d23d
00000360: cf99 313c 6c7e 5fbd 66b2 48bc 3d6d 213c
00000370: ce0b 8e3d ac76 fabc 4cfc c23c a3f2 593d
00000380: f419 b8bd 0c53 e83c de31 773d e5ce a23c
00000390: 4015 c4bd 3bc2 d83b 5045 a63d a83b c0bd
000003a0: 5e72 ae3d aeb0 08bd d40f ad3c 9fe8 b33d
000003b0: 8fb4 443d 4429 05bd 5a04 b6bd c163 c9bd
000003c0: bffb 693d 73fb 80bd db93 9abb 00ff 033d
000003d0: 755e bfba 8770 0fba dcfb e5bd 0199 e23c
000003e0: 3e0f 133d e2d9 dc3c cfc7 863d dfaf 36bd
000003f0: 9734 c93d 8d00 83bd d5bf 6d3c b821 1cbd

main.16.weight f4 [4, 45]
-0.031002406 -0.24180102 -0.06215099 0.122301176 0.027114686 -0.19764282 0.0015186951 -0.088708
0.04743958 0.22623633 -0.20080735 0.053368717 0.2581021 -0.2913569 0.29643762 0.10452316
-0.1587487 0.11826675 0.063526586 0.023673056 0.033269346 -0.048248485 -0.26065904 -0.10754774
-0.108693175 0.018585075 -0.21676864 0.042570055 -0.36184847 0.054083098 0.18598151 -0.20485644
-0.10406878 0.13405903 -0.28015167 0.0005276119 0.13540305 -0.3162677 -0.22062135 -0.0944178
0.1007316 -0.0024454093 -0.062160715 0.05714977 -0.06436397 -0.052732944 0.26007634 0.083315015
-0.13566379 0.1182686 -0.09978033 0.18485446 -0.33065367 -0.13698822 -0.386118 -0.12706394
-0.16733858 -0.18558663 -0.12734209 -0.18808864 0.108017735 -0.26513985 -0.05652079 -0.15324418
0.06978586 -0.4050698 0.08090723 -0.104951724 0.09102002 -0.03495002 -0.28089124 -0.61254656
0.038207702 0.078637406 -0.3653791 -0.3648921 0.05227305 0.10994461 -0.096097305 0.13485433
0.30453378 0.1309376 0.23846835 0.37896064 -0.18358174 -0.065646686 -0.3193361 -0.39544493
-0.05844835 0.10712394 -0.008376127 -0.038574453 0.20739672 0.12608297 0.17590596 -0.16569783
-0.2202741 -0.50666904 -0.100158826 0.031260572 -0.26905447 -0.067028895 -0.28986937 0.29757535
-0.4985046 0.06713849 -0.03802339 -0.1074859 0.13431977 -0.06427383 0.014020066 0.11717783
0.11845353 0.1388786 0.23085347 0.11868164 0.18482307 -0.065573044 0.081672885 -0.14129613
0.017232625 0.31341955 -0.29295912 -0.11508174 -0.32274553 -0.26086602 0.12180504 -0.31218502
-0.30253655 -0.26439998 0.07905516 0.29863906 0.12417474 -0.06717523 0.02979551 0.11150397
0.18721682 -0.013444169 0.13752976 -0.46241334 -0.029662443 -0.19632104 0.32832885 0.1577481
-0.21653074 -0.061442703 0.01613172 -0.15968816 -0.3320845 -0.26848018 -0.06709964 0.09507633
0.08462134 -0.013395208 0.10898411 0.2437349 0.16160916 -0.24305065 0.043445736 -0.36180496
-0.24392982 0.1109087 0.06473024 0.19254622 0.08818118 0.09002381 -0.31649828 0.112179406
0.103697814 0.19490868 0.015197319 0.07792365 0.30677974 -0.26529557 0.11114512 0.10668028
-0.16797231 -0.028925268 0.08899939 0.07596045
00000000: c2f8 fdbc b09a 77be 0992 7ebd 0a79 fa3d
00000010: 9e1f de3c e162 4abe f40e c73a 8aac b5bd
00000020: 0150 423d 7faa 673e 71a0 4dbe 2899 5a3d
00000030: f525 843e bb2c 95be acc6 973e 3d10 d63d
00000040: 058f 22be d635 f23d 3a1a 823d ffed c13c
00000050: 7045 083d 34a0 45bd 1a75 85be fd41 dcbd
00000060: 879a debd ba3f 983c 99f8 5dbe f05d 2e3d
00000070: 3444 b9be 3d86 5d3d f071 3e3e e3c5 51be
00000080: 0322 d5bd c546 093e 0a70 8fbe 6f4f 0a3a
00000090: 19a7 0a3e d7ed a1be 90ea 61be 1f5e c1bd
000000a0: 5e4c ce3d 2943 20bb 3c9c 7ebd e115 6a3d
000000b0: 42d1 83bd 80fe 57bd ba28 853e 10a1 aa3d
000000c0: 73eb 0abe cf36 f23d a159 ccbd 7d4a 3d3e
000000d0: 704b a9be a446 0cbe 42b1 c5be 0d1d 02be
000000e0: ce5a 2bbe 6c0a 3ebe f765 02be 4f9a 40be
000000f0: 6738 dd3d 69c0 87be 5882 67bd 0bec 1cbe
00000100: e4eb 8e3d 4f65 cfbe b1b2 a53d eef0 d6bd
00000110: b468 ba3d c127 0fbd fad0 8fbe dacf 1cbf
00000120: ae7f 1c3d a60c a13d f812 bbbe 23d3 babe
00000130: 441c 563d a42a e13d aace c4bd 4117 0a3e
00000140: daeb 9b3e 8214 063e 0c31 743e 2107 c23e
00000150: dafc 3bbe c571 86bd 0580 a3be c277 cabe
00000160: 8967 6fbd cc63 db3d 063c 09bc 3f00 1ebd
00000170: ce5f 543e e51b 013e b120 343e b1ac 29be
00000180: 898f 61be 10b5 01bf 1220 cdbd 160b 003d
00000190: 82c1 89be 7246 89bd c269 94be cc5b 983e
000001a0: ff3b ffbe e87f 893d 6abe 1bbd 9121 dcbd
000001b0: 1f8b 093e ffa1 83bd 6bb4 653c eefa ef3d
000001c0: c497 f23d 3136 0e3e da64 6c3e 5c0f f33d
000001d0: 4242 3d3e 294b 86bd 1d44 a73d efaf 10be
000001e0: 6f2b 8d3c 8778 a03e bdfe 95be faaf ebbd
000001f0: e73e a5be 3b90 85be ec74 f93d b7d6 9fbe
00000200: 12e6 9abe 6f5f 87be ace7 a13d 38e7 983e
00000210: 534f fe3d 2b93 89bd b715 f43c 325c e43d
00000220: c4b5 3f3e ef44 5cbc 9ad4 0c3e 71c1 ecbe
00000230: a7fe f2bc 6208 49be b81a a83e b888 213e
00000240: 3cba 5dbe 58ab 7bbd ab26 843c 4b85 23be
00000250: fb06 aabe 3c76 89be 896b 89bd 61b7 c23d
00000260: f44d ad3d 9377 5bbc 1033 df3d a495 793e
00000270: df7c 253e 45e2 78be 28f4 313d 803e b9be
00000280: bdc8 79be 1a24 e33d 4a91 843d d62a 453e
00000290: 5698 b43d 675e b83d 100c a2be 51be e53d
000002a0: 855f d43d 2496 473e 2dfe 783c 6f96 9f3d
000002b0: 3c12 9d3e d2d4 87be 0da0 e33d 317b da3d
000002c0: ef00 2cbe aff4 ecbc 5045 b63d 2791 9b3d
