submission/code/models/penneAlTonno.pth (torch, 413042 bytes, 15 tensors)

main.0.weight f4 [10, 3, 4, 4]
000000 02 33 45 bd 3a 22 8c 3b e2 c3 34 3d 57 3d d7 bd
       -0.048144348 0.004276541 0.04413212 -0.105097465
000010 2b e2 81 be 53 a7 88 3c d1 ad 75 bd 44 c1 a5 3d
       -0.25367865 0.016681349 -0.059980217 0.08093503
000020 e6 5b bc bd 3d e1 31 3d 20 7a 8c bd 97 fb 00 3e
       -0.09197216 0.043427695 -0.06859231 0.12595974
000030 09 5c df bd 26 2c ec bd 02 73 cd bd a1 35 64 bd
       -0.10906226 -0.11531858 -0.100317016 -0.055715207
000040 75 6f 0a 3e 80 6e 4a 3d 8e 18 25 3d 7d fa f5 bd
       0.1351908 0.049421787 0.04030662 -0.120106675
000050 39 82 f3 bd 7d ed 49 3e da 8c 83 3d de 1d 54 bc
       -0.118900724 0.19719501 0.0642335 -0.012946574
000060 9c 46 00 3e 91 a9 55 bc 8b bf 43 3d b7 88 16 3d
       0.12526935 -0.013040916 0.04779009 0.036751475
000070 f4 59 de 3d d2 63 76 bd 21 e8 5c bc 74 9c 1c 3c
       0.10857001 -0.06015379 -0.013483078 0.009558786
000080 2a ca cb 3c 92 47 6a 3d b6 6a ba 3d 24 e3 7b 3b
       0.024876673 0.05719716 0.09102385 0.0038434947
000090 5e 88 80 bd ef dc 09 be 15 5d f7 3d 16 88 a1 bd
       -0.0627601 -0.13463186 0.12078301 -0.078872845
0000a0 d2 24 be bd d1 1c 77 3d e8 78 25 3e 11 99 dc bd
       -0.09284367 0.060330216 0.16159403 -0.107713826
0000b0 3f f3 fc 3c 2f f2 ea 3d 8c ab 71 3d 4e d8 08 be
       0.030877708 0.11471974 0.05900149 -0.13363764
0000c0 01 2f 0d be 07 70 41 bd 72 e3 35 bc 88 25 21 bb
       -0.13787462 -0.04722598 -0.0111015905 -0.002458902
0000d0 06 b5 00 be d5 ac 9f bd ae 1d 2b be 4e ac bf bc
       -0.12569055 -0.07796637 -0.1671054 -0.023397591
0000e0 9b a5 af 3d 2f 8b 61 bd 07 f6 3f be 19 84 d0 bd
       0.085765086 -0.055064376 -0.18746196 -0.10181446
0000f0 ce c3 01 3d a2 07 81 bd bf b9 52 bd ba e1 93 3d
       0.031680875 -0.06300284 -0.051446673 0.07220788
000100 53 ba 18 3d ab 5a bb bd 09 35 21 bd da ea 62 bd
       0.037287068 -0.09148153 -0.03935722 -0.055399753
000110 e9 75 ae 3d 9d bf 17 be 81 73 81 bd b2 c1 4c bc
       0.08518583 -0.14819188 -0.06320859 -0.012497352
000120 19 89 7b 3d dc 9d e2 3d eb d0 10 be ee 26 eb bd
       0.061410043 0.110652655 -0.14142196 -0.114820346
000130 cc b1 16 3e 26 04 a5 3d 3e 4d 31 bc 4a 03 12 be
       0.14716262 0.08057432 -0.010821639 -0.14259067
000140 40 ca dd bd 13 c7 10 be 7d 1d 66 3c 51 74 c6 bd
       -0.10829592 -0.14138441 0.0140451165 -0.09690154
000150 8f 23 10 be c5 36 fc bc 5a 72 35 be 85 2b e6 bd
       -0.14076065 -0.030787835 -0.17719403 -0.112387694
000160 8d 03 c3 3d 53 05 0d bd df 9b b4 3d a1 99 78 bd
       0.09522162 -0.034428906 0.088187926 -0.060693387
000170 68 e0 83 bc 9d 6e 0a 3d 31 6d 9d 3d a9 e2 40 bd
       -0.016098216 0.033796895 0.07686842 -0.04709116
000180 f9 a9 97 3d c3 16 ad 3d 3d b6 1a 3e 0f 0b 1f 3e
       0.074054666 0.08451607 0.15108581 0.15531562
000190 6b 5e c5 bd 07 4d 9e 3d 3f 05 b1 3c be 85 c8 3d
       -0.096371494 0.077295355 0.021608947 0.09791134
0001a0 e5 1f b6 3c 2b 9f 13 3e bd 89 1a 3e f9 9a df bc
       0.022232005 0.14416187 0.15091605 -0.027295576
0001b0 bf 37 12 3e ad 89 e7 bd dd 60 6d bd a2 69 2b be
       0.14279078 -0.113055564 -0.057953704 -0.16739514
0001c0 13 21 63 3d 3b 6a a8 3d 0a d9 01 bc 7b cf 1b 3e
       0.055451464 0.08223387 -0.007925281 0.15215866
0001d0 c7 e6 b1 3c 84 f9 0a 3e f7 c5 f0 bd e2 a4 83 bd
       0.021716489 0.13571745 -0.11756509 -0.06427933
0001e0 46 b1 81 3d 4f 24 48 3d 47 b6 b3 3d 13 aa 04 3e
       0.0633264 0.04886275 0.08775001 0.12955503
0001f0 47 8b c8 3d 48 74 1c bd 89 88 c2 3c b9 20 ad bd
       0.0979219 -0.038196832 0.023746746 -0.08453507
000200 87 40 85 3c 73 64 bd bc 62 84 42 3d b4 22 6a ba
       0.01626612 -0.023119187 0.04748953 -0.0008931563
000210 fd b6 0f bd 19 09 fb 3d 2d bc 8c bd a4 48 98 3d
       -0.03508662 0.122575946 -0.06871829 0.0743573
000220 7a da 24 bd ae b9 6b 3d 37 b8 33 3e d5 0f 85 bd
       -0.040247418 0.057550125 0.17550741 -0.0649716
000230 ea 4b 84 bc 6b a6 d8 bd 22 cf e2 3d 40 28 4f bc
       -0.01614948 -0.10578617 0.11074664 -0.012643874
000240 16 23 6d 3d d4 10 de bc f5 93 96 bc 8a ab a9 bd
       0.05789479 -0.027107634 -0.018381098 -0.082846716
000250 0e 89 32 be ae 85 3a bd 77 f1 82 3d 10 3f 0d 3d
       -0.17435095 -0.045537643 0.06393712 0.03448397
000260 21 3b 82 bd cd d2 e9 bd 96 0f ce bd 46 7d d0 3d
       -0.06358934 -0.1141716 -0.100615665 0.10180144
000270 ae 2f 13 be 8e c0 9d 3d 95 0b 36 be 94 74 13 bd
       -0.14373657 0.077027425 -0.17777856 -0.03599985
000280 86 4d 23 3d 83 87 98 bd 1a 2b 13 3d f0 19 7a bd
       0.039868854 -0.07447722 0.035929777 -0.061059892
000290 d2 f1 7c bc 41 e5 3d bd 25 7c 9b 3a 6c 23 ab 3d
       -0.015438514 -0.04636121 0.001186256 0.083563656
0002a0 a4 8e fa 3c ba c8 51 3d be 8f f1 3b 3e 00 b7 bd
       0.030585594 0.05121682 0.0073718717 -0.08935593
0002b0 66 6a 89 3c fa 24 3b 3e c2 5a 4e be b3 33 9f 3d
       0.016774368 0.18275824 -0.20151809 0.07773533
0002c0 45 65 25 3d ba 2a 3b bd 3a 14 c4 3d 3f 11 91 3d
       0.04037978 -0.045695044 0.095741704 0.070833676
0002d0 70 3e e2 3c 28 7b 9b bd 06 27 5e 3b a0 34 4c bd
       0.027617663 -0.075918496 0.0033897772 -0.049854875
0002e0 fe 00 62 bd 7a 24 bc 3d 6c a4 5e bd 16 b0 d4 3d
       -0.055176727 0.09186645 -0.054356024 0.10385148
0002f0 63 6e db 3d 68 1b e9 bd d0 c2 41 3e e6 1b c6 bc
       0.10714414 -0.113821805 0.18921971 -0.024183225
000300 cb 45 01 3e d4 b9 e2 3d 22 45 17 3e a8 41 0e 3e
       0.1262428 0.110706 0.14772466 0.13892233
000310 bf 90 01 bd 92 28 1b 3d 2b 4a bb 3d d4 c3 af 3d
       -0.03163218 0.037880488 0.09145006 0.08582273
000320 f2 60 bf 3d ef e6 09 be e1 37 19 3e 76 95 ad 3d
       0.09344663 -0.13467 0.14962722 0.08475773
000330 ea 65 10 be 62 7a 35 bd c1 05 6e bd a9 18 aa bc
       -0.14101377 -0.044306166 -0.058110956 -0.020763712
000340 6b 1e a1 bd 6d 40 b0 bd e0 03 98 3d d1 ad 86 bc
       -0.0786713 -0.08606038 0.07422614 -0.016440304
000350 7b fe af 3d 4c fb 42 3d 2c 7b 66 3d 1c 77 80 3b
       0.0859346 0.047602937 0.05626981 0.003920449
000360 b7 f0 00 3e 9a 48 b2 3d 5d 5a 9e bd 45 60 9c bd
       0.12591825 0.08705254 -0.07732079 -0.076355495
000370 02 d8 f8 3c 7c 03 82 3b 14 64 a5 bd f0 b6 cc bd
       0.030376438 0.0039677005 -0.08075729 -0.0999583
000380 14 f0 e3 bd df fb 7b bd 31 e7 d6 bd eb b5 d9 bd
       -0.11129776 -0.0615195 -0.10493315 -0.10630401
000390 d5 e9 9f bd d5 b0 ad bd 1c 60 bf 3d f8 ba 6b 3d
       -0.07808272 -0.08480994 0.09344503 0.057551354
0003a0 85 b4 83 3d ad 07 db 3c 9a 43 cd bc 7c bb 79 bd
       0.06430916 0.026737059 -0.025056649 -0.060969815
0003b0 4f 94 ae bc 29 64 a0 3d 2a 18 c0 3d 6b f1 17 3e
       -0.021310953 0.07831604 0.09379609 0.14838187
0003c0 df bd 88 bd c4 b8 d5 bc 74 e1 12 3d de af 19 3d
       -0.0667684 -0.02608908 0.03585954 0.037521236
0003d0 76 27 8e bc ac 54 4c bd 89 16 85 3d 38 e8 85 3d
       -0.0173528 -0.049885437 0.06498439 0.06538433
0003e0 3d ba d8 bc 51 60 99 3b 27 0c 51 3d 28 87 c3 bb
       -0.026455993 0.0046806713 0.05103698 -0.0059670396
0003f0 dc 82 5a 3d 05 ac 29 bd 9d c5 6f 3d 68 39 e9 bc
       0.053347453 -0.041423816 0.058538068 -0.028469756

main.3.weight f4 [20, 10, 4, 4]
000000 a9 5c 44 3d 42 b8 32 3d 17 99 53 bc f8 28 5d bd
       0.04793993 0.043632753 -0.012914917 -0.05399415
000010 7f 36 94 3d 8c f5 42 3d e2 7b 32 bd b6 b0 de bc
       0.07236957 0.047597453 -0.043575175 -0.027183872
000020 58 33 5f bd 5c 64 9c 3d be 9d 3c 3d 0f 7e 1b bd
       -0.054492325 0.076363295 0.046048872 -0.037962016
000030 b5 12 1c 3d ee c6 97 3d c4 b3 a9 3c 87 d4 09 bd
       0.038103778 0.0741099 0.020715602 -0.033649947
000040 b3 f4 23 3d a6 27 4e bd 9e cb d5 bc 8e d8 75 3d
       0.040028285 -0.05033078 -0.026098069 0.060020976
000050 80 f0 a1 3d 0f 3c a8 3d d4 06 5e 3d d9 53 96 3c
       0.079072 0.0821458 0.05420573 0.018350529
000060 0f 48 81 3d 81 b9 ba 38 d2 05 71 3d 7c d0 94 bd
       0.06312572 8.903724e-05 0.05884344 -0.07266328
000070 88 4d 43 bd f9 00 df bc 52 6a 8e bc 53 c4 b1 bb
       -0.04768136 -0.027222143 -0.017384682 -0.005425015
000080 f1 79 ba bc eb a7 91 3d fe c5 cd bc e3 6e ce 3b
       -0.022763224 0.07112106 -0.025118824 0.00629984
000090 0c 38 3c 3d 78 e4 48 bd 7c f4 0b 3d 69 5d 5a bd
       0.045951888 -0.04904601 0.034168705 -0.05331174
0000a0 9a 7d 97 3a 95 64 dd 3c 22 eb 93 bc c1 62 2d bd
       0.0011557818 0.0270255 -0.018056456 -0.042330507
0000b0 29 d7 79 bc 6c 24 bb bc 4e 94 43 3d db 1f 18 3d
       -0.015249052 -0.022844516 0.047748856 0.037139755
0000c0 21 ea bb bc 00 7d 8f 3d 02 50 45 bd 98 97 8f bd
       -0.02293879 0.07006264 -0.048172005 -0.07011336
0000d0 bc e8 cc 3a 87 59 50 bd 06 86 ac 3d dd f6 b8 3c
       0.0015633325 -0.05086663 0.084240004 0.022578651
0000e0 5d ba 5e bd fa 82 1d bc 89 8e 2c 3d 0c 8c 4b 3d
       -0.05437695 -0.009613747 0.04212812 0.049694106
0000f0 ee d6 2c bb 56 b1 39 3d 6c 25 3b bd 7b 0c 83 3d
       -0.0026373225 0.045335136 -0.045689985 0.06398865
000100 67 16 a3 3c 00 f1 33 3c 1a d3 c9 bb 95 b9 00 3d
       0.019908143 0.010982752 -0.0061591985 0.031426985
000110 71 96 1e 3d 72 56 2e 3d cd f0 92 3c ab dc c9 3c
       0.03871769 0.04256291 0.017937088 0.024641355
000120 23 92 aa bc 32 05 99 bb 21 cc 8e bd 19 bc c1 bc
       -0.020821637 -0.004669809 -0.06972528 -0.023649262
000130 7a 43 13 3d 25 f5 95 bd 2e 5f 7a 3c 7f 18 f9 bb
       0.035953023 -0.07322148 0.015281482 -0.007601797
000140 48 de 85 3d c4 bc 9d bd 1b 53 9e 3d df 68 90 3d
       0.065365374 -0.0770202 0.07730695 0.070512526
000150 a5 a1 6b bc ac b0 a3 bd f1 b7 dd 3c 28 9e 0e 3c
       -0.014381801 -0.07992682 0.02706525 0.0087047
000160 a2 91 01 bd 60 f3 0a 3c d1 1d a0 bc 2a 72 4d 3d
       -0.031633027 0.008480877 -0.019545468 0.050157703
000170 a8 ed 56 3d e1 09 bc bc ba e7 87 3d 9a be 72 3d
       0.05247274 -0.02295393 0.06635995 0.059263803
000180 d4 bc 25 3d 2f ad 6b bd ed ef 41 bd 1c c9 fe 3b
       0.040463284 -0.057538208 -0.04734795 0.007775439
000190 08 5c ee 3c ea e7 9a bc 05 81 56 3c 03 91 1d bd
       0.029096618 -0.018909413 0.013092284 -0.038468372
0001a0 ab 5c c3 3c d0 31 a3 bd 04 5a 89 bd e0 05 60 3c
       0.023847898 -0.07968485 -0.06706622 0.013673276
0001b0 62 62 9a 3d 1f 0f 9f 3d 64 7f 85 bb c0 2e b1 3b
       0.07538296 0.07766556 -0.004074024 0.0054071844
0001c0 ab 55 6d 3d ed 1d 37 bd f2 44 b1 bd 22 c8 de 3c
       0.057943027 -0.044706274 -0.086557284 0.02719504
0001d0 1e ae 2e bd 22 df 73 3d 50 74 90 bc 49 04 73 3d
       -0.04264652 0.059538968 -0.017633587 0.05933026
0001e0 56 b9 3b 3d 03 2d 13 3c 6c 14 21 bd ea ca 60 bd
       0.045831047 0.0089829 -0.039326116 -0.054881014
0001f0 41 6b a3 3c 63 5a 81 bd df 81 db 3c d0 10 69 bd
       0.019948604 -0.06316068 0.026795326 -0.0569008
000200 63 ef 61 bd 55 7b e9 3c 2e c5 50 3d 0d 74 0d bd
       -0.055159938 0.028501192 0.050969295 -0.034534503
000210 73 80 a5 3d 80 79 52 bd 80 b3 c5 3d e8 ad 06 bd
       0.0808114 -0.051385403 0.096533775 -0.032880694
000220 33 d7 17 bb 00 50 92 3d 7c 9c 6b bc 1a 69 c8 bb
       -0.002316904 0.07144165 -0.0143805705 -0.0061160447
000230 77 42 ea bc 0b f7 04 3b 99 68 98 3d b6 60 77 bd
       -0.028596146 0.002028885 0.074418254 -0.060394965
000240 16 66 51 3d 0a 13 14 bd af 8a 68 bd 30 23 96 3d
       0.051122747 -0.03615097 -0.056772884 0.0733093
000250 11 94 15 bb 42 0e ab 3c c5 50 21 bc 25 96 1d 3d
       -0.002282385 0.020880822 -0.009845917 0.038473267
000260 34 f5 85 3b 5a 7e ac bd 8c e3 99 3c 2b 78 6f 3d
       0.0040880684 -0.08422537 0.01878526 0.05846421
000270 8c 8a 7f bd 18 76 56 3c 33 12 a4 3c 0b 73 94 bd
       -0.062387988 0.013089679 0.02002821 -0.07248505
000280 62 98 38 bd 06 9d 11 3d d5 8a 59 bd 73 32 44 3d
       -0.0450672 0.03555014 -0.053110916 0.047899675
000290 a3 15 7f bc 75 73 a6 bd 8d e8 a0 bd 94 c0 ab bd
       -0.015569123 -0.081274904 -0.078568555 -0.08386341
0002a0 1b 47 33 bc e1 77 b5 3b 99 a4 18 3c bc 93 77 3c
       -0.010942246 0.0055379723 0.009316587 0.015110906
0002b0 f8 70 44 3d 1c ee b9 bc dc 8e 7f 3d 2b fc 69 bd
       0.047959298 -0.022696547 0.0623921 -0.05712525
0002c0 25 e8 b6 3b c8 a1 c4 bc 1a a5 20 3d 8d 92 84 bc
       0.005581873 -0.024002925 0.039219953 -0.016183162
0002d0 2d a6 5b bd a7 14 7d bd 84 ac 12 3d 73 a9 5c 3d
       -0.053625274 -0.061787274 0.035809055 0.053872537
0002e0 35 8a 8e bd 9b b3 c5 3c f3 db 1f bd e4 83 30 3d
       -0.06959955 0.024133494 -0.03902812 0.04309453
0002f0 e7 f3 51 3d e8 c3 91 bd c0 70 69 bd b6 c3 9c bd
       0.051257994 -0.07117444 -0.056992292 -0.076545164
000300 19 73 38 3d 26 e3 e7 3c 68 5a 20 3c 5c 83 33 bd
       0.04503164 0.028306555 0.0097871795 -0.043826446
000310 04 6f aa bd 08 94 a4 bd cf 19 54 bd 90 dc 82 bc
       -0.08321956 -0.08036047 -0.051782425 -0.015974313
000320 75 b8 92 bc 6f 33 2b bd 5c 44 2b bd 61 a6 cf 3c
       -0.017910222 -0.041797098 -0.04181324 0.02534789
000330 4a 0f 5e 3d 56 fb 27 bd 94 35 16 bc 16 bb 04 3d
       0.0542138 -0.041011177 -0.009168047 0.03240498
000340 fa 16 17 bc 9f 1f 9d bd cd d4 62 3d e4 28 82 3d
       -0.009221787 -0.07672047 0.055378724 0.063554555
000350 d2 e0 4e bd 27 71 0e 3c f1 ab 2c 3d aa fb 5e bc
       -0.050507374 0.00869397 0.042156164 -0.013609806
000360 2f fd 90 3d ae 63 a5 3c d0 16 3d bd e5 43 a7 bc
       0.07079541 0.020189133 -0.046164334 -0.020418117
000370 7a 83 70 3d cb 71 cb 3c 58 85 63 3d 06 4b 9e bb
       0.058719136 0.024834534 0.05554709 -0.004830721
000380 63 89 30 bc b9 b0 12 3d ff 4e 82 3c ed 59 66 bd
       -0.010774943 0.035813067 0.015906809 -0.056238104
000390 96 7b 24 3d 33 4d db bc 61 fd 42 bc c0 c8 4c bc
       0.040156923 -0.02677021 -0.011901231 -0.012499034
0003a0 d4 f7 c0 bc 90 0f 49 3d 24 38 82 bd 32 c4 57 3c
       -0.023555674 0.049087107 -0.06358364 0.013169335
0003b0 97 90 46 3d 6c d8 6d bd 63 9e f6 bc 71 ca d3 bc
       0.048477735 -0.058067724 -0.030104822 -0.025853368
0003c0 e7 95 58 3d 0d ef 6e 3d 52 e9 32 3d ba 81 9c 3d
       0.052877333 0.058333445 0.043679543 0.07641931
0003d0 58 5b 97 bd 89 63 8a bd dc d9 4f bd b5 fd 74 ba
       -0.07390469 -0.06757266 -0.050744876 -0.00093456666
0003e0 a8 da cb bb a0 36 41 bd fb 6e 71 3d 13 5c 54 3c
       -0.006221134 -0.047171235 0.05894373 0.012961405
0003f0 9f 3d b2 bc 86 bc 9d 3c de d4 92 bd 85 53 86 bd
       -0.021757899 0.019254934 -0.071695074 -0.06558899

main.4.weight f4 [20]
000000 19 3a 7c 3f a9 a9 81 3f b6 34 81 3f 2f 89 7f 3f
       0.9852615 1.0129901 1.0094211 0.998187
000010 0c f5 81 3f aa 24 7c 3f 4f bc 80 3f 8e 20 7f 3f
       1.0152907 0.98493445 1.0057467 0.9965905
000020 76 f8 7d 3f 15 88 81 3f b9 04 81 3f 4d fb 7d 3f
       0.99207246 1.0119654 1.0079566 0.9921158
000030 47 10 7b 3f 8f 3a 80 3f 60 37 81 3f 48 10 81 3f
       0.9807171 1.0017871 1.0095024 1.0083094
000040 0a 3b 82 3f 98 47 7e 3f 20 9c 7c 3f 68 9e 7c 3f
       1.0174267 0.99327993 0.9867573 0.9867921

main.4.bias f4 [20]
000000 d4 b1 2f bc 08 ee 1e 3d c3 4b b1 3c 89 68 c8 bc
       -0.01072355 0.038801223 0.021642571 -0.024463909
000010 72 ee 11 3d d6 c4 a9 bb 1a fc c0 bb b4 06 3d bb
       0.03562779 -0.0051809354 -0.005889428 -0.0028843107
000020 92 db eb bc 6a 4e 25 3b 20 db 03 3c da 43 a9 bb
       -0.028791223 0.002522374 0.008047849 -0.0051655592
000030 28 64 3f ba 56 e6 8a 3b e1 8d 89 bb 27 f5 89 3c
       -0.0007300996 0.004238884 -0.0041978215 0.01684053
000040 df 44 5c 3c f8 e8 0f bd d2 1c 59 bc ed 97 62 bc
       0.0134441545 -0.035134286 -0.0132515 -0.013830167

main.4.running_mean f4 [20]
000000 a6 a0 f9 3a 99 b3 e4 bb 50 e0 f9 bb 49 66 2e 3c
       0.0019045069 -0.0069794175 -0.007625617 0.010644504
000010 2c 52 9b bb 54 78 00 3c 3b 99 ae 3b 58 8e 4b bc
       -0.0047400203 0.007841188 0.005328325 -0.012424074
000020 3e 7c d4 3b 5e 88 bb bb d9 87 ce bb 5e 2d 4d bb
       0.0064845374 -0.0057230433 -0.0063028154 -0.0031307559
000030 a7 e8 e7 3b 79 40 83 bb 6b 25 cb 39 72 7c 06 bc
       0.007077295 -0.0040054885 0.00038747056 -0.008208381
000040 51 03 1e bc 7a 45 61 3b db 74 3b 3c 07 09 84 3b
       -0.009644345 0.0034373687 0.011441435 0.0040293965

main.4.running_var f4 [20]
000000 53 ca 79 38 72 32 47 39 00 09 1a 39 91 5c 2a 39
       5.9554655e-05 0.00018996911 0.00014689937 0.00016246947
000010 68 e9 35 38 f1 28 56 39 5b 90 6f 38 c7 e4 81 39
       4.337114e-05 0.00020423882 5.7116482e-05 0.0002477525
000020 2b 5f af 38 11 97 c2 38 f3 4e 7e 38 07 df f5 37
       8.362377e-05 9.278779e-05 6.0631846e-05 2.9310131e-05
000030 b4 d9 5e 39 3d b5 05 39 aa f4 c9 37 d2 b0 02 39
       0.0002125267 0.00012751385 2.4074998e-05 0.00012463637
000040 cb 78 e3 38 bc 51 04 38 0e 49 a9 39 c5 96 1e 38
       0.00010846703 3.1547374e-05 0.00032288622 3.781055e-05

main.6.weight f4 [40, 20, 4, 4]
000000 7a 68 60 3d eb c6 ae bc 44 86 e0 bc ac d7 cf bb
       0.054787137 -0.021335086 -0.027407773 -0.0063428488
000010 a5 63 c4 bc 73 76 00 bd f7 33 09 3d 4b 41 a9 bc
       -0.023973295 -0.031362962 0.033496823 -0.020661017
000020 e2 4e 15 bd 59 e6 60 bc b0 83 11 3c 4e da 13 3d
       -0.03645218 -0.013726794 0.008881494 0.036096863
000030 69 80 4d 3d 3d 60 46 3d 24 dd 4c bc 7c e2 33 3d
       0.05017129 0.048431624 -0.012503896 0.043917164
000040 e0 ae 13 3d 9e cb 89 3c 63 5e ae ba 7b ad 37 3d
       0.036055446 0.016820725 -0.0013303276 0.04484318
000050 1a 82 82 3d ee ed cb bc 72 bb 3a 3d f7 0b 86 bc
       0.06372471 -0.024893727 0.045588918 -0.016363127
000060 69 01 bd bc 62 8e 3d 3b 60 22 da 3c 3c d1 f5 bc
       -0.023071961 0.0028923978 0.02662772 -0.030006997
000070 81 6b 5a bd a9 2c f7 bc f7 3d 62 3c 5d 83 f7 3c
       -0.05332518 -0.030172663 0.013808719 0.030214006
000080 b4 58 33 3d 85 d6 9a 3c 3b 4a 44 3d c4 55 95 3c
       0.043785766 0.018901119 0.047922354 0.018229373
000090 9c 7b 02 bd a0 f1 71 bd 0a d4 3f 3d a2 e7 2c 3d
       -0.031856164 -0.059068322 0.046833076 0.04221309
0000a0 08 24 48 3d 40 d7 5a 3d 89 c7 34 bd a9 09 fb bc
       0.048862487 0.053427935 -0.044135604 -0.030644255
0000b0 a6 f2 2b 3d 72 cc 1e bc 94 df 1b 3d 61 06 0f bd
       0.041979454 -0.009692298 0.038055018 -0.034918193
0000c0 b7 80 90 bc c6 35 8a 3d be c5 a3 bc 49 72 b2 bc
       -0.017639501 0.06748538 -0.019991752 -0.021783011
0000d0 b5 e8 55 bc 68 2c f6 bc 4c 6d bb 3c 3b e5 04 3d
       -0.01305597 -0.030050471 0.022879265 0.032445174
0000e0 ae db 85 bd 7e ae 9f 3c 61 a4 af bc 0d 08 79 3c
       -0.06536041 0.019492384 -0.021440687 0.015199673
0000f0 1a 5f 57 3d 70 ad 6e bb f3 0c 27 bd bb d2 43 bd
       0.05258093 -0.0036419295 -0.040783834 -0.04780839
000100 66 bf 13 3d 30 dd ca 3c 34 f2 3e 3d 71 a0 2c 3c
       0.036071204 0.024763674 0.0466177 0.010536299
000110 f1 fa 61 bc 29 af 1a bd 47 8f 05 bd 21 d5 3b 3d
       -0.013792739 -0.037764702 -0.032607343 0.045857552
000120 cd 40 76 3d 79 32 b6 3b 12 71 69 bd ab 90 64 3d
       0.060120393 0.005560216 -0.056992598 0.05580203
000130 cc a2 83 bc 09 f1 84 3d 24 76 24 bc fc b2 45 bd
       -0.016068839 0.06491286 -0.010037933 -0.048266396
000140 05 d0 bf 3c 38 9e af 3c 3c be 00 bd 6f 60 33 3d
       0.023414621 0.02143775 -0.03143142 0.043793138
000150 07 08 3e 3d 40 87 2b 3d a1 a0 14 bd f0 f2 fa 3c
       0.046394374 0.04187703 -0.036286 0.03063342
000160 c4 4f 26 bd 85 ee c8 3c 16 75 3f 3d 66 56 af bc
       -0.040603414 0.024527797 0.04674252 -0.021403503
000170 89 c5 3f 3d 73 70 b4 bc 8b 25 85 3c 67 86 a7 3c
       0.046819244 -0.022026276 0.016253253 0.02044983
000180 14 c6 37 3d cf 1c c2 bc 8d d7 f4 3b ac 94 2d bb
       0.044866636 -0.023695378 0.0074719847 -0.002648632
000190 bc 66 57 bc c5 33 6d 3d f0 9c 7e 3b d1 d8 e7 bc
       -0.013147052 0.0579107 0.0038850866 -0.028301628
0001a0 24 ea 03 3d fb 25 14 bd 3a c0 4e bd 12 56 99 3b
       0.032205716 -0.036169033 -0.05047629 0.00467945
0001b0 0c b8 50 3d e0 db 8f 3b c0 5e e8 bc 32 a5 f0 bc
       0.05095677 0.004390225 -0.028365493 -0.029375646
0001c0 75 e7 93 3c 71 f3 3c 3d f6 26 2d bd 98 99 e3 3c
       0.018054703 0.0461306 -0.042273484 0.0277832
0001d0 d1 0c 13 3d 7e 4e d5 bc 41 1c 4e bd a6 15 73 bc
       0.035900895 -0.026038405 -0.050319914 -0.014836704
0001e0 ce 5f 60 3d 3b c8 a6 3c b5 50 59 3d a4 90 48 3c
       0.054778866 0.02035915 0.053055484 0.012241516
0001f0 98 7d d5 3c b7 7a 46 3d 53 a8 9f 3b c7 c5 ec bc
       0.026060864 0.048456874 0.0048723607 -0.028902901
000200 2c 71 01 bd a1 f5 91 bc 94 a8 66 3b be b0 70 3c
       -0.03160207 -0.01781732 0.0035195695 0.014690576
000210 78 2c a5 3c eb 46 f0 3c b7 e1 10 3d 3b 7f 34 3d
       0.020162806 0.029330691 0.03537151 0.04406665
000220 a2 07 ac bb 7e a4 77 3c 05 c9 9f 3a 16 49 d9 bc
       -0.0052499333 0.015114902 0.0012190646 -0.026524108
000230 25 02 3c bd c8 e2 a3 3c 4e 76 2d 3d bc c6 38 3b
       -0.045900483 0.020005599 0.042349152 0.0028194627
000240 f4 d0 14 bc a5 3a 44 3d fc ff 18 bc 87 75 30 bd
       -0.009083021 0.04790749 -0.009338375 -0.043080833
000250 16 64 fd bc 3c 4e 78 3c 7f b0 8f 3b c1 42 53 3d
       -0.030931514 0.015155371 0.0043850536 0.051577333
000260 78 03 d7 bc 77 af a5 bc 16 65 ef bc fe 07 c2 bc
       -0.026246771 -0.02022527 -0.029223006 -0.023685452
000270 9b 60 52 3d c2 eb 4a 3d ea ba e3 bb ba 3a 37 bc
       0.05136166 0.049541242 -0.006949772 -0.011183435
000280 15 63 3a bd 5a 76 88 bc 83 1e ab 3c 0d 6a d6 bb
       -0.04550465 -0.016657997 0.020888573 -0.006543404
000290 93 d6 1d 3d 01 9d 20 bc 55 3e 67 3c 2b 4e 83 3c
       0.038534712 -0.009803058 0.014113982 0.016028484
0002a0 0a 65 2f 3d 4f 4c 59 3d 74 fc 12 bd 61 62 dc bc
       0.042820968 0.05305129 -0.03588529 -0.02690238
0002b0 46 45 2b bc 00 c5 f7 3b 4e 9e 10 3d de e4 f8 bb
       -0.010453528 0.007561326 0.03530722 -0.0075956425
0002c0 5e 2d 27 3b b9 98 10 3c c2 8a 1a bd 22 b7 6d 3b
       0.0025509219 0.008825474 -0.037729986 0.0036272486
0002d0 86 f7 29 3d 96 24 41 bc 6f 76 b8 3c 59 d5 9c 3c
       0.041495822 -0.011788508 0.022517411 0.0191447
0002e0 60 f4 34 3d c1 11 f1 3a af 80 97 3b 49 0b 3c 3b
       0.044178367 0.0018392132 0.0046234946 0.002869325
0002f0 1c 60 01 3d f5 fa 76 bb af df 3d 3d ea 80 09 3c
       0.031585798 -0.0037686203 0.0463559 0.008392552
000300 88 b2 23 bd 45 28 8a 3b 8e 6e 4d bd 99 df cb 3c
       -0.039965183 0.0042162263 -0.05015426 0.024886893
000310 d8 29 2e bd ea 82 89 3d 2f 02 80 3c 37 26 b4 bb
       -0.042520374 0.06714423 0.015626041 -0.0054977196
000320 3a 0c d5 bc 1a cf ce bb e7 d1 a3 bc 73 7c 7d 3c
       -0.026006807 -0.0063113095 -0.01999755 0.015471566
000330 94 fb 2a bd 83 1d 3d 3c 0c 97 30 bd a5 9e 47 3b
       -0.04174383 0.011542681 -0.0431128 0.003045955
000340 95 5b 3f 3d b6 68 6b 3d 5a b3 92 bc f0 19 4a 3c
       0.0467182 0.057472907 -0.017907787 0.012335286
000350 a6 c6 97 bb 90 bb 44 3d d2 99 db bc a5 fd 28 bb
       -0.004631835 0.048030436 -0.026806746 -0.002578595
000360 86 88 63 3d 2d 4a b9 3c ae a3 a6 3c 69 8c c8 3c
       0.05555012 0.022618378 0.02034172 0.024481015
000370 e8 59 23 3d bf 61 87 bc 56 e8 27 3d ba cd f5 bc
       0.039880663 -0.016526101 0.040993057 -0.030005325
000380 f0 9a 59 3b 72 be 1d bd 66 aa 06 bd 61 e8 5f bd
       0.0033203922 -0.0385117 -0.03287735 -0.054664973
000390 04 b2 41 3d c9 77 aa bc d3 fa 1b bd ab 48 0e bd
       0.04728891 -0.020809071 -0.038081 -0.03473727
0003a0 e5 09 aa bc 53 9a 4b 3d 19 18 27 bc fc bd 40 3d
       -0.020756671 0.049707722 -0.010198616 0.047056183
0003b0 88 a2 47 ba 3d e9 21 bd 15 e9 15 3d 27 a8 46 3a
       -0.00076154666 -0.039529074 0.036599237 0.0007578157
0003c0 40 5c 88 3c 61 99 65 3d 01 2c bf bc 36 d2 c1 bb
       0.01664555 0.056054477 -0.023336412 -0.0059149517
0003d0 9f ad 4c 3d 08 e9 9f 3c 15 1f 1c 3d 31 22 99 bb
       0.049970265 0.019520298 0.03811558 -0.0046732654
0003e0 53 c1 68 3c e4 75 3c bd c6 85 17 bd f0 54 cf 3c
       0.014206248 -0.046010867 -0.03699281 0.025309056
0003f0 e1 9d 70 bc 78 25 06 3d 72 e5 53 3b c6 6c 78 3d
       -0.014686079 0.032750577 0.0032332805 0.06065061

main.7.weight f4 [40]
000000 19 f4 87 3f a8 0d 86 3f 40 2b 82 3f 6f d1 8c 3f
       1.0621368 1.0472918 1.0169449 1.1001414
000010 26 64 83 3f 40 e5 85 3f 61 81 84 3f 76 37 83 3f
       1.0264938 1.0460587 1.0351983 1.02513
000020 63 cc 82 3f 6f 0c 86 3f b2 a5 83 3f 42 13 86 3f
       1.0218624 1.0472544 1.0284941 1.0474627
000030 42 82 84 3f 51 ed 82 3f 27 0d 8a 3f 10 e4 84 3f
       1.0352252 1.0228673 1.0785264 1.0382099
000040 e0 b8 88 3f 6b 41 83 3f bc d0 82 3f e2 e5 86 3f
       1.0681419 1.0254339 1.0219951 1.0538905
000050 12 a2 85 3f 33 ac 85 3f 1c 98 82 3f d6 cf 87 3f
       1.0440085 1.0443176 1.020267 1.0610301
000060 60 5a 83 3f dd 05 86 3f 54 8c 8a 3f 7c c5 83 3f
       1.0261955 1.0470539 1.0824075 1.0294642
000070 5a 3f 86 3f ba ed 85 3f 26 1a 83 3f dd 97 84 3f
       1.0488083 1.0463173 1.0242355 1.0358845
000080 00 a2 86 3f 97 40 88 3f 1b 69 88 3f fd e5 83 3f
       1.0518188 1.0644711 1.0657076 1.0304562
000090 b5 8a 83 3f b3 7f 82 3f 8c ca 83 3f 7c f5 83 3f
       1.0276705 1.0195221 1.0296187 1.0309291

main.7.bias f4 [40]
000000 9e d2 96 3c 28 c1 ca 3c 61 1f a5 3b 05 89 89 3b
       0.018410977 0.024750307 0.005039141 0.004197242
000010 db af b2 3c 3a e9 50 3c 9c f0 b1 3c 4c f5 58 3c
       0.02181237 0.012750918 0.021721177 0.013242077
000020 0d e9 39 3c d8 2b 0b 3d b2 bc 9e 3c 70 41 09 3d
       0.011347068 0.03397736 0.019377086 0.03350967
000030 6f e4 fc 3a a1 89 36 3c ee b3 66 3d f1 6d e2 3c
       0.0019294153 0.011141212 0.056323938 0.027640315
000040 32 b4 1d 3d 57 ec 0a 3c fe 5a b6 3c 2c 70 2c 3c
       0.038501926 0.008479199 0.022260185 0.010524791
000050 18 29 f4 3c 10 63 d9 3c fb 6e 0a 3c 32 eb 3a 3c
       0.029804751 0.026536494 0.008449311 0.011408614
000060 fb 0d 84 3c 26 c2 f5 3c 17 4e 2c 3d 3c bb b7 3c
       0.016119948 0.029999804 0.04206666 0.022428147
000070 fd 31 2d 3d af 9a 16 3d ad fc 25 3c b6 11 48 3c
       0.042284 0.03676861 0.010131043 0.012211254
000080 8d 70 67 3c c6 bf 34 3c bd 36 63 3c f3 07 64 3c
       0.014125955 0.0110320505 0.013868031 0.013917911
000090 db 6e 89 3c 55 d2 fb 3b 59 8c ab 3c f0 87 82 3c
       0.016776493 0.0076849856 0.020940946 0.01593396

main.7.running_mean f4 [40]
000000 df 88 95 3e 2d 97 06 be 39 b5 40 3d 07 4a 91 3e
       0.29205987 -0.13143606 0.047047827 0.2837679
000010 b0 3d b4 3d 51 d3 90 bd 71 e0 ed bd 32 c3 bf bc
       0.088008285 -0.070715554 -0.116150744 -0.023408506
000020 b6 0d 1a 3e 75 b2 76 bc 9f 7c 7c bc 21 ae 34 3e
       0.15044293 -0.015057196 -0.015410571 0.1764455
000030 b3 32 1e 3e bd bf d4 bd 2e df e2 bd 57 b1 a5 bd
       0.15449028 -0.10388134 -0.110777244 -0.080904655
000040 46 a3 43 3e 1c 8a b9 3d 3c 0a 4c 3d 66 17 75 3e
       0.19105253 0.090595454 0.049814448 0.23934707
000050 16 4d 89 3d da 9d 26 be 86 90 a0 3d 7d d9 a7 3e
       0.06704156 -0.16271153 0.07840066 0.32783118
000060 be 70 d2 bd 69 0f 5d be e6 b8 8e bd 4e 77 9b 3d
       -0.1027541 -0.2158791 -0.0696886 0.07591115
000070 aa 57 7f bd 9a bc 23 bc f5 81 f3 3d 84 fc fe bc
       -0.062339462 -0.009993697 0.11890022 -0.031126268
000080 b9 04 e6 bc 69 dd b1 3d d0 1a a0 bd 91 9d fd 3c
       -0.028078424 0.08684809 -0.07817614 0.030958923
000090 8e 27 02 3e 21 66 63 3e af 7e ee bd d0 20 64 bd
       0.12710401 0.22206928 -0.11645257 -0.055695355

main.7.running_var f4 [40]
000000 6e bd 04 3d 99 de 8b 3c c8 a5 a2 3d 2f 89 47 3d
       0.032407217 0.017073916 0.079417765 0.048714813
000010 d3 2b 2c 3d 7b aa ca 3c 26 0f 9a 3c 03 6a 8b 3d
       0.04203398 0.024739495 0.018806051 0.068073295
000020 36 6f d0 3d 3f 6c 30 3c a4 ca 17 3d 76 da bb 3c
       0.10177462 0.010767995 0.037058488 0.022931319
000030 fa b6 f7 3c 19 e0 95 3c cd 6a 3f 3c e9 2a 0d 3d
       0.030238617 0.018295335 0.011683178 0.03446475
000040 89 c8 79 3c 49 4c 88 3d 64 58 a0 3d 6a e2 f5 3c
       0.015245565 0.06655175 0.07829359 0.03001519
000050 60 4d 7a 3c 76 33 93 3c cf d4 5a 3e 34 fa ea 3c
       0.015277237 0.017968874 0.21370243 0.02868376
000060 ad 77 dd 3d 22 82 ac 3c 36 3e 4a 3c 79 28 e3 3c
       0.10813842 0.021058146 0.012343934 0.02772926
000070 92 80 73 3c de 82 84 3c 79 95 04 3e 93 4d 0a 3d
       0.0148621965 0.016175684 0.12947644 0.033765387
000080 33 ee a9 3c 34 09 8d 3c 64 35 24 3d a9 2d ef 3c
       0.020743465 0.017216302 0.04008998 0.029196577
000090 65 de 58 3e 8f fd 4a 3d 39 bf cd 3c 0f be 86 3d
       0.21178587 0.04955822 0.025115596 0.065792195

main.10.weight f4 [180, 360]
000000 b4 41 19 3d cf 8f fe 3c e5 77 4a 3d 36 56 60 bd
       0.037416175 0.031074433 0.049430747 -0.054769717
000010 ef 5b ea bc bd de 30 3d 0e ab 72 bb 83 60 08 bd
       -0.02860829 0.04318117 -0.0037028226 -0.033295166
000020 0e e1 80 3c 99 cb 89 bc 56 63 a6 bc d9 13 e9 bc
       0.015732314 -0.016820716 -0.020311039 -0.028451847
000030 12 a4 f4 3c 34 3b fa bc 8f 48 06 3d fd 10 fe bc
       0.029863391 -0.030545808 0.03278404 -0.03101396
000040 d7 a7 c9 bc e9 49 ab 3c e3 ef c5 3c 44 7e 2d bd
       -0.024616165 0.020909267 0.024162238 -0.042356744
000050 19 11 22 bd 78 8b 46 bd e7 e6 9c 3c fd 53 a8 3c
       -0.039567087 -0.04847285 0.019153072 0.020547861
000060 ba ac f7 3b ad cd 49 3d 2a d1 ed bc 43 38 d7 bc
       0.0075584324 0.049268413 -0.029030401 -0.026271945
000070 e8 5d e1 3c 70 97 c6 ba 5d 29 4e bd 39 f9 91 bc
       0.027510598 -0.0015151333 -0.050332416 -0.017819034
000080 8e 24 78 3c df c8 d8 bc ab 88 18 bb aa cb 01 bd
       0.015145434 -0.02646297 -0.002327482 -0.03168837
000090 a0 c2 0a 3d be ad 3e 3d 45 63 fb bc 13 44 43 bc
       0.033877015 0.046552412 -0.030686984 -0.011918086
0000a0 7a c9 49 bd a1 66 0e 3d a1 bb f4 3c da 84 29 bd
       -0.04926441 0.034765843 0.029874625 -0.041386463
0000b0 b1 a5 ea 3c e4 d3 76 3c 02 9c 4a bd f4 b2 ff 3b
       0.028643461 0.015065167 -0.049465187 0.0078033153
0000c0 fb 79 01 bc ad 7c 2e 3d 6c 3a 3a bd 49 92 49 bd
       -0.007902618 0.04259937 -0.04546587 -0.049211774
0000d0 c8 b6 37 3d 4a 40 36 bb 58 61 11 3d 58 01 20 bd
       0.04485205 -0.0027809315 0.035493225 -0.03906378
0000e0 45 b7 36 3c e9 7a 03 bb 0c a5 21 3b f4 df 05 bd
       0.011152093 -0.0020062274 0.0024665026 -0.03268428
0000f0 8d b6 3b 3b b7 74 fe bb 0c ea 44 3d 68 88 54 3d
       0.0028642744 -0.0077653783 0.048074767 0.0518879
000100 a6 ee 8f bb 53 32 b7 ba 66 3c fd bc cf ff 9d bc
       -0.004392463 -0.001397679 -0.03091259 -0.019287018
000110 ae af db 3c 38 e8 0b bd 81 3f 35 3d 1d 3b 74 bc
       0.026817169 -0.034157008 0.044250015 -0.014906672
000120 94 7b e7 3c 4c 94 cb 3c c0 ef 1b bd 02 9d 92 3c
       0.028257169 0.024850987 -0.03807044 0.017897133
000130 f6 ef 98 3c 1a 7e fb 3c 26 72 0a bb 79 1c ed 3c
       0.01866911 0.030699778 -0.0021125167 0.02894424
000140 61 2a fe 3c bd 64 d6 bc 25 c3 41 bd b6 76 3f bd
       0.031026067 -0.026171083 -0.047305245 -0.04674407
000150 68 dc 89 bc ef 29 4d bd 53 53 2a bd 46 45 2e bd
       -0.01682873 -0.05008882 -0.04158337 -0.042546533
000160 0c c1 25 bd 15 0c 04 bd 42 e2 0f bd f8 f1 fb 3c
       -0.040467307 -0.032238085 -0.035127886 0.030755028
000170 91 92 1e bc e4 ba 3f bd fd 86 9c bc 58 7f 37 bd
       -0.009678499 -0.046809092 -0.019107336 -0.04479918
000180 4c b2 4e bd b2 9b 36 bd 6a 35 20 bc c1 37 13 bc
       -0.050463006 -0.044582076 -0.00977836 -0.008985461
000190 3e 7e 30 bd b3 1b 76 3c bc 55 36 3d cf 6e a8 3c
       -0.043089144 0.015021252 0.044515356 0.02056065
0001a0 cd 90 4a 3d d0 e6 0a bd 1f 18 9c bc a5 2d ef 3c
       0.0494545 -0.033911526 -0.01905447 0.02919657
0001b0 8b f4 43 3d 6e e6 15 bd 5b af ef 3b 71 eb 8f 3c
       0.047840636 -0.036596708 0.007314605 0.017568322
0001c0 bc 46 92 bb 94 b3 10 bd 95 50 88 bc 0e e8 37 3d
       -0.0044639986 -0.03532751 -0.016639987 0.04489904
0001d0 33 ec 83 3c ab e6 47 bd 7c 7b fb bc da 69 e8 bc
       0.01610384 -0.048803966 -0.03069853 -0.028370786
0001e0 75 16 00 3d 37 8b 59 bc 64 c7 50 3d c7 ba 0a 3d
       0.031271417 -0.01327782 0.050971404 0.03386953
0001f0 15 6f c6 3c f9 d3 67 3c 5c 57 4a 3d ff e8 1b bd
       0.02422289 0.014149659 0.04939972 -0.038064
000200 13 5e ae bc 85 bf d2 bc 94 5a 0c bd a7 41 1e bd
       -0.021285092 -0.02572609 -0.03426607 -0.03863683
000210 30 d3 26 3d 38 9a 24 bd 89 d7 59 bc b9 5a 00 bd
       0.040728748 -0.040186137 -0.0132960165 -0.03133652
000220 94 d6 cf bb 13 65 37 3d 9e 63 c4 3c 2f d3 1e 3d
       -0.0063427184 0.044774126 0.023973282 0.03877562
000230 a0 c7 37 3c 2e 76 0f 3d 92 40 30 bd f3 87 90 bc
       0.011217028 0.035024814 -0.04303033 -0.01764295
000240 ea 51 d8 3c 10 16 24 3d da 98 bd 3c c5 c0 85 3b
       0.026406247 0.040060103 0.023144174 0.004081818
000250 e5 bb f8 bc 48 30 14 3d 2a 3c da bb c1 b9 c4 3c
       -0.030363033 0.036178857 -0.006660004 0.024014356
000260 ef db 38 3b 8f d7 10 bc 41 ca fd bb 30 6e dd 3b
       0.0028207263 -0.008840456 -0.007745058 0.00675752
000270 35 29 0d bd 5d fe 30 3d 33 7b b0 bc 20 5f 04 bd
       -0.034463126 0.04321133 -0.021543121 -0.03231728
000280 0b 84 40 3d e1 98 51 bd af 08 37 bc 03 25 b3 bc
       0.047000926 -0.051171187 -0.011171504 -0.021868235
000290 9d 45 26 3d 28 26 04 bc c2 d5 8d bc 01 29 8b bc
       0.040593732 -0.008065738 -0.017313842 -0.016987326
0002a0 98 56 13 3d a4 7c 1a 3d 89 fe d7 3c 17 0f bb ba
       0.035971254 0.037716523 0.026366489 -0.0014271465
0002b0 9e 86 52 3b 25 85 0b bc 1a bf 55 3d 82 26 34 bd
       0.0032123695 -0.008515631 0.0521842 -0.043982036
0002c0 c7 1a 30 3d fb 90 4b bd 30 b0 8a bb df 31 34 3d
       0.042994287 -0.04969881 -0.004232429 0.043992873
0002d0 b0 39 31 3d 56 c7 27 3d 6a f0 de bc 3e af ed 3c
       0.043267906 0.040961586 -0.027214248 0.029014226
0002e0 7a 2b 96 39 55 7c 45 bd 50 e7 b9 3c 52 b3 0e bd
       0.00028642622 -0.048214275 0.022693306 -0.034838982
0002f0 29 2b 04 3d 4c 9b 20 bc 43 35 f0 bc e5 32 c1 3c
       0.032267723 -0.009802651 -0.029322272 0.023583839
000300 ab 12 39 bd 81 6a aa bb 32 86 06 3d a7 9c 6b bc
       -0.04518382 -0.0052006845 0.032842822 -0.014380611
000310 f2 46 32 3d 69 ed 2a 3d 2f 51 a7 bc 3a 38 52 3c
       0.04352469 0.04173032 -0.020424454 0.012830788
000320 91 37 20 bd 7a 69 27 bd fc 8a 9f 3c 5a 8e 59 3c
       -0.039115492 -0.040872075 0.019475453 0.013278568
000330 eb bd 36 bd 44 89 f9 3c 9a 1b 0f bc 65 11 27 bb
       -0.044614714 0.030460961 -0.008734608 -0.0025492546
000340 91 71 c3 bc c0 78 f2 bc 89 be 8d bc bb 32 17 3d
       -0.023857864 -0.029598594 -0.017302768 0.036913615
000350 8d 1c 2f bd 2d 8b b6 3b 9d 45 a3 3c 7a a7 33 3d
       -0.042751838 0.0055707903 0.019930655 0.04386089
000360 02 c7 0a bd 40 0e 3a 3d f7 3a ca bc 50 29 6a 3c
       -0.033881195 0.045423746 -0.02468632 0.014292076
000370 14 18 2e bc d1 ae 1d bd b6 27 94 3c 1c dc 3b bd
       -0.010625858 -0.038496796 0.018085342 -0.04586421
000380 48 38 5a bc f6 02 aa bb d9 df 6c bc e6 94 11 3d
       -0.013319083 -0.0051883413 -0.014457666 0.03554239
000390 01 99 1c bd 97 90 03 ba 78 80 10 bd 03 66 4b 3c
       -0.038231853 -0.0005018799 -0.035278767 0.012414458
0003a0 e8 3e 1a bc 2e 45 3c bc c9 90 16 3c 82 21 9c 3b
       -0.009414412 -0.011491103 0.009189793 0.0047647366
0003b0 19 19 58 3c 45 d8 63 bc c4 cd 22 bd 4b 23 7a 3c
       0.0131895775 -0.013906543 -0.039747015 0.015267204
0003c0 6b 20 48 bd 40 59 45 3c 7d a3 fb 3c 49 2c 50 3c
       -0.04885904 0.012045205 0.030717606 0.012705871
0003d0 00 ee 36 bd 0a 9c fc 3c 05 75 2c 3c ee b2 9a bb
       -0.04466057 0.030836124 0.0105259465 -0.004721037
0003e0 25 b5 04 bd a1 75 03 bd e9 07 55 3d b3 46 3d bd
       -0.032399315 -0.0320946 0.052009497 -0.046210002
0003f0 7d 87 32 3c 31 8f f3 bb 84 99 ab 3b 4f aa d2 bc
       0.010896561 -0.007432841 0.0052368063 -0.025715975

main.12.weight f4 [90, 180]
000000 9c f5 27 bd fc 72 a6 3c 1b d5 e4 3b f2 7b c7 bc
       -0.041005716 0.0203185 0.006983412 -0.024351094
000010 e1 2b e4 bc d3 df 35 bd 0c 9a 82 3d d0 3c 0f bd
       -0.027852954 -0.04440291 0.06377038 -0.034970105
000020 56 00 1a bc cc 5c 51 bd 71 7f 67 bd 04 e0 30 3d
       -0.009399494 -0.05111389 -0.056518022 0.043182388
000030 cc 22 48 3b b6 3e f3 3c 77 6c f6 39 35 e8 48 3c
       0.0030538319 0.029692989 0.0004700159 0.012262394
000040 2c a4 2d 3d 38 df 2c bc 93 1d 61 3d d3 31 73 bd
       0.042392895 -0.010551266 0.054959845 -0.059373688
000050 a9 2b 83 3d 10 8a 68 3d dc 4d bb 3c 08 f8 b4 bc
       0.06404812 0.05677229 0.022864275 -0.022090927
000060 a4 78 54 3c e0 5f 3e 3d 3b 8c 88 3d 76 af ad 3c
       0.012968216 0.046478152 0.06667372 0.02120183
000070 b7 9d 14 bc aa 78 a0 bb e0 14 17 3d 0a b5 87 bd
       -0.009070805 -0.004897197 0.036885142 -0.06626327
000080 84 4a 2b 3d a8 d6 22 bd 64 2e 5f 3c b8 1a 03 bd
       0.04181911 -0.039755493 0.0136219 -0.032007903
000090 17 0c 93 3d fd 80 ab 3c 81 80 1a 3d c4 eb fc bc
       0.0718004 0.02093553 0.037720207 -0.03087414
0000a0 5a 7c a1 ba a4 f8 54 bd 4d cc 89 bd ed 81 4c 3d
       -0.0012320385 -0.051994935 -0.067284204 0.049928594
0000b0 28 e8 84 bd f7 1f 97 bc 99 7a 95 bd db 1a 55 bd
       -0.06489593 -0.01844786 -0.07298774 -0.052027564
0000c0 48 64 7a 3d 0c ca 84 3d 7d ca 14 3d 5c de d2 3c
       0.061130792 0.0648385 0.03632592 0.025740795
0000d0 65 ee a8 bc da 26 c4 3c 3e a2 5b 3a e7 45 8d 3d
       -0.020621488 0.023944307 0.0008378363 0.068980984
0000e0 10 1d 3f bd 36 9b 49 3d a6 0e 28 bd 26 15 ff bc
       -0.046658576 0.049220286 -0.041029595 -0.031138014
0000f0 2d 85 86 bd fc ad 61 3c 5c 69 5e 3d d6 ff f4 bb
       -0.0656837 0.013774391 0.054299697 -0.007476787
000100 ed e2 42 bd a3 86 fc 3c 23 37 07 bd ab dd 35 bd
       -0.047579695 0.030825919 -0.033011567 -0.044400852
000110 16 e4 2c 3b e1 53 65 3b 98 2f 07 bd 27 f5 61 3d
       0.0026381067 0.0034992623 -0.033004373 0.055165436
000120 9e 6c 4a 3d 10 c3 95 3c b3 f5 6c 3b 9a 85 7b 3c
       0.04941999 0.01828149 0.003615719 0.015351677
000130 d0 ef a5 bc a5 c7 f2 3b a1 ac 71 3d 7e ca 24 bd
       -0.020255953 0.0074090534 0.059002522 -0.040232174
000140 58 30 4c bd ee 7b d4 bc 15 5b 81 3d e6 d1 0a bd
       -0.04985079 -0.025938 0.06316201 -0.03389158
000150 42 a6 75 bd b5 b9 84 3d 9a 42 a7 3c 38 fc 1e 3d
       -0.05997301 0.06480733 0.0204175 0.038814753
000160 8d cf 6d bb fe 76 04 bd 98 23 0f bc f2 93 f6 bc
       -0.003628704 -0.032340042 -0.008736514 -0.030099843
000170 05 cf 4f bd 1d 9a 2f 3c 2e 8b d9 bc b8 2c 8e bc
       -0.05073454 0.010717896 -0.026555624 -0.017355308
000180 1c cc 50 bc ce 37 c2 bc d0 5f 34 bd c4 65 90 3d
       -0.012743976 -0.02370825 -0.044036686 0.0705066
000190 be dc 0c 3d a0 f6 78 bd 8d f3 8d 3d 86 c5 04 3c
       0.034390204 -0.060782075 0.06931219 0.008103734
0001a0 dd 95 f4 3c 1c 49 31 3d e7 7e 00 3d 90 80 84 bc
       0.029856617 0.043282613 0.031371024 -0.016174585
0001b0 4c 59 cd bb 38 b8 97 bd 55 a7 ab 3c cd 76 77 3d
       -0.0062667485 -0.07408184 0.020953814 0.06041603
0001c0 b2 18 eb 3c 78 67 76 bb a4 b6 97 3c 97 41 3f 3d
       0.0286983 -0.0037598293 0.018519707 0.04669341
0001d0 aa 9a 98 bd eb e4 57 3d 42 42 89 bd 81 08 7b 3d
       -0.07451375 0.052708548 -0.06702091 0.061287407
0001e0 80 73 63 bc 98 88 ca 3c 41 0c 3a 3d 36 c9 78 bd
       -0.013882518 0.024723336 0.045421842 -0.060738765
0001f0 3e cd 6a bd 56 1c 7b 3d e6 63 8d 3d a5 39 97 3b
       -0.05732464 0.06130632 0.0690382 0.004615026
000200 3a cd 48 3d a3 1e 68 3d a0 5b 35 3d 17 00 92 3d
       0.049023844 0.056669842 0.044276834 0.071289234
000210 09 1d 5b 3d 18 22 73 3c de 0c 10 3d c8 ad 74 bd
       0.053494487 0.014839672 0.03516852 -0.059736043
000220 de 6c 17 3c 10 8d 8c bd 7d 23 0d 3c e3 f5 8e 3d
       0.009242265 -0.06862843 0.008614418 0.06980493
000230 d6 3c 3a bd 92 a0 ab 3c 90 6f 07 3d cd 3a 15 3d
       -0.045468174 0.02095059 0.03306538 0.03643303
000240 2a d8 02 3d fb a1 a5 3b 60 c2 81 bd 92 5e e5 bc
       0.03194443 0.00505471 -0.06335902 -0.027999196
000250 33 f7 86 3c 97 00 2f 3d d9 e3 3c 3d b7 09 2e 3c
       0.016475296 0.042725172 0.04611573 0.010622433
000260 7d 92 13 3d 94 da 81 bd d2 1a 29 3d 19 73 43 bd
       0.036028374 -0.063405186 0.041285343 -0.047717188
000270 e9 6f 96 bc 0d 05 1c 3d 9e a2 6f bd 46 ac db 3b
       -0.01836391 0.038090754 -0.058504693 0.006703886
000280 56 01 f6 3c b3 43 74 3c 37 32 57 bc 51 8c 05 bc
       0.030029934 0.014908719 -0.013134531 -0.00815113
000290 74 58 e0 3b b6 01 02 3d 2a 78 5c 3d b5 da 8e bd
       0.006846482 0.031739913 0.053825535 -0.06975309
0002a0 7d a0 b9 3b e9 ed 02 3d 59 d7 2d bd 2e 15 6e 39
       0.0056648836 0.03196517 -0.0424417 0.00022705339
0002b0 75 cd e6 3a e5 3f 2a 3d 36 7e f7 3c a2 a2 97 bd
       0.0017608838 0.04156484 0.03021155 -0.074040666
0002c0 dc 2f 3e 3c 8a 6d 33 bc a0 2f 29 3d b8 a2 58 3c
       0.01160809 -0.010951409 0.041305184 0.013222389
0002d0 22 13 d4 bb d5 9b 43 3d d0 2b 95 3d d9 93 fd 3c
       -0.0064720074 0.047756035 0.07283747 0.030954288
0002e0 a7 03 0e bd 62 46 93 3d 7d b0 01 3d be 2b 0f bd
       -0.034671452 0.07191159 0.031662453 -0.034953825
0002f0 95 4f ff 3c 74 48 1b bd 1e 7d 1a 3c 50 8a b2 3c
       0.031165877 -0.037910894 0.009429244 0.021794468
000300 76 f8 93 3d 8c 93 9e 3c 10 9e 84 3d ec ef 99 3b
       0.072251245 0.019357465 0.064754605 0.0046977904
000310 16 a8 d5 bb 4d bb 49 bd 19 9d 38 3d a0 b1 b6 3c
       -0.0065202815 -0.04925089 0.045071695 0.022301495
000320 db 0e 20 ba 2f 81 8e bd 0d 48 9a 3d 9f 76 92 bc
       -0.0006105729 -0.069582336 0.07533274 -0.017878829
000330 7e 13 dd bc 0f 98 38 bd dd b2 72 bd 2e 93 8d bc
       -0.026986834 -0.04506689 -0.05925261 -0.017282095
000340 25 df 79 3d de b4 ba bc 44 4b c8 3c 30 ff 16 3d
       0.061003823 -0.022791322 0.024449952 0.03686446
000350 6b 63 65 3d 98 54 57 bd f0 78 91 bd a2 e0 a4 bc
       0.056003015 -0.05257091 -0.07103145 -0.020126645
000360 af 0b 62 3d a8 ef 6b bd 97 14 18 bd de f5 16 3d
       0.055186924 -0.0576016 -0.03712901 0.03685557
000370 f7 47 cc 3b d4 82 59 3c 09 79 29 bb 67 42 8e ba
       0.006234165 0.013275821 -0.0025859496 -0.001085353
000380 ba 68 c4 3c 4a 87 29 bd 0a f8 9f 3c 9b 00 57 3d
       0.023975719 -0.041388787 0.019527454 0.05249081
000390 bb 51 84 bd c1 b1 75 bd db 78 bd 3c 23 a6 fb bc
       -0.06460901 -0.059983972 0.023128917 -0.030718869
0003a0 68 cc b5 bc ec 35 6d 3d 9d 92 1b 3d ef e7 2f 3d
       -0.022192195 0.057912752 0.03798162 0.0429458
0003b0 22 06 2a bd 6e a5 7e bc 74 2d 9f bb ce a9 56 3d
       -0.041509755 -0.015542371 -0.0048577134 0.052408032
0003c0 78 55 35 3c e4 36 34 3d ed 28 1f bd 7d dc 26 3d
       0.011067741 0.04399766 -0.03885739 0.040737618
0003d0 3c 77 1e bd 5d b2 17 3c b3 31 b5 bb b6 6e 19 3d
       -0.03868793 0.009258834 -0.0055296062 0.037459098
0003e0 45 ae 52 3d c0 0d 5a 3b 67 f0 80 bb 70 76 8f bd
       0.051435728 0.0033272356 -0.003934908 -0.07005012
0003f0 25 7b cc bc 35 03 8b 3d 47 83 21 bc 4f 10 96 bc
       -0.024961064 0.06787721 -0.009857959 -0.018318323

main.14.weight f4 [45, 90]
000000 1f a2 84 3d ed 1a 6e 3d e9 90 09 3d f1 5d c1 bc
       0.06476235 0.058131147 0.033585463 -0.023604365
000010 62 c5 d8 3d d6 e6 04 bd f4 7c 07 bd bd df 83 3d
       0.10584523 -0.032446705 -0.03307815 0.06439159
000020 00 ed 23 3d 22 2d b4 bc 1c 00 ad bd 77 3b 09 bc
       0.040020943 -0.021994177 -0.084472865 -0.008375994
000030 b5 a1 5d 3d d2 86 98 3d 0c cd a6 3c 65 0f 31 3c
       0.054109294 0.0744759 0.020361446 0.010806893
000040 69 3a 08 3d e9 0e 18 3d 96 13 a1 3c b7 89 cd 3d
       0.03325883 0.037123594 0.01966266 0.10036033
000050 f8 19 bb bd 7d 76 de bd c4 bb 52 bd db 9a 91 3d
       -0.091358125 -0.108624436 -0.0514486 0.071096145
000060 ca 31 ff 3c 68 17 6a 3c 1c e7 9c 3d e0 23 2e 3d
       0.031151671 0.014287807 0.07661268 0.04251468
000070 cf 46 ac 3d 4f 0c 82 3b 6a 7a a8 3c ee 1a 98 bd
       0.08411943 0.0039687525 0.020566184 -0.074270114
000080 43 46 05 3d 2c 28 7c 3d 28 16 2b 3c 02 8a 17 3d
       0.03253771 0.06156175 0.010442294 0.03699685
000090 21 a3 a5 3a 30 7c a5 3d 39 70 7f bd 4c 03 e0 bc
       0.0012637117 0.080803275 -0.062362883 -0.027345322
0000a0 30 fe 0f 3c e5 f0 6f bc e5 3d 21 3d 73 b5 b2 bd
       0.00878863 -0.014644836 0.039365668 -0.08726015
0000b0 93 9f e6 3c c0 8d da bd db bb 6f bd d7 04 65 bd
       0.028152263 -0.10671568 -0.058528762 -0.05591282
0000c0 30 ed 08 3d 4b 3f 69 bd 97 e9 58 3d fc ce 1e 3d
       0.033429325 -0.056945127 0.052957144 0.038771614
0000d0 44 1a 88 3d ee 0a d2 bd c3 a3 6c 3d e9 f3 92 bd
       0.06645635 -0.10255991 0.057773363 -0.071754284
0000e0 a2 8c 27 bd ef 9d 3c bd c1 d9 cd ba ee d1 16 3d
       -0.040905602 -0.046049055 -0.0015705155 0.0368213
0000f0 c9 2a 7d 3d e7 6a e8 3c 63 26 c3 3d b3 98 9a bd
       0.06180838 0.028371288 0.09528806 -0.07548656
000100 9f b6 3e 3d 9c b6 91 bd fa 0f 47 bd ed 18 31 bd
       0.04656088 -0.07114908 -0.04859922 -0.04323666
000110 ff 85 ce bc 5e 82 91 3d 1c 4f 40 3d 1c f2 d1 3c
       -0.025210379 0.07104944 0.046950445 0.025628142
000120 fa b4 83 bd bd 3f 56 3d a5 cb 8c bd bf d8 db bc
       -0.06431003 0.05230688 -0.068747796 -0.026836751
000130 1b 7e a0 bd a0 77 94 bd 75 2a 20 bc d7 f5 84 bc
       -0.07836553 -0.07249379 -0.009775748 -0.016230507
000140 dd cb 5c 3d 67 a7 93 3c 49 a1 ce bd 9b 9b 64 3c
       0.053905357 0.01802416 -0.100893565 0.013953115
000150 92 1c b1 3d 83 22 44 3d 28 38 b6 3d 73 ab 74 3d
       0.086480275 0.047884475 0.0889743 0.05973382
000160 2c bf 8f 3d e0 9e 85 bd 08 16 d9 3c 1a a1 9b bd
       0.07018885 -0.065244436 0.026499763 -0.07599087
000170 bd 01 89 bd b5 8a c2 3c f6 e5 d7 bb 89 59 00 3e
       -0.06689785 0.023747781 -0.006588693 0.12534155
000180 6b 7d 17 3e 33 c6 48 3e a4 77 b5 bd 13 61 b9 ba
       0.14793937 0.19606857 -0.0886071 -0.001414331
000190 61 c6 a5 bd 50 b5 0d bd 21 a9 da bc 12 6c f2 3d
       -0.080944784 -0.03459674 -0.026691975 0.11837019
0001a0 4d 4b c2 3d f0 02 af 3d 8b 4b 2d 3c 04 78 a2 3d
       0.09487019 0.08545482 0.010577093 0.079330474
0001b0 ed 8a 8a bd 6b 04 bf bd 6c cc 89 3d 40 5d 95 bd
       -0.06764779 -0.093270145 0.067284435 -0.07293177
0001c0 e5 6c 94 bd 50 a0 24 3d f6 df 9c 3d 06 32 be bd
       -0.072473325 0.04019195 0.07659905 -0.09286885
0001d0 5a d8 24 bd 82 6f 31 3d 41 e9 03 3e e5 d7 30 bd
       -0.04024539 0.043319233 0.12881948 -0.043174643
0001e0 94 58 52 bd 27 43 15 3d e7 80 ad bd d6 ff 3e 3d
       -0.051354006 0.036440995 -0.08471852 0.046630703
0001f0 58 37 6d bb ab 5f e9 3c 29 ec c8 bc fb ff 8c 3d
       -0.0036196318 0.028488 -0.024526672 0.06884762
000200 b7 4d 99 3d 7c b0 9c bd 67 a5 f4 3d bf ae 8c bd
       0.07485526 -0.07650849 0.119456105 -0.06869268
000210 55 06 8f 3d 1f 79 89 3d b9 d2 70 bc 68 99 80 3c
       0.069836296 0.06712555 -0.014698678 0.01569815
000220 89 6f 7e bd 90 64 31 3e e4 e1 0e 3e 86 ba a7 bd
       -0.062118087 0.17323518 0.13953358 -0.081898734
000230 13 6e e3 3d 01 e6 97 3d d4 98 45 bd d6 b7 c5 bd
       0.11104979 0.07416917 -0.04824145 -0.096542045
000240 66 35 c4 bd ae 3f c4 bc 33 ce 60 bc 13 2e ac bd
       -0.095804974 -0.023956146 -0.013721037 -0.084072255
000250 fc 59 77 3c 3f 83 0e be f5 3f 43 3e f1 f3 e3 bd
       0.015097138 -0.13917254 0.19067366 -0.111305125
000260 1f 02 06 3c 44 d5 cf bc c5 83 95 bd 5a 3b 29 3d
       0.008179217 -0.025370248 -0.07300524 0.041316368
000270 f1 90 9d 3d 44 1e 39 3b 25 1a 38 3c c2 18 d4 3d
       0.07693661 0.00282468 0.011236702 0.10356285
000280 13 07 b3 3d 96 3d 93 3d 13 d2 22 3e 60 58 aa bd
       0.08741584 0.07189481 0.1590045 -0.083176374
000290 11 cb 06 3d 3b d9 6b 3d 09 86 56 3d 71 8d 68 3d
       0.032908503 0.057580214 0.05237392 0.056775514
0002a0 9e b3 93 3d b9 f0 ee bd 28 44 d4 bd ac 90 96 bd
       0.07211994 -0.11667008 -0.10364562 -0.07351813
0002b0 02 c2 d8 bd e9 d4 1f 3d 31 86 08 be 05 c8 0b 3d
       -0.10583879 0.039021406 -0.1333244 0.0341263
0002c0 7d c2 5a 3d f2 ca c2 3d e3 dc 05 be 8f ad c2 3d
       0.053408135 0.09511365 -0.13072543 0.0950576
0002d0 f9 ff e9 bc 52 55 09 3c a6 af 19 bd 52 f4 a9 bc
       -0.02856444 0.008382158 -0.037521027 -0.020746384
0002e0 8d 84 95 3c d5 6e 71 bd a0 50 9f 3d 0b 7d d6 3d
       0.018251682 -0.05894359 0.0777905 0.10473069
0002f0 25 60 b9 bd 0b d4 82 3c dc 13 9a bc 58 f8 16 3d
       -0.09051541 0.01597025 -0.018808298 0.036857933
000300 6d ca a0 3c af f3 fd bc 79 91 1d bd b7 bf d0 3c
       0.019627774 -0.030999986 -0.03846881 0.025482042
000310 45 30 85 3c 63 26 9a 3d fb cd 53 bd be 90 cc 3d
       0.016258368 0.07526853 -0.05171011 0.09988545
000320 a9 6a 8e bd 09 b4 17 3d 0c 41 cf bc 61 8f 12 3d
       -0.069539376 0.03703693 -0.025299571 0.035781268
000330 44 0e ec 3c 67 d0 a1 3d 6d 63 58 bc 02 5e 9e 3c
       0.028815396 0.07901078 -0.013207299 0.019331936
000340 9b 88 07 bc 8b 43 ab bc 45 56 fb bd 19 ac 59 bd
       -0.008272315 -0.02090623 -0.12272314 -0.05314264
000350 f6 bc 14 3c 3b c8 b3 bd 24 df a7 bd 92 cc 23 bc
       0.009078255 -0.08778425 -0.081968576 -0.009997504
000360 05 36 3b 3d ff fe 69 3d 92 ad 38 3c 98 f0 3d bb
       0.045705814 0.05712795 0.011271851 -0.0028982516
000370 47 24 02 3d 92 c8 20 3c b2 9e 99 3a 1f 54 2e 39
       0.031772878 0.009813445 0.0011720269 0.0001662527
000380 bb 70 03 bd cb 98 ba bd 6a 56 26 bd 1d 29 6f 3d
       -0.03208993 -0.09111174 -0.040609755 0.058388818
000390 bb 4f 9f 3d 08 c3 2d bd 63 10 ae bd 93 fd c3 bd
       0.07778879 -0.042422324 -0.08499219 -0.0956985
0003a0 25 b7 e6 bc 6e a8 8b 3c 54 64 ed bd 98 f1 d0 bc
       -0.028163502 0.017048087 -0.11591402 -0.025505826
0003b0 1e f3 c8 3d f0 69 a6 3d 09 f5 ca 3d 95 67 1a bd
       0.09811996 0.08125675 0.09910018 -0.03769644
0003c0 f1 0c 23 bd ce 4e 2e 3d f8 af 33 3d a3 10 60 bc
       -0.039807264 0.042555623 0.04386899 -0.0136758415
0003d0 23 dc 9c 3d 2c 9f a0 bd 6e 04 4d bd c1 1c b7 bd
       0.07659175 -0.078428596 -0.050053053 -0.08941031
0003e0 33 7a 88 bd c8 36 16 3d cb d8 ae 3d 3a 57 a4 3c
       -0.06663933 0.036673337 0.08537444 0.020061124
0003f0 64 00 b4 bd 39 5c bd bd 74 6b 66 3d 8f 2c ce 3d
       -0.08789137 -0.09246106 0.05625482 0.100670926
