submission/code/models/penneAlPestoETonno.pth (torch, 413042 bytes, 15 tensors)

main.0.weight f4 [10, 3, 4, 4]
00000000: 8558 133d 0cbd e03d b6a9 303e c19b dfbc
00000010: d211 0d3e 8e71 f0bd c4d5 233e 477b d93d
00000020: 2708 bdbd 4613 383e c05e b1bc 3c9a 763d
00000030: de83 1a3d e318 44bd a379 053e 6ce0 f03d
00000040: a552 ba3d 8daa 61bd d696 2ebc 4a3d 0e3d
00000050: 585b 813c fb79 e8bd 6233 cdbd 89c6 a53d
00000060: 97ac 5fbe 11db 123d b8ab a03b 2d6c 96bd
00000070: 1853 72bd a36c 073e b550 60bd f7cd 1c3d
00000080: 5f18 173e f8d3 d6bd ae6f 723a f725 613d
00000090: cfd9 93bd 5a11 7f3d 3921 08be 32dc b6bd
000000a0: 2012 d4bd f9ee 52bc abe7 eebc 9da3 353c
000000b0: e705 f53d 6cd4 213e 59fe b7bd 5912 8cbb
000000c0: a5f6 a23d 391c 22bd 7cdc 15be 5b19 013d
000000d0: 2106 4e3d 9103 a7bb f5d6 0bbc def5 c53d
000000e0: 1f3d e8bd 0a43 4dbd 67bf 45bd 2523 3c3e
000000f0: fe58 3e3d c484 9cbd 56ab 11be 5951 983d
00000100: 0bca a33d 8795 82bd ab29 773c 8b33 e8bd
00000110: f7f8 6d3d 3133 5abc d069 553d 6729 2e3e
00000120: c5d8 eabb 4500 10be 0cd8 6dbb e55d c2bd
00000130: d6ee 3abb 116f 1bbe d0ed 83bc cad0 9a3d
00000140: 347e b53d 15c7 e6bb da96 3e3d 9ef3 a2bc
00000150: c4a8 60bc 8777 aebd 8c85 8dbd fa8a 4ebc
00000160: 9f65 77bd 0149 e7bd 75fc 01be cc0d d63d
00000170: 38e1 553c bfa3 25be 08a6 14be fe51 933d
00000180: 3ec5 af3d 28a8 843d 149d b33d 4313 d83d
00000190: bc83 c23c d180 8fbc ce48 e2bd cd22 aebb
000001a0: f2d7 293d fc82 2fbe e787 e83d e308 cc3c
000001b0: 94ec 81bd 54b7 33be 056a 0c3e e8b0 b5bd
000001c0: ae0e 0b3e 2f94 b6bc 48b0 ca3d 57de 9dbc
000001d0: 95a4 0c3d a233 983d 0c00 b8bd abd9 033e
000001e0: 3a4d 54be 6448 a0bd aee5 12be 597b 323d
000001f0: e654 2a3d 70ff 64be 5ed5 86bd bfcc a9bd
00000200: 3d6f 8b3c cb36 79bd b4bb b13b 959b f4bd
00000210: 26f9 b4bd 2a7e 0ebe 6024 b13d 856f 0bbe
00000220: 5846 c1bd 1e47 a7bd d6d8 3dbd b2c1 5fbd
00000230: 029b 8fbd 0611 3fbe ebb3 4c3d 953d 553d
00000240: 49f2 38bd c324 d93d de7b 1abe e9ab d7bd
00000250: 61cb b1bc 179e e23d 995d c2bc 4742 523e
00000260: c716 8cbd b81e edbd 17da 5f3d 23f5 a33d
00000270: 6cb3 63bc 4fb1 f53d bf20 833d 70d5 d2bd
00000280: 22b1 823d 6c64 1e3d aa60 0e3e 387d 1f3e
00000290: 097d c93d 57db b5bd 8e54 9fbd 0444 94bc
000002a0: a2d1 14bd 7829 b5ba 5c06 ef3c 0343 60bd
000002b0: bb6d 4dbd 0e98 e7bd b037 cc3d bfa9 273e
000002c0: 0e6e f7bd f0cb 8abd f130 54bd 58b7 93bd
000002d0: 0508 5abb d830 f43d e7c0 203e 0a5e 813d
000002e0: 8679 2d3d 92e0 55bd 80f8 5f3d da2c 933d
000002f0: 9749 0c3e 4298 cf3d b83c d9bc cdac 2b3e
00000300: add0 123d f928 a63d 22c1 8e3d 08aa a2bd
00000310: 6c6e 8d3c f9f9 5b3e 95c3 7d3d e7e1 9dbc
00000320: b0b2 413e 761f 183e 2ff2 8ebd 8b13 023e
00000330: e25b 0b3e 5b7b adbd 126b 18bd 47c1 f6bb
00000340: 36c1 a4bd c9e0 093c 6237 1abc 5160 9a3d
00000350: 57a1 33bd fd91 123c 7724 bebd 0c58 9abc
00000360: 9135 673d b6e2 cbbd 86a9 373d 77f5 88bd
00000370: 888b ebbd 676e ca3d 22ea 253e 2ded 08be
00000380: 9173 643d d5d0 24bc 539e 423d ec01 f83d
00000390: 5585 183d 67ea 55bd 0a7c b43d db52 ca3d
000003a0: 0b20 21bb 3dc5 3a3d 1753 013e aa8f df3c
000003b0: e32d 09be 62cd 79bc 88f8 0bbe 7e42 123e
000003c0: d5d9 d7bc 6d29 0b3e e8ea 04bd 69ff 363e
000003d0: 2cfa a03c 1754 1b3d 198a e0bd 39ce 3bbd
000003e0: 0007 cabd 095c 113e 89a7 1a3d 555d a7bc
000003f0: c97d 453e 2fc6 113e b00c 4a3e 7254 b93c
0.03597309 0.10973558 0.1725224 -0.027295949 0.13776329 -0.11740409 0.15999514 0.106192164
-0.092300706 0.17976102 -0.021651626 0.060205683 0.037723415 -0.047875296 0.13034682 0.11761555
0.090977944 -0.05509429 -0.010656079 0.03472642 0.015790626 -0.11351391 -0.10019566 0.08094508
-0.21843182 0.03585345 0.004903283 -0.07344852 -0.059161276 0.13225035 -0.05476447 0.03828236
0.1475539 -0.104896486 0.0009248209 0.054967847 -0.07219278 0.062272407 -0.13293923 -0.08928718
-0.103550196 -0.012874358 -0.029163202 0.011086372 0.119640164 0.15803689 -0.0898406 -0.004274648
0.079572 -0.039577696 -0.1463489 0.03151832 0.050298814 -0.0050968607 -0.0085351365 0.09666036
-0.11339783 -0.05011276 -0.04827824 0.18372782 0.04647159 -0.076425105 -0.14225516 0.07437391
0.07997521 -0.06376176 0.015085618 -0.11337956 0.05809876 -0.013317869 0.052102864 0.17007981
-0.007166954 -0.14062603 -0.0036292104 -0.09490565 -0.0028523705 -0.15179087 -0.016104609 0.075593546
0.08861962 -0.0070427754 0.046530582 -0.019891556 -0.013712112 -0.08518892 -0.06910238 -0.012606377
-0.060399648 -0.11293221 -0.12693961 0.1045185 0.013054185 -0.16175745 -0.14516461 0.07193373
0.08582543 0.06477386 0.08770195 0.10550549 0.023744456 -0.01751748 -0.11049043 -0.005314207
0.041465707 -0.1713981 0.11354046 0.024906581 -0.06343952 -0.17550403 0.13712318 -0.08871633
0.13579819 -0.022287456 0.09896904 -0.019271059 0.034336645 0.07431723 -0.08984384 0.12876002
-0.20732585 -0.078263074 -0.14345428 0.043574665 0.04158487 -0.22363067 -0.06583665 -0.08291005
0.017020816 -0.06084327 0.0054239873 -0.119437374 -0.08836584 -0.13915315 0.08649516 -0.1361676
-0.09437245 -0.081678614 -0.04634937 -0.05462808 -0.07011987 -0.18658838 0.04997627 0.052060682
-0.045152936 0.10602715 -0.15086314 -0.10530836 -0.021703424 0.110653095 -0.023726271 0.20533095
-0.06840282 -0.11578125 0.054651346 0.080057405 -0.013897758 0.119967096 0.0640273 -0.10294616
0.06381442 0.03866999 0.13904062 0.15575111 0.09838302 -0.088797264 -0.077797994 -0.018098839
-0.036332734 -0.0013821563 0.029177837 -0.054751407 -0.050153475 -0.11308299 0.09971559 0.16373347
-0.12081538 -0.06777179 -0.051804487 -0.072127044 -0.003326894 0.11923379 0.15698586 0.06316765
0.042352222 -0.05221612 0.054680347 0.07186289 0.13699947 0.10136463 -0.02651821 0.16765137
0.03584354 0.08113284 0.06970431 -0.07942587 0.017264567 0.21482076 0.0619541 -0.019272758
0.1891582 0.14855751 -0.069797866 0.12702768 0.1360927 -0.08470794 -0.037211485 -0.0075303647
-0.080446646 0.008415409 -0.009412618 0.07537902 -0.043855038 0.008945939 -0.09284299 -0.018840812
0.05644757 -0.09955351 0.044839405 -0.06687444 -0.11501223 0.09884339 0.16202596 -0.13371725
0.055774275 -0.010059555 0.04751427 0.121097416 0.03723653 -0.052225497 0.08812721 0.09879085
-0.002458575 0.045598257 0.12629353 0.027290184 -0.1339641 -0.015246721 -0.13669026 0.14283177
-0.026348988 0.13590021 -0.032450587 0.17870869 0.019650541 0.03792199 -0.1096384 -0.045850966
-0.098646164 0.14195265 0.03775743 -0.020430246 0.19286264 0.14235757 0.19731402 0.022623274

main.3.weight f4 [20, 10, 4, 4]
00000000: b491 93bd 4a6e 24bd b0c6 8abd 5409 24bd
00000010: f7c0 1bbd c95f 5a3c 4488 09be adac c7bd
00000020: fbe7 0fbc 161f 58bd bf3b 4cbd 8d0c f43b
00000030: f2ff 803d e270 183d 88d7 1fbd 6bd6 c0bb
00000040: e25d 8fbc 415a ef3d 2e2f e3bc 7fd8 823b
00000050: e89b fe3d 0884 873d 0bc1 0a3b e375 cc3d
00000060: cdd7 413d 68f7 333d 3984 1a3e 68ad 233b
00000070: fb7a 733d 50df 303c 917b 0abd 596b 22bc
00000080: 8067 923d 4b46 563c 9287 843d 9f5f 063c
00000090: 2595 543d 35a0 4f3e 1ea6 92bc 3cb6 303e
000000a0: e4da e83d 3d1e 9b3d 9a03 28bd b82a 32bd
000000b0: d865 af3b bada 493d cecb 9fbd 0ba3 d23d
000000c0: 114a 803c 4cda 9c3d 1d89 623c 98f0 833d
000000d0: 912b 12be 2120 f5bd f509 34bd e263 2abb
000000e0: 518b 9ebd 38c3 eb3b 526e 59bd dae6 ccbd
000000f0: 07fc 47bd eaab ca3d 22d2 47bb ab8b 1dbd
00000100: 1961 fcbc f23b cb3d 3853 0e3c e714 b43d
00000110: f71a 30bd 12c8 9bbd c321 e6bd cab7 fdbd
00000120: 746b 11bd 6303 babd 7d82 f7bb 220c b0bd
00000130: df36 4dbd f9ef 8fbb 6452 9a3d debc c23c
00000140: 2fc7 8b3d d0c1 2ebd 8ae5 40bc 16ed 4c3d
00000150: ca10 9b3c cf0c 7e3c 3464 adbd 1dbf 303d
00000160: 4179 c4bb f609 c2bc ea5e 92bd 1183 4cbd
00000170: b8bb 613d 8965 15bd c2d4 243d 573c ab3d
00000180: ff42 af3d 4708 143c 381c 033c df43 b6bc
00000190: 54d8 8d3d 71dd cb3d 4383 9c3d b0e9 0fbc
000001a0: 215e 1abd 5eb6 2cbd 88e2 353d ac0a 1dbd
000001b0: 3e96 dd3c a692 10bc 3d87 813d 7342 cb3c
000001c0: a684 bfbc 923b e73b 028a 85bd e0c3 68bd
000001d0: 711a b0bd 8c24 ea3d 6251 babd 5676 723d
000001e0: c9a6 ebbd a45a 87bc 6955 e4bd 5489 64bd
000001f0: 3e3d f23c 14f7 3d3d 5f64 d4bc e7d0 77bd
00000200: 6343 8fbd 9a09 9b3c 81e8 a0bd 24d9 833c
00000210: 421e 94bd 17f4 cabc 4279 ad3c 6299 ac3d
00000220: 7956 073d 9b81 433d d15d c0bc ef7f c4bd
00000230: 9c06 753d 7dee 773d 3d58 753d 09f1 4d3d
00000240: faad f9bc 80a2 8a3d 5f0d 6cbd 9b33 9b3a
00000250: de86 acbd c7d8 76bd a13a bbbd 64c5 7dbd
00000260: 77c1 23be 7d00 09bd 84de 14bc 3d3a 14be
00000270: ce3e cabd a5f7 2b3d c938 d0bc 97fe 64bd
00000280: 9781 9e3c ea51 143d a930 693d 740e 16bc
00000290: 9530 ee3c 79b6 8fbd 43a0 163d d813 873d
000002a0: 223d f7bc a165 233d 99eb 183d 6ffc e63c
000002b0: 443f 4e3d 7105 4c3c a8fc 9c3b 5240 38be
000002c0: e616 94bd 9efa fa3c 6450 133d 202f 3d3c
000002d0: 637f 2fbd 2d7e 2abb 23d4 aebd 6c5c 8e3c
000002e0: 8e5b 8e3c 15bd 1e3d ce24 b5bc bd7a 24bc
000002f0: fc74 9a3d 8dba 063e 3f52 253d f432 ca3d
00000300: 3ed3 e13d a4b8 d6bb 562e c0bd 5e29 14bb
00000310: 523e 193d 7e83 fe3c 58f7 c53c 7a20 58bd
00000320: 29c5 43bd 4443 cd3c 0c74 c33d 434a 8c3d
00000330: 1675 a2bc a9a0 0a3d 22b3 f43b 76ad 1e3d
00000340: 06cc 9d3b df66 953c 9fd1 74bd aa53 a53d
00000350: 374a 8c39 f1ac bfbc bae9 1e3c 0715 babc
00000360: db6a 683d e8e4 073d 6605 aabc 215b 193d
00000370: 8ca6 5f3b 4cd6 bdbb b9ab 40be 9abd f5bd
00000380: c872 1b3d 8e84 7abd c7f4 75bc e318 973c
00000390: ce05 b4bd b13b acbd 0438 5b3d 05e2 1bbd
000003a0: 44ac 943d e781 8b3d 633f 913d 968f 34bd
000003b0: 6c88 2bbd 1bf3 6ebc 813a 04be 313e 50be
000003c0: fa39 473c 4fb4 04bc a16d 4dbd 4346 523d
000003d0: f6eb a4bd 20c1 a13c de99 113c 8710 193d
000003e0: 0f0b 263d 51a9 adbc a4ea 373d 1cb1 b13b
000003f0: cfc7 873d 5ff2 adbb 3619 95bd 64cc 25be
-0.07205525 -0.040144242 -0.06776178 -0.04004796 -0.038025822 0.013328501 -0.13430887 -0.09749732
-0.008783336 -0.05276402 -0.049861666 0.007447785 0.06298818 0.03721703 -0.039023906 -0.0058849356
-0.017500822 0.116871364 -0.027732458 0.0039930935 0.124320805 0.0661698 0.0021172191 0.099834226
0.047324944 0.043937117 0.15089501 0.0024975184 0.059443455 0.010795429 -0.03380925 -0.009913289
0.07148647 0.013078283 0.064711705 0.008201509 0.051900048 0.20275958 -0.017901476 0.17257017
0.11369875 0.07574127 -0.04101906 -0.04349777 0.005352717 0.04928086 -0.078025445 0.10285004
0.015660318 0.07658824 0.013826636 0.06442374 -0.14274432 -0.11969019 -0.04395481 -0.0025999476
-0.07741416 0.0071949027 -0.053083725 -0.10004969 -0.048824336 0.09896071 -0.003049024 -0.038463276
-0.030808019 0.09923543 0.008686833 0.08793049 -0.042994466 -0.0760652 -0.11236908 -0.123885706
-0.035502866 -0.09082677 -0.007553397 -0.08596064 -0.050101157 -0.0043926206 0.07535246 0.0237717
0.06825101 -0.042665303 -0.011773476 0.05003079 0.018928904 0.0155059835 -0.08466378 0.04315101
-0.0059959 -0.02368639 -0.0714701 -0.049929682 0.055110663 -0.036473785 0.040241964 0.08361118
0.085577 0.009035177 0.008002333 -0.02224916 0.06926027 0.09954346 0.07642224 -0.008783743
-0.037687425 -0.042166106 0.04440549 -0.038340256 0.02704918 -0.008824026 0.06324623 0.024811959
-0.023378681 0.007056662 -0.065204635 -0.056827426 -0.08598793 0.11432752 -0.09097554 0.059194885
-0.11506421 -0.016522713 -0.11149103 -0.05579503 0.029570218 0.04637821 -0.025926767 -0.06050196
-0.06995275 0.018925477 -0.078568466 0.016094752 -0.07232334 -0.024774594 0.021175984 0.08427693
0.03304145 0.047731023 -0.023482235 -0.09594714 0.059820756 0.060530175 0.059898604 0.050278697
-0.030478466 0.06769276 -0.05762994 0.0011840941 -0.084241614 -0.06026533 -0.09142042 -0.061955824
-0.1599177 -0.03344773 -0.009086255 -0.14475341 -0.0987526 0.04198422 -0.025417702 -0.05590686
0.019348903 0.03621093 0.05693117 -0.009158719 0.0290759 -0.07017226 0.03677393 0.06595582
-0.030180518 0.039891843 0.03733406 0.028196542 0.050353304 0.012452469 0.004790861 -0.17993286
-0.0723093 0.030637082 0.03596534 0.01154688 -0.042846095 -0.0026015148 -0.085365556 0.017378055
0.017377641 0.03875454 -0.022112276 -0.010039029 0.07541844 0.13157101 0.04036164 0.09873
0.110266194 -0.0065527726 -0.09383838 -0.0022607665 0.03741295 0.03106856 0.024165794 -0.052765347
-0.04779545 0.025056489 0.095436186 0.06850102 -0.019831222 0.033844624 0.0074676434 0.038739644
0.0048155813 0.01823753 -0.059770223 0.08072598 0.00026758175 -0.023397895 0.009699279 -0.022715105
0.05674253 0.033177286 -0.020754527 0.037440423 0.003412637 -0.0057933684 -0.18815507 -0.11999054
0.03795126 -0.06116157 -0.015011973 0.018444484 -0.0879017 -0.08409823 0.053520218 -0.038057346
0.072594196 0.06811886 0.07092168 -0.044082247 -0.04187815 -0.014584328 -0.12912942 -0.20336224
0.012159819 -0.00809963 -0.05015338 0.051336538 -0.080528185 0.01974541 0.008886782 0.037369277
0.04053789 -0.0211989 0.044901505 0.0054227244 0.06629907 -0.005308434 -0.07280199 -0.1619125

main.4.weight f4 [20]
00000000: 6e2b 843f a9a7 823f e24f 853f 0f43 713f
00000010: 33a3 803f 1b92 833f c306 863f 0516 763f
00000020: 180f 713f a0a3 743f f2b8 803f b425 833f
00000030: c6f5 813f 9008 743f fca4 813f ed88 7e3f
00000040: 777b 8d3f 4b5a 6f3f e325 833f 537b 7f3f
1.0325754 1.0207416 1.0415003 0.9424295 1.0049804 1.0278963 1.0470814 0.9612735
0.94163656 0.9556217 1.0056441 1.0245881 1.0153129 0.95325565 1.0128474 0.9942768
1.1053303 0.9349715 1.0245937 0.9979755

main.4.bias f4 [20]
00000000: c43b 00be 6123 43be 013c 33be 41be ce3d
00000010: 9dd9 a9bd 6a02 37be 85bc 8abd 7f74 8abe
00000020: fcdb 633d 834f c7bb e4ff 24be fa0e 26be
00000030: de66 513c 29c5 403d 8404 10be cdff 3dbe
00000040: d39a 4e3d b7c4 1c3d 8d53 f3bd d39d 493d
-0.12522799 -0.19056465 -0.17503358 0.10094882 -0.082934596 -0.17872015 -0.067742385 -0.27042004
0.055629715 -0.0060824766 -0.1611324 -0.1621665 0.012780873 0.047063027 -0.14064223 -0.18554612
0.05044062 0.03827354 -0.118811704 0.04922278

main.4.running_mean f4 [20]
00000000: 04fd 28bc bcf2 04bc 4a52 26bc cf20 7b3b
00000010: 0ddc 26bc a155 61bc ada9 bdbb 1af4 2abc
00000020: 971d 823b 6afb 653c b440 3dbc dc3f 28bc
00000030: aa98 72bb 531b ab3b b8f1 8abc cb0e f6bb
00000040: d1e5 2abc 03fb 1b3c c0ae 2fbc 089f 90bb
-0.01031423 -0.008114513 -0.010151455 0.0038319116 -0.0101843 -0.013753326 -0.005788049 -0.010434175
0.0039708125 0.014036993 -0.011551071 -0.0102691315 -0.0037017264 0.005221763 -0.016960964 -0.0075090877
-0.010430769 0.009520295 -0.010722816 -0.0044134893

main.4.running_var f4 [20]
00000000: 3862 8839 f8b4 7739 335f 9539 e99a 5239
00000010: 0896 b839 0993 053a 42a9 8939 7faa 8439
00000020: d7b5 0139 2684 023a 876b b739 c624 7f39
00000030: 8de8 3d39 14e4 1839 6516 1e3a 3549 3339
00000040: 3f63 a539 9aec f039 6209 9339 8a97 2f39
0.0002601312 0.00023623172 0.00028490424 0.00020084869 0.00035206997 0.00050954573 0.00026256783 0.0002530403
0.0001237014 0.0004978798 0.00034984594 0.00024332394 0.00018111076 0.00014580815 0.0006030559 0.00017098042
0.00031545197 0.0004595265 0.00028045016 0.00016745753

main.6.weight f4 [40, 20, 4, 4]
00000000: e40d 71bd a2b1 a6bd f809 98bd 51b8 9d3c
00000010: dd2a 6dbc 6c3d 22bd 0bba cfbd 7cbd a8bc
00000020: 5677 a0bd 0c29 b7bc c9d3 1fbc 15ed 8c3b
00000030: 0db9 6e3d 7ff1 a7bd 2f7a 3dbd ec2b 85bd
00000040: f357 043d e661 aabd 074e 0f3a 487d 713c
00000050: b361 24be f4dd 3f3d fc1b 073d 57e1 9b3d
00000060: 1667 babc 9a09 1abd 4bb8 803b ecb9 e8bb
00000070: 15b6 a7bc 47c9 a9bd 40e0 913a 0674 5b3c
00000080: 5c64 94bd e976 8dba f3a1 c73c fe7a 873d
00000090: 75a4 0fbd 325f fdbb 18e3 5b3c 11dd 5e3d
000000a0: fe2a 02be a660 05bd 6c97 343d 9bda 95bc
000000b0: 0f0c 37bd a51e 96bd 38de 2dbd c750 54bd
000000c0: 11d7 e6bb d3b2 493a 70c4 493d 627a ff3b
000000d0: 7def 0dbd db94 8bbd 6e17 fdbd 90a5 76bc
000000e0: 15fd c43c 4d77 66bd 11da 95bc 61f1 c8bd
000000f0: 11f7 5fbd a115 2dbd 522a bbbd 3bfd 38bd
00000100: 111d 043a 2f40 fbbb a77f 3bbd aac2 983c
00000110: dff1 b7bc 415f 81bd 30a3 b7bc 617a 003d
00000120: 2906 7dbd a7de a4bd de94 cbbc 6755 42bd
00000130: fb3e 9ebc 0ce6 2bbd 5db5 03bd b3ea 3abd
00000140: b810 853b 01c3 f5bc e072 383a 4723 263c
00000150: 3729 78bd df93 a6bc 221f 473d 4aa5 853b
00000160: 9f6f 58bd 72e5 3ebd fd85 5c3d d594 153c
00000170: f6b0 41bb 4597 33bb d6af a2bc 87c6 d4bc
00000180: 3bb2 c13d 7404 36bb 2508 80bc 7fb9 75bd
00000190: 86b6 f9bd cd88 a5bd 6e90 73bd 0bc3 69bd
000001a0: 3c64 443c 3c66 cd3c bb13 edbd 2432 0bbd
000001b0: 997a 9dbd f925 133d 1d91 a6bd dbe4 a3bd
000001c0: ee2d 0a3c 5c9b aa3a 2926 2cbd 93bc b63b
000001d0: 2286 183c 962f 033d 3fb8 7ebd 1bb1 8b3d
000001e0: eaae c7bb 672e 62bd 98f1 50bd 4b97 58bd
000001f0: e713 76bc 595f 743c 5970 13bd 8cf0 37bd
00000200: 79df 373c dbec 84bd 4ca1 a73a c327 ffbc
00000210: f86f 403c dd72 d9bc 0f22 51bd 03a9 01bd
00000220: f3ab c0bc cf12 6e3c a09e 1a3d 4334 913b
00000230: 5a21 2ebc 9f61 21bd a65c c4bc bdbd 95bd
00000240: 9b9f 35bd fae2 59bd f70c 563d bfad 483c
00000250: 87a8 f93c 62bf 8fbd 312d 183c 1481 89bc
00000260: 05d2 8cbd cdbb b13c b908 83bd ff5c 97bc
00000270: 2b26 9dbd d80f 4ebb 3ba7 213d 5a7d e9ba
00000280: 5a4b c3bc 6815 98bd 415c 93bd 7342 aebc
00000290: 8d0b 09bd f368 a2bd f535 9a3b 44bc 4cbb
000002a0: 8863 4e3b 4829 9ebc 9fd6 bb3c 0d66 da3c
000002b0: 32a0 9fbd 5cdd 82bc 8d8d 0c3c f808 bbbd
000002c0: 4010 0fbb 3c48 5abd 883b d1bd d311 283b
000002d0: 958c a6bd 59d0 d1bd 2df3 d7bc 9091 3dbd
000002e0: 8718 9a39 c771 36bd 591c 6abd 4a37 83bb
000002f0: 17f4 d9b9 fd7b 93bd 38eb 3bbd b507 24bd
00000300: df5e 3abd 4a91 31bd a69f c6bc 7ad3 b7bd
00000310: ee5b ab3c aa46 af39 3a4f 9fbc 5948 ecbd
00000320: bd89 22bd 0ea0 97bc 719a eabd e1ac 68bd
00000330: 3e38 f03c 202e c6bc d26a eebc fe82 f5bd
00000340: 5500 6f3b 2860 893c 0ed1 b83c f14a 42bd
00000350: b5ce 6fbc f82d dfbc 8c5a 67bd a454 953c
00000360: 3e93 623c ba63 cc3c 32a2 143d 634d abbd
00000370: a7e0 86bc 119d 8ebc da0d 6cbd d758 a6bc
00000380: 6876 46bc 03ec 9cbd 9afe b7bd e294 2fbd
00000390: 05c6 e1bc 23fa 90bd 5547 dc3c ff92 5dbc
000003a0: 767f 123d 9f11 2ebd 6de7 08bd 5c02 8ebc
000003b0: 5799 8bbb 7997 82bd a4db 4cbd ca39 d3bd
000003c0: bd6c b5bb 9eda 91bd 40dc 7dbd 3eec 893c
000003d0: 9715 4b3c 3591 dd3c 4068 6dbb 66a9 0bbc
000003e0: 92a8 b7bd d8cd afbd bead 5a3d ddf3 7f3b
000003f0: 1abf 453d 2bff 56bd a77a 50bc daed 5cbd
-0.058851138 -0.081393495 -0.074237764 0.019252928 -0.014475551 -0.039609358 -0.10142907 -0.020598166
-0.078352615 -0.02235844 -0.009755083 0.0043007233 0.058281947 -0.082003586 -0.0462591 -0.06502518
0.032310437 -0.08319454 0.0005466644 0.014739342 -0.16052894 0.04684253 0.032985672 0.076113395
-0.022754233 -0.037606813 0.0039282194 -0.0071022417 -0.020472566 -0.08290344 0.0011129454 0.013394361
-0.072457045 -0.0010792884 0.024369216 0.06615256 -0.035068948 -0.0077322954 0.013420843 0.054410044
-0.12711713 -0.032562874 0.04408972 -0.018292716 -0.044689234 -0.07330064 -0.042448252 -0.051834848
-0.007044681 0.00076941884 0.049259603 0.0077965716 -0.034652222 -0.06815501 -0.123579845 -0.015054122
0.02404646 -0.056266118 -0.018292459 -0.098116644 -0.05467898 -0.042256955 -0.09138931 -0.045163374
0.00050397316 -0.0076675634 -0.045776036 0.01864751 -0.0224542 -0.06316996 -0.022416681 0.03136671
-0.061773453 -0.0805028 -0.024851259 -0.047444727 -0.01931714 -0.041967437 -0.032155383 -0.045633983
0.004060831 -0.030000212 0.00070361607 0.010140247 -0.06058618 -0.020334182 0.048613675 0.004078542
-0.052840825 -0.046605535 0.05383872 0.009129723 -0.002955494 -0.0027403396 -0.019859236 -0.025973571
0.09457823 -0.002777365 -0.015628884 -0.059991356 -0.12193017 -0.08082733 -0.05946391 -0.057070773
0.011986788 0.025073163 -0.11576029 -0.033983365 -0.07689399 0.035924885 -0.08133147 -0.08002635
0.008433802 0.0013016271 -0.04202858 0.005576679 0.0093093235 0.032027803 -0.06218743 0.068208896
-0.0060938494 -0.055220034 -0.05101165 -0.05287866 -0.0150193935 0.014915311 -0.035995815 -0.044907138
0.011222714 -0.06490489 0.0012789159 -0.03114689 0.011745445 -0.026544029 -0.05105787 -0.031655323
-0.023519492 0.0145308515 0.037748933 0.004431279 -0.010628069 -0.03939974 -0.02396996 -0.0731158
-0.044341665 -0.053194977 0.052258458 0.012248456 0.030475868 -0.07018925 0.009288118 -0.016785182
-0.068759955 0.021695996 -0.06398148 -0.018476961 -0.076732956 -0.003144255 0.039466124 -0.0017813847
-0.023839641 -0.07425958 -0.071953304 -0.02127192 -0.03345828 -0.07930174 0.004706139 -0.0031240145
0.003149243 -0.019306794 0.022929488 0.02665999 -0.07794227 -0.015974693 0.00857867 -0.0913257
-0.0021829754 -0.053291544 -0.10216433 0.002564539 -0.08132283 -0.10244817 -0.026361072 -0.046281397
0.00029391443 -0.0445421 -0.05715594 -0.0040043937 -0.00041571326 -0.07201383 -0.04587862 -0.040046412
-0.045500632 -0.04335145 -0.024246048 -0.08975883 0.020917859 0.0003343125 -0.019446958 -0.11537237
-0.03968214 -0.018508937 -0.114552386 -0.056805495 0.029323693 -0.024191916 -0.02910367 -0.119878754
0.0036468704 0.016769484 0.022560623 -0.04743475 -0.014636685 -0.0272436 -0.056482837 0.018228836
0.013829051 0.024949897 0.036287494 -0.0836437 -0.016464544 -0.01740888 -0.057630397 -0.020306034
-0.012113191 -0.07662203 -0.08984108 -0.042866595 -0.027560243 -0.0707896 0.026889483 -0.013523816
0.035766087 -0.042497274 -0.03342383 -0.01733511 -0.004260223 -0.06376547 -0.050014153 -0.10313757
-0.0055366443 -0.07121776 -0.061977625 0.016836282 0.012395284 0.02704678 -0.0036225468 -0.008524274
-0.08967699 -0.085841835 0.05338835 0.0039055266 0.04827795 -0.05248944 -0.012724555 -0.05393777

main.7.weight f4 [40]
00000000: 2325 843f 4e6e 8a3f cc30 8b3f ea11 883f
00000010: e430 863f 132a 863f 2248 853f b087 853f
00000020: ccbd 813f 8f2d 873f 3d23 8c3f 2f82 883f
00000030: 5a45 873f d9ec 843f e620 853f 0b56 8c3f
00000040: 07f3 8b3f 9a6b 883f c01c 863f 96ff 803f
00000050: 818d 823f ef13 813f 4522 863f 67e7 813f
00000060: 2799 8d3f b889 873f 1a49 853f 0b9a 873f
00000070: 223e 833f 4c8a 863f b726 883f 56a2 843f
00000080: b529 883f f5db 853f 4944 8b3f b874 863f
00000090: 0862 873f 0158 8d3f 635e 8b3f 960a 7f3f
1.0323833 1.0814912 1.0874267 1.0630467 1.048367 1.048159 1.0412638 1.0432034
1.0136046 1.0560778 1.0948254 1.0664729 1.056804 1.038478 1.0400665 1.0963758
1.0933541 1.0657837 1.0477524 1.0077999 1.0199434 1.0084208 1.0479208 1.0148743
1.1062363 1.0588903 1.0412934 1.0593885 1.0253336 1.0510955 1.0636815 1.0362041
1.0637728 1.045775 1.0880214 1.050437 1.0576792 1.1042482 1.088818 0.9962553

main.7.bias f4 [40]
00000000: c256 fd3c 6de7 96bc 1a11 8b3d d671 423d
00000010: 4e9f 253d 64cb dbbc 5f80 8c3d c4b0 793d
00000020: 84be d5bc 09c4 90bc 3cbc ae3d f9b5 95bb
00000030: fe48 d9bc 213e 35bd 6461 c0bc 89ac 843d
00000040: 8716 95bc edaf 823d 644a e3bc 9be8 233d
00000050: f275 17bd 3b3c d5bc a79f d9bc 609b 2b3d
00000060: 1915 66bd 945e ccbc 48f8 673d deff b7bc
00000070: 2409 13bd f280 e2bc 8fac 05bd 2ae1 3abd
00000080: 9fa2 053b 9232 19bd 306f b2bc e69e 1fbd
00000090: 827e 583d 3727 883d 58f9 48bc 34d3 b6bc
0.030925158 -0.0184209 0.06790371 0.047471844 0.040435128 -0.026830383 0.06860422 0.060959592
-0.026091821 -0.017671602 0.085319966 -0.004568812 -0.026524063 -0.044248704 -0.02348394 0.06478221
-0.018199218 0.063812114 -0.027745433 0.04001675 -0.036977716 -0.026029697 -0.026565386 0.041896224
-0.056172464 -0.024947442 0.056633264 -0.022460874 -0.03589739 -0.027649377 -0.032635268 -0.04562489
0.002039112 -0.037401743 -0.021781534 -0.038969897 0.052855022 0.06648105 -0.012266479 -0.022317506

main.7.running_mean f4 [40]
00000000: bbd4 5dbf 47ff 253f 1fd1 8bbe d8a9 10bf
00000010: fcc9 adbe 571e 113f 1c8d 32bf dd46 42bf
00000020: eed3 983e 0b74 333f 0a16 29bf 72c4 363f
00000030: 47c2 173f 0c2d 373f 379c 573f db13 c4be
00000040: 7da9 69be 8bb9 b6be 5e73 2f3f dfe1 a33d
00000050: 9e29 bf3e 3edc a53d 9bfa 2f3f 9fdc dabd
00000060: 2e8d a73e 04d6 413f 4156 22bf 7ae2 0b3f
00000070: fb4a a43d d91d 443f c04d 213f 522a 023f
00000080: 268b 1d3f 1935 193f cbf4 923e d865 fc3e
00000090: 112f 93be 26af 0cbf 210f b73e ea42 15bf
-0.86652726 0.6484265 -0.27307984 -0.5650916 -0.33943164 0.5668692 -0.69746566 -0.7588938
0.2984919 0.7009894 -0.66049254 0.713935 0.5928082 0.7155311 0.8422274 -0.382964
-0.22818561 -0.35688433 0.6853541 0.08002066 0.3733644 0.080986485 0.6874177 -0.106866114
0.327249 0.75717187 -0.63412863 0.5464245 0.08022114 0.76608044 0.6300926 0.50845826
0.6154045 0.59846646 0.28702387 0.4929645 -0.28746846 -0.54954755 0.3575373 -0.5830523

main.7.running_var f4 [40]
00000000: f479 c43e e341 6f3e 4c2c c33e 60f3 863e
00000010: c61e 9a3e a979 903e ccf1 bf3e a042 b73e
00000020: 33b1 1c3f 964d d73e 438a af3e 22ee 603e
00000030: aad7 ef3e ad0b cf3e cb98 863e b9ca fd3e
00000040: 3d6c 903e 4c38 e33e baae 0f3e e2c3 c83e
00000050: 3c57 5f3e 8146 263f ca5e ae3e 6cf4 0b3f
00000060: bab4 413e 54e6 9b3e e4d2 8c3e 017b 803e
00000070: cf95 703e 5307 903e db67 853e 5f14 5b3e
00000080: 0240 d93e 927c 543e fe9f 143e 18e8 033e
00000090: a907 3f3e 4fa5 2f3e 3435 f33d 38b9 033f
0.38374293 0.23364978 0.38119733 0.26357555 0.30101603 0.2821782 0.37489164 0.35793018
0.61207885 0.4205138 0.34285173 0.2196584 0.46844226 0.40438595 0.26288447 0.49568728
0.2820758 0.4437889 0.14031497 0.39211947 0.21810621 0.6495133 0.34056693 0.54669833
0.18916598 0.30449164 0.27504647 0.25093845 0.23494647 0.28130588 0.26055798 0.2139449
0.42431647 0.20750645 0.14514157 0.12881505 0.18655266 0.17152904 0.11875382 0.51454496

main.10.weight f4 [180, 360]
00000000: 8cfd bdba 475f c73c 558d c9bd be4b 153d
00000010: dc22 093c c031 d1bc e5af 47bc 5d12 063d
00000020: 1384 a1bd 9d67 9dbd dc08 043c eecb 83ba
00000030: 1ca1 463d 1f05 06be 8337 a9bd 310b a2bd
00000040: d777 f23c ec3a 9f3d c769 a2bd 84ef bfbd
00000050: 3610 74bd 9076 28bd 7340 69bc dd31 1cbd
00000060: cefa 6f3d fdcc 36bd 4b01 2cbc 9f71 3e3d
00000070: 8015 563d 4354 5abd 8e9f 26bc 09d6 2dbd
00000080: dfab acbb 4645 86bd d175 a6bc 724a 6dbd
00000090: 1d3c c6bc fa55 85bd a2ef c4bc 6393 8f3c
000000a0: 1f8f e5bc 92ab ccbd 4f01 7ebc efa4 22bd
000000b0: 01fa 80bd 26d8 a43c 15a7 473d 8e2a 6d3d
000000c0: ba72 5d3d 53a2 743d 5a2c d6bd 0152 84bc
000000d0: 5335 903c e67e 213d 29c3 d7bb fe69 9dbd
000000e0: 660a 42bc fc27 e1bb c8ad e03c 077a 25bd
000000f0: 4eb1 9b3d 9bd3 8fbc f0e4 0abe fc4c e2bc
00000100: de79 ae3d 65ff debd eaab f8bb 1407 993d
00000110: 0b17 5dbd 290d 4c3d 3ef2 353d 0759 39bd
00000120: 66d1 dbbc cf94 3cbd 708f 4cbd b1af 763c
00000130: 3f44 4abd 3ecb 51bb 1e03 44bc 8c8e b4bd
00000140: 2f33 353d 7fd2 4e3d 02c2 623d 5913 cb3d
00000150: 964a 4f3d a091 f1bb 2de5 c5bc 6f03 61bd
00000160: 75b3 133d 8988 dfbc 9df5 86bc 0238 d83d
00000170: bbf7 d6bd 29a1 323d 7219 ac3c da39 b33c
00000180: 2229 603c 71f4 33bd 4e24 d3bd 0c74 60bd
00000190: d31d 5fbd a983 643d 3793 42bd 30a6 38bd
000001a0: 5e60 cdbd a527 cbbd 6ab2 aabd b265 fb3b
000001b0: e394 d2bc 79da 4fba 2a47 d63c cf7b e93c
000001c0: 78d7 d1bc dbf1 9e3c 88b4 f83b ee2e c33b
000001d0: 6771 36ba 8d9e b4bb 6507 213d 8054 403d
000001e0: 5d15 4e3d 92f2 1a3c e0dd 73bd 90e4 023c
000001f0: c6d0 3bbd 1dbd 8b3d e0d0 a1bb 8e68 0ebb
00000200: cc05 9e3d b490 34bd fcc1 ccbd 2505 29bc
00000210: e831 d9bc 2b25 893b aac3 4e3d 34b8 1c3c
00000220: c1ed 973c 377c 63bd be1f be3c 8289 0cbd
00000230: 04aa 4cbd 69b8 bb3c a2f7 3abc b252 e73c
00000240: c066 183d 292b 67bd ba02 34bd 3c9e 2fbd
00000250: f3d9 dc3d 09e8 aa3d c902 853d bd34 c9bc
00000260: 3e56 183d ccb8 443c bcfc 2dbd 0565 ffbd
00000270: cc31 8e39 8c49 6c3d 4b63 9fbd 4ac3 bfbc
00000280: df64 03be fdcc 0cbe ce10 fabc a944 a6b9
00000290: ebad b93d 206e f73b 5bbe 05bb 1bd0 17bd
000002a0: dfe9 e9bc f9c0 a4bc 6165 933c 20ad 223d
000002b0: 2b03 a63d 63d9 38bd 2657 b7bb 9e40 dfbc
000002c0: 6f39 87bc fa5f 3dbd 8a32 02bd b9f2 d83c
000002d0: 5690 e7bc b804 4a3d 2e4e 823c 9bc1 583d
000002e0: 7b26 4e3d 422d d33c b957 e13b d690 ce3d
000002f0: cfd5 823c ba5f cabc 4501 b23d c0ed b93c
00000300: 2d51 4b3c 2835 c7bc 6e62 18bb 928e 49bd
00000310: 092e 383d 9301 1cbc 18dd 413b c5e1 bb3c
00000320: b4d1 713d fedb bd3c f0ab 49bd 4fff 0bbd
00000330: a542 98bd b661 47bd 20fa 1e3d 138a 16bd
00000340: 7c44 d7bd 0be0 05bd 3fd4 333d ef60 a5bd
00000350: 238e b4bd 365a 60bb bf44 eabd f08d 53bb
00000360: e1cb 33bd f0a6 c73d a4f7 a43a 73eb 0d3d
00000370: 2343 04bd 1706 4a3d 4991 99bc 5af7 80bd
00000380: 34c4 3f3d 1f0f 993d d7ca 4f3c 03fc b63d
00000390: 8fad b53c 4445 a6bc 8c1a d13c 1a8a 9bbd
000003a0: ecda aebd d6da 913d 0f54 09bc fc6e aabc
000003b0: 6490 c9bd d5c2 043d faa0 273d caf9 8bbd
000003c0: d729 3c3d f8b8 2e3d 4db6 f5bd 29b5 abbd
000003d0: 66d0 20bd 59af c93c 7831 96bc e89e c5bd
000003e0: 265f 333b 6b08 45bd bec9 6abb b82b bc3d
000003f0: 7714 18ba 0fb6 f43c e57a 65bd 1789 803d
-0.0014495119 0.024337424 -0.0984141 0.036449187 0.0083701275 -0.025536418 -0.012187933 0.032732356
-0.07886519 -0.07685778 0.008058753 -0.0010055283 0.04849349 -0.13087891 -0.08262541 -0.07912291
0.02959816 0.0777491 -0.07930332 -0.09371856 -0.059585772 -0.041128695 -0.014236557 -0.03813349
0.058588795 -0.044629086 -0.010498355 0.046495076 0.052266598 -0.053303014 -0.010169877 -0.042440448
-0.005269512 -0.065561816 -0.020319851 -0.057932325 -0.024198586 -0.06510539 -0.024040047 0.017526334
-0.028022347 -0.09993662 -0.015503242 -0.039708074 -0.062976845 0.020122599 0.048743326 0.05790191
0.05406449 0.059725117 -0.10457678 -0.016152384 0.017603552 0.03942766 -0.006584544 -0.07686232
-0.0118432995 -0.0068712216 0.027426615 -0.040399577 0.076021776 -0.017556956 -0.13563895 -0.0276246
0.08519338 -0.108885564 -0.007588853 0.07472053 -0.053977054 0.049817238 0.044420473 -0.04525092
-0.026833247 -0.046040352 -0.04994148 0.0150565365 -0.04938149 -0.003201201 -0.011963634 -0.08816251
0.044238266 0.050493713 0.0553608 0.099158 0.05060824 -0.007372096 -0.024157131 -0.054934915
0.036059815 -0.027286785 -0.01647454 0.10557558 -0.104964696 0.043610726 0.021008227 0.021878172
0.013681682 -0.04393429 -0.10309659 -0.05479817 -0.054471802 0.055789623 -0.047503676 -0.045080364
-0.10028146 -0.09919671 -0.08334811 0.007672035 -0.02570576 -0.00079289783 0.02615698 0.02850142
-0.025615439 0.019402435 0.0075898804 0.005956522 -0.0006959647 -0.005512065 0.039313693 0.046955585
0.050313342 0.009457247 -0.05953777 0.007989064 -0.0458534 0.0682318 -0.00493823 -0.00217298
0.077159494 -0.044083312 -0.09997937 -0.010316168 -0.026513055 0.004185339 0.05047957 0.009565402
0.018545987 -0.055538382 0.023208495 -0.034310825 -0.049966827 0.022915082 -0.011411579 0.028237674
0.037207365 -0.056437645 -0.043947913 -0.042875513 0.10783758 0.083450384 0.06494672 -0.02456128
0.037191622 0.01200695 -0.042477354 -0.1247044 0.00027121452 0.057687327 -0.077826105 -0.02340855
-0.12831448 -0.13750072 -0.030525591 -0.00031713143 0.09066375 0.0075509697 -0.002040765 -0.0370637
-0.028553901 -0.020111548 0.017992677 0.039715886 0.08106073 -0.04512919 -0.0055951057 -0.027252492
-0.016506879 -0.04623411 -0.03178648 0.026482927 -0.028267067 0.049320906 0.01590642 0.05291901
0.050329667 0.025778417 0.0068769124 0.10086219 0.015971093 -0.02470385 0.086916484 0.022696376
0.0124094905 -0.024317339 -0.0023252028 -0.04920823 0.044965778 -0.00952186 0.0029581245 0.022934804
0.05903788 0.02317619 -0.049236238 -0.034179028 -0.074345864 -0.04867717 0.038812757 -0.03675277
-0.10511109 -0.032684367 0.043903586 -0.08075129 -0.08816173 -0.0034233457 -0.114388935 -0.0032280646
-0.043895606 0.09748638 0.001258601 0.03464837 -0.03229059 0.049322214 -0.018746035 -0.062971786
0.046817973 0.07473587 0.012682638 0.08934786 0.022177486 -0.0202967 0.025525354 -0.075947
-0.0853785 0.07121818 -0.008381858 -0.020804875 -0.098419935 0.03241237 0.040925004 -0.06834753
0.04593834 0.04265687 -0.11997662 -0.08384163 -0.039261244 0.024619745 -0.018334135 -0.096494496
0.0027369945 -0.04810373 -0.0035825814 0.09188026 -0.00058013893 0.029871969 -0.056025404 0.06276148

main.12.weight f4 [90, 180]
00000000: 7fc4 f5bd c0d7 483d f702 f93b 2cc1 683c
00000010: 5263 7a3c 1ba5 bbbd f07c cb3a 2217 f5bc
00000020: c3de 95bb ab14 203d 8fc1 cc3d 745e 083d
00000030: 1dfc a33c 8db8 8c3a 01c7 eabd a077 c33c
00000040: 1061 2fbc 1be8 c83d f83d 56bd 0dfc 12bd
00000050: 1b58 72bd 100d 0f3d 24f5 4f3d 083e fbbd
00000060: 87ad db3d 9964 113d 97ff db3d 1a46 453d
00000070: a926 333d 5150 243d 6760 37bd 653c 6abd
00000080: de6b e93d f74c cfbc 028a 6c3c 1523 36bd
00000090: 4910 04be b8ea 09bd 81e9 173d f511 8b3e
000000a0: 054b 51bd fe77 7f3c ba24 b63d 4310 25bd
000000b0: 4ef5 adbd 1f8b f8bc 3843 1e3e 9578 3e3d
000000c0: 9974 e23d 8e7a 3b3c 76a4 21bd f1ba 983d
000000d0: a3bd abbc a0fa 9b3d 893b 853d c527 49bd
000000e0: 6a92 d7bd 036a 13be c235 d23d ab9a e23d
000000f0: 8163 483d 0529 173e d79f 0a3e bb46 363d
00000100: dad3 fc3d be6c d8bc ef06 17bc 6942 1cbb
00000110: e6bc 5a3d 45a2 84bb 3ff0 ef3d b054 bbbc
00000120: eb08 80bd 9955 90bc a1b1 82bd bcae 993c
00000130: 58d6 933c 9e46 61bc 7931 0cbe c812 63bd
00000140: 8022 033e 2896 523d 16fd 393d d6fb 633c
00000150: c28c 563d d612 923d 1639 c7bc 257f ad3d
00000160: 1f61 053e 24e1 b83d d57b d33d 8ea1 533d
00000170: 71e4 d7bc 64ce acbd c8cb 903d ce91 53bd
00000180: 19da d63d 4d7c 1e3d 630e c1bd 46f2 933d
00000190: e632 c13d 1fd5 0cbd 87d5 123d d5e4 623b
000001a0: 6ef3 6fbc f82a 963d e97e 41bd 120e 94bc
000001b0: f6e3 323e 073c 583d 179a a1bc a5bd be3d
000001c0: 1d80 853d 36d3 44bd 4d62 ac3d 6aa6 a43d
000001d0: d07a 6b3d 823f 003d 9925 033d 2552 313d
000001e0: 4cec 08be 1919 12bc 23f2 3b3b 52b7 9a3d
000001f0: e4fa 4e3d e5dc f33d 7654 02be 11ca c4bd
00000200: d46d d8bd 2f5f 853d a851 ff3d f949 fcbd
00000210: 1bc4 e43d 72ed abbd 8384 133e 33ad 383e
00000220: ea9a b0bc 2d51 b23d ad99 043c 218b fe3d
00000230: f66b d73d ae1c 56bd 8189 a1bd 70bd 053d
00000240: e1c5 f6bd 8539 8a3c f573 b0bc a954 363d
00000250: 6a19 3f3d bca9 393d 8d87 3d3d 761b a23a
00000260: 3831 27bd 6776 bcbc f54a 9e3d 5b5f a1bc
00000270: 1c40 393c f2a1 7e3c f780 eabc ca36 993d
00000280: b752 683d 06ab e13d 894b ce3d 9b0b 4ebd
00000290: 5eed 72bd d037 a93d d4f5 7a3e ea55 ca3d
000002a0: 1e16 f6bc 615e 913c 56d1 2d3c c5fc c63d
000002b0: aa7b 903a 22f9 413d 25a7 df3d 058c 803d
000002c0: 2582 fc3d 784e ad3c 2df4 523d 476c 8d3d
000002d0: dc2d 2f3d 8372 adbd b52d 5abd 2b93 24bc
000002e0: 5057 133d bdd6 6c3d 3873 d3bd 5625 d13b
000002f0: 3908 fa3c a12a 173d 27d3 5a3d 6eb9 85ba
00000300: e688 c4bc 06c9 fcbd 75c7 c6bc c058 0cbe
00000310: 56a2 bc3d d09f 27bd d4c8 dcbd 1eb1 9a3c
00000320: ae0f 3e3b 4ddb 8bbd 20c8 fcbd fff6 fdbc
00000330: eea7 fabc 2856 4fbb 174a 47bc b362 86bd
00000340: b8e6 793d 590f 49bc 3dd4 9fbd 1f34 cb3d
00000350: 883b 90bb c5d0 f13d 46fd 0bbe 846a 8ebd
00000360: 9c4d eb3c 38ee f2bc 491b b0bd 9048 d0bd
00000370: 8376 233c 7c99 18bd 766a 96bd 1b7a 26bd
00000380: ce11 8dbd 6304 cc3d b801 8b3c 8799 97bc
00000390: 574c 383b 6d94 a63d 9151 8d3d 29a6 e0bd
000003a0: 34a8 24bd 2aba 30bc df1d dc3d 59a2 8a3c
000003b0: 7786 883d eca5 f83d 8104 bcbc 52f5 163d
000003c0: 2027 bebd b931 44bc 09b2 35bd 80d5 e6bd
000003d0: 863c 8abd 6931 a8bc 5ad0 633d 3735 9f3d
000003e0: 6e47 9b3d e36d 7c3b 5dfc 16be 1fb9 8bbc
000003f0: 9281 9cbd fc8d 00be b169 79bd a974 ecbd
-0.12000369 0.04903388 0.0075992304 0.014206212 0.015282469 -0.09162351 0.0015524905 -0.029918257
-0.0045736744 0.03908221 0.09997856 0.033293203 0.020017678 0.0010736153 -0.11463738 0.023860753
-0.010704294 0.098098956 -0.05230519 -0.035884906 -0.059166055 0.034924567 0.050770894 -0.12267691
0.10726457 0.035496328 0.10742109 0.048162557 0.04373804 0.04011566 -0.04476967 -0.057186503
0.11397527 -0.025305254 0.0144372005 -0.04446705 -0.12896837 -0.03367111 0.03708792 0.27162138
-0.051096935 0.015592573 0.08893724 -0.04029871 -0.08494054 -0.030339776 0.1545533 0.046501715
0.110573955 0.0114427935 -0.039463483 0.07457531 -0.02096445 0.07616162 0.06505496 -0.049110193
-0.10525973 -0.14395909 0.1026416 0.11064657 0.04892302 0.14761741 0.13537537 0.044501048
0.12345095 -0.02641904 -0.009217962 -0.0023843294 0.053402804 -0.0040476643 0.11715745 -0.02286753
-0.06251701 -0.017618941 -0.06381536 0.018760078 0.018046543 -0.013749747 -0.13690747 -0.055437833
0.1280613 0.05141273 0.045407377 0.013915023 0.05238033 0.07132499 -0.024319213 0.084715165
0.1302533 0.09027317 0.103263535 0.051667742 -0.026354047 -0.084378034 0.07070118 -0.051652722
0.104908176 0.03869276 -0.09426572 0.07223944 0.09433536 -0.034382936 0.035848167 0.0034621258
-0.0146454405 0.073324144 -0.04724017 -0.018073115 0.17469773 0.05279162 -0.019726796 0.093135156
0.06518576 -0.04805299 0.08417187 0.080395535 0.05749017 0.031310566 0.032018278 0.04329123
-0.1337139 -0.008917117 0.002867826 0.07554497 0.050532237 0.11907367 -0.12727532 -0.096088536
-0.10567823 0.065122955 0.124667466 -0.12318797 0.11170217 -0.083948985 0.14406018 0.1803482
-0.021558244 0.08706889 0.00809328 0.124288805 0.10518639 -0.052273445 -0.07887555 0.032651365
-0.12049461 0.01687313 -0.021539668 0.044514332 0.046655096 0.045327887 0.04627185 0.0012367803
-0.040818423 -0.023005677 0.07729141 -0.01969879 0.011306789 0.01554154 -0.028625948 0.07481153
0.056719508 0.11018948 0.10073001 -0.050304037 -0.059308402 0.082625985 0.24507838 0.09879668
-0.030039843 0.017745199 0.010608992 0.09716181 0.0011023183 0.047356732 0.10920552 0.062767066
0.123295106 0.02115558 0.051502395 0.06905418 0.042768344 -0.08469107 -0.053266246 -0.010044853
0.03597194 0.057821978 -0.103247106 0.0063826246 0.030521499 0.03690589 0.053424027 -0.0010202357
-0.02399106 -0.1234303 -0.02426503 -0.1370573 0.092106506 -0.040923893 -0.107804924 0.018883284
0.0029001045 -0.06828938 -0.12342858 -0.031001566 -0.030597653 -0.0031637046 -0.0121636605 -0.06561794
0.061011046 -0.012271726 -0.07804153 0.09922051 -0.004401628 0.11807398 -0.13670835 -0.0695391
0.02872353 -0.029654607 -0.08598954 -0.1017009 0.009976986 -0.03725575 -0.073445246 -0.040643793
-0.068881616 0.09961774 0.016968593 -0.018505825 0.0028121674 0.08133779 0.06900323 -0.109691925
-0.040199474 -0.0107865725 0.10747885 0.016923117 0.06666272 0.12141022 -0.022951366 0.03685505
-0.09284806 -0.011974745 -0.04435924 -0.11271191 -0.06749825 -0.020531373 0.05561862 0.07773822
0.075819835 0.0038517646 -0.14744706 -0.017056046 -0.07641901 -0.12554163 -0.06089181 -0.11545689

main.14.weight f4 [45, 90]
00000000: dfad 3cbd d4d7 bbbd 22cd a5bd 4c49 1dbd
00000010: 77e9 413d 8b73 b3bd 750a 96bd c821 27be
00000020: a9b6 ff3c 22dc d83d e4c2 cc3c 7f86 003e
00000030: c324 ce3d 6255 d23d 4162 41bd 09bf 8d3d
00000040: a325 e53d e416 93bc b6d5 8d3d 6ffe dc3d
00000050: 5c2d 253d 248f 6f3c f526 febd bc00 263c
00000060: e031 b9bd bd6d d4bc 0c67 0a3e 8ca1 303d
00000070: 82c3 603d 77ba 17be 6570 63bc 29ef 55bd
00000080: 3555 353d 9272 07bd b5d0 cf3d 9ed5 d43b
00000090: 885e c0bd a7b0 e1bd 67a0 a0bc 876c 4c3b
000000a0: 5ded ef3c 1782 60bb 1ad2 883b 69c4 90bd
000000b0: 871d e1bd d8fc e43d 8716 c53a 4cf1 6a3d
000000c0: c12e 30bd 2707 1bbe ab09 03be 0b3c a8bd
000000d0: 23e6 0f3c a00c 94bd 5d15 cbbc 91bb acbc
000000e0: bdfc 1a3c a61d a1bc 6f37 fcbd 103a 2d3d
000000f0: 4205 b23b 40af a53d 8ea7 f23d d832 2e3c
00000100: af45 b33d 0ca1 33bd a5b5 633d ed99 953d
00000110: 28cd a4bd 3388 a4bd bdb3 b83d ce21 663d
00000120: cef5 0fbc 04cb d53c 02de e33d e2c6 29be
00000130: c5be ef3b 8b15 003e f37b d6bd d357 30be
00000140: 0031 73bc 271f 93bd 3245 fd3c 04de 00be
00000150: 539a 0bbe 1145 14bd 1f00 8e3d 156f d03d
00000160: 5bfe 8bbb f4c3 0c3e f23a 233e c3b3 053e
00000170: 5ac1 183e 91ec 50bc db33 39bd 3369 8e3d
00000180: bf65 d8bc eb54 d13c f04e 813d 5c5e a63c
00000190: a765 edbd fad9 203d 202f 3bbd d6f3 73bd
000001a0: 9c43 e6bd 89f1 35bd 47d0 a4bd 3dc8 173e
000001b0: ff62 05be 67a3 803c 17c2 9cbd 91e3 5c3d
000001c0: a404 9e3d 1922 bc3d d7de 093e f39d 55bd
000001d0: bb38 923d ea11 b33d 42ee 0d3c 957d 2d3e
000001e0: 2f21 1a3e 9c3a 81bd 75c0 9abc bd4f 72bd
000001f0: 84d4 6fbc 1e96 44be 9f87 513e fbbf 263d
00000200: 6a7d dc3d dc50 813d a2f3 1a3e eb64 71bd
00000210: 2c21 8abd 65f8 773d 3ef9 bf3d d452 ae3d
00000220: 2ce0 0c3e 0593 e3bd 3260 a2bd a98f c4b9
00000230: b6c8 0b3e 4600 a3bd 5ffb f73d f249 e9bd
00000240: 4e52 f03c e42a 933d 5cba 4cbd 4ce2 f1bd
00000250: b98a 983d 8ee8 f83c bf9d 133e f6c7 933a
00000260: 8041 b6bc 9ddc ed3d 9df3 04be 8538 a1bd
00000270: 15a0 c93d 538e acbd 352f 95bc 897b 233e
00000280: 252e 0cbd 1a07 cebd 9543 19be 2156 033d
00000290: 41cd a9bd 4f19 a93c 7f27 9fbd cc06 00be
000002a0: 7479 b03d fa88 be3b b801 233d 2c77 65bd
000002b0: e7c2 b83c 92a1 43bd e8b5 d53d 1862 94bb
000002c0: 852a 7a3d 86f0 c9bd 3b52 3fbd f3d4 8b3b
000002d0: 7208 28be 2469 88bb 0dd3 c5bd 5648 edbd
000002e0: f731 343c 74fa f5bd 38e2 813d 2aa7 e6bd
000002f0: eb54 67bd 477d 2a3d adaa 0c3d 5bc8 893d
00000300: c272 14bd b541 b1bc f5a2 babd bc3e 89bb
00000310: 4a2e 643d f441 663d 6f9b 06be 7b39 3abd
00000320: 8292 99bd 79d2 02be 246b acbc 286d 71bd
00000330: dc7c 0ebe 9eee 6cbb 3ad7 a13d 30cc 453b
00000340: df29 c73d 7d05 0abd e4e1 493c 2c18 63bd
00000350: b936 abbc ff6f c1bd c5b5 9ebd e2c6 c23d
00000360: a281 85bc 2ab7 84bd f6a4 713c 35fc e83d
00000370: 01cd b2bd 40b5 a1bd 5600 91bd a612 73bc
00000380: cc92 01be 7d81 b03d 28b5 3d3d 6036 a6bc
00000390: 2dc5 f23d bff6 ebbd 8ef5 a13c 091b 6dbc
000003a0: f4fe 95bd 854b d53b bdb4 693d 94dc 41bd
000003b0: 58ed 593d 29c8 a73c aac7 85bd bb5b 1bbd
000003c0: 8407 503d cf45 493d 767e 0f3e 7071 0cbe
000003d0: 7228 d73d d338 9c3d fc62 1bbe 8ddd c83d
000003e0: 322a dabd a859 ac3d 8404 f43d b8d2 8cbc
000003f0: 93fe adbd 9d8f 29bd b6ec 7bbd a581 36be
-0.046064254 -0.09172025 -0.080957666 -0.03839998 0.04734179 -0.087622724 -0.07326213 -0.1632148
0.031215029 0.10588862 0.024995275 0.12551306 0.100656055 0.10270192 -0.047212843 0.06921203
0.11188819 -0.017955251 0.06925528 0.10790717 0.04032646 0.01462153 -0.12409774 0.010132011
-0.09042716 -0.025931234 0.13515872 0.043122813 0.05487395 -0.14817224 -0.013881777 -0.052230034
0.044270713 -0.033068247 0.101472296 0.0064951917 -0.093930304 -0.11020022 -0.019607736 0.0031192617
0.029287988 -0.0034257227 0.0041754367 -0.07068712 -0.1099196 0.111810386 0.0015036621 0.057359025
-0.043013338 -0.15139447 -0.12796657 -0.08214577 0.008782896 -0.072289705 -0.02479046 -0.021085532
0.009459672 -0.019667458 -0.123152606 0.0422917 0.0054327557 0.08090067 0.11848365 0.010632239
0.087535255 -0.04385476 0.05559315 0.0730475 -0.08046943 -0.080337904 0.09018657 0.056184582
-0.008786632 0.026097782 0.11126329 -0.16579774 0.0073164427 0.12508218 -0.1047286 -0.17221002
-0.0148432255 -0.07183676 0.030916784 -0.12584692 -0.13633089 -0.03619868 0.06933617 0.10177437
-0.004272265 0.13746625 0.15940455 0.13056855 0.14917508 -0.012751714 -0.04521547 0.06953659
-0.026415704 0.025553187 0.06313884 0.020308666 -0.11591654 0.03927038 -0.04569924 -0.059558712
-0.11243364 -0.0444198 -0.08047538 0.14822479 -0.13026045 0.015702916 -0.07654207 0.05392796
0.07715729 0.09186191 0.13463913 -0.052152585 0.07139727 0.08743651 0.008662762 0.16942437
0.15051721 -0.06310007 -0.018890599 -0.059158076 -0.01463807 -0.1919789 0.20461892 0.04071043
0.10766108 0.06314251 0.15132001 -0.058934133 -0.06744608 0.06053962 0.09373711 0.08511892
0.1375739 -0.11112026 -0.07928504 -0.00037491068 0.13650784 -0.079590365 0.12108492 -0.11391057
0.029336121 0.07185915 -0.049982414 -0.11810741 0.07448334 0.030384328 0.14415644 0.0011274803
-0.02224803 0.11614344 -0.12983556 -0.07872108 0.09844986 -0.08425584 -0.018210987 0.15965094
-0.034223694 -0.10059948 -0.14967187 0.03206456 -0.08291102 0.02064195 -0.07771205 -0.12502593
0.08616915 0.0058146687 0.03979656 -0.056021854 0.022553874 -0.047761507 0.104350865 -0.0045282952
0.061075706 -0.09860329 -0.04670928 0.004267329 -0.16409472 -0.0041629244 -0.09659395 -0.115860626
0.010998241 -0.12010661 0.06341976 -0.11262353 -0.05647747 0.04162338 0.034342457 0.06727668
-0.036242254 -0.021637777 -0.09113113 -0.0041883867 0.055708207 0.05621524 -0.1314523 -0.045464974
-0.07498647 -0.12775601 -0.021047182 -0.05894199 -0.13914818 -0.003615297 0.07902379 0.003018152
0.09724783 -0.03369664 0.012321923 -0.055442974 -0.020900117 -0.0944519 -0.077495135 0.0951059
-0.016297165 -0.06480248 0.014748802 0.1137623 -0.08730508 -0.07895899 -0.07080142 -0.014835989
-0.12653655 0.08618448 0.046315342 -0.0202896 0.118540145 -0.115216725 0.01977041 -0.014471778
-0.07324019 0.006509247 0.05705713 -0.0473295 0.053204864 0.020481186 -0.065322235 -0.037929278
0.050788417 0.04913884 0.14013085 -0.13715148 0.10505761 0.07628026 -0.15174478 0.098078825
-0.10652579 0.08415538 0.11914924 -0.017190322 -0.08495822 -0.041396726 -0.061505042 -0.17822893

main.16.weight f4 [4, 45]
00000000: 4f58 03be 98e6 303e eaf0 883d b231 333e
00000010: e986 38be 8099 28be b16c a43b 0418 13be
00000020: 1349 903d 3ac3 7ebe a631 13be 987d 4f3d
00000030: 4a3d 0ebe a07e f7bd 856e 0ebe 71c1 cabc
00000040: 56bb 0cbe 94af 1b3d 0849 053e ce88 16be
00000050: e292 e33d 932a 64bd ab28 173d 7546 a3bc
00000060: 4f43 e3bd f359 40be 9caf 363e 9fa5 ddbc
00000070: f7ff 85bd 41b3 c93d ea75 4fbb 5e5a 0fbd
00000080: 5f5b 2cbe cb89 433e 5000 423e f265 45bd
00000090: 3510 2a3d 6436 2dbe 64dd 093e 6f4d 17bd
000000a0: 5bf8 ae3a 256b 3c3d 9983 96bd c418 fb3d
000000b0: 5050 223e ba22 553c 70a0 95bd 3b75 43bd
000000c0: 5adb f9bb 03af 06be dfc6 463d 632a 843d
000000d0: fe7c 143e b6d8 cebd e64e 63bb e6d4 dabd
000000e0: 2fa1 bebd 1e40 6fbd f994 083e d318 30be
000000f0: a034 14be 8d1e 3cbd 52cb 2cbe fb46 34be
00000100: 0e32 1bbe f696 d33d 53d9 68be be3e 4d3c
00000110: 22c0 a9bd 0882 123e fb0a 3b3e f2f8 aa3c
00000120: 9c52 67be 3fb7 a93d 3e5d e13d cc18 fa3c
00000130: cada 183e a096 823d 693c bcbc 3b47 59be
00000140: 625b c43c fafe d4bd 27ae 46be 7baf 36be
00000150: f91a aa3b 0578 0f3e 5584 ebbd 9503 2abe
00000160: d79a 68be 1396 873d 3031 e43d 1b05 cbba
00000170: d39a 223e ae35 2f3c bfdd a63d 1c75 2c3e
00000180: c936 2cbe a6a3 0cbe 1bb5 6abe e6e0 96bd
00000190: 1745 843d 1909 1f3d 0140 a2bc b200 21be
000001a0: be20 ec3b e401 4dbe 8de8 b0bd b7b7 c9bc
000001b0: 2259 7abe 7561 e63d 6a14 dc3d ce83 ce3d
000001c0: b52e 463e 723c b2bd 75a8 2dbd 4743 7dbc
000001d0: 9a90 273c c682 d33d 9734 0f3e 4317 5abe
000001e0: c7a8 c23d 60dd e93c 6905 f03d bd93 e23d
000001f0: 4d88 d8bc 9f37 e13c 2cee 913d f0f3 61bc
00000200: 4ccc 05be 5573 533d c998 d93d 5849 37be
00000210: fabb 073e 68b8 27bc 9f7f 7dbd 6243 04be
00000220: 3142 82bd a99c 98bd 498b f63d a432 d0bd
00000230: b9bb c3bd 503a d8bd 6bf9 3cbe 5c2f 043e
00000240: ffec 26bd c4ff 743d 3df4 113c cd52 453e
00000250: 832c 383e 44bf 0e3e 864f 47be 63bc f43c
00000260: 25f4 e0bd 726d a03c 7328 ab3d a792 443e
00000270: 4605 3e3c 50f4 0a3d 108f 5d3e f557 3fbe
00000280: 52a8 d93d b69a 043e 38be 1b3e e958 e6bc
00000290: df17 1f3e d25f d93d f259 4ebe f6d3 bb3d
000002a0: c5ce ca3d 7e12 663d ceac 24be 078a eb3d
000002b0: 4b1d 10be 7abe 183e 0855 6f3d 11a3 d93d
000002c0: 462e 54be a115 cebd 7e75 e3bd bbe7 e3bb
-0.12826656 0.17275465 0.06686576 0.17499426 -0.18020214 -0.16464806 0.00501784 -0.1436463
0.07045188 -0.2487916 -0.14374408 0.050656885 -0.13890567 -0.12084699 -0.13909347 -0.024750443
-0.13743338 0.03800924 0.1301614 -0.14700624 0.11112 -0.055704664 0.03690402 -0.019931057
-0.110968225 -0.18784313 0.17840427 -0.027056513 -0.06542962 0.09848643 -0.0031655976 -0.03499829
-0.1683173 0.19095533 0.18945432 -0.048192926 0.041519362 -0.1691528 0.1346336 -0.03693908
0.0013349162 0.04600062 -0.07349319 0.12260583 0.1585095 0.013008768 -0.07305992 -0.04771922
-0.0076250257 -0.13152699 0.048529502 0.06453397 0.14500806 -0.10099928 -0.0034684478 -0.106851384
-0.09308087 -0.058410756 0.13338079 -0.1719697 -0.144732 -0.045927573 -0.16874436 -0.17605202
-0.15155813 0.10331528 -0.22739153 0.012527166 -0.082885996 0.14307415 0.18265907 0.02087066
-0.22590107 0.082869045 0.11004113 0.030529402 0.14927211 0.06376386 -0.022978025 -0.21218579
0.023969356 -0.104001954 -0.19402371 -0.17840378 0.0051912037 0.14010628 -0.1149985 -0.16602929
-0.22715317 0.06620421 0.11142194 -0.0015489192 0.15879373 0.010693951 0.081477635 0.16841549
-0.16817774 -0.13734302 -0.22920649 -0.07367115 0.0645849 0.038827036 -0.01980591 -0.15722921
0.0072060516 -0.20020252 -0.086381055 -0.024623735 -0.24448064 0.11249057 0.10746081 0.100837335
0.19353755 -0.08702935 -0.04239698 -0.015457935 0.010227347 0.103276774 0.13984905 -0.21297936
0.09504848 0.028547943 0.11719782 0.11063335 -0.02643218 0.027492343 0.07125506 -0.013791069
-0.13066214 0.05162366 0.106248446 -0.17899072 0.13255301 -0.010236837 -0.061889287 -0.1291633
-0.06360281 -0.074517556 0.12038285 -0.10165909 -0.0955729 -0.10557997 -0.1845452 0.12908691
-0.04075336 0.05981423 0.008908329 0.19269867 0.1798573 0.1394015 -0.1946393 0.029874986
-0.10984067 0.019583438 0.083573245 0.19196568 0.011597937 0.0339244 0.21636605 -0.18685897
0.10627808 0.12949643 0.15209281 -0.028118568 0.1553645 0.106139794 -0.20151499 0.09171288
0.099027194 0.05616998 -0.16081545 0.11500936 -0.14073674 0.14916411 0.0584307 0.106268056
-0.20720777 -0.10062719 -0.11106394 -0.0069551147
