submission/code/models/penne2AlPesto1.pth (torch, 412914 bytes, 15 tensors)

main.0.weight f4 [10, 3, 4, 4]
0	0xbd95d6c0	-0.07316351
1	0x3ca15289	0.019692676
2	0xbd9ac114	-0.07556358
3	0xbd89cf08	-0.06728941
4	0xbe5ab321	-0.21357395
5	0xbdc5411b	-0.096315585
6	0xbd4d5d23	-0.05013765
7	0x3d344a58	0.044016212
8	0xbdb9cf23	-0.09072711
9	0xbe0975f4	-0.13423902
10	0xbe24547e	-0.16047856
11	0xbe4187c2	-0.18899444
12	0xbe1fdc45	-0.1561137
13	0xbdb37ce5	-0.08764056
14	0x3cfbebd5	0.030752102
15	0x3cbb2ceb	0.022848567
16	0x3d5ade8b	0.05343489
17	0xbded7aed	-0.11595712
18	0xbe5371e7	-0.20648919
19	0x3d818592	0.06324305
20	0x3da2777d	0.07932947
21	0x3a336e9b	0.00068447896
22	0x3d07934d	0.03309946
23	0x3e801a21	0.25019935
24	0xbd2949f5	-0.041330297
25	0x3ce904c5	0.028444657
26	0xbe63bf9e	-0.22241065
27	0xbe2c098f	-0.16800521
28	0xbcbf4ba4	-0.023351498
29	0xbd4e6373	-0.05038781
30	0x3d192d9d	0.037397016
31	0xbde7c33b	-0.11316534
32	0xbca25fac	-0.01982101
33	0xbe395abd	-0.1810102
34	0xbe58a456	-0.21156439
35	0xbdfeed75	-0.12447635
36	0xbb0ff23f	-0.0021964458
37	0xb977c1e7	-0.0002362799
38	0x3e83a91b	0.25714955
39	0xbe21e2bd	-0.1580915
40	0x3cec03fe	0.028810497
41	0xbd95ba4f	-0.07310926
42	0x3c5abe8d	0.013351095
43	0xbe4a0ce9	-0.19731487
44	0xbe0f1164	-0.13971478
45	0x3c51b252	0.0127988625
46	0xbe2cd8b5	-0.16879542
47	0x3a93e958	0.0011284752
48	0x3db7833f	0.0896058
49	0x3d1a48eb	0.037667196
50	0x3d3076ee	0.04308217
51	0x3e076b30	0.13224483
52	0x3c098bd9	0.008395159
53	0xbcaa7bdb	-0.020811012
54	0xbd79ec3f	-0.061016317
55	0x3e55c34f	0.20875286
56	0xbd921f8f	-0.071349256
57	0x3dfe9b54	0.1243197
58	0x3dc02586	0.09382157
59	0x3ddd32df	0.108007185
60	0x3bd2a2c2	0.0064280936
61	0xbdbc26a8	-0.091870606
62	0x3dd49396	0.10379712
63	0xbe29b34e	-0.16572306
64	0xbdc2263a	-0.094799474
65	0x3d8915a0	0.06693578
66	0x3ceeb17f	0.029137371
67	0xbe344dc6	-0.17607793
68	0x3d4eb65d	0.050466884
69	0xbe7654cc	-0.24055785
70	0xbebd2694	-0.36943495
71	0x3d7046a0	0.058661103
72	0xbcda9a53	-0.026684916
73	0x3d463a7e	0.048395626
74	0x3ce1249d	0.027483279
75	0x3c88b8a6	0.01668961
76	0x3dc9722c	0.0983623
77	0xbd9cdafc	-0.076589555
78	0xbd80015d	-0.0625026
79	0xbd2bbf24	-0.041930333
80	0xbd9238f4	-0.07139769
81	0x3e1e5acd	0.15464325
82	0x3c1aef4b	0.009456466
83	0xbd9f5b13	-0.07781043
84	0xbe314703	-0.17312245
85	0x3c7780e6	0.015106415
86	0x3bf4b8be	0.007468312
87	0x3dda6869	0.10664446
88	0x3dc175ea	0.094463184
89	0xbc5d2070	-0.013496503
90	0x3ddef053	0.10885682
91	0xbde126fd	-0.109937645
92	0xbd07ccda	-0.033154346
93	0xbdb354bc	-0.08756396
94	0xbd13fe5f	-0.03613126
95	0x3d1973de	0.037464015
96	0x3bee7d9c	0.0072781574
97	0x3d7ce14b	0.061738294
98	0xbc93dec7	-0.018050564
99	0xbd53e404	-0.051731125
100	0x3d1a448b	0.037663024
101	0x3e941ecf	0.28929755
102	0xbe2d85ce	-0.16945574
103	0xbd176af6	-0.03696724
104	0x3de39cb4	0.11113873
105	0x3dc8d887	0.09806924
106	0x3c7dc1bd	0.015488085
107	0x3dd8d418	0.10587329
108	0xbe056f4a	-0.13030735
109	0x3e93d8ad	0.28876248
110	0xbda2f15c	-0.07956192
111	0x3b574899	0.0032849668
112	0x3dd25fb5	0.10272161
113	0xb9a67bfb	-0.0003175436
114	0x3db70b50	0.089377046
115	0x3e0f7acf	0.14011692
116	0xbde276ad	-0.11057792
117	0xbd033252	-0.03203041
118	0x3bae6741	0.0053223674
119	0x3c0d4e36	0.008624604
120	0xbc23d9c0	-0.010000646
121	0x3e4425fd	0.19155116
122	0xbdd3b9c4	-0.10338166
123	0xbc718cd1	-0.014743046
124	0x3deefca7	0.11669283
125	0xbde94805	-0.1139069
126	0xbd813011	-0.06307996
127	0x3d38194e	0.044946007
128	0xbd8d04cf	-0.06885683
129	0x3da61a5f	0.08110499
130	0x3dcce33c	0.10004279
131	0x3de77656	0.11301868
132	0x3e12e137	0.14343725
133	0xbc8fe795	-0.017566482
134	0xbd7e7387	-0.062121894
135	0x3e3b8b9b	0.18314974
136	0x3d49a813	0.049232554
137	0xbdd2559c	-0.10270235
138	0x3e10c1b2	0.14136389
139	0x3dea672c	0.1144546
140	0xbba1573a	-0.0049237283
141	0x3e00486e	0.1252763
142	0xbd1643d5	-0.036685783
143	0x3d705365	0.05867328
144	0x3d320f86	0.043471836
145	0xbbecbbeb	-0.00722455
146	0x3d60ed57	0.054913845
147	0xbca1345f	-0.019678293
148	0xbe3cdc30	-0.1844337
149	0x3d8af9d8	0.06785935
150	0x3e6aa962	0.22916177
151	0x3d7108d8	0.058846325
152	0x3dcf6882	0.10127355
153	0xbcb283df	-0.021791397
154	0x3e1bb999	0.15207519
155	0x3ac0ecbc	0.001471899
156	0xbd91dced	-0.071222164
157	0x3c02d3d4	0.007985074
158	0x3e3ea89c	0.18619007
159	0xbd201a09	-0.03908733
160	0x3def43b5	0.11682836
161	0xbe0dc6c2	-0.13845351
162	0x3d7199fa	0.058984734
163	0x3cbd1384	0.023080595
164	0x3e75ace4	0.23991734
165	0xbd86b266	-0.065769956
166	0xbd6871d7	-0.05674919
167	0xbd991c2c	-0.074760765
168	0x3d0b396e	0.033990316
169	0xbdd6a37e	-0.104804024
170	0x3bd1ab1a	0.0063985707
171	0x3dce0342	0.10059215
172	0xbd8352c9	-0.064122744
173	0xbe1a24d2	-0.15053108
174	0xbbe45bbf	-0.006968945
175	0xbd40c555	-0.04706319
176	0x3d5a54ad	0.05330341
177	0x3d62f370	0.05540794
178	0x3e39dd4a	0.18150821
179	0xbcb5ebec	-0.022207223
180	0xbd19d1de	-0.03755366
181	0x3db6fa69	0.08934481
182	0xbe5b8985	-0.21439178
183	0xbceca732	-0.028888319
184	0x3e2e59ff	0.17026518
185	0xbdbb3231	-0.091404326
186	0x3ce777cb	0.028255364
187	0x3cdbeed5	0.026847282
188	0x3d3ac8f1	0.04560179
189	0x3e250707	0.16115962
190	0x3dcb6e1f	0.09933113
191	0xbdc7ab51	-0.09749473
192	0x3e0d0588	0.13771641
193	0x3e060084	0.13086134
194	0x3e12e7d4	0.14346248
195	0x3e815c0b	0.25265536
196	0xbd0e7412	-0.034778662
197	0x3dd228c9	0.102616854
198	0xbdab24aa	-0.083566025
199	0x3e162793	0.14663534
200	0x3e19dfcd	0.1502678
201	0x3e68bd31	0.22728421
202	0x3eaa9fdc	0.33325088
203	0x3ecea7f5	0.40362516
204	0xbdec2125	-0.11529759
205	0xbca3c264	-0.019990154
206	0x3d09b407	0.033618953
207	0xbd8e8229	-0.0695842
208	0x3c0d4894	0.008623261
209	0x3e81e325	0.2536861
210	0x3e16ba4c	0.14719504
211	0x3e6be51a	0.23036614
212	0x3d327b63	0.043574702
213	0xbe4e0212	-0.20117977
214	0xbcf21643	-0.02955163
215	0xbdc63bcd	-0.09679375
216	0x3e827e06	0.25486773
217	0x3e63e40a	0.22254959
218	0x3e6e4002	0.23266605
219	0x3e846346	0.2585699
220	0x3c9afd9c	0.018919758
221	0x3da77108	0.08175856
222	0x3e4ff02e	0.20306465
223	0xbe1612d6	-0.14655623
224	0x3ddb94a7	0.107217126
225	0x3e637b30	0.22214961
226	0x3bba5c75	0.0056872913
227	0x3e0d4296	0.13794932
228	0xbd9923b0	-0.0747751
229	0x3ddf75f2	0.10911168
230	0x3e011e7c	0.12609285
231	0xbe193888	-0.14962971
232	0x3de242f0	0.110479236
233	0x3de112f4	0.10989943
234	0x3e83166a	0.25603038
235	0x3e8b153d	0.2716464
236	0x3e07afed	0.13250704
237	0xbe1c65bb	-0.15273182
238	0xbd8d0a23	-0.06886699
239	0xbdde1335	-0.10843507
240	0xbc94926f	-0.018136231
241	0x3dd8080f	0.10548412
242	0xbdb59a2c	-0.088672966
243	0xbdfd54a7	-0.12369662
244	0xbdca1470	-0.098671794
245	0xbe252f67	-0.16131364
246	0xbde5a43f	-0.11212968
247	0xbd6c9e55	-0.057768185
248	0xbd4e7039	-0.050399993
249	0xbe296edc	-0.16546196
250	0xbe2b6b19	-0.16740073
251	0xbd6e783e	-0.05822014
252	0xbd3e92cb	-0.04652671
253	0x3e03eb8e	0.12882826
254	0xbe89560a	-0.26823455
255	0xbc5eb458	-0.013592802

main.3.weight f4 [20, 10, 4, 4]
0	0x3d692805	0.05692293
1	0x3c6cec47	0.01446063
2	0x3c97c192	0.018524919
3	0x3c8277bc	0.015926234
4	0x3da747c8	0.08167988
5	0xbc277765	-0.010221337
6	0x3d2f9b0d	0.042872477
7	0x3dbf716e	0.09347807
8	0x3c35db38	0.011099629
9	0xbb42181e	-0.0029616426
10	0x3ce07df2	0.027403805
11	0x3d91abca	0.07112844
12	0x3dc3c6dd	0.095594145
13	0x3d50645e	0.050876968
14	0x3cd25012	0.025672946
15	0xbd8e3131	-0.06942976
16	0xbbfbd8b1	-0.0076857437
17	0x3d9563c1	0.07294417
18	0x3b500268	0.0031739715
19	0xbce68eba	-0.02814423
20	0xbd857fd9	-0.06518526
21	0x3d56774c	0.052359864
22	0x3cdb04da	0.026735712
23	0xbd450a07	-0.048105266
24	0x3d2dc8cd	0.042427827
25	0xbdc48ae9	-0.095968075
26	0xbd015185	-0.031571884
27	0xbd3bd32a	-0.04585568
28	0xbc80a4e0	-0.015703619
29	0x3b02738b	0.0019905295
30	0x3d4172e1	0.047228698
31	0xbc9d12d0	-0.01917401
32	0x3d3a07d9	0.04541764
33	0x3cc6d726	0.024272513
34	0x3da9ec21	0.08296991
35	0xbda6c8c1	-0.081437595
36	0xbd01c140	-0.03167844
37	0xbde66b77	-0.11250966
38	0xbdaf719d	-0.08566592
39	0xbe0dc099	-0.13843001
40	0xbdf1f5b2	-0.11814441
41	0xbd99aa20	-0.07503152
42	0x3c3f1e12	0.011664884
43	0x3ca39bd7	0.019971771
44	0xbd0bc0a5	-0.034119267
45	0xbe0418dd	-0.1290011
46	0xbd3554a3	-0.04427017
47	0x3c22af2d	0.0099294605
48	0x3da41856	0.08012454
49	0xbdbbb8b6	-0.0916609
50	0xbce7d9d0	-0.028302103
51	0x3ce9be07	0.028532995
52	0x3d902b24	0.070394784
53	0xbd17d0d7	-0.0370644
54	0x3d1c08d1	0.038094345
55	0x3d5b5097	0.053543653
56	0xbce33d5c	-0.02773922
57	0xbdec4292	-0.11536135
58	0x3dfd7b58	0.123770416
59	0x3d9fd046	0.07803397
60	0x3d79e0ab	0.061005276
61	0x3db891fe	0.09012221
62	0x3ca51c6a	0.02015515
63	0xbd425c0c	-0.047451064
64	0xbc03d9b9	-0.008047515
65	0x3e187160	0.14886999
66	0x3e3abb52	0.1823552
67	0x3dc5bcf9	0.09655184
68	0x3a72e1dc	0.0009265223
69	0xbd78d06b	-0.060745638
70	0xbdbedf1d	-0.09319899
71	0x3d568005	0.052368183
72	0xbdba6c6b	-0.0910271
73	0xbda8fb72	-0.082510844
74	0xbe0aa1eb	-0.1353833
75	0x3ddebcac	0.1087583
76	0xbc3ec95f	-0.01164469
77	0xbe194cc6	-0.14970693
78	0x3d4a3280	0.049364567
79	0x3df5b114	0.119966656
80	0xbd73b5d0	-0.05949956
81	0x3e34c056	0.17651495
82	0x3cf5e1bf	0.03001487
83	0x3d7e4c3d	0.062084425
84	0xbdafaa4e	-0.08577405
85	0x3cb79eca	0.022414584
86	0xbb6876fa	-0.0035471306
87	0xbd9cf532	-0.07663955
88	0x3b504ebe	0.0031785215
89	0x3d9bc508	0.0760594
90	0x3cbfaaaf	0.023396818
91	0xbdaedf99	-0.085387416
92	0xbb6d263a	-0.0036186115
93	0xbda348c1	-0.07972861
94	0x3dd3172b	0.10307153
95	0xbd8759c5	-0.06608919
96	0xbda925e6	-0.08259182
97	0xbcf4d2a4	-0.029885598
98	0x3d55514f	0.052079495
99	0x3cec92bd	0.028878564
100	0xbd8c13d9	-0.06839723
101	0x3d8bdade	0.06828855
102	0x3c8caa86	0.017171156
103	0xbcdc228a	-0.026871938
104	0x3d83419a	0.06408997
105	0x3d666fc6	0.05625894
106	0xbcb149c2	-0.021641616
107	0x3d0070c3	0.031357538
108	0x3dad2fc2	0.08456375
109	0x3be952b0	0.007120453
110	0xbd8743a3	-0.066046976
111	0xbcb1b4f1	-0.021692725
112	0xbd7453a5	-0.059650082
113	0xbd4834ea	-0.048878588
114	0x3c80265f	0.015643297
115	0xbd533381	-0.05156279
116	0xbdccdf65	-0.100035466
117	0xbe03744e	-0.12837335
118	0xbd9a25ba	-0.07526727
119	0xbd258197	-0.04040679
120	0x3dcab5c8	0.09897953
121	0x3c9859fa	0.018597592
122	0xbdc6251a	-0.09675045
123	0x3d4486e9	0.047980223
124	0x3dabe640	0.08393526
125	0xbbec9214	-0.0072195623
126	0xbd28bb51	-0.041194264
127	0x3d100f39	0.035170767
128	0xbd8f59ef	-0.06999575
129	0x3d142985	0.03617241
130	0xbdf088b0	-0.11744821
131	0x3c8269ba	0.015919555
132	0x3d874677	0.06605237
133	0xbc75bb19	-0.014998221
134	0xbd6ca65f	-0.05777585
135	0xbd9befcf	-0.07614099
136	0x3d6ae576	0.057347737
137	0x3e43a6d0	0.19106603
138	0x3dfa9590	0.12235558
139	0x3d8e3f5b	0.06945678
140	0x3dc6ddf4	0.09710303
141	0x3e3b3cab	0.18284862
142	0x3acd28ac	0.001565238
143	0x3d8062a8	0.06268817
144	0xbd0ce916	-0.034401976
145	0x3da75090	0.08169663
146	0xbd40ece2	-0.04710091
147	0xbd8ae761	-0.06782413
148	0xbd4a9c51	-0.04946548
149	0xbb667597	-0.0035165304
150	0x3dac5109	0.08413894
151	0x3d0b5ded	0.03402512
152	0xbc346c38	-0.0110121295
153	0x3db18c3f	0.08669328
154	0x3a25c3b9	0.00063234154
155	0x3d8d5212	0.06900419
156	0x3df5f0a3	0.120087884
157	0x3c8c4dfc	0.01712703
158	0x3d81106f	0.063019626
159	0x3cb51147	0.022102965
160	0x3d9cbd38	0.07653278
161	0xba3b53b6	-0.0007145958
162	0x3d633556	0.055470787
163	0x3caa9c7f	0.020826576
164	0x3d099f7f	0.033599373
165	0x3ca63173	0.020287251
166	0xbd2176c4	-0.039419904
167	0xbc0f2871	-0.008737669
168	0xbb264953	-0.0025373294
169	0x3d21ef39	0.03953478
170	0x3c85dfb3	0.01634202
171	0xbacfb9e2	-0.0015848244
172	0xbc968fce	-0.018379118
173	0xbda0a9f0	-0.07844913
174	0xbd76b469	-0.060230646
175	0x3d197d11	0.03747279
176	0x3d21ce62	0.039503463
177	0x3d957184	0.07297042
178	0x3d54bd9a	0.05193863
179	0x3d7f5f7e	0.062346928
180	0x3cb47fd0	0.022033602
181	0x3d09f90f	0.033684786
182	0x3d1b951d	0.037984002
183	0xbd2156b9	-0.039389346
184	0x3cd3b734	0.025844194
185	0xb8a40f70	-7.823005e-05
186	0xbce744dd	-0.028231079
187	0xbce8f286	-0.028435957
188	0x3d8d5092	0.06900133
189	0xbd235f68	-0.03988591
190	0xbd1ab66b	-0.037771624
191	0x3cdf314a	0.027245183
192	0x3d142574	0.03616853
193	0xbdaacaa6	-0.08339433
194	0x3b3ad93d	0.0028510832
195	0xbccb0933	-0.02478466
196	0x3d7348dd	0.05939566
197	0x3d1f8c3f	0.03895211
198	0xbd9693cc	-0.07352409
199	0x3d0db9c0	0.034600973
200	0x3abebbc9	0.0014551814
201	0xbd12c6d8	-0.035834163
202	0x3ca6fc4f	0.020383982
203	0xbd3f79cd	-0.046747018
204	0xbd044253	-0.032289814
205	0xbd8f4c56	-0.06996982
206	0xbd733bcb	-0.059383195
207	0xbd12fcfc	-0.035885796
208	0x3b72b9b9	0.003703697
209	0x3d14a659	0.036291454
210	0xbda54551	-0.08069862
211	0x3d3b2b52	0.04569561
212	0x3d527510	0.05138117
213	0x3e0275f2	0.12740305
214	0x3ce3ef2c	0.027824007
215	0xbc9678a1	-0.018368067
216	0x3d226442	0.039646395
217	0xbbe228e9	-0.0069018495
218	0x3d11cc76	0.03559538
219	0xbc03caca	-0.008043954
220	0xbd167f98	-0.036742777
221	0xbc89f123	-0.016838616
222	0xbc08f220	-0.008358508
223	0x3d733e9b	0.059385877
224	0xbdb63e85	-0.088986434
225	0xbd8aa93f	-0.067705624
226	0x3d948b9c	0.07253191
227	0xbdb05909	-0.08610732
228	0x3d96f9d0	0.07371867
229	0x3dc30b2b	0.095236145
230	0x3d4d61e7	0.050142195
231	0xbe2d5e40	-0.16930485
232	0xbca7d98f	-0.020489482
233	0x3d8f4e8e	0.06997405
234	0x3d3385af	0.043828662
235	0xbe0cfaa3	-0.13767485
236	0x3dafe18d	0.08587942
237	0x3c06b621	0.008222134
238	0x3d87fc33	0.066399
239	0x3d022d6a	0.03178159
240	0xbd919189	-0.07107837
241	0xbcb8a362	-0.022538844
242	0xbc4f3307	-0.012646443
243	0xbc603715	-0.013685008
244	0xbd80e6e6	-0.062940404
245	0x3d694bfc	0.05695723
246	0x3d49f90b	0.04930977
247	0x3b7bd687	0.0038427429
248	0xbb425945	-0.002965526
249	0x3d49d264	0.04927291
250	0xbd95b795	-0.07310406
251	0xbd99e997	-0.07515257
252	0xbcd680ae	-0.026184406
253	0xbd24057f	-0.040044304
254	0xbd8ea0d9	-0.06964273
255	0xbda82355	-0.08209864

main.4.weight f4 [20]
0	0x3f8f8e05	1.1215216
1	0x3f868a1a	1.0510895
2	0x3f892de1	1.0717126
3	0x3f87c8cc	1.0608153
4	0x3f899d5f	1.0751151
5	0x3f864835	1.0490786
6	0x3f902cc3	1.126366
7	0x3f8b72fd	1.0894467
8	0x3f85044b	1.0391935
9	0x3f881c9c	1.0633731
10	0x3f80949a	1.004535
11	0x3f89bae1	1.0760156
12	0x3f8163c1	1.0108567
13	0x3f8a79e3	1.0818447
14	0x3f819f4e	1.0126741
15	0x3f83f249	1.0308315
16	0x3f811007	1.0083016
17	0x3f83c565	1.0294615
18	0x3f87ecbb	1.061912
19	0x3f82c285	1.0215613

main.4.bias f4 [20]
0	0x3ce6da99	0.028180407
1	0x3c0c2716	0.008554241
2	0x3ccfe6f5	0.025378684
3	0x3d4696e5	0.048483748
4	0x3d4df2be	0.050280325
5	0x3ca17784	0.01971031
6	0x395f56aa	0.00021299222
7	0x3a3fa3c2	0.00073104736
8	0x3c97b046	0.01851667
9	0x3cc0d6cd	0.023539925
10	0xbc63b319	-0.013897681
11	0xbc9e3e64	-0.01931686
12	0x3cff4fb9	0.031165944
13	0x3c85ad3e	0.01631796
14	0x3cbbc694	0.022921838
15	0xbc95c72d	-0.018283451
16	0xbb9e48d1	-0.0048304577
17	0x3ccd85c9	0.025088208
18	0x3ccc93cb	0.024972817
19	0x3c781142	0.015140833

main.4.running_mean f4 [20]
0	0xc3991170	-306.13623
1	0x4415cb7e	599.17957
2	0xc519d6c4	-2461.4229
3	0xc4ac10b4	-1376.522
4	0xc4126f30	-585.7373
5	0x439b5752	310.6822
6	0xc3f50fbc	-490.12292
7	0x43c93e96	402.48895
8	0xc4802933	-1025.2875
9	0xc2b0ad05	-88.33793
10	0xc4b61cc2	-1456.8987
11	0x449e6002	1267.0002
12	0xc46f7be9	-957.9361
13	0xc480f7b7	-1031.7411
14	0xc3cbdbf8	-407.7185
15	0x44f6c652	1974.1975
16	0x453e4c43	3044.7664
17	0xc581f361	-4158.4224
18	0xc492a8e7	-1173.2782
19	0xc3bece03	-381.60947

main.4.running_var f4 [20]
0	0x49ae2a31	1.4267581e+06
1	0x4b404777	1.2601207e+07
2	0x4b690bbc	1.5272892e+07
3	0x4a84aa0b	4.3471415e+06
4	0x4a31e241	2.9144482e+06
5	0x4ab37320	5.880208e+06
6	0x49bad1fc	1.5304315e+06
7	0x4a388d75	3.0237092e+06
8	0x4a3b5044	3.068945e+06
9	0x4a0857f8	2.233854e+06
10	0x4b2a986b	1.1180139e+07
11	0x4ab6525b	5.9743175e+06
12	0x4aba5380	6.105536e+06
13	0x4ad470c1	6.9612485e+06
14	0x4a631a21	3.7208402e+06
15	0x4b6c6076	1.549119e+07
16	0x4c0e8bda	3.7367656e+07
17	0x4bd75b4e	2.8227228e+07
18	0x4a3b06b8	3.064238e+06
19	0x4a1df5dd	2.5880232e+06

main.6.weight f4 [40, 20, 4, 4]
0	0xbc235b98	-0.009970568
1	0x3b083bc9	0.0020787588
2	0xbc3b5584	-0.011433963
3	0xbbfebaf6	-0.0077737523
4	0x3cb2c61d	0.021822983
5	0xbc224dfd	-0.009906289
6	0x3a7f2bba	0.0009733994
7	0x3cc05deb	0.023482284
8	0xbcd85502	-0.026407722
9	0xbd1e9acc	-0.038721845
10	0xbbfcfb6f	-0.007720403
11	0x3cfc65bf	0.030810235
12	0x3d59e501	0.05319691
13	0x3cfdea39	0.030995475
14	0xbc864fb3	-0.016395425
15	0x3c9d23da	0.019182134
16	0x3d166991	0.03672177
17	0xba077d32	-0.0005168497
18	0x3d4bbf40	0.049742937
19	0xbc9d2c10	-0.01918605
20	0x3d4355e9	0.047689352
21	0xbcd9cdc8	-0.026587382
22	0xbd351349	-0.044207845
23	0x3b385a43	0.0028129972
24	0xbd6020a7	-0.05471864
25	0x3d30fac1	0.043207888
26	0x3ca9facd	0.020749474
27	0xbd07a84e	-0.033119492
28	0xbbb35416	-0.0054726703
29	0x3c1c100c	0.00952531
30	0xbd0a94da	-0.033833362
31	0xbd25890e	-0.04041391
32	0xbd5b3494	-0.05351694
33	0x3ccdefa2	0.02513868
34	0x3cb9b6c1	0.022670152
35	0xbd1e1aa4	-0.038599625
36	0xbd548085	-0.05188038
37	0x3b8978d3	0.0041953116
38	0x3d1511ee	0.036394052
39	0x3d0e50a9	0.034744892
40	0x3d2c5db9	0.04208157
41	0xbd5c0e0c	-0.053724334
42	0xbd6513ce	-0.05592709
43	0x3bdce3b7	0.006741013
44	0xbd27e5f3	-0.04099078
45	0x3b9ebd3a	0.004844335
46	0x3d421a59	0.04738841
47	0xbc718605	-0.014741425
48	0xbd1823d1	-0.037143532
49	0xbd2ab28c	-0.04167418
50	0x3c8670f9	0.016411291
51	0x3d0d99b0	0.034570396
52	0x3ca180a5	0.019714663
53	0xbce6db20	-0.028180659
54	0x3d8a34cb	0.06748351
55	0x3d3fa626	0.04678931
56	0x3c1e635b	0.009667243
57	0x3d80fd15	0.062982716
58	0xbbd7f790	-0.006590791
59	0x3d38ef88	0.04515031
60	0x3d55f642	0.052236803
61	0x3c89470c	0.01675751
62	0x3ca2f9cf	0.019894509
63	0x3d147356	0.036242805
64	0x3c45d58f	0.012074842
65	0x3cdeca74	0.027196147
66	0x3d3f9aa8	0.04677835
67	0x3c93fbcc	0.018064402
68	0x3b306db6	0.0026920862
69	0x3d924bc1	0.07143355
70	0x3be82b5f	0.0070852484
71	0x3d423aa6	0.047419213
72	0x3babcebe	0.0052431514
73	0x3d58cddd	0.0529307
74	0x3b4f23a5	0.003160694
75	0x3d4a6a8f	0.04941803
76	0xbd30fd8d	-0.043210555
77	0xbac4868e	-0.0014993714
78	0x3cfaa597	0.030596538
79	0x3ce707ec	0.02820202
80	0xbd3ca434	-0.046055034
81	0xbbf47011	-0.0074596484
82	0x3ce965a2	0.028490845
83	0x3d8035f0	0.06260288
84	0xbd40f958	-0.047112793
85	0xbc8ae21b	-0.016953519
86	0x3d21f273	0.03953786
87	0x3cf83bb1	0.0303019
88	0x3c85847e	0.016298529
89	0x3d36afa5	0.0446011
90	0x3d630832	0.055427738
91	0x3d4c9a93	0.0499521
92	0xbd12fb2a	-0.03588406
93	0xbd302cab	-0.04301135
94	0xbc1edd04	-0.009696249
95	0x3d114ec0	0.035475492
96	0xbd517592	-0.051137514
97	0x3c9fdaf1	0.01951358
98	0x3c37a234	0.011208106
99	0xbd87c816	-0.0662996
100	0xbc8572ee	-0.016290154
101	0xbd4175dd	-0.047231544
102	0xbc2b846f	-0.010468586
103	0x3c55c7ce	0.013048125
104	0x3cf616ed	0.030040229
105	0x3c7fff72	0.015624868
106	0x3b5dbc09	0.0033834002
107	0x3c212c4a	0.0098372195
108	0xbd479968	-0.048730284
109	0x3d35366a	0.044241346
110	0x3d23eb61	0.040019397
111	0xbd33dfc9	-0.04391459
112	0x3bfc94e2	0.007708178
113	0xbd94f377	-0.07273
114	0x3c4ebe7e	0.012618659
115	0x3c0f1d2e	0.008734984
116	0xbbf6cc5f	-0.007531687
117	0xbcc3a0d6	-0.023880403
118	0xbd538a9f	-0.05164587
119	0x3d0e9102	0.03480626
120	0xbd10d974	-0.03536363
121	0x3cacbe29	0.02108677
122	0x3c2a7dbb	0.010405953
123	0xbd0e0a92	-0.03467805
124	0xbd200bfd	-0.039073933
125	0xbd66a4b9	-0.056309436
126	0x3c948809	0.018131273
127	0x3c841020	0.01612097
128	0x3d1df9bc	0.038568243
129	0x3cdfb952	0.027310047
130	0xbc79d5ae	-0.015248699
131	0x3a06edb6	0.0005147116
132	0x3b66e14e	0.0035229507
133	0x3cebd73d	0.028789157
134	0x3cffaaff	0.031209467
135	0x3b229c21	0.0024812298
136	0x3d164cc6	0.03669431
137	0xbcb2fdd9	-0.02184956
138	0x3d15c481	0.036564354
139	0x3d734c62	0.059399016
140	0xbc87b40f	-0.01656535
141	0xbcf3afa3	-0.029746836
142	0xbd250a70	-0.040293157
143	0x3cc4fe16	0.024046939
144	0x3d0ba53f	0.034093138
145	0x3d05817c	0.03259419
146	0x3ccac0ad	0.024750078
147	0x3d4b4f12	0.049635954
148	0x3d384ec5	0.044996995
149	0x3d35a9ec	0.044351503
150	0x3b9f3b45	0.0048593604
151	0x3b86af3a	0.004110244
152	0x3ce5d995	0.028057853
153	0x3bee2955	0.0072681108
154	0x3d83e52f	0.06440198
155	0x3d2ebdc4	0.042661443
156	0x3d8f28ef	0.06990229
157	0x3d495686	0.04915478
158	0xbb6ecb33	-0.0036437034
159	0x3d33474e	0.043769173
160	0xbcc05b82	-0.023481134
161	0x3d266768	0.04062596
162	0xbd0b27a0	-0.033973336
163	0x3d2b03f8	0.04175183
164	0x3c64eb9e	0.013972191
165	0x3cc108ac	0.023563705
166	0x3d119cc3	0.03554989
167	0x3ad2083f	0.0016024186
168	0xbc8168b3	-0.015796995
169	0x3cf5aa96	0.029988568
170	0xbcdaa338	-0.026689157
171	0xbaaa0502	-0.0012971463
172	0xbce8afa5	-0.028404066
173	0x3cf85a9e	0.030316647
174	0x3c998e5d	0.018744642
175	0x3d3cdbb7	0.046107974
176	0x3d41ab81	0.0472827
177	0x3d1637ca	0.0366743
178	0x3c8ab020	0.016929686
179	0x3d2ae573	0.041722726
180	0x3d42f2c7	0.04759481
181	0xbc916727	-0.017749382
182	0xbb4860ba	-0.0030575232
183	0xbd618fc7	-0.055068757
184	0xbcc80b20	-0.024419367
185	0xbd1e3876	-0.038628064
186	0xbcbda2e3	-0.02314896
187	0xbc5e0fdc	-0.013553586
188	0x3ce8f93a	0.028439153
189	0xbd03cd7a	-0.03217838
190	0xbd5a0535	-0.053227622
191	0x3d06ff31	0.032958213
192	0xbce65719	-0.028117703
193	0xb9ef17cf	-0.0004560337
194	0xbd0ce35f	-0.034396525
195	0xbc9676a6	-0.018367123
196	0x3d370401	0.044681553
197	0x3d4e8854	0.05042298
198	0x3d56f483	0.05247928
199	0x3d5161c6	0.051118635
200	0x3d031739	0.03200457
201	0xbcdfd283	-0.02732206
202	0x3d5a67cb	0.05332164
203	0x3d0a1f63	0.03372134
204	0x3d71d9d0	0.059045613
205	0xbc95ef14	-0.018302478
206	0x3cbdcdaf	0.023169367
207	0x3d33f5f4	0.04393573
208	0x3c84a622	0.0161925
209	0x3d860ae5	0.06545047
210	0xbd031e6e	-0.032011442
211	0x3b18c1b9	0.0023308827
212	0x3d64b4ff	0.055836674
213	0xbb3d26ee	-0.0028862315
214	0x3cb8b81a	0.022548724
215	0x3ae4d593	0.001745867
216	0x3d23aadd	0.03995787
217	0xbd50b7db	-0.05095659
218	0xbcb3c334	-0.021943666
219	0xbd0556a8	-0.032553345
220	0xbc4860a6	-0.012230074
221	0x3d4b1dd3	0.04958899
222	0x3d6087e9	0.054817114
223	0xbc02ed16	-0.007991096
224	0x3b74502f	0.0037279238
225	0xbc0a536d	-0.008442742
226	0xbd026b9c	-0.031840906
227	0xbca073cb	-0.019586464
228	0xbd328541	-0.043584112
229	0x399b8a9b	0.00029667173
230	0x3d575945	0.05257537
231	0x3b6360a1	0.0034695046
232	0x3cc05b4f	0.02348104
233	0xbba38645	-0.0049903714
234	0xbd2cea1e	-0.04221546
235	0xbba94aa0	-0.0051663667
236	0x3c793d5c	0.015212383
237	0xbd4d3313	-0.050097536
238	0x3d2fb3c3	0.042896044
239	0xbd150fcc	-0.03639202
240	0xbccb05da	-0.024783064
241	0xbcfe8f2d	-0.03107413
242	0x3ad31ffe	0.0016107557
243	0xbd2233b4	-0.03960009
244	0xbcd1b1dd	-0.025597507
245	0x3c2588bc	0.010103401
246	0x3d0dbb58	0.034602493
247	0xbb218d33	-0.0024650812
248	0x3d07115e	0.032975547
249	0x3c1e894f	0.009676292
250	0xbbe376b8	-0.0069416426
251	0x3c0c7970	0.008573875
252	0x3cbbe149	0.022934573
253	0x3c87a517	0.016558213
254	0xbd6c4643	-0.057684194
255	0xbd13bcc1	-0.03606868

main.7.weight f4 [40]
0	0x3f8446a6	1.033406
1	0x3f83c7c6	1.0295341
2	0x3f863f6d	1.0488106
3	0x3f8500bd	1.039085
4	0x3f8f5937	1.1199101
5	0x3f87f5ec	1.0621924
6	0x3f89c394	1.0762811
7	0x3f86016b	1.0469183
8	0x3f836dbb	1.0267862
9	0x3f86b9fc	1.0525508
10	0x3f88862a	1.0665944
11	0x3f8f0007	1.1171883
12	0x3f845a00	1.0339966
13	0x3f8e177d	1.1100918
14	0x3f8721da	1.0557206
15	0x3f89cc10	1.07654
16	0x3f850b8f	1.0394152
17	0x3f8291c4	1.0200734
18	0x3f91ded8	1.1396132
19	0x3f87992c	1.0593619
20	0x3f8b5aba	1.0887063
21	0x3f84b2bd	1.0367047
22	0x3f849cab	1.0360311
23	0x3f838fcd	1.027826
24	0x3f835bca	1.0262387
25	0x3f87620d	1.0576798
26	0x3f870675	1.0548846
27	0x3f832872	1.0246718
28	0x3f85a2a1	1.0440255
29	0x3f82c5d9	1.0216628
30	0x3f8ac2be	1.0840681
31	0x3f828b82	1.0198824
32	0x3f875a81	1.0574495
33	0x3f849be5	1.0360075
34	0x3f8636f6	1.0485523
35	0x3f85b3a3	1.0445446
36	0x3f84f831	1.0388242
37	0x3f8833de	1.0640829
38	0x3f890ee7	1.0707673
39	0x3f8c2237	1.0947942

main.7.bias f4 [40]
0	0x3ae0cf1e	0.001715157
1	0x3c358d3d	0.011081037
2	0x3c207aa8	0.0097948685
3	0x3c147227	0.009060419
4	0x3c73ac2b	0.014872591
5	0x3cbc8c62	0.023016158
6	0x3c8b9001	0.01703644
7	0x3c42eb7f	0.011896967
8	0x3c3f0638	0.0116591975
9	0x3c7daa67	0.015482522
10	0x3bde1135	0.0067769536
11	0x3cef6a93	0.029225623
12	0x3c7b4681	0.015336634
13	0x3caa9c1d	0.020826394
14	0x3c920dd9	0.017828869
15	0x3c56f4c6	0.013119882
16	0x3c18d7b5	0.009328772
17	0x3c899d9a	0.016798783
18	0x3cb5973f	0.022166846
19	0x3c60943e	0.013707219
20	0x3caae7f0	0.02086255
21	0x3c277d63	0.010222766
22	0x3bc7306a	0.0060787695
23	0x3bd675f0	0.006544821
24	0x3bbd4354	0.0057758484
25	0x3c3777ae	0.011197967
26	0x3c7edb60	0.015555233
27	0x3b1c9e80	0.0023898184
28	0x3c21fcb4	0.009886909
29	0x3c16a206	0.009193903
30	0x3c47c71e	0.012193469
31	0x3b5b5585	0.0033467722
32	0x3c302e36	0.010753205
33	0x3c3bb03f	0.011455595
34	0x3c3989d6	0.011324367
35	0x3c7f7b4e	0.015593363
36	0x3c05adc3	0.008159104
37	0x3c4deea9	0.012569108
38	0x3cc8da35	0.024518112
39	0x3c14278f	0.009042635

main.7.running_mean f4 [40]
0	0x3eea38f0	0.45746565
1	0xbd83a6d0	-0.06428301
2	0x3ce837ca	0.028346915
3	0x3d09e1e9	0.03366271
4	0x3c184e23	0.009295973
5	0x3e3837df	0.17990063
6	0x3d026701	0.031836513
7	0x3e25e386	0.16200075
8	0x3dde85f2	0.10865392
9	0x3d5556e6	0.052084826
10	0x3d38fad2	0.045161076
11	0x3de8eda2	0.1137345
12	0x3e0a4d66	0.13506088
13	0xbe44cfae	-0.19219849
14	0xbcb96240	-0.022629857
15	0x3dba1032	0.0908512
16	0xbd4d536f	-0.050128397
17	0xbe3960ec	-0.18103379
18	0xbd25b160	-0.04045236
19	0xbd677312	-0.056506224
20	0x3ccd3a2a	0.025052149
21	0xbe159303	-0.14606862
22	0x3e19b502	0.15010455
23	0xbddf5efa	-0.10906787
24	0x3dc91af2	0.098195925
25	0x3e53e35e	0.20692202
26	0x3e152be5	0.14567526
27	0x3e1e39b7	0.15451704
28	0xbcb2b808	-0.021816269
29	0xbcf77917	-0.030209107
30	0x3d955644	0.072918445
31	0x3dcbdebf	0.09954595
32	0x3db7d123	0.089754365
33	0x3e2b54de	0.16731593
34	0xbdb583a4	-0.08862999
35	0x3d886c40	0.06661272
36	0x3e780f7d	0.24224658
37	0xbdbcd267	-0.092198186
38	0x3e0631e0	0.13104963
39	0x3d7df8d6	0.062004887

main.7.running_var f4 [40]
0	0x3e1a622d	0.15076514
1	0x3dd10858	0.102066696
2	0x3da3c86a	0.0799721
3	0x3da67694	0.08128086
4	0x3d037f19	0.03210363
5	0x3ca88662	0.020571891
6	0x3ceb1ffc	0.028701775
7	0x3d50c580	0.0509696
8	0x3dd17a09	0.102283545
9	0x3d3ff9b7	0.046869006
10	0x3d2ce352	0.042208977
11	0x3d12bbbe	0.035823576
12	0x3ded3f99	0.11584396
13	0x3c5db4ba	0.013531858
14	0x3d5a5ff7	0.053314175
15	0x3cddc08b	0.02706935
16	0x3d867d26	0.06566839
17	0x3e000de3	0.12505297
18	0x3c92cd15	0.017920056
19	0x3cdd4247	0.027009143
20	0x3c8d9f79	0.017287957
21	0x3d203c24	0.039119855
22	0x3cf3070b	0.029666444
23	0x3d8040a8	0.06262332
24	0x3d310e9e	0.04322683
25	0x3d1b967e	0.037985317
26	0x3d0e60fa	0.034760453
27	0x3dfe52f5	0.124181665
28	0x3d80634f	0.062689416
29	0x3dab295c	0.08357498
30	0x3d0609a5	0.03272404
31	0x3db4b926	0.08824377
32	0x3d67d1c9	0.05659655
33	0x3d757938	0.059930056
34	0x3d0e655e	0.03476464
35	0x3d861e24	0.065487176
36	0x3da5c73b	0.08094641
37	0x3d176362	0.036960013
38	0x3c91e31d	0.017808491
39	0x3cc01821	0.023449006

main.10.weight f4 [180, 360]
0	0xbaa18d2c	-0.0012325398
1	0x3d264c29	0.040599976
2	0xbcdfef1a	-0.027335692
3	0x3d00b28f	0.031420287
4	0x3ba2751f	0.0049578096
5	0x3ce38cb1	0.027777048
6	0x3c5339b7	0.012892178
7	0x3d49ba34	0.049249843
8	0x3d054677	0.032537904
9	0x3cd2bb8e	0.025724199
10	0x3b9b0815	0.004731188
11	0x3c87bae2	0.016568605
12	0x3d0e00d2	0.03466875
13	0x3d07810f	0.033082064
14	0xbd2ef0bc	-0.04271005
15	0x3c2a08d3	0.01037808
16	0xbd2f9efc	-0.04287623
17	0xbd314a53	-0.04328377
18	0x3d1e7f4c	0.03869562
19	0xbcd17633	-0.025569057
20	0x3d300f6e	0.042983465
21	0xbcce478d	-0.025180602
22	0x3cc83ebf	0.024443982
23	0x3d41a673	0.04727788
24	0xbcf76546	-0.030199658
25	0x3bedfddc	0.0072629284
26	0xbbb8adca	-0.0056359516
27	0xbcea8891	-0.028629573
28	0xbcd4f360	-0.025994956
29	0xbbb5dac9	-0.005549763
30	0xbc461ee8	-0.01209233
31	0xbccc04fa	-0.024904717
32	0x3d081100	0.033219337
33	0x3d1c829a	0.03821049
34	0x3d4b79b4	0.049676612
35	0xbc98a087	-0.018631233
36	0x3d096636	0.03354474
37	0x3d8315c1	0.064006336
38	0xbb84420e	-0.0040361946
39	0xbc82dccf	-0.01597443
40	0xbc861ebd	-0.016372079
41	0x3b541d76	0.0032366193
42	0xbc8b7d8c	-0.017027639
43	0x3cbc7138	0.023003206
44	0xbceb6c18	-0.028738067
45	0xbbb6fb1b	-0.0055841333
46	0xbc29fe15	-0.010375519
47	0xbd0165a8	-0.031591088
48	0x3aa264a8	0.0012389617
49	0xbcac2bab	-0.021016916
50	0xbc09dc1a	-0.008414293
51	0x3d553c62	0.05205954
52	0x3ca2d080	0.019874811
53	0xbcd48f42	-0.025947217
54	0x3d21ce8c	0.03950362
55	0xbb029b52	-0.0019929004
56	0x3d168295	0.036745626
57	0x3d46a466	0.048496626
58	0x3d295652	0.041342087
59	0xbc2fb6d4	-0.010724742
60	0xbd322001	-0.043487553
61	0x3d12b482	0.035816677
62	0xbc01807d	-0.007904169
63	0x3d971859	0.07377691
64	0xbd226a38	-0.03965208
65	0xbd1dda3d	-0.038538206
66	0xbd20fe57	-0.039305057
67	0x3cad3a23	0.021145886
68	0x3d0bef8d	0.034164
69	0xbd527938	-0.051385134
70	0x3d5744b7	0.052555766
71	0xbd55ae8f	-0.052168425
72	0x3d52170a	0.051291503
73	0xbd309061	-0.04310644
74	0xbcd4edfc	-0.025992386
75	0x3d305bac	0.043056175
76	0xbc431c56	-0.011908611
77	0xbd1206c7	-0.035650995
78	0x3d2ed482	0.042683132
79	0xbd366c0a	-0.044536628
80	0x3c9d74a8	0.019220665
81	0x3b969e4c	0.004596507
82	0x3d410238	0.047121257
83	0xbcd3bbf1	-0.025846453
84	0x3cc95aa7	0.02457936
85	0xbca8f246	-0.020623337
86	0xbd357561	-0.044301394
87	0xbc55ee8f	-0.013057365
88	0x3d4af677	0.049551453
89	0x3cf14cb6	0.029455524
90	0x3d8737a4	0.066024095
91	0x3d2e1854	0.04250367
92	0x3c9fdb74	0.019513823
93	0xbd49630a	-0.049166717
94	0xbd1770b6	-0.036972724
95	0x3c47ab70	0.01218687
96	0x3d0603f2	0.032718606
97	0xbd15c045	-0.036560316
98	0xbd680aaf	-0.056650814
99	0x3d3fadb6	0.046796523
100	0x3d54cb3a	0.051951624
101	0x3d4203a8	0.047366768
102	0x3cfa4e49	0.030554907
103	0xbca802b0	-0.020509094
104	0xbd11550f	-0.03548151
105	0x3cda3dd4	0.02664081
106	0xbd2b98c7	-0.041893747
107	0xbc897d35	-0.016783336
108	0x3d41258c	0.047154948
109	0x3c47cead	0.012195271
110	0xbca6ecc8	-0.020376578
111	0xbd4a9e8e	-0.049467616
112	0x3cf38bc6	0.029729735
113	0xbd025147	-0.031815793
114	0x3caf47b2	0.021396492
115	0xbd13379e	-0.035941713
116	0xbd629716	-0.055319868
117	0x3d32dcfd	0.043667782
118	0xbb9f5055	-0.0048618712
119	0x3cb74fb7	0.022376878
120	0xbd1d8d17	-0.038464632
121	0xbbc829aa	-0.0061084824
122	0xbca84f06	-0.020545494
123	0x3c024758	0.00795158
124	0xbd72ac0c	-0.059246108
125	0xbcd692e3	-0.026193088
126	0xbd2a0c48	-0.04151562
127	0xbb16514a	-0.0022936636
128	0xbc8c9df5	-0.017165164
129	0x3c0c3fe3	0.008560154
130	0x3c95e644	0.018298276
131	0x3cd378a4	0.025814362
132	0x3bd48baa	0.006486376
133	0xbd7197ef	-0.058982786
134	0xbd093fb1	-0.033508006
135	0xbc59f81f	-0.013303786
136	0x3d1b254d	0.03787737
137	0x3b9e1221	0.0048239385
138	0x3d682a3a	0.056680895
139	0x3ca44883	0.020054108
140	0xbc242910	-0.010019556
141	0x3d41a54b	0.047276776
142	0xbcdb9bab	-0.026807627
143	0xbc8eb6ab	-0.017421087
144	0x3d1f5efd	0.038908947
145	0x3c30f4e8	0.010800578
146	0x3d38876e	0.04505103
147	0x3c397a8f	0.011320724
148	0x3cdff36b	0.02733775
149	0x39d70a4d	0.0004101567
150	0x3cdf1b72	0.027234767
151	0x3d42388f	0.04741722
152	0x3a150352	0.00056843937
153	0x3b3192e4	0.002709561
154	0x3d06ab34	0.032878116
155	0x3beabb2a	0.007163425
156	0x3b204f3f	0.0024461297
157	0x3d182c6a	0.03715173
158	0xbbcc3a36	-0.006232525
159	0xbcef8a33	-0.029240703
160	0x3d2be618	0.04196748
161	0x3c0ba232	0.008522557
162	0x3d2519c0	0.04030776
163	0x3d289f55	0.041167576
164	0xbc07bcee	-0.00828479
165	0x3d2a4a76	0.041574918
166	0xbc9cdd1e	-0.019148406
167	0xbd0000aa	-0.031250633
168	0x3d517f47	0.05114677
169	0x3c81d568	0.01584883
170	0x3da20d80	0.07912731
171	0x3d586a45	0.05283572
172	0xbccc276b	-0.02492114
173	0x3ca42378	0.020036444
174	0xbba2c107	-0.0049668583
175	0x3da81b74	0.08208361
176	0x3d0c0944	0.034188524
177	0x3ce594d2	0.028025065
178	0xbd1cc3f3	-0.03827281
179	0x3d340ee4	0.043959513
180	0xbbf6578b	-0.00751776
181	0x3d85a82e	0.06526218
182	0x3b2fc283	0.002681882
183	0xbd3f0580	-0.046636105
184	0x3a401302	0.0007327051
185	0xbcd33430	-0.02578172
186	0x3bb334eb	0.005468955
187	0xbd3be4a2	-0.045872338
188	0xbbe0afc9	-0.0068568927
189	0xbba5218f	-0.005039401
190	0xbd2c5491	-0.042072836
191	0xbb29621a	-0.0025845827
192	0x3ce7e4e1	0.02830738
193	0x3d45cb77	0.048289742
194	0x3d320861	0.043465022
195	0xbd217994	-0.039422587
196	0x3cd6af54	0.02620665
197	0x3d56e6b2	0.052466102
198	0x3c47ed6f	0.012202605
199	0x3c216231	0.009850071
200	0x3b9e5e25	0.0048330002
201	0x3ca9ce99	0.020728396
202	0xbcc27458	-0.023737118
203	0xbcbfbd43	-0.023405677
204	0x3d074786	0.033027194
205	0xbd420c81	-0.047375206
206	0x3bbafa64	0.0057061184
207	0xbd1e5aa3	-0.038660657
208	0x3cbbe1a7	0.022934748
209	0x3c9ae27e	0.018906828
210	0x3d4a26fa	0.049353577
211	0xbd084d39	-0.03327677
212	0x3ce1b904	0.027554043
213	0x3ca06155	0.019577662
214	0xbc4a3796	-0.012342354
215	0xbb376dd4	-0.0027989047
216	0x3b574856	0.0032849512
217	0x3d492c2c	0.04911439
218	0xbb8a877f	-0.004227578
219	0x3c300644	0.010743681
220	0x3d20e4e4	0.039280787
221	0xbd2b5d90	-0.041837275
222	0xbba713c2	-0.005098791
223	0x3cf323c7	0.029680146
224	0x3cbacbe6	0.022802304
225	0x3a39c7a7	0.00070869405
226	0xbbd8497b	-0.0066005564
227	0xbc6de285	-0.0145193385
228	0xbcadd772	-0.021220896
229	0x396179e6	0.00021503083
230	0x3c4fb898	0.012678288
231	0x3da05c01	0.07830048
232	0x3d0ff0ea	0.035141863
233	0x3caa8e24	0.020819731
234	0x3cad3daf	0.021147577
235	0x3b8b0b61	0.0042433
236	0xbcc6b535	-0.024256328
237	0xbc177f87	-0.0092467135
238	0x3cbc34b7	0.022974355
239	0x3d051acf	0.03249627
240	0x3c9eb86e	0.019375052
241	0x3d10c9ca	0.03534869
242	0x3b42b545	0.0029710096
243	0x3cd4b72e	0.025966253
244	0xbc9f3a3e	-0.019436952
245	0xbd430dc9	-0.04762057
246	0x3d8b901b	0.06814595
247	0xbc3f67f0	-0.0116824955
248	0xbc235195	-0.009968181
249	0xbd2768dd	-0.04087149
250	0x3d1f8976	0.038949452
251	0x3d44082d	0.04785936
252	0x3b42edfa	0.0029743896
253	0xbc75c98f	-0.015001669
254	0x3d456091	0.048187796
255	0xbd204633	-0.039129447

main.12.weight f4 [90, 180]
0	0xbd4ae4cf	-0.049534615
1	0x3d3c847c	0.046024784
2	0xbd89d493	-0.067299984
3	0xbd9a456f	-0.07532775
4	0x3bc8f6fe	0.0061329594
5	0x3dd24226	0.10266523
6	0xbdd0b5c6	-0.101909205
7	0xbce82dc3	-0.028342133
8	0x3d01320b	0.031541865
9	0x3d86a692	0.065747395
10	0xbd1c37ae	-0.038139038
11	0xbd05b002	-0.032638557
12	0xbdb378eb	-0.08763298
13	0x3c4991e4	0.012302849
14	0x3cbdf74d	0.023189211
15	0x3da7262b	0.08161577
16	0xbdc2ade5	-0.09505824
17	0xbd844b6d	-0.06459699
18	0x3d230670	0.03980106
19	0xbd2183e1	-0.03943241
20	0x3d1045d3	0.03522284
21	0x3b267366	0.0025398373
22	0x3da110f7	0.07864564
23	0xbca0ec5c	-0.019643955
24	0xbd124bd0	-0.03571683
25	0x3c552aa0	0.013010651
26	0xbd9007bf	-0.070327275
27	0x3de9f832	0.114242926
28	0xbcb1850f	-0.021669893
29	0xbd96e33f	-0.073675625
30	0xbd589a0d	-0.05288129
31	0x3dc1cf0a	0.09463318
32	0xba72be55	-0.0009259929
33	0x3da5d60f	0.08097469
34	0x3dc6dc07	0.09709936
35	0x3c833db3	0.016020631
36	0x3bf44d1d	0.0074554817
37	0xbd00539c	-0.031329736
38	0x3d530ec8	0.05152777
39	0x3dbe8bc6	0.093040034
40	0x3d336fc6	0.043807767
41	0x3cf64c07	0.03006555
42	0xbd0e7adb	-0.034785133
43	0xbcfbf1a1	-0.030754866
44	0x3c97f282	0.018548254
45	0x3db35df5	0.08758155
46	0x3be9badf	0.0071328725
47	0x3c3f6013	0.011680621
48	0x3dad5779	0.0846395
49	0x3d9826ae	0.074292526
50	0x3d933253	0.07187333
51	0x3d6b7123	0.057480942
52	0x3d9a5dfe	0.07537459
53	0x3cad96fd	0.02119016
54	0x3c5ba491	0.013405935
55	0x3c5c2827	0.013437307
56	0x3cfcde5e	0.030867752
57	0xbd9401fd	-0.07226942
58	0x3d35e553	0.044408154
59	0x3d9cc0ac	0.07653937
60	0x3d814e35	0.06313745
61	0x3d91650d	0.07099352
62	0xbcb3de2b	-0.021956524
63	0x3cf0d6fb	0.029399386
64	0xbb820141	-0.0039674346
65	0x3d26defe	0.040740006
66	0xbd4589f1	-0.048227254
67	0x3d600143	0.054688703
68	0xbd300e5c	-0.042982444
69	0xbd10019c	-0.035157785
70	0xbc850930	-0.016239733
71	0xbc839cf2	-0.016066048
72	0xbb843db8	-0.0040356778
73	0xbd4a8c3b	-0.04945014
74	0x3dce4d37	0.10073321
75	0xbcd80176	-0.026367884
76	0x3d75e7dc	0.06003557
77	0xbd06cded	-0.03291123
78	0xba21580b	-0.0006154782
79	0xbd9d1d01	-0.07671548
80	0x39b4f5b6	0.00034515344
81	0xbda43aa1	-0.08018995
82	0xbc167e0e	-0.009185327
83	0xbd0f2460	-0.0349468
84	0xbd0b047e	-0.03393983
85	0x3c59300a	0.013256082
86	0xbcbd38f3	-0.023098445
87	0xbcd1ef97	-0.02562694
88	0xbcc0279c	-0.023456387
89	0xbce96826	-0.028492045
90	0xbbc4ccdf	-0.006005868
91	0x3d245511	0.04012019
92	0xbcb82e59	-0.022483038
93	0xbd035d52	-0.03207142
94	0xbdb0c60f	-0.08631527
95	0x3bf22031	0.0073890914
96	0xbcdccba6	-0.026952576
97	0x3d1a331a	0.03764639
98	0xbcace71a	-0.021106292
99	0xbd0c4406	-0.03424456
100	0x3d772493	0.060337614
101	0x3d41c2d6	0.04730495
102	0xbdb01466	-0.08597641
103	0x3d529f40	0.051421404
104	0xbbb484fe	-0.005509018
105	0xbb08194c	-0.0020767031
106	0x3de35b3b	0.11101385
107	0x3d715dbb	0.05892728
108	0x3d1a14f8	0.037617654
109	0x3d6382ec	0.05554478
110	0x3d100afc	0.035166726
111	0x3a52c3fe	0.00080400694
112	0xbd7d8b32	-0.061900325
113	0xbda07ed8	-0.078366935
114	0xbd0e04f0	-0.034672678
115	0x3d9dc13f	0.077028744
116	0xbd34831d	-0.044070352
117	0xbbebd6d8	-0.007197242
118	0xbd8971d2	-0.067111626
119	0x3d309aa6	0.043116234
120	0xbd962bfe	-0.073326096
121	0xbd1aa10f	-0.037751254
122	0x3ccf69fb	0.02531909
123	0x3baa7806	0.005202296
124	0xbd3da129	-0.046296272
125	0x3cac2a9e	0.021016415
126	0x3d4e840b	0.050418895
127	0x3ce7c1d3	0.028290665
128	0xbd873281	-0.0660143
129	0xbd5d2bc4	-0.053996816
130	0x3b50ccbc	0.0031860312
131	0xbd5a71b9	-0.05333111
132	0xbd85f716	-0.065412685
133	0xbd51eed2	-0.051253147
134	0x3d017cde	0.031613223
135	0x3c4530da	0.012035573
136	0x3d6d8780	0.05799055
137	0xbccc59e4	-0.024945207
138	0x3d9676b1	0.07346857
139	0xbdbdb2f1	-0.09262646
140	0xbd01722c	-0.031603023
141	0x3d9c1a1e	0.07622169
142	0xbdc6fad3	-0.0971581
143	0xbd1eadea	-0.038740076
144	0x3d428959	0.047494266
145	0x3c70a5cc	0.014687967
146	0xbd77def8	-0.060515374
147	0x3d73dffd	0.059539784
148	0x3c5ad05e	0.013355343
149	0x3def8ff3	0.11697378
150	0xbd3a43ac	-0.045474693
151	0x3d1521bf	0.036409136
152	0x3dbc446b	0.09192737
153	0xbda31969	-0.07963831
154	0x3cac4a5c	0.021031551
155	0x3c3ee65b	0.011651601
156	0x3d4a4dc5	0.049390573
157	0x3d270ee4	0.040785685
158	0x3cd9b02f	0.026573269
159	0xbd8b2815	-0.067947544
160	0xbca5fe0d	-0.020262742
161	0x3d0a0163	0.03369273
162	0x3da1b439	0.07895703
163	0x3d8e2609	0.069408484
164	0xbccf8e5d	-0.025336439
165	0xbd1cd9ec	-0.038293764
166	0x3d445143	0.04792906
167	0x3d09efdf	0.033676025
168	0x3c8f93b2	0.017526481
169	0xbda1cbdc	-0.07900211
170	0xbd5c1d54	-0.053738907
171	0x3db9bb5f	0.09068941
172	0x3d86c6d3	0.065808915
173	0xb7c21b4c	-2.3139313e-05
174	0x3d5063ff	0.050876614
175	0x3c93d564	0.018046089
176	0xbd44b751	-0.048026387
177	0x3b3d9430	0.0028927438
178	0x3d50d6e7	0.050986197
179	0xbd787fee	-0.06066888
180	0x3dc16da2	0.09444739
181	0xbd323b66	-0.043513678
182	0xbd5e09e1	-0.05420864
183	0xbcba54b0	-0.02274546
184	0x3d4e2c1d	0.05033504
185	0xbc828b33	-0.015935516
186	0x3d9fbb6d	0.077994205
187	0xbd583387	-0.052783515
188	0x3dea7eb0	0.11449945
189	0xbd370040	-0.044677973
190	0x3c3885d5	0.011262377
191	0xbd45347d	-0.04814576
192	0xbcb28d8d	-0.021796012
193	0x3d6545a1	0.055974606
194	0xbd9f500b	-0.07778939
195	0x3d2b2678	0.041784734
196	0x3d912955	0.070879616
197	0x3cce3ac8	0.025174513
198	0xba639624	-0.00086817355
199	0xbd89cecb	-0.06728896
200	0xbd93fab8	-0.07225555
201	0x3d2f5042	0.04280115
202	0x3ddaec3d	0.1068959
203	0xbcbf6478	-0.023363337
204	0x3dc9b2a8	0.09848529
205	0xbd18b41a	-0.037281133
206	0xbd818ce8	-0.06325704
207	0xbcc9b64c	-0.024623059
208	0x3d34af36	0.044112407
209	0x3df55206	0.11978535
210	0x3d24d5fd	0.040243138
211	0xbd0271a5	-0.03184666
212	0xbd4d88ae	-0.050179176
213	0x3c859a86	0.016309034
214	0xbd177142	-0.036973245
215	0xbd89b2bf	-0.06723546
216	0x3d9fc102	0.07800485
217	0xbce0daf7	-0.02744816
218	0x3c50354c	0.012708019
219	0x3bd7fdff	0.006591558
220	0x3c738dff	0.0148653975
221	0x3d49b910	0.049248755
222	0xbd6589fc	-0.056039795
223	0xbd7c2add	-0.061564315
224	0x3c533f10	0.012893453
225	0xbd7ac2a2	-0.061220773
226	0x3d2f625a	0.042818405
227	0xbbd46070	-0.006481223
228	0x3dbd2304	0.09235194
229	0x3d8fb105	0.07016186
230	0xbbb5f2b2	-0.005552613
231	0x3d5dc1f7	0.054140057
232	0xbd8c8205	-0.06860737
233	0x3c79bfb9	0.015243464
234	0x3c0bf248	0.008541651
235	0xbd20b84d	-0.039238263
236	0x3d6ecb3a	0.05829928
237	0x39aa19dc	0.00032444193
238	0xbc67115a	-0.014103258
239	0xbda026aa	-0.078198746
240	0x3d9d1763	0.07670476
241	0xbc78a30a	-0.01517559
242	0x3dd48ff3	0.10379019
243	0xbca6f629	-0.02038105
244	0x3da8e874	0.08247462
245	0x3d6e6f75	0.058211762
246	0xbda0d99f	-0.07854008
247	0xbd67f1a6	-0.05662694
248	0xbcd30292	-0.025758062
249	0xbc909749	-0.017650263
250	0x3c883bda	0.016630102
251	0x3ca4f814	0.020137824
252	0x3d698fdf	0.05702197
253	0xbc9512fd	-0.01819753
254	0xbb93b28c	-0.0045073684
255	0x3d80f15f	0.06296038

main.14.weight f4 [45, 90]
0	0xbcae4d14	-0.021276988
1	0xbd45c58d	-0.048284102
2	0x3db99bd0	0.09062922
3	0xbc8f730f	-0.017510919
4	0x3cc5d469	0.024149137
5	0x3db08513	0.08619132
6	0x3daa2dba	0.08309503
7	0x3d4b3cbf	0.04961848
8	0xbdcb0e58	-0.09914845
9	0xbdca1c8f	-0.09868728
10	0xbda97795	-0.082747616
11	0x3ccb20b9	0.024795877
12	0xbdbd09c1	-0.09230376
13	0x3df9a67b	0.12189957
14	0x3d9ab6fc	0.07554433
15	0xbd7fa581	-0.062413696
16	0xbd7dbc40	-0.061947107
17	0x3d6c79ea	0.057733454
18	0xbcf3d51c	-0.029764704
19	0x3d95a1dd	0.073062636
20	0x3dc7e01c	0.09759542
21	0x3da9da06	0.08293538
22	0x3db9903b	0.09060713
23	0x3cd1f1a3	0.025627917
24	0x3da346bc	0.07972476
25	0x3d20b0a7	0.03923097
26	0x3b957596	0.0045611365
27	0x3d8aa7a4	0.06770256
28	0x3d7c4130	0.061585605
29	0xbc0debfd	-0.008662221
30	0x3bf384f2	0.00743162
31	0xbd6f9086	-0.058487438
32	0xbdead576	-0.11466496
33	0x3c8bfd49	0.01708855
34	0x3da2d7cf	0.079513185
35	0x3d96ff3a	0.07372899
36	0xbd446e72	-0.04795689
37	0xbb72424f	-0.0036965793
38	0xbb13b635	-0.0022539024
39	0xbc5b1b69	-0.013373234
40	0x3d5297d1	0.051414315
41	0xbcc010ea	-0.023445565
42	0xbdba846c	-0.09107289
43	0xbdb93096	-0.0904247
44	0xbd1e59a1	-0.038659696
45	0x3d202a6d	0.03910296
46	0xbca1e298	-0.019761369
47	0x3d840887	0.06446939
48	0x3dc97ce2	0.09838273
49	0x3c068429	0.00821022
50	0xbc855054	-0.016273655
51	0xbdb9001d	-0.09033225
52	0xbdd9c4ec	-0.10633263
53	0x3d2e6545	0.042577047
54	0xbd88d62b	-0.06681474
55	0x3d8d09d7	0.068866424
56	0xbd9c5508	-0.07633406
57	0xbdc865fc	-0.09785077
58	0x3e0b4851	0.13601805
59	0xbd2c0c7b	-0.04200409
60	0xbd648bcd	-0.055797387
61	0xbdce4028	-0.100708306
62	0x3d8b444f	0.06800138
63	0xbc8422dd	-0.016129905
64	0x3d8350c9	0.06411893
65	0x3c61c3e9	0.013779619
66	0x3deb50cb	0.114900194
67	0x3e012463	0.12611537
68	0xbd940424	-0.07227352
69	0xbdc05fcd	-0.093932725
70	0x3c1de983	0.009638193
71	0xbd7e011a	-0.06201277
72	0x3d41f92c	0.04735677
73	0x3d9aea3a	0.075642064
74	0xbd917494	-0.07102314
75	0xbd2d9997	-0.042382803
76	0xbd1257e2	-0.035728343
77	0xbcbd1d7a	-0.023085345
78	0x3dafefbe	0.08590649
79	0x3ce55b12	0.027997527
80	0x3d841e15	0.0645105
81	0xbd2c385b	-0.042045932
82	0x3da0ce0b	0.078517996
83	0xbd81938b	-0.0632697
84	0xbd1a098b	-0.037606757
85	0x3da0258a	0.0781966
86	0x3c84897d	0.01617884
87	0x3d8ee19f	0.069766276
88	0xbc77a204	-0.015114311
89	0xbb221b95	-0.0024735678
90	0xbd4013be	-0.046893828
91	0x3e391e9f	0.18078087
92	0xbd811ac4	-0.06303933
93	0xbd591129	-0.05299488
94	0x3d14a346	0.036288522
95	0x3db7b6fe	0.0897045
96	0x3ba16896	0.0049257977
97	0x3c6944c1	0.014237584
98	0x3d5a189e	0.053246133
99	0xbdc4b3dc	-0.09604618
100	0xbd7e2343	-0.062045347
101	0x3dd4da03	0.10393145
102	0xbd2913de	-0.041278712
103	0x3d8592a3	0.06522109
104	0x3ac82297	0.0015269098
105	0x3d0b79c7	0.034051683
106	0xbcfe7b4f	-0.031064657
107	0x3d80a9f1	0.06282414
108	0x3d391706	0.045187972
109	0xbdc5819a	-0.0964386
110	0xbcc3012f	-0.023804275
111	0x3e55bfa9	0.20873894
112	0x3da46b39	0.080282636
113	0x3dd41134	0.10354844
114	0xbd9a3d4e	-0.07531224
115	0x3da1388b	0.07872113
116	0xbde6690a	-0.11250503
117	0x3d507c39	0.050899718
118	0xbd9de2ab	-0.07709249
119	0xbdcbdb2c	-0.09953913
120	0xbb7968b4	-0.0038056793
121	0xbccd5fbf	-0.02507007
122	0xbe19f800	-0.1503601
123	0xbe2a48fb	-0.16629402
124	0xbdca111e	-0.09866546
125	0x3daca20b	0.08429345
126	0xbd1441aa	-0.036195435
127	0x3d8f668e	0.07001983
128	0xbdfd7416	-0.12375657
129	0xbd5b7270	-0.053575933
130	0x3be0d363	0.0068611368
131	0x3d1c5c23	0.038173806
132	0xbb8fc00b	-0.004386907
133	0x3d069750	0.032859147
134	0xbd74992d	-0.059716392
135	0xbcd2b264	-0.025719829
136	0x3d0be293	0.034151625
137	0xbe0a80cb	-0.13525693
138	0x3da45e40	0.08025789
139	0xbbfdff9d	-0.0077514187
140	0xbdea369f	-0.114361994
141	0x3c75be26	0.014998948
142	0xbd1b69aa	-0.037942566
143	0x3d6f9ef5	0.058501203
144	0x3d93ce2f	0.07217061
145	0x3d8de37b	0.06928154
146	0x3d7bc21e	0.06146442
147	0xbd819708	-0.06327635
148	0x3d9f0c39	0.07766003
149	0xbd23d5ab	-0.03999869
150	0x3e2a6b9f	0.16642617
151	0x3c82be8d	0.015960002
152	0x3d5183af	0.051150974
153	0x3c8129d3	0.015767014
154	0xbd37d143	-0.044877302
155	0x3cfa1fb8	0.030532703
156	0x3de71607	0.11283498
157	0x3c9a6fb3	0.01885209
158	0xbcef8542	-0.029238347
159	0xbdd61170	-0.10452545
160	0x3bca5e3c	0.0061757844
161	0x3cb5f508	0.022211567
162	0x3dc362b4	0.095403105
163	0xbdeafeee	-0.11474405
164	0x3cd8c326	0.026460242
165	0xbd74de82	-0.059782512
166	0xbe3af87c	-0.18258852
167	0x3dc51676	0.09623425
168	0x3dc75e4c	0.097347826
169	0xbe0653fc	-0.13117975
170	0x3da07292	0.078343526
171	0xbbbb46dd	-0.0057152347
172	0x3d7b1640	0.061300516
173	0x3dbbdf6d	0.091734745
174	0xbbd0ea00	-0.006375551
175	0xbded9b1d	-0.11601851
176	0xbcf70cad	-0.030157411
177	0x3cc17a20	0.023617804
178	0xbdab5dee	-0.08367525
179	0x3e26e382	0.16297725
180	0xbd99554e	-0.07486974
181	0x3b0aaec5	0.00211613
182	0x3cdf243b	0.027238956
183	0x3cd99b44	0.026563294
184	0x3e142b6c	0.14469689
185	0xbd99779d	-0.074935175
186	0xbcd77869	-0.026302533
187	0xbdae8e92	-0.08523287
188	0xbd1a694b	-0.03769807
189	0x3d51adaf	0.05119103
190	0x3db8564c	0.09000835
191	0x3d521968	0.05129376
192	0xbdd36651	-0.1032225
193	0xbdbc14b8	-0.09183639
194	0xbdaefa7e	-0.08543871
195	0xbda8792b	-0.08226236
196	0x3d5e7116	0.054307066
197	0xbddc1497	-0.10746115
198	0x3ce6b188	0.028160825
199	0x3cd6ba2d	0.026211822
200	0xbbf25e27	-0.0073964777
201	0xbc941627	-0.01807697
202	0x3de699f5	0.11259834
203	0x3cbf03dd	0.023317272
204	0x3c91a4be	0.01777875
205	0x3c09bbe3	0.008406612
206	0x3d4a340f	0.049366053
207	0x3d5ef4d1	0.054432694
208	0xbda2d75d	-0.079512335
209	0x3bff3278	0.0077879988
210	0x3df44243	0.11926701
211	0x3da2eced	0.07955346
212	0x3e066abd	0.13126655
213	0x3d6970d3	0.056992363
214	0xbd8dcf9a	-0.069243625
215	0xbd82ac38	-0.06380504
216	0x3cd1e2fd	0.025620932
217	0x3d7a2b84	0.061076656
218	0xbd5afe1e	-0.053465
219	0xbcced67a	-0.025248755
220	0x3d9e82a4	0.077397615
221	0xbaa02508	-0.0012218067
222	0x3d71b3c8	0.059009343
223	0xbd601871	-0.05471081
224	0xbba1e286	-0.004940334
225	0x3c8ca9d5	0.017170826
226	0xbdba6482	-0.091012016
227	0x3da2320b	0.07919701
228	0x3d66d76d	0.05635779
229	0x3d421b73	0.04738946
230	0xbdb2f21f	-0.08737587
231	0x39b826d3	0.0003512414
232	0x3d500a09	0.05079082
233	0xbc43424e	-0.011917664
234	0x3dc8a22f	0.09796559
235	0x3e15c3b3	0.14625435
236	0xbdedd48e	-0.11612807
237	0xbd9cf334	-0.07663575
238	0xbdb4fae0	-0.08836913
239	0x3dd74d9f	0.10512852
240	0x3da1435d	0.07874177
241	0xbc92cabe	-0.01791894
242	0x3b45f4f3	0.0030205816
243	0xbd0212e9	-0.031756315
244	0xbd1cd8ab	-0.03829257
245	0xbca4a3e5	-0.020097682
246	0xbd8b5237	-0.068027906
247	0x3e0eefcd	0.13958664
248	0xbca40bd9	-0.02002518
249	0xbb3d3d7a	-0.0028875754
250	0x3da67131	0.08127058
251	0xbc3188fb	-0.010835881
252	0xbdac44fe	-0.08411597
253	0xbd6c2040	-0.057647943
254	0xbd89a398	-0.06720656
255	0x3da5d840	0.08097887
