submission/code/models/penneAlbologneseEPesto1.pth (torch, 413042 bytes, 15 tensors)

main.0.weight f4 [10, 3, 4, 4]
0	0x3d39524a	0.045244493
1	0x3d0aead6	0.033915363
2	0xbd270b03	-0.040781986
3	0x3c252bc0	0.010081232
4	0x3e1b7633	0.15181808
5	0x3e12b0b5	0.14325221
6	0x3cc11b4e	0.02357259
7	0x3db976aa	0.090558365
8	0xbd6f145a	-0.05836902
9	0xbd805307	-0.06265836
10	0xbc66009d	-0.014038232
11	0xbd9df11e	-0.07712005
12	0x3dee380c	0.11631784
13	0x3c9d4d8e	0.01920202
14	0x3c17eefa	0.009273285
15	0x3de98f12	0.114042416
16	0xbde7a664	-0.11311033
17	0x3bfad716	0.007655035
18	0xbb656c45	-0.003500716
19	0x3e47729a	0.19477311
20	0x3da26b7b	0.079306565
21	0x3d9f6279	0.07782454
22	0xbe12c63e	-0.14333436
23	0xba7983fb	-0.0009518263
24	0x3ac3286b	0.0014889365
25	0xbd5173e9	-0.05113593
26	0xbd188748	-0.03723839
27	0x3d2ba9d3	0.041910004
28	0x3c5a8036	0.013336232
29	0x3d9d3778	0.076765954
30	0x3abf469b	0.0014593186
31	0x3d590719	0.052985284
32	0xbd609270	-0.054827154
33	0x3d696951	0.056985203
34	0xbd237335	-0.03990479
35	0x3e23ef03	0.16009144
36	0xbbc602bf	-0.006042808
37	0xbe111e11	-0.14171626
38	0xbd15e224	-0.036592618
39	0xbd9397f0	-0.07206714
40	0xbd4ce6b2	-0.050024696
41	0x3dd0322a	0.10165818
42	0xbdfb49fa	-0.12269969
43	0x3dbe5b4e	0.09294759
44	0x3e413723	0.18868689
45	0xbdb793f1	-0.089637645
46	0xbdfd185e	-0.12358163
47	0x3d3923bc	0.045200095
48	0x3d5d5bad	0.054042507
49	0xbdcce553	-0.100046776
50	0xbdf26a78	-0.118367136
51	0xbdbb65f6	-0.09150307
52	0x3cd011ec	0.02539917
53	0x3c339d52	0.010962801
54	0x3ad26be8	0.0016053887
55	0xbdf4e4b8	-0.11957687
56	0x3e1dbf24	0.15404946
57	0x3d83f646	0.06443457
58	0xbda255b8	-0.07926506
59	0xbdfe1db7	-0.124080114
60	0x3d5b81a6	0.05359044
61	0xbe04e5a0	-0.1297822
62	0xbe7679c6	-0.2406989
63	0xbe84e497	-0.2595565
64	0x3d775960	0.06038797
65	0x3d812e91	0.0630771
66	0xbc137563	-0.009000155
67	0x3d52e302	0.051486023
68	0xbcb621d8	-0.022232935
69	0x3de00135	0.1093773
70	0xbdaffebf	-0.08593511
71	0x3e090bb1	0.13383366
72	0x3dd93a95	0.10606877
73	0x3c13b532	0.009015368
74	0xbd6536a3	-0.05596031
75	0x3e091735	0.13387759
76	0xbdbeea09	-0.093219824
77	0xbc69aed3	-0.014262873
78	0xbdaa8c45	-0.083275355
79	0xbe3610a5	-0.17779787
80	0xbd204d5d	-0.03913628
81	0xbdb4c883	-0.08827307
82	0x3e0788d2	0.13235787
83	0xbcd6fba6	-0.026243042
84	0x3d8acea2	0.06777693
85	0x3b791d99	0.0038012026
86	0xbc8c0ade	-0.017095026
87	0x3e1485dc	0.14504188
88	0x3e2805e4	0.16408497
89	0x3ce55072	0.02799246
90	0x3e0141d7	0.12622772
91	0x3df8f6fd	0.12156484
92	0xbd3f4065	-0.04669227
93	0xbe2f8860	-0.17141867
94	0x3d891716	0.066938564
95	0xbdf994ba	-0.121865705
96	0xbe02b3b7	-0.12763868
97	0xbd0597ec	-0.032615587
98	0xbd9ad9db	-0.07561084
99	0x3dadde67	0.084896855
100	0x3ba27ce7	0.004958737
101	0xbe05ab57	-0.13053642
102	0x3e0aace9	0.13542522
103	0xbccdd672	-0.02512667
104	0x3bcb4efe	0.006204485
105	0x3d8f7adf	0.07005858
106	0xbbe732dd	-0.007055624
107	0x3e079995	0.1324218
108	0xbccdcfaf	-0.025123445
109	0xbcd387c4	-0.025821574
110	0xbd9ddb17	-0.07707804
111	0x3dc2a63b	0.09504362
112	0x3deaa57f	0.11457347
113	0x3c7d5f3b	0.015464599
114	0x3ca650d6	0.020302217
115	0xbe0d2cc9	-0.13786615
116	0xbd88b574	-0.066752344
117	0xbe1da2ab	-0.15394084
118	0x3dd1af4f	0.102385156
119	0xbd061800	-0.032737732
120	0xbdf07f3a	-0.117430165
121	0x3d5e5c8a	0.05428747
122	0x3e160239	0.14649285
123	0x3d73b62b	0.0594999
124	0x3b605653	0.003423114
125	0x3dc42daf	0.09579026
126	0x3d969294	0.07352176
127	0xbdfcef4b	-0.12350329
128	0xbd17c0c9	-0.03704909
129	0x3c8ff4e6	0.017572831
130	0xbc9f9822	-0.019481722
131	0x3d271bb8	0.04079792
132	0x3d9b29a6	0.07576303
133	0xbbabf095	-0.0052471855
134	0xbd9732ea	-0.07382758
135	0x3d62f455	0.055408794
136	0xbe018291	-0.12647463
137	0x3d11e8b4	0.035622314
138	0x3d8210a6	0.06350832
139	0x3b613747	0.0034365223
140	0xbe06d92a	-0.13168779
141	0xbdaf5916	-0.08561914
142	0x3db95a69	0.090504475
143	0x3de9fe49	0.11425454
144	0xbca46d3f	-0.020071624
145	0x3b721c5a	0.0036943168
146	0x3caa45a1	0.020785155
147	0x3deac8c2	0.11464073
148	0x3c72ea38	0.01482635
149	0x3db37d66	0.08764152
150	0x3dc4c552	0.09607948
151	0x3e3eff8f	0.18652175
152	0x3d9787c2	0.073989406
153	0x3d6b5056	0.05744966
154	0xbd914ad6	-0.07094352
155	0xbc6d9cc9	-0.0145027125
156	0x3e27ffb1	0.16406132
157	0x3db34168	0.087527096
158	0x3da0ed4f	0.07857763
159	0x3e8969b9	0.26838472
160	0xbcc9f1d5	-0.024651447
161	0x3ccd9dba	0.025099624
162	0x3d03abfe	0.032146446
163	0xbc9bc6dc	-0.019015722
164	0x3be4955d	0.0069758133
165	0xbd50962e	-0.050924473
166	0xbdc5fb33	-0.09667053
167	0xbe131a4d	-0.14365502
168	0xbd8f83c5	-0.07007555
169	0x3c9ab310	0.018884212
170	0xbd927282	-0.07150747
171	0xbd7aba17	-0.061212625
172	0x3c2f1e45	0.010688369
173	0x3c9d4ce5	0.019201705
174	0xbd859537	-0.06522601
175	0xbd851f0b	-0.065000616
176	0x3bbcfdba	0.0057675513
177	0x3d964f20	0.07339311
178	0xbdf7c0cc	-0.1209732
179	0xbdaaf713	-0.08347907
180	0xbd94c7dd	-0.072646834
181	0x3d104d51	0.035229985
182	0x3d2a4926	0.041573666
183	0x3da11856	0.0786597
184	0x3d53eee9	0.051741514
185	0xbc270409	-0.010193833
186	0xbdf8922b	-0.12137254
187	0x3ca2498c	0.01981046
188	0xbd27952a	-0.04091374
189	0xbd83cc47	-0.06435447
190	0x3ba43a4f	0.0050118337
191	0xbdcf3aa1	-0.101186045
192	0xbe17e0a9	-0.14831795
193	0xbd9fdc9f	-0.07805752
194	0xbd84da72	-0.06486978
195	0xbe015781	-0.12631036
196	0xbe3f26f5	-0.18667205
197	0x3d261ac5	0.040552873
198	0xbde6c68c	-0.112683386
199	0xbe1ada0b	-0.1512224
200	0x3daed151	0.08536018
201	0x3d4cad4b	0.049969953
202	0xbd48e86c	-0.04904978
203	0xbe1ec9b6	-0.15506634
204	0xbd116fa7	-0.03550687
205	0xbe23e582	-0.16005519
206	0x3cba1e7a	0.02271961
207	0xbe3e171f	-0.18563507
208	0x3d75e84b	0.060035985
209	0xbc012441	-0.007882179
210	0x3d1b1e2c	0.03787057
211	0xbe0dc278	-0.13843715
212	0xbe414252	-0.18872955
213	0xbd9a7a0e	-0.07542811
214	0xbb30aeb6	-0.0026959605
215	0xbdaee6cf	-0.08540117
216	0xbdb830fb	-0.08993717
217	0x3bb49313	0.0055106967
218	0xbdf3dc38	-0.11907238
219	0xbd731492	-0.05934579
220	0x3d955592	0.07291712
221	0xbe335025	-0.17511041
222	0x3d9abbf4	0.075553805
223	0xbd19ae46	-0.037519716
224	0xbe072aa0	-0.13199854
225	0xbe12e4a7	-0.14345036
226	0xbcaa02a2	-0.020753209
227	0xbdcee84e	-0.10102902
228	0xbe2d7226	-0.16938075
229	0xbe189edc	-0.1490435
230	0x3d812459	0.06305761
231	0xbdcc69d6	-0.09981124
232	0xbd93c155	-0.072146095
233	0xbd091abe	-0.03347277
234	0xbdf73ffd	-0.12072752
235	0x3d9f238a	0.077704504
236	0x3c6fa4fa	0.014626736
237	0xbe12faea	-0.14353529
238	0xbb80ad95	-0.0039269426
239	0xbdf61e86	-0.12017541
240	0xbd465788	-0.04842332
241	0x3c097025	0.008388554
242	0x3dafa21c	0.08575842
243	0xbdf2c2dd	-0.118535735
244	0xbd34fb9c	-0.044185266
245	0xbd772f95	-0.060348112
246	0xbd50eaf8	-0.051005334
247	0x3db4651a	0.08808346
248	0xbc6f9718	-0.014623426
249	0x3d7ac5fe	0.061223976
250	0xbdc6fc7b	-0.097161256
251	0xbe1bd5c6	-0.15218267
252	0x3d11cf7f	0.035598274
253	0xbdc0ebad	-0.094199516
254	0xbe2ed7e9	-0.1707455
255	0xbb2d2998	-0.0026422497

main.3.weight f4 [20, 10, 4, 4]
0	0xbd9c695f	-0.076372854
1	0x3c5c51d2	0.013447242
2	0xbd461e4c	-0.048368737
3	0x3c4a401b	0.0123443855
4	0x3d37b6e0	0.044852138
5	0x3da492e6	0.08035831
6	0x3ca45ef3	0.020064807
7	0xbd0653fb	-0.032794934
8	0x3db57436	0.08860056
9	0x3da26f8b	0.079314314
10	0xbd556f25	-0.05210795
11	0x3d8e090d	0.0693532
12	0x3b4208ab	0.0029607217
13	0x3c937b64	0.018003173
14	0xbcec1954	-0.028820671
15	0x3d3c8c1b	0.046032052
16	0xbcc72dc2	-0.024313811
17	0xbcff6b8f	-0.031179218
18	0xbd26c3bb	-0.040714007
19	0xbcaf7d66	-0.0214221
20	0xbdabcdf6	-0.08388893
21	0x3c9d3aad	0.019193018
22	0x3c11e7ab	0.008905332
23	0x3d4067ff	0.04697418
24	0xbc80e0ba	-0.015732158
25	0xbb75018e	-0.003738496
26	0xbd393f7e	-0.045226566
27	0xbcf9b6a8	-0.030482605
28	0xbd87830d	-0.06616793
29	0xbb5f0247	-0.0034028457
30	0xbda6a009	-0.08135993
31	0x3c2cbc20	0.010542899
32	0xbdb4ec69	-0.08834154
33	0x3bba8cbc	0.0056930464
34	0xbd49bc90	-0.049252093
35	0x3c4310f2	0.011905896
36	0xbd9b8c51	-0.075951226
37	0xbcb6e80d	-0.022327447
38	0xbda99bee	-0.08281694
39	0x3d325baf	0.043544468
40	0xbdac7a28	-0.08421737
41	0x3cb8a3df	0.022539077
42	0xbc52d7ee	-0.012868864
43	0x3d002674	0.03128667
44	0x3db3a5a1	0.087718256
45	0xbd0b0a72	-0.03394551
46	0x3c094bda	0.008379901
47	0xbd608be6	-0.054820918
48	0xbd8a3c26	-0.06749754
49	0x3bcec985	0.006310644
50	0x3d836e28	0.06417495
51	0x3c8f57c5	0.017497906
52	0xbd434dbe	-0.047681563
53	0x3cfc82e4	0.030824132
54	0x3d5932da	0.05302701
55	0xbc6033bd	-0.01368421
56	0x3c8e570f	0.017375497
57	0xbd13f503	-0.036122333
58	0xbd601a4e	-0.054712586
59	0x3dc8fe36	0.09814112
60	0xbdc32033	-0.09527626
61	0xbcca2068	-0.024673656
62	0xbd0256f0	-0.03182119
63	0x3daace0b	0.08340081
64	0x3d27feff	0.041014668
65	0xbd9bcdef	-0.07607638
66	0xbd9db0b9	-0.07699723
67	0xbd39ea9f	-0.045389768
68	0x3ce4a0a6	0.027908634
69	0x3cfd1cc9	0.030897515
70	0x3d335759	0.043784473
71	0xbd04b88b	-0.032402556
72	0xbd293030	-0.04130572
73	0xbd36b6bc	-0.044607863
74	0x3cb5c5bc	0.022189014
75	0xbd9be467	-0.07611924
76	0xbd90f6c5	-0.070783176
77	0x3a3205f4	0.0006791048
78	0xbd05f8b0	-0.03270787
79	0x3c96aa64	0.018391795
80	0xbda1a62b	-0.07893022
81	0xbd387f61	-0.045043353
82	0x3d225427	0.039631035
83	0xbb38f5f9	-0.0028222783
84	0x3d58b492	0.05290658
85	0xbd173b0f	-0.036921557
86	0x3cc837c0	0.024440646
87	0x3bce0913	0.006287703
88	0x3d4ee5c4	0.05051209
89	0xbd55f83e	-0.052238695
90	0x3d5b26c4	0.053503767
91	0x3d1b9234	0.037981227
92	0xbc63a6a9	-0.013894715
93	0x3d5c5f75	0.053801972
94	0x3c0e95c4	0.008702699
95	0x3cef548d	0.029215122
96	0xbd078694	-0.033087328
97	0xbd669fa6	-0.056304596
98	0x3ca19661	0.019725027
99	0xbdb7eb4a	-0.08980425
100	0xbcaeacec	-0.02132269
101	0x3d567019	0.052353
102	0xbc6d7898	-0.014494084
103	0xbb645fa6	-0.003484705
104	0xbd9663a0	-0.07343221
105	0x3c862e03	0.016379362
106	0x3d4d7832	0.050163455
107	0xbbdd62ef	-0.0067561786
108	0xbd065dff	-0.032804485
109	0x3d2ba6fd	0.0419073
110	0x3bfa3697	0.007635902
111	0x3d60c716	0.054877363
112	0xbd97e6a2	-0.074170366
113	0xbc9b4bfa	-0.018957127
114	0x3d44775e	0.0479654
115	0xbc57e5d1	-0.013177351
116	0xbb5868b9	-0.0033021404
117	0x383fb63b	4.5707664e-05
118	0xbc83ff8e	-0.016113069
119	0x3d3122bd	0.04324602
120	0xbdbdbf78	-0.092650354
121	0x3bad3d5b	0.005286855
122	0xbd817023	-0.063202165
123	0xbcc06916	-0.023487609
124	0xbd09a6e8	-0.03360644
125	0x3b0afad1	0.0021206627
126	0xbd56aadc	-0.052409038
127	0xbd9c7a8c	-0.076405615
128	0xbd5cd9ba	-0.053918578
129	0xbc29c535	-0.010361959
130	0x3c948e85	0.018134365
131	0x3cf31fae	0.029678192
132	0x3d348e8a	0.04408125
133	0x3c4c604c	0.012474131
134	0xbc9519eb	-0.018200835
135	0xbd32383a	-0.043510653
136	0x3d045b7e	0.032313816
137	0x3d26fa95	0.040766317
138	0xbd435af4	-0.04769416
139	0x3cd7fc67	0.026365472
140	0xbc844b63	-0.016149228
141	0x3d27e88d	0.040993262
142	0x3d2fd817	0.04293069
143	0x3d2d5d0c	0.042325065
144	0xbcdda207	-0.0270548
145	0xbd16df07	-0.03683379
146	0xbc2ec545	-0.01066715
147	0xbcdb95f4	-0.026804902
148	0xbc9d1a96	-0.019177716
149	0xbd319344	-0.043353334
150	0xbd37db6e	-0.044887
151	0x3d9364c3	0.07196953
152	0x3d86712b	0.06564554
153	0x3d503014	0.0508271
154	0x3d40bddc	0.047056064
155	0x3d8a2397	0.067450695
156	0xbd0bece6	-0.03416147
157	0x3c09e172	0.008415567
158	0x3d6a1944	0.057153
159	0xbd2ca06b	-0.042145174
160	0x3ccc451b	0.024935296
161	0x3cc7470a	0.024325866
162	0xbc4db34f	-0.0125549575
163	0x3cc2203e	0.023697015
164	0x3db22ec4	0.08700326
165	0x3d6793a4	0.056537285
166	0x3da68d72	0.08132447
167	0x3cc45415	0.023965875
168	0x3b871b88	0.004123155
169	0x3d9a7131	0.07541121
170	0x3d8afab1	0.06786097
171	0xbbddfaed	-0.0067742974
172	0x3dabcdca	0.083888605
173	0x3d61b9e1	0.05510891
174	0xbd0482e2	-0.032351382
175	0xbc0c259a	-0.008553887
176	0xbcd9cf21	-0.026588025
177	0xbd4c697b	-0.04990528
178	0x3d8a814a	0.06762941
179	0x3ce7f07c	0.028312914
180	0xbd2a469c	-0.041571245
181	0xbb81db8b	-0.003962939
182	0xbd0c03eb	-0.034183424
183	0x3d91d1d4	0.071201
184	0x3d085ea3	0.033293378
185	0xbdb4870c	-0.08814821
186	0xbd5193f9	-0.05116651
187	0xbd7fcb41	-0.062449697
188	0x3d9707f5	0.073745646
189	0xbc482b9e	-0.01221743
190	0x3d54d622	0.051962025
191	0x3cfa259a	0.030535508
192	0x3c0820f9	0.008308643
193	0xbd8126e8	-0.06306249
194	0x3c524b13	0.012835282
195	0xbd709490	-0.05873543
196	0x3d7a4b5f	0.061107036
197	0xbcf891b0	-0.030342907
198	0xbcb479be	-0.022030707
199	0x3d46eeee	0.048567705
200	0xbd62c52e	-0.055363826
201	0x3d33d206	0.043901466
202	0x3cab4c35	0.020910362
203	0xbbaf71fb	-0.0053541637
204	0x3d8d1b7d	0.068900086
205	0x3d7c7e1a	0.061643697
206	0x3c278a5f	0.010225861
207	0x3d83b883	0.06431677
208	0xbd1495f0	-0.036275804
209	0x3ccaa5bc	0.024737231
210	0xbd56c4ce	-0.05243378
211	0xbd061bfc	-0.03274153
212	0x3dac64e6	0.08417682
213	0x3d962b26	0.07332449
214	0x3d0c53f6	0.03425976
215	0x3ce95e21	0.028487267
216	0x3d13ada3	0.036054265
217	0x3b59467c	0.0033153584
218	0xbcf72f29	-0.030173855
219	0xbb3d3dbd	-0.002887591
220	0x3d583912	0.0527888
221	0xb8b94b2b	-8.8354886e-05
222	0xbbed16a7	-0.0072353664
223	0xbd920a06	-0.07130818
224	0xbd52c7a0	-0.05145991
225	0xbc4c2e59	-0.012462222
226	0x3bff18d2	0.0077849412
227	0x3d4bcc66	0.049755476
228	0x3c86bcbe	0.016447421
229	0xbc7509f4	-0.014955986
230	0x3d526537	0.051366057
231	0x3ccf99c7	0.025341881
232	0xbc56ccdb	-0.013110365
233	0xbda4baac	-0.08043417
234	0xbd10b2c6	-0.03532674
235	0x3c9b0188	0.018921629
236	0xbd689843	-0.056785833
237	0x3d3686ce	0.044562154
238	0x3d4e9ab9	0.050440524
239	0x3d14723c	0.036241755
240	0x3d436efa	0.047713257
241	0xbd040a67	-0.032236483
242	0xbca3dae9	-0.020001845
243	0xbd35830a	-0.04431442
244	0x3c714360	0.014725536
245	0xbd87a5f2	-0.066234484
246	0xbcc9eb47	-0.024648322
247	0x3d59af6c	0.05314581
248	0x3d65b958	0.05608496
249	0x3d513fc7	0.051086213
250	0x3d6d28f1	0.057900373
251	0xbc0d54f5	-0.008626212
252	0xbd517782	-0.051139362
253	0xbccb5a47	-0.024823321
254	0x3c642b26	0.013926303
255	0xbc836faa	-0.016044457

main.4.weight f4 [20]
0	0x3f814fc5	1.0102469
1	0x3f6bc155	0.92091876
2	0x3f7c3d8a	0.985314
3	0x3f662816	0.89904916
4	0x3f73198f	0.94960874
5	0x3f84f324	1.0386701
6	0x3f8473a1	1.0347787
7	0x3f81a403	1.0128177
8	0x3f6b984d	0.9202927
9	0x3f8badc3	1.0912403
10	0x3f8aaa3f	1.0833205
11	0x3f85134c	1.0396514
12	0x3f7659a5	0.96230537
13	0x3f6be49d	0.9214571
14	0x3f6c0865	0.9220031
15	0x3f824681	1.0177766
16	0x3f8b6171	1.0889112
17	0x3f772e61	0.96555144
18	0x3f8813e6	1.0631073
19	0x3f675c0f	0.90374845

main.4.bias f4 [20]
0	0xbd2e8cfe	-0.04261493
1	0xbc8b2b6e	-0.016988482
2	0xbe004cbb	-0.1252927
3	0x3e370bfb	0.17875664
4	0x3d045919	0.032311533
5	0xbe5a3e3b	-0.21312802
6	0xbd8aa5d2	-0.06769909
7	0xbd8c06db	-0.06837245
8	0xbc26ef13	-0.010188836
9	0xbe354f6d	-0.1770608
10	0xbe0d5fd6	-0.1380609
11	0xbe3b8738	-0.183133
12	0x3dfe8d6b	0.12429317
13	0xbc68261c	-0.014169242
14	0xbd80a918	-0.06282252
15	0xbd4c8697	-0.049933042
16	0xbe29d31b	-0.16584437
17	0x3d9a35af	0.075297706
18	0xbe17106f	-0.14752363
19	0xbdecceaa	-0.115628555

main.4.running_mean f4 [20]
0	0xbbfec014	-0.0077743623
1	0x3cae4409	0.021272676
2	0xbc001537	-0.007817558
3	0x3c5f5029	0.0136299515
4	0x3b308485	0.0026934457
5	0xbc123678	-0.008924119
6	0xbbb45028	-0.0055027194
7	0xbc8f78f7	-0.017513735
8	0x3c7944e3	0.015214178
9	0xbc2dc215	-0.010605355
10	0xbc1635dc	-0.0091681145
11	0xbc2277d9	-0.009916269
12	0x3c957642	0.018244866
13	0x3c7ec033	0.015548754
14	0x3c88bbb6	0.01669107
15	0xbb535634	-0.0032247426
16	0xbc97f9ba	-0.018551696
17	0x3becfe50	0.007232465
18	0xbbf3bc4d	-0.0074382187
19	0x3cbb3afc	0.022855274

main.4.running_var f4 [20]
0	0x398001de	0.00024415454
1	0x3a588140	0.0008259006
2	0x39d523d9	0.00040653234
3	0x39de8890	0.00042444887
4	0x39b01a23	0.0003358881
5	0x39b3469c	0.0003419415
6	0x390fddcc	0.00013720168
7	0x3a11b511	0.0005558292
8	0x39d00374	0.00039675424
9	0x39e1fe22	0.00043104688
10	0x3a30bd58	0.00067420816
11	0x39ac937d	0.00032916284
12	0x3a58de01	0.0008272827
13	0x3a0e953b	0.0005439107
14	0x3a3de509	0.0007243907
15	0x3943f9f5	0.00018689765
16	0x3aa8883a	0.0012857981
17	0x39827e26	0.0002488952
18	0x39a3d0ad	0.00031245258
19	0x3a82de9c	0.0009984556

main.6.weight f4 [40, 20, 4, 4]
0	0xbd2134e2	-0.039357074
1	0xbd8a8fcd	-0.06765709
2	0x3c918db3	0.017767763
3	0xbcaea73d	-0.02131998
4	0xbc8d460f	-0.01724532
5	0xbc05144d	-0.008122516
6	0x3d7e0239	0.06201384
7	0x3c21a55a	0.009866083
8	0x3ccd151f	0.025034485
9	0xbc12416c	-0.008926731
10	0x3d89c934	0.067278296
11	0x3d77ccf4	0.060498193
12	0x3c621444	0.013798777
13	0x3d9b8d9f	0.075953715
14	0xbd0cd07c	-0.034378514
15	0x3cf9281b	0.030414632
16	0xbbbeb36f	-0.00581973
17	0x3d47586e	0.048668317
18	0xbcdbb7ea	-0.026821095
19	0x3d07a40d	0.033115435
20	0x3c6826d8	0.014169417
21	0x3d36a926	0.044594906
22	0xbced55f0	-0.028971642
23	0x3c790b40	0.015200436
24	0x3cc61ea9	0.024184542
25	0x3d09324d	0.033495236
26	0x3d361fec	0.044464037
27	0x3d4d14cb	0.050068658
28	0x3d5d1693	0.053976607
29	0xbc11c997	-0.00889816
30	0x3c4016a7	0.011724151
31	0x3d13659c	0.035985574
32	0x3d865855	0.06559817
33	0x3caee51b	0.02134948
34	0x3d66d5b6	0.056356154
35	0x3c959a11	0.018261941
36	0xbc5285b6	-0.012849262
37	0x3cc50037	0.024047954
38	0xbd6e0963	-0.05811442
39	0xbd676a74	-0.056498006
40	0xbc8444ac	-0.016146027
41	0x3b61cce7	0.0034454407
42	0xbc8c8b50	-0.017156273
43	0xbb386b3b	-0.0028140086
44	0x3ce34a05	0.027745256
45	0xbcc78442	-0.024355058
46	0xbbd93ea1	-0.0066297804
47	0x3c047128	0.008083619
48	0xbd09449e	-0.033512704
49	0xbd463638	-0.04839155
50	0xbc9ea176	-0.0193641
51	0x39cc6680	0.0003898628
52	0xbdcdab98	-0.100424945
53	0xbce7bb92	-0.028287683
54	0x3c36bdba	0.011153633
55	0xbd67ec44	-0.056621805
56	0xbc751c83	-0.014960411
57	0xbd027036	-0.031845294
58	0xbcf839af	-0.030300943
59	0xbcd73422	-0.026269976
60	0xbc135d5b	-0.008994426
61	0xbcf1dab2	-0.029523227
62	0xbd1473b5	-0.03624316
63	0xbd20e5f5	-0.039281804
64	0x3c9d218a	0.019181032
65	0xbd0948b0	-0.033516586
66	0x3c9be2a6	0.019028973
67	0xbd8ed2de	-0.069738135
68	0xbcbf8114	-0.023376979
69	0xbd5844ad	-0.05279987
70	0x3b28a000	0.0025730133
71	0xbd9848a2	-0.074357286
72	0xbb1ef3f7	-0.00242543
73	0x3b9523fc	0.004551409
74	0xbc209f37	-0.009803585
75	0xbd3a6681	-0.04550791
76	0xba9b9001	-0.0011868478
77	0xbc3ae3fb	-0.011406894
78	0x3d44ac26	0.048015736
79	0x3b1a0a78	0.0023504775
80	0xbd127ed7	-0.035765495
81	0xbca277ec	-0.019832574
82	0x3b8624bd	0.004093735
83	0x3d1edf49	0.03878716
84	0x3b07b31e	0.0020706127
85	0xbd461356	-0.048358284
86	0x3c7d39d1	0.015455679
87	0x3c155ba0	0.009116083
88	0x3d917df6	0.07104103
89	0x3cad3f93	0.021148479
90	0xbd29b94b	-0.041436475
91	0xbb55d063	-0.003262543
92	0xbc539d1e	-0.012915878
93	0x3bd59838	0.00651839
94	0xbd07664b	-0.03305654
95	0x3c883ed9	0.01663153
96	0xbcc6373b	-0.024196258
97	0xbbf72abd	-0.0075429366
98	0xbc11663d	-0.008874473
99	0x3c83ce09	0.016089456
100	0xbd377263	-0.044786822
101	0xbc0bf556	-0.008542379
102	0x3d46383e	0.04839348
103	0x3c505806	0.012716299
104	0xbd50539a	-0.05086098
105	0xbd62af21	-0.055342797
106	0xbc3b7fd3	-0.01144405
107	0x3cd94794	0.026523389
108	0xbd4996bd	-0.04921602
109	0x3bb36767	0.005474973
110	0x3d523cf2	0.051327653
111	0xbce65ca4	-0.028120346
112	0xbc230942	-0.009950938
113	0x3d40513b	0.046952467
114	0x3c733fc9	0.014846751
115	0x3ca650e6	0.020302247
116	0x3cf39058	0.029731914
117	0x3cb98df4	0.022650696
118	0x3cefc0e6	0.029266786
119	0xb7f83c83	-2.9592082e-05
120	0xbca04ab8	-0.019566879
121	0xbd26c779	-0.040717576
122	0x3d233a7d	0.0398507
123	0x3d7687de	0.060188167
124	0x3ce1d105	0.027565489
125	0xbd2ee9cd	-0.04270344
126	0xbd816b42	-0.06319286
127	0xbc648553	-0.013947803
128	0x3d61e078	0.05514571
129	0x3d1c6b58	0.03818831
130	0xbbe74970	-0.007058315
131	0x3d0eb7bb	0.034843188
132	0xbdaf0a65	-0.085469045
133	0xbd86beb6	-0.06579344
134	0x3dafe750	0.08589041
135	0xbc8d8480	-0.017275095
136	0xbd1528b7	-0.03641578
137	0xb9ca991c	-0.00038642518
138	0xbd888177	-0.066653185
139	0x3d6de3da	0.058078624
140	0x3c7f25cb	0.015572975
141	0x3cead229	0.028664665
142	0x3c93a6f5	0.018023947
143	0x3d4bb6df	0.049734946
144	0x3d4d925c	0.050188407
145	0x3c995173	0.018715596
146	0x39b59e15	0.0003464079
147	0x3dafa777	0.08576863
148	0x3ce0f170	0.027458876
149	0x3d2e4c11	0.04255301
150	0xbd8d42b6	-0.0689749
151	0x3c606723	0.013696465
152	0xbdb1b6cd	-0.086774446
153	0x3d5598c7	0.052147653
154	0xbe0e815e	-0.13916537
155	0x3d01a500	0.031651497
156	0x3d730778	0.059333295
157	0xbb31bd3e	-0.0027120854
158	0xbd8a6f5a	-0.0675952
159	0xbcb54b78	-0.022130713
160	0x3d0b0bc4	0.033946767
161	0xbc3b6074	-0.01143657
162	0x3d354cca	0.044262685
163	0xbd9cbd53	-0.07653298
164	0x3cc696e2	0.024241868
165	0xbd6ad195	-0.05732878
166	0xbd7456b0	-0.059652984
167	0x3c96a15f	0.018387495
168	0xbad79e5f	-0.0016450397
169	0x3d25a707	0.040442493
170	0xbd184162	-0.03717173
171	0xbd4a0b76	-0.049327336
172	0x3d1ddb02	0.03853894
173	0x3d097855	0.033562023
174	0xbc879958	-0.016552612
175	0xbb9cd676	-0.004786308
176	0x3cb00b63	0.021489805
177	0x3d18571c	0.03719245
178	0xbcc0eb94	-0.023549832
179	0x3c02a83b	0.00797468
180	0xbc1f814a	-0.009735415
181	0x3d663c77	0.056210008
182	0xbcb8239e	-0.022477921
183	0x3c4fb6eb	0.012677888
184	0xbcb1d1ac	-0.021706425
185	0xbdaa1f3e	-0.0830674
186	0xbc979aca	-0.018506426
187	0xbdc43ce9	-0.0958193
188	0x3b178c48	0.0023124386
189	0x3d992cc1	0.07479239
190	0x3d8fa7cd	0.07014427
191	0xbdd8411b	-0.10559293
192	0xbd796208	-0.060884506
193	0x3ca8f172	0.020622943
194	0xbc515638	-0.012776904
195	0x3c10bef1	0.0088345865
196	0xbd5ac743	-0.053412687
197	0x3c517247	0.0127835935
198	0x3cd20ef5	0.025641898
199	0x3cd50423	0.02600295
200	0x3d7a5cf0	0.06112379
201	0x3d4a9327	0.04945674
202	0xbd74a868	-0.059730917
203	0x3aed7ca1	0.0018118807
204	0x3d1750a8	0.036942154
205	0xbc30083a	-0.010744149
206	0x3d2152b0	0.039385498
207	0xbd370ba4	-0.044688836
208	0xbd9ad176	-0.07559483
209	0x3d6f60cc	0.058441922
210	0x3ca102d7	0.019654674
211	0x3c614960	0.013750404
212	0x3ca7c4a3	0.020479506
213	0x3c556c0b	0.013026248
214	0x3c1c9b27	0.009558476
215	0x3d24f810	0.040275633
216	0xbc5a392b	-0.013319294
217	0xbc5fbee2	-0.01365635
218	0x3cd47563	0.02593488
219	0x3b5e7b67	0.0033948065
220	0xbc2e680e	-0.010644926
221	0xbcae60ff	-0.021286486
222	0xbcafe4d2	-0.021471415
223	0x3d2b7824	0.041862622
224	0x3d073e28	0.03301826
225	0x3d57e0e9	0.052704725
226	0xbc69efe6	-0.014278388
227	0xbd1720e7	-0.036896612
228	0x3bdd8675	0.0067604133
229	0x3c0ab389	0.008465656
230	0xbd0d9106	-0.034562133
231	0x3a1e4455	0.0006037404
232	0x3cb541e4	0.022126146
233	0xbc8d3ec5	-0.017241845
234	0x3d4fd9d1	0.050744835
235	0x3c590ab4	0.013247181
236	0xbca18be9	-0.019720035
237	0x3cb8d6a5	0.022563288
238	0xbbd17ab7	-0.0063928026
239	0x3a951fda	0.001137729
240	0x3c8d868c	0.017276071
241	0xba1a8ee3	-0.00058959256
242	0x3d1380e2	0.036011584
243	0x3d2c23dd	0.04202639
244	0x3c2af19e	0.010433583
245	0xbd830da9	-0.0639909
246	0xbd15fc06	-0.0366173
247	0xbceddb69	-0.029035287
248	0x3d255ef1	0.040373746
249	0xbcbdea63	-0.023183053
250	0x3da3f0f9	0.08004946
251	0xbc8fe975	-0.017567376
252	0xbc5b2c39	-0.013377243
253	0xbda79e47	-0.08184486
254	0x3cf3cddf	0.029761253
255	0x3cbcb1d2	0.02303401

main.7.weight f4 [40]
0	0x3f929e02	1.145447
1	0x3f8db3d8	1.1070509
2	0x3f8cfe2b	1.1015066
3	0x3f868ddd	1.0512043
4	0x3f8c46bd	1.0959088
5	0x3f88f885	1.0700842
6	0x3f88f352	1.0699255
7	0x3f841909	1.032014
8	0x3f92f335	1.1480471
9	0x3f8318aa	1.0241902
10	0x3f82b041	1.0210038
11	0x3f89084f	1.070566
12	0x3f8a9e5f	1.0829581
13	0x3f87e2ee	1.0616128
14	0x3f8bce37	1.0922307
15	0x3f86ea7d	1.054031
16	0x3f95040b	1.1641859
17	0x3f85ae8a	1.044389
18	0x3f8ba077	1.0908345
19	0x3f82f47d	1.0230862
20	0x3f8906cc	1.0705199
21	0x3f84bcdd	1.0370136
22	0x3f8ee820	1.1164589
23	0x3f86b25e	1.0523183
24	0x3f8c52ad	1.0962731
25	0x3f8855b8	1.0651159
26	0x3f823acb	1.0174192
27	0x3f85b6f3	1.0446457
28	0x3f8a41b0	1.0801296
29	0x3f883656	1.0641582
30	0x3f9030ff	1.1264952
31	0x3f8be5a9	1.0929462
32	0x3f8493e8	1.0357637
33	0x3f86def4	1.053679
34	0x3f825202	1.0181277
35	0x3f899c7b	1.0750879
36	0x3f8ed2d5	1.1158091
37	0x3f854c55	1.041392
38	0x3f8c229f	1.0948066
39	0x3f8bf84f	1.0935153

main.7.bias f4 [40]
0	0x3d372749	0.0447152
1	0x3d25e1a5	0.040498395
2	0xbca7a1e1	-0.020462932
3	0x3d4ce09d	0.050018895
4	0x3d1b9551	0.037984196
5	0x3d0a4efe	0.03376674
6	0x3d0d3847	0.0344775
7	0x3c9814ff	0.0185647
8	0xbd41b3d1	-0.047290627
9	0x3c608f00	0.013705969
10	0x3c034101	0.008011104
11	0x3d5e0dcb	0.054212373
12	0x3d0d68f1	0.034523908
13	0x3d36b0a6	0.04460206
14	0x3d0ec5fe	0.03485679
15	0x3cddd4b6	0.027078968
16	0xbb1d0c11	-0.002396349
17	0x3ca2acc0	0.019857764
18	0x3ccd888a	0.025089521
19	0x3c8400a1	0.016113581
20	0x3d3ba254	0.045809105
21	0x3cda231b	0.026628068
22	0x3d1aca99	0.03779087
23	0x3d171a09	0.036890063
24	0x3d4498c2	0.047997244
25	0x3ba8619b	0.0051385886
26	0x3c8e7496	0.017389577
27	0x3ce700ae	0.028198566
28	0x3ce2d404	0.027688988
29	0x3c26a413	0.010170954
30	0x3d2de22e	0.04245203
31	0x3c7998c5	0.015234177
32	0x3c5898b1	0.013219998
33	0x3d3da095	0.04629572
34	0x3ca15973	0.019695973
35	0x3c848ed6	0.01618139
36	0xba5d87eb	-0.00084507343
37	0x3ce02a9f	0.027364073
38	0x3cf8167e	0.030284163
39	0x3d3b5ae6	0.045740984

main.7.running_mean f4 [40]
0	0xbe26477c	-0.16238207
1	0xbdb28d98	-0.08718413
2	0x3e70f7cd	0.23532028
3	0xbd940474	-0.07227412
4	0xbd0d7c7e	-0.034542553
5	0xbdd0eb3b	-0.10201117
6	0xbe2124be	-0.15736672
7	0xbc687959	-0.014189088
8	0x3e8e8f0a	0.27843505
9	0x3e0981f4	0.1342848
10	0x3dee4433	0.11634102
11	0xbe20ae3c	-0.15691465
12	0xbcc18606	-0.023623478
13	0xbddcdf25	-0.10784749
14	0xbd7ca4a5	-0.061680455
15	0xbd844852	-0.064591065
16	0x3e8543da	0.2602833
17	0xbd828c1d	-0.06374381
18	0x3d96884e	0.07350217
19	0xbd6ee062	-0.058319457
20	0xbb9b7f45	-0.0047453963
21	0x3dfd362c	0.12363848
22	0x3dac825a	0.084233
23	0xbe62f1ae	-0.22162506
24	0x3c7bfe86	0.015380507
25	0x3db23007	0.08700567
26	0xbe395b8f	-0.18101333
27	0xbe4a5a1f	-0.19760941
28	0xbdbafb20	-0.091299295
29	0xbd5a3e8a	-0.0532823
30	0xbd3005bd	-0.042974222
31	0x3d998eeb	0.074979626
32	0xbdcd76f0	-0.10032451
33	0x3cccc21c	0.024994902
34	0x3d252763	0.040320765
35	0xbe09e69c	-0.13466877
36	0x3e6828f2	0.2267187
37	0xbdb7fc0f	-0.08983623
38	0xbe151dbc	-0.14562124
39	0xbcd14e9d	-0.025550181

main.7.running_var f4 [40]
0	0x3c74ae02	0.014934065
1	0x3c1e5a5f	0.009665101
2	0x3cb00f96	0.021491807
3	0x3c81aee3	0.015830463
4	0x3c8a9e42	0.016921166
5	0x3c8f08a7	0.01746018
6	0x3cc078a8	0.023495033
7	0x3d5ab44c	0.0533946
8	0x3cc5f490	0.024164468
9	0x3e714275	0.23560508
10	0x3db47e48	0.08813149
11	0x3c7f19da	0.015570128
12	0x3cbc47d7	0.022983475
13	0x3d2b2918	0.041787237
14	0x3c86d2a8	0.01645787
15	0x3caee52c	0.021349512
16	0x3ce937ac	0.02846893
17	0x3c50defb	0.012748475
18	0x3c51e5f4	0.012811173
19	0x3d07ba8a	0.033136882
20	0x3c9a2bed	0.018819774
21	0x3c59f2e0	0.013302535
22	0x3c466c82	0.012110831
23	0x3caa9333	0.020822143
24	0x3cb659b0	0.022259563
25	0x3ca50af4	0.020146824
26	0x3e10f8ba	0.14157382
27	0x3cc5cd64	0.02414579
28	0x3c7c3079	0.015392416
29	0x3cbc4f2b	0.022986969
30	0x3cccbfbe	0.024993774
31	0x3cbc7354	0.023004211
32	0x3cc2dac7	0.023785962
33	0x3cef357d	0.02920031
34	0x3e0531d9	0.13007297
35	0x3ca35cc2	0.019941691
36	0x3c89414b	0.016754767
37	0x3ce9fcf7	0.028563006
38	0x3c81767e	0.015803572
39	0x3c3140c0	0.01081866

main.10.weight f4 [180, 360]
0	0xbc601643	-0.013677183
1	0xbd0f5dcd	-0.035001565
2	0xbd1bd1b3	-0.03804178
3	0x3b918397	0.0044407356
4	0xbbc3066a	-0.0059516924
5	0xbd4a0f42	-0.049330957
6	0x3d127f2f	0.035765823
7	0xbd93c43c	-0.07215163
8	0x3a6aa8c4	0.00089515396
9	0xbcbd5ac4	-0.02311457
10	0xbd3e2f05	-0.04643156
11	0xbd4170e5	-0.047226805
12	0x3b98538f	0.004648633
13	0x3b66777a	0.0035166428
14	0xbd1ca0c5	-0.03823926
15	0xbc824b76	-0.015905123
16	0x3d092c56	0.033489548
17	0xbcbb06fc	-0.022830479
18	0xbc863f60	-0.016387641
19	0x3cf59b60	0.029981315
20	0x3d61669a	0.05502949
21	0x3c751489	0.014958509
22	0xbabf081c	-0.001457456
23	0xbc2b858e	-0.010468854
24	0x3cde0580	0.027102232
25	0x3d2ef548	0.042714387
26	0x3d65f267	0.056139376
27	0x3c0196f4	0.007909525
28	0x3a91c906	0.0011122532
29	0x3c3b535a	0.011433447
30	0x3d201de1	0.039090995
31	0x3cbdb33b	0.023156753
32	0x3c9d1ef7	0.019179804
33	0x3c96e8cf	0.018421559
34	0xbc74f4a2	-0.014950903
35	0xbd633e85	-0.055479545
36	0x3d07d70b	0.033164065
37	0x3d13a2c0	0.036043882
38	0xbc9705f4	-0.018435456
39	0xbd458d0d	-0.04823022
40	0xbd24e45b	-0.04025684
41	0xbcfd799f	-0.030941783
42	0x3d238124	0.03991808
43	0xbb474116	-0.0030403784
44	0x3cb282a1	0.021790804
45	0xbd46ebc1	-0.048564676
46	0x3d2fdba0	0.04293406
47	0xbcf18e57	-0.029486818
48	0x3b406586	0.0029357388
49	0x3d305b6c	0.043055937
50	0x3c33c0a3	0.010971221
51	0x3ce9c962	0.02853841
52	0x3afa7395	0.0019107932
53	0x3c4a0ef5	0.012332668
54	0xbd100473	-0.035160493
55	0xbd3ae962	-0.045632727
56	0x3b8a8515	0.0042272904
57	0xbcf7c229	-0.03024395
58	0x3b5fcd2b	0.003414939
59	0xbd40a20f	-0.04702955
60	0x3cff757e	0.031183954
61	0xbd29b757	-0.041434612
62	0x3c30f26c	0.010799985
63	0x3d1ffb95	0.039058287
64	0xbd4d4752	-0.050116844
65	0xbc6b43b4	-0.014359403
66	0xbd2f6cb1	-0.042828266
67	0xbc5812c6	-0.01318807
68	0xbd45fa88	-0.04833463
69	0x3b25762e	0.0025247443
70	0x3c71e03c	0.014762934
71	0xbc2ad69b	-0.0104271425
72	0xbd303380	-0.043017864
73	0x3d57dc9a	0.052700616
74	0xbc801519	-0.01563506
75	0x3cdf672a	0.027270872
76	0xbd00eb4f	-0.031474408
77	0x3ca2b257	0.01986043
78	0xbd47f0f7	-0.048813786
79	0x3b0a140c	0.0021069078
80	0xbba207b0	-0.004944764
81	0xbca3b725	-0.019984791
82	0xbd3a99ad	-0.045556713
83	0xbbf982c6	-0.0076144664
84	0xbd0e523c	-0.034746394
85	0xbcc7aee6	-0.02437539
86	0xbc6ba327	-0.01438216
87	0x3d236a57	0.039896335
88	0x3d4fd609	0.05074123
89	0xbcda7630	-0.026667684
90	0x3d51a90a	0.0511866
91	0x3d3f5618	0.046712965
92	0xbce02587	-0.027361644
93	0xbd347925	-0.044060845
94	0xbd156970	-0.036477506
95	0x3cb15d5c	0.021650963
96	0x3cc38bae	0.023870315
97	0x3cf91545	0.03040565
98	0x3d32bafd	0.043635357
99	0x3d2442f2	0.040102907
100	0x3cfbef11	0.030753644
101	0xbb4c6847	-0.0031190084
102	0xbd58a28a	-0.052889384
103	0xbb9abeb1	-0.004722439
104	0xbb8e472c	-0.0043419804
105	0xbcd79634	-0.02631674
106	0x3cf42f89	0.029807823
107	0xbd32a74e	-0.043616585
108	0xbc8e70e0	-0.017387807
109	0x3d22418e	0.0396133
110	0x3cec7ff1	0.028869601
111	0xbcd0119a	-0.025399018
112	0x3d4971a9	0.04918066
113	0xbc2de8d3	-0.010614592
114	0xbd4560e1	-0.048188094
115	0x3d54cba3	0.051952016
116	0xbc35aba4	-0.011088286
117	0xbce85530	-0.028360933
118	0xbb2de89f	-0.0026536358
119	0xbd53b5ff	-0.051687237
120	0x3d09a5dd	0.033605445
121	0xbd5b80c3	-0.053589594
122	0xbc8e01d9	-0.017334865
123	0x3bf6fe93	0.007537672
124	0x3cae910c	0.021309398
125	0x3ca3f8d2	0.020016108
126	0xbcf69afe	-0.030103203
127	0xbcc0dcfd	-0.023542875
128	0xbb8dd400	-0.004328251
129	0x3ad26c6c	0.0016054041
130	0xbd2af8fa	-0.04174135
131	0x3b86f4aa	0.0041185217
132	0xbd1ebb7f	-0.03875303
133	0x3cec1056	0.028816383
134	0x3cc53564	0.02407331
135	0xbcacac72	-0.021078322
136	0x3c3d0bb8	0.0115384385
137	0x3c7594c2	0.01498908
138	0xb97c0035	-0.0002403267
139	0xbca0c45d	-0.019624883
140	0x3d11f412	0.035633154
141	0x3d30886f	0.043098863
142	0xbbfb6c48	-0.0076728202
143	0xbd483756	-0.048880897
144	0x3d4cb055	0.04997285
145	0xbd277433	-0.0408823
146	0x3d02a281	0.031893257
147	0x3cc4c217	0.02401833
148	0x3d77c0b9	0.06048653
149	0x3d4e605b	0.05038486
150	0x3d0d94ba	0.034565665
151	0x3d14c5b7	0.036321368
152	0x3d4d7e7c	0.050169453
153	0x3d2b15ec	0.041768953
154	0x3bd04414	0.006355772
155	0x3a6c23ee	0.00090080395
156	0xbbbb605b	-0.0057182736
157	0xbd003399	-0.031299207
158	0x3bb49a1f	0.0055115367
159	0xbcc2ef63	-0.02379579
160	0xbd1911f9	-0.037370656
161	0xbc921b73	-0.017835354
162	0x3c3af1ee	0.01141022
163	0xbb0a9eea	-0.002115185
164	0x3c4dcccb	0.0125610335
165	0x3d473467	0.04863396
166	0x3d4fdb9f	0.050746556
167	0xbcb747a4	-0.022373028
168	0xba1aae5f	-0.0005900617
169	0x3cc7a7ec	0.024372064
170	0x3cd289cf	0.025700478
171	0xbd2795c2	-0.040914305
172	0xbc8fed1f	-0.017569123
173	0xbc814732	-0.015781019
174	0xbaaf0229	-0.0013352084
175	0xbc1527b0	-0.0091037005
176	0x3cb9f20d	0.022698427
177	0x3d357647	0.04430225
178	0xbc3d66e3	-0.011560175
179	0x3c9d1f1c	0.019179873
180	0xbd07a6d8	-0.0331181
181	0xbd462b24	-0.048380986
182	0xbc3cc960	-0.011522621
183	0xbd03f994	-0.032220438
184	0x3d17bce6	0.037045382
185	0xbd141841	-0.036155943
186	0x3a80a9d7	0.0009816241
187	0x3c76631d	0.015038279
188	0xbd19750b	-0.037465136
189	0x3bef1004	0.0072956104
190	0xbc8bb56a	-0.017054278
191	0xbc80cd4a	-0.01572289
192	0xbc8770cb	-0.016533276
193	0x3d4e7a51	0.05040962
194	0x3c3acf40	0.011401951
195	0x3c86d958	0.01646106
196	0xbb85753c	-0.0040728133
197	0x3d49024c	0.049074456
198	0x3b6fe0a8	0.0036602411
199	0x3c9bd97b	0.019024601
200	0x3c97137c	0.018441908
201	0xbc539e8b	-0.012916218
202	0xbd09a12b	-0.033600967
203	0x3d0bde99	0.034147833
204	0xbbd6252a	-0.006535192
205	0xbc18b15c	-0.0093196295
206	0x3d045ddd	0.032316078
207	0xbd08e2d1	-0.033419434
208	0x3c822f7c	0.015891783
209	0xbca48c1d	-0.020086342
210	0xbd069c5d	-0.032863963
211	0xbaa867ae	-0.0012848282
212	0x3d2ee05e	0.042694442
213	0xbcf57d9b	-0.02996712
214	0xbc9b2cf8	-0.018942341
215	0x3b1c63d8	0.0023863222
216	0x3d100d9f	0.03516924
217	0x3d388dbc	0.045057043
218	0xba73286f	-0.00092757394
219	0xbbe7c156	-0.007072608
220	0x3cf463a3	0.029832667
221	0xbd53fd8e	-0.05175548
222	0x3d5ed2fb	0.054400425
223	0xbd3ec524	-0.046574727
224	0x3d2820d7	0.041046944
225	0x3cbb9ecb	0.022902867
226	0x3cdb953c	0.026804559
227	0xbc9664d0	-0.018358618
228	0xbd0ec7fb	-0.034858685
229	0x3ce236c2	0.027614001
230	0xbd1cc8e9	-0.03827754
231	0x3c2e69ae	0.010645313
232	0xbca548f1	-0.020176383
233	0x3d16d72b	0.036826294
234	0x3d4dc941	0.05024076
235	0x3c30a4c7	0.0107814735
236	0x3c3759c8	0.011190839
237	0x3d07d933	0.03316612
238	0xbd3b444c	-0.04571943
239	0xbd0e7b32	-0.034785457
240	0xbbcaeee0	-0.006193027
241	0xbc1b1f5b	-0.009467925
242	0xbb6910ac	-0.0035562916
243	0xbb861a98	-0.0040925257
244	0x3cd9adee	0.026572194
245	0x3d1f4e25	0.038892884
246	0xbd42a4cc	-0.047520444
247	0x3ca5e8ad	0.02025255
248	0x3d26caf7	0.040720906
249	0xbd14a799	-0.036292646
250	0x3d28f5d6	0.041250072
251	0xbd26369b	-0.04057942
252	0xbbc70c1f	-0.006074443
253	0xbd2819dc	-0.041040286
254	0xbcd8202b	-0.026382526
255	0x3d1b3c2f	0.037899192

main.12.weight f4 [90, 180]
0	0x3c5d4f60	0.013507694
1	0x3cc4fbe4	0.024045892
2	0xbcf2e48e	-0.029649999
3	0xbcf5d018	-0.030006453
4	0x3d51b304	0.051196113
5	0xbd4d4463	-0.050114047
6	0x3d9bae57	0.07601612
7	0xbd0e84ad	-0.0347945
8	0x3d6bf1bf	0.057603594
9	0x3cb94616	0.022616427
10	0xbd9241c1	-0.07141448
11	0x3dc55e8f	0.09637176
12	0x3cc32165	0.023819635
13	0xbca5d9e1	-0.020245494
14	0xbd0e2e97	-0.0347124
15	0xbc3790ac	-0.011203926
16	0xbd98fe4e	-0.0747038
17	0xbd3f5c2c	-0.04671876
18	0x3ae2261b	0.0017253788
19	0x3d3ba669	0.045812998
20	0x3d7a667b	0.06113289
21	0x3d7c510e	0.061600737
22	0xbd74138a	-0.059588946
23	0x3c821864	0.015880771
24	0xbc71779f	-0.014737993
25	0xbd9a6c58	-0.07540196
26	0xbcd2510b	-0.02567341
27	0xbc8593f1	-0.016305896
28	0x3da516fb	0.08061024
29	0x3c8753a5	0.016519377
30	0xbd4c1813	-0.049827646
31	0xbd3a6e09	-0.045515094
32	0xbd2ec3c6	-0.042667173
33	0xbc494a23	-0.012285742
34	0x3b1aee20	0.0023640469
35	0xbbc73331	-0.0060791005
36	0xbcaadbd1	-0.02085677
37	0xbc6dab05	-0.014506106
38	0x3cb8f036	0.022575479
39	0xbcae7760	-0.021297157
40	0xbb04239f	-0.0020162833
41	0xbc9c895d	-0.019108469
42	0xbd09ba64	-0.03362502
43	0x3d86b3c9	0.0657726
44	0xbd471470	-0.048603475
45	0x3d31bab0	0.04339093
46	0x3d6aec60	0.05735433
47	0x3d9b72e8	0.07590276
48	0xbd8a1067	-0.0674141
49	0x3cc538ac	0.024074875
50	0xbd78c6a7	-0.060736325
51	0x3d6484b6	0.055790626
52	0xbb1210f1	-0.002228793
53	0x3d37a9f2	0.044839807
54	0xbd56abc9	-0.05240992
55	0xbb61235b	-0.003435335
56	0xbb744619	-0.0037273227
57	0xbbea9f0e	-0.007160074
58	0x3c89b92c	0.01681193
59	0x3d162164	0.036652938
60	0x3d9663e5	0.07343272
61	0xbcd20c1c	-0.02564054
62	0x3bf405fd	0.007447003
63	0xbd265b7e	-0.040614597
64	0x3c90bb60	0.017667472
65	0x3d3ffd01	0.046872143
66	0x3d8020d5	0.06256262
67	0x3c970925	0.018436978
68	0x3bbbd93d	0.005732684
69	0x3d5cd94b	0.053918164
70	0xbd0dcbaa	-0.034618057
71	0x3c23490b	0.009966145
72	0x3d769eed	0.060210157
73	0x3d2ebb5c	0.04265915
74	0xbd81e7f2	-0.06343068
75	0x3cfa51de	0.030556615
76	0xbca341ae	-0.01992878
77	0x3ccdee1d	0.025137955
78	0x3cda6d37	0.026663406
79	0xbce44775	-0.027866105
80	0xbc9d8fd9	-0.019233631
81	0xbd8bfa9b	-0.068349086
82	0x3c8aed67	0.016958905
83	0xbc8cc896	-0.01718549
84	0xbcdb7cbf	-0.026792882
85	0xbd27b76d	-0.040946413
86	0xbd4fd857	-0.050743427
87	0x3d305c30	0.043056667
88	0xbd244549	-0.040105138
89	0xbd73f9ad	-0.05956428
90	0xbd7cd5dc	-0.06172739
91	0x3d4eeac6	0.050516866
92	0xbafa70cc	-0.0019107102
93	0xbd37d4f3	-0.04488082
94	0x3b858557	0.0040747332
95	0x3c819ecc	0.01582279
96	0x3c951aa9	0.01820119
97	0xbbaba6d7	-0.0052383947
98	0x3d80ead4	0.0629479
99	0xbcd0a5a7	-0.025469614
100	0xbc0c67dd	-0.008569685
101	0x3d6e19f2	0.058130212
102	0xbd10e326	-0.035372876
103	0xbd899c7a	-0.06719299
104	0x3c693361	0.014233441
105	0xbc45bb7a	-0.012068624
106	0x3ca47042	0.02007306
107	0x3d0d9b85	0.034572143
108	0xbd33c3b1	-0.043887798
109	0x3cc912ab	0.024545034
110	0xbd5455e3	-0.05183972
111	0x3d6e0c59	0.058117244
112	0x3d250c93	0.040295195
113	0x3d933fa0	0.0718987
114	0x3d9b3ebf	0.07580327
115	0xbccb308c	-0.024803422
116	0xbd4c459c	-0.049871072
117	0xbd49cfc2	-0.0492704
118	0x39dc4034	0.00042009505
119	0x3d91ff26	0.07128744
120	0x3db61915	0.08891503
121	0x3d0cafdf	0.03434741
122	0x3d711abe	0.058863394
123	0x3d28e3c3	0.041232836
124	0xbd5025e8	-0.0508174
125	0xbcec577c	-0.02885031
126	0x3d828650	0.06373274
127	0x3d91dc4a	0.07122095
128	0x3c5a05c9	0.013307043
129	0xbbb9583d	-0.005656271
130	0xbd724646	-0.05914905
131	0xbd69ae2b	-0.057050865
132	0x3bbc626c	0.0057490375
133	0xbb9e9fa1	-0.0048408066
134	0xbd385e1d	-0.04501163
135	0xbbe07969	-0.0068504107
136	0x3ccd8f2e	0.025092687
137	0x3d17c371	0.03705162
138	0x3d8506fa	0.06495471
139	0xbd604f64	-0.054763213
140	0x3d7edb8f	0.062221106
141	0x3c635a23	0.013876471
142	0xbd140c54	-0.03614457
143	0x3ac092fa	0.001469224
144	0xbd07a1f1	-0.033113424
145	0x3caa4601	0.020785334
146	0xbd0c3993	-0.034234595
147	0x3d70f346	0.058825754
148	0x3bfb5bd5	0.0076708593
149	0xbd27c766	-0.040961646
150	0xbd793fba	-0.06085179
151	0x3cc39ee7	0.023879481
152	0xbc43d456	-0.01195248
153	0xbd1016d1	-0.03517801
154	0xbcbc4aad	-0.022984827
155	0x3cfde341	0.030992152
156	0xbd859faa	-0.06524594
157	0x3da27d3d	0.079340436
158	0x3d3dd513	0.04634578
159	0x3d281b61	0.041041736
160	0x3d147071	0.036240045
161	0xbcbbdce1	-0.022932472
162	0xbcbd02ba	-0.02307259
163	0xbd256eed	-0.04038899
164	0x3cc84ae1	0.024449768
165	0xbd8c4780	-0.06849575
166	0x3d4f8ade	0.050669543
167	0x3d8726e0	0.06599212
168	0x3c762fdf	0.015026062
169	0xbd91e433	-0.07123604
170	0x3d7fe30c	0.06247239
171	0xbc832b6b	-0.016011914
172	0x3b50c619	0.0031856357
173	0xbac9351a	-0.0015350909
174	0xbcd223f4	-0.02565191
175	0xbcb77270	-0.022393435
176	0xbc940990	-0.018070966
177	0xbd2cffe1	-0.042236213
178	0xbcdace61	-0.026709737
179	0x3d0c6ec1	0.03428531
180	0xbcb06135	-0.021530727
181	0xbd0376ab	-0.032095592
182	0xbd60e389	-0.054904494
183	0x3ca6a2a2	0.020341221
184	0x3b1699ba	0.0022979812
185	0xbca9afe9	-0.020713763
186	0x3b90b102	0.004415632
187	0x3ba064cf	0.00489483
188	0x3d506453	0.050876927
189	0xbda33f4b	-0.079710566
190	0xbd85b0f3	-0.06527891
191	0x3d9c4b1e	0.07631515
192	0xbd8fb1c9	-0.07016332
193	0xbd54a18e	-0.051911883
194	0xbd32bc9f	-0.043636914
195	0x3d8eb01f	0.06967186
196	0x3d9edfb0	0.07757509
197	0xbd912752	-0.07087578
198	0x3c0f1381	0.008732677
199	0xbc9313e3	-0.017953819
200	0xbb956586	-0.0045592217
201	0xbc3c597c	-0.011495944
202	0x3d3da2aa	0.046297707
203	0xbd4a14af	-0.04933613
204	0x3c4aef7a	0.012386197
205	0xbca05ecc	-0.019576453
206	0x3cd608a2	0.026127163
207	0xbc83054f	-0.015993742
208	0x3db45a94	0.08806339
209	0xbc98b358	-0.018640205
210	0xbd3b0980	-0.045663357
211	0xbd4ac81f	-0.049507257
212	0x3d121ade	0.035670154
213	0xbd63ec7f	-0.055645462
214	0xbd8ff53c	-0.070291966
215	0x3cc901bc	0.02453696
216	0x3d9ecfe9	0.077544995
217	0xbd810f61	-0.063017614
218	0xbda1a6f0	-0.07893169
219	0x3d4a10d7	0.049332466
220	0xbd2bb7e8	-0.041923434
221	0x3c021148	0.0079386905
222	0xbd82c781	-0.063857086
223	0xbc4b78ab	-0.012418906
224	0xbd09285a	-0.033485748
225	0x3d9d52d6	0.07681815
226	0x3d835d57	0.064142875
227	0xbd9eaf46	-0.077482745
228	0x3d898c15	0.06716172
229	0xbd3c4330	-0.045962512
230	0x3dcfbc3c	0.10143325
231	0x3c3aa8f9	0.011392825
232	0x3c8d9496	0.017282765
233	0xbd385018	-0.04499826
234	0x3db0e7e5	0.0863798
235	0x3d82ea85	0.06392387
236	0x3d9ce61a	0.07661076
237	0x3dbb9f96	0.09161298
238	0x3d148590	0.036260188
239	0xbc0c4d13	-0.008563298
240	0xbcc864ce	-0.02446213
241	0x3d62f233	0.05540676
242	0xbd35ba2d	-0.044367004
243	0xbd9380eb	-0.072023235
244	0x3d160a7b	0.03663109
245	0xbda16fe7	-0.07882672
246	0x3badaebc	0.005300371
247	0x3d288014	0.04113777
248	0x3d496683	0.04917003
249	0x3d21ddff	0.039518353
250	0xbbaf3e2b	-0.005347987
251	0xbc89ee40	-0.01683724
252	0xbd515fc1	-0.05111671
253	0x3a6be57f	0.0008998736
254	0xbda542a3	-0.080693506
255	0x3c52be74	0.01286279

main.14.weight f4 [45, 90]
0	0x3dedad79	0.11605353
1	0x3d0d47fd	0.03449248
2	0x3c9898fe	0.01862764
3	0x3d96107c	0.07327363
4	0xbbbc58bf	-0.005747884
5	0xbd6f3bd6	-0.058406673
6	0xbdca1b91	-0.09868539
7	0x3dcda33b	0.10040899
8	0x3cb7aff8	0.022422776
9	0xbd6ba800	-0.057533264
10	0xbdee1542	-0.11625148
11	0x3c003b95	0.007826705
12	0x3d9008f8	0.07032961
13	0x3d1d6b6e	0.03843253
14	0x3ca7e21c	0.02049356
15	0x3d14f995	0.036370832
16	0x3d09110f	0.033463534
17	0x3d4683ab	0.048465412
18	0x3d395ad3	0.045252632
19	0xbdb51568	-0.088419735
20	0x3dbeb7c7	0.093123965
21	0xbdd0a89b	-0.10188409
22	0x3cb15442	0.021646623
23	0x3c0ff99b	0.008787538
24	0xbdc77f05	-0.09741024
25	0x3da563ac	0.080756515
26	0x3bcc9442	0.0062432596
27	0x3de3cb81	0.111228
28	0xbda33b26	-0.07970266
29	0xbdb3a816	-0.08772294
30	0xb987f7f6	-0.00025933952
31	0x3da6ceb4	0.08144894
32	0xbdb9f993	-0.09080806
33	0xbdcc9dc7	-0.09991031
34	0xbd1538df	-0.03643119
35	0x3dd7b96c	0.10533413
36	0xbd3b442a	-0.045719303
37	0xbd9c039e	-0.076178774
38	0xbc84aede	-0.016196664
39	0xbdb663f8	-0.08905786
40	0x3dd06a69	0.10176546
41	0x3d93667d	0.071972825
42	0xbdd1aded	-0.10238252
43	0x3d8502fc	0.0649471
44	0xbd8e3bab	-0.069449745
45	0xbd8474f5	-0.0646762
46	0x3da58fff	0.08084106
47	0x3e36ba39	0.17844476
48	0x3cbb69dd	0.022877628
49	0xbd9b890d	-0.075945
50	0xbd9f99fd	-0.07793043
51	0x3d142eb5	0.036177356
52	0xbdb8aa8e	-0.09016906
53	0xbdabdac3	-0.08391335
54	0x3dee5429	0.11637146
55	0xbddadf8c	-0.106871694
56	0x3c4f3251	0.012646274
57	0x3d52d478	0.051472157
58	0x3d3781be	0.044801466
59	0x3d7a873d	0.06116413
60	0xbd19361c	-0.03740512
61	0xbcaac87a	-0.020847548
62	0x3d969cd0	0.07354128
63	0xbcd72338	-0.02626191
64	0x3df3a324	0.11896351
65	0xbd636361	-0.055514697
66	0xbd872cf8	-0.06600374
67	0x3d3f6034	0.046722606
68	0xbdd232cf	-0.10263597
69	0xbd297e4a	-0.041380204
70	0x3d901756	0.07035701
71	0xbd075475	-0.03303953
72	0xbdc5faa4	-0.096669465
73	0x3c897fb1	0.01678452
74	0x3de1ac53	0.11019196
75	0x3dc1d0db	0.09463664
76	0x3d81083f	0.06300401
77	0xb9db7540	-0.00041858293
78	0xbc33016f	-0.010925635
79	0xbdbb687d	-0.09150789
80	0x3c7caaae	0.015421553
81	0x3abf6bdd	0.0014604289
82	0x3a878e80	0.0010342151
83	0xbdcf7e9c	-0.10131571
84	0x3da71e66	0.08160095
85	0xbb77a81a	-0.0037789405
86	0x3e5349e7	0.2063366
87	0x3e05c6b9	0.13064088
88	0xbb1087aa	-0.0022053518
89	0x3b92a29f	0.0044749524
90	0xbdf821e4	-0.12115839
91	0x3d81b54f	0.0633341
92	0xbd18b065	-0.037277598
93	0x3d89fafb	0.06737324
94	0xbe36ce07	-0.1785203
95	0x3dabdf27	0.08392172
96	0x3b816036	0.003948237
97	0xbc8e03e0	-0.017335832
98	0xbceb18fa	-0.028698433
99	0xbd166c3e	-0.03672432
100	0x3ddd5812	0.10807814
101	0xbd06eaae	-0.03293865
102	0xbd3135af	-0.043264087
103	0xbd9630ee	-0.07333551
104	0xba292bde	-0.0006453375
105	0xbe0d1c95	-0.13780434
106	0xbd13334a	-0.035937585
107	0xbdbfae9c	-0.09359476
108	0xbd00d4c3	-0.031452905
109	0xbd4ba03f	-0.04971337
110	0x3e1f0e73	0.15532856
111	0xbd6826b6	-0.056677543
112	0xbd739959	-0.059472416
113	0xbd93fdaa	-0.07226117
114	0x3bde2a2b	0.006779929
115	0x3e01538e	0.1262953
116	0x3d5af1ba	0.053453185
117	0x3deac6e7	0.11463719
118	0x3bd81e25	0.0065953904
119	0xbd5f099b	-0.05445252
120	0x3cd24fff	0.02567291
121	0xbd3211c6	-0.04347398
122	0xbda6bf9c	-0.08142015
123	0x3cc797ea	0.02436443
124	0xbe01cdb4	-0.12676126
125	0xbd8331cc	-0.064059824
126	0x3da3269e	0.0796635
127	0x3dbf224f	0.09332716
128	0xbd851320	-0.064977884
129	0x3cf5bef3	0.029998278
130	0xbd8ac822	-0.067764536
131	0x3d698490	0.057011187
132	0xbd813498	-0.063088596
133	0xbd7da13f	-0.061921354
134	0xbda99071	-0.08279503
135	0xbdba652b	-0.091013275
136	0xbd97eb9f	-0.07417988
137	0x3dfb272d	0.122633316
138	0xbdaa847c	-0.08326051
139	0x3e159e0e	0.14611074
140	0xbd10e808	-0.035377532
141	0xbc61947f	-0.013768314
142	0xbce11bcd	-0.027479077
143	0xbda8e6b1	-0.08247126
144	0x3d84ef72	0.06490983
145	0xbdc7a352	-0.09747948
146	0x3dd907a3	0.1059716
147	0xbb694db4	-0.0035599293
148	0xbd32007e	-0.0434575
149	0x3d6171cb	0.055040162
150	0xbd4f514f	-0.05061465
151	0xbe05450d	-0.13014622
152	0xbc9a50f4	-0.01883743
153	0x3d10bf96	0.03533896
154	0xbd19e131	-0.037568275
155	0x3b27e3d3	0.0025617972
156	0xbcf310bd	-0.029671067
157	0x3a17df61	0.0005793479
158	0x3c684eb0	0.014178917
159	0x3d059c69	0.032619867
160	0x3ddc7b7f	0.107657425
161	0xbd193498	-0.037403673
162	0xbd2e16a0	-0.042502046
163	0xb9a1d972	-0.00030870322
164	0x3cf8b44c	0.03035941
165	0xbe280d86	-0.16411409
166	0xbd73fa0c	-0.059564635
167	0x3d9f5837	0.077804975
168	0xbdcced8c	-0.10006246
169	0x3b9ddf99	0.0048179147
170	0x3d509feb	0.05093376
171	0x3d1978ef	0.037468847
172	0x3c4e0eb8	0.012576751
173	0x3c800eb9	0.01563202
174	0xbdab948e	-0.08377944
175	0x3d5150f3	0.05110259
176	0x3d52c6aa	0.051458992
177	0x3c276fa8	0.010219492
178	0x3d173fb5	0.03692599
179	0xbcb14f8a	-0.021644372
180	0x3d5f91b1	0.0545823
181	0xbcdf8fda	-0.027290273
182	0x3dd77666	0.105206296
183	0xbc711c06	-0.014716154
184	0xbc3f3cad	-0.011672181
185	0x3d122050	0.035675347
186	0xbba08abd	-0.0048993514
187	0xbccefd76	-0.025267344
188	0x3b4c5754	0.0031179981
189	0x3db69560	0.0891521
190	0x3dcc4c71	0.099755175
191	0xbdb30997	-0.087420635
192	0x3dd41b37	0.10356753
193	0x3b89b66f	0.004202656
194	0x3d2b5206	0.04182627
195	0x3d9839ba	0.074328855
196	0xbdab9422	-0.083778635
197	0x3dd13ec7	0.10217052
198	0x3d7a8043	0.061157476
199	0x3d69c640	0.05707383
200	0x3d887e22	0.06664683
201	0x3dcec387	0.10095888
202	0xbd0f6d78	-0.035016507
203	0xbdb70c53	-0.089378975
204	0xbcb07125	-0.021538327
205	0x3d907aa1	0.070546396
206	0x3d918d33	0.0710701
207	0xbc4c9b63	-0.012488219
208	0xbd44a388	-0.048007518
209	0x3d55f0fa	0.052231766
210	0x3dbdf484	0.09275153
211	0xbdb38ab0	-0.08766687
212	0x3da26aef	0.07930552
213	0xbc4f294f	-0.012644126
214	0xbd2cfcbb	-0.04223321
215	0xbcc61bb3	-0.02418313
216	0xbd73bc42	-0.05950571
217	0x3d81f591	0.06345666
218	0xbd9686e5	-0.07349948
219	0x3cf77c1a	0.030210543
220	0xbd514fb0	-0.051101387
221	0xbd1baa0c	-0.038003966
222	0x3d5716b9	0.052511904
223	0xbd8e1473	-0.06937494
224	0xbc1889a7	-0.009310163
225	0xbd947fcb	-0.07250937
226	0xbdcdf905	-0.10057262
227	0x3c98f4f1	0.018671485
228	0xbdd2b22c	-0.1028789
229	0xbdaaddf5	-0.08343116
230	0x3d3a1b30	0.045436084
231	0xbcfe5d0d	-0.03105023
232	0x3c254bc6	0.010088867
233	0x3dbcf7ec	0.09226975
234	0xbd29520b	-0.041338008
235	0xbba15381	-0.0049232845
236	0x3c7a8bf1	0.015292154
237	0xbce5061d	-0.027957017
238	0x3d964bd3	0.07338681
239	0x3ca3ed25	0.02001054
240	0xbc84b577	-0.01619981
241	0x3d615dfe	0.05502128
242	0xbcfe0971	-0.031010361
243	0x3d78b945	0.06072356
244	0xbd510a81	-0.051035408
245	0xbd9f3940	-0.077745914
246	0x3d92a8d2	0.07161106
247	0x3d4f934e	0.05067759
248	0x3dd28936	0.10280077
249	0x3d2bbaae	0.04192608
250	0x3d6de0c8	0.058075696
251	0x3daf9e96	0.0857517
252	0x3d9d2d07	0.07674604
253	0xbd71d9c8	-0.059045583
254	0x3d6186a3	0.05506004
255	0x3abeda00	0.0014560819
