submission/code/models/penneAlPesto2.pth (torch, 412914 bytes, 15 tensors)

main.0.weight f4 [10, 3, 4, 4]
0	0xbd597ec1	-0.053099398
1	0x3d7f58a4	0.062340394
2	0xbd3f50a3	-0.04670776
3	0xbdbefd54	-0.09325662
4	0xbe4ad318	-0.19807088
5	0xbe227cc4	-0.15867907
6	0xbdeaed89	-0.114710875
7	0x3debb7d6	0.11509673
8	0xbdbb67f6	-0.09150688
9	0xbdff9a95	-0.12480656
10	0xbe0cd6e4	-0.1375385
11	0xbe34b467	-0.17646943
12	0xbe15bf6d	-0.14623804
13	0xbd8b8211	-0.068119176
14	0x3c8d5868	0.01725407
15	0x3d49669b	0.049170118
16	0x3d4607a0	0.048347116
17	0xbd4a9782	-0.049460895
18	0xbe39c147	-0.18140136
19	0x3d24ec06	0.040264152
20	0x3bd6e83b	0.0065584457
21	0x3e14d161	0.14532997
22	0x3c74d514	0.01494338
23	0x3e217959	0.15768947
24	0xbc7f7f96	-0.015594384
25	0x3d5d8664	0.054083243
26	0xbe5c4698	-0.21511304
27	0xbe137917	-0.14401661
28	0xbc335e03	-0.010947707
29	0xbd06968c	-0.032858416
30	0x3cacc797	0.021091266
31	0xbd9edf2b	-0.0775741
32	0xbca70989	-0.020390289
33	0xbe03a720	-0.12856722
34	0xbe51f60a	-0.20504013
35	0xbe1da4c0	-0.15394878
36	0xbc8c1680	-0.017100573
37	0xbca1e5a9	-0.01976283
38	0x3e8ee720	0.2791071
39	0xbe0ba722	-0.13637975
40	0x3d45abab	0.04825942
41	0xbd5a866e	-0.05335086
42	0x3cfacc81	0.030615093
43	0xbe3e9fbc	-0.18615621
44	0xbe0d592e	-0.1380355
45	0x3ce7c04a	0.028289933
46	0xbe352e39	-0.17693414
47	0x3c88e2fe	0.0167098
48	0x3dac7cf1	0.08422268
49	0x3d8522d3	0.06500783
50	0x3d017f13	0.031615328
51	0x3e3f553d	0.1868486
52	0xbd2eeaf8	-0.042704552
53	0x39f8e6ba	0.0004747415
54	0xbd93e5bb	-0.07221552
55	0x3e42e46c	0.19032449
56	0xbd70fb32	-0.05883331
57	0x3de2fe3d	0.11083648
58	0x3d844d16	0.064600155
59	0x3dbda554	0.092600495
60	0x3c02f221	0.007992298
61	0xbda7ca9f	-0.08192944
62	0x3de0244c	0.10944423
63	0xbe3c2a99	-0.18375625
64	0xbdc2512b	-0.09488138
65	0x3da04368	0.07825357
66	0x3c739f63	0.014869544
67	0xbdfba574	-0.12287417
68	0x3d6a8576	0.057256185
69	0xbe34c8ba	-0.17654696
70	0xbebbd3d8	-0.3668506
71	0x3db480ff	0.088136666
72	0xbce43113	-0.027855432
73	0x3da4bc5a	0.08043738
74	0x3c585ca1	0.013205678
75	0x3c3e8b8f	0.011629953
76	0x3dce4373	0.10071459
77	0xbd534a2a	-0.0515844
78	0xbd271b0c	-0.04079728
79	0xbd393652	-0.04521782
80	0xbda100be	-0.0786147
81	0x3e2b3869	0.16720738
82	0xbc7ae525	-0.015313421
83	0x3c78820f	0.015167727
84	0xbe1d0dc3	-0.15337281
85	0xbd91b75a	-0.0711505
86	0x3cc7d528	0.024393633
87	0x3dbb1314	0.09134498
88	0x3dcec258	0.10095662
89	0xbc4020f4	-0.011726607
90	0x3db4f009	0.088348456
91	0xbdf0f823	-0.11766078
92	0xbca30861	-0.019901456
93	0xbd9ea8f5	-0.0774707
94	0xbd0a8b38	-0.033824176
95	0x3d0d38cb	0.03447799
96	0x3afcabe6	0.0019277304
97	0x3d4711a8	0.048600823
98	0xbc113806	-0.008863455
99	0xbd93ff1e	-0.07226394
100	0x3d85f5b7	0.06541007
101	0x3e5346d8	0.20632493
102	0xbe4ecd8c	-0.20195597
103	0xbc08a57c	-0.008340236
104	0x3db1db7b	0.08684441
105	0x3d587aff	0.052851673
106	0xbc380315	-0.011231204
107	0x3d7bb810	0.061454833
108	0xbe1f5dba	-0.15563098
109	0x3e86a638	0.2629869
110	0xbe335dcc	-0.1751625
111	0xbcd953bb	-0.026529184
112	0x3dfd6d8c	0.1237441
113	0xbcbb0546	-0.022829663
114	0x3d420f33	0.047377776
115	0x3d82904e	0.0637518
116	0xbdeeca8e	-0.11659728
117	0xbc1834cb	-0.009289931
118	0xbd37c08d	-0.044861365
119	0x3d6d22f0	0.057894647
120	0x3c06a4b9	0.008217984
121	0x3e0fdc00	0.14048767
122	0xbde10745	-0.10987715
123	0x3d8e8546	0.06959014
124	0x3db8b26f	0.090184085
125	0xbe05a3b6	-0.13050732
126	0x3da258e5	0.079271115
127	0x3e20ec28	0.15715086
128	0xbd8ceb99	-0.06880874
129	0x3de210a1	0.11038328
130	0x3deacefc	0.114652604
131	0x3df454ff	0.11930274
132	0x3d6662b7	0.056246486
133	0xbb7ace57	-0.003826996
134	0xbd6f01ab	-0.0583512
135	0x3e451b85	0.19248779
136	0x3d95dc7c	0.07317445
137	0xbdd236f0	-0.10264385
138	0x3e0e958c	0.13924235
139	0x3e0312af	0.12800096
140	0xbb9ee55a	-0.004849118
141	0xbcadcfb2	-0.0212172
142	0x3d902c5b	0.0703971
143	0x3da1183e	0.07865952
144	0x3d5641d3	0.05230887
145	0xbdae9c7d	-0.085259415
146	0x3cecd832	0.028911684
147	0xbccbaf13	-0.024863755
148	0xbe4a33dd	-0.19746347
149	0x3d43cb3c	0.04780124
150	0x3e7978f1	0.24362542
151	0x3d754807	0.059883144
152	0x3dad4e63	0.08462217
153	0xbd96a881	-0.07356358
154	0x3e1da415	0.15394624
155	0xbbcaa240	-0.0061838925
156	0xbd2de18f	-0.042451438
157	0x3b965489	0.004587714
158	0x3e067fb5	0.13134654
159	0x3cf1fb2c	0.029538713
160	0x3df1bdce	0.118037805
161	0xbe4a2c03	-0.19743352
162	0x3d458fa0	0.048232675
163	0x3d0e7ef5	0.034789044
164	0x3e55dd04	0.20885092
165	0xbd239364	-0.039935485
166	0xbd844414	-0.06458297
167	0xbda0ea6d	-0.07857213
168	0x3dbf3508	0.09336287
169	0xbd88cbbe	-0.06679486
170	0x3bea9371	0.0071586897
171	0x3e01064d	0.1260006
172	0xbd0a0719	-0.033698175
173	0xbe6fef90	-0.2343123
174	0x3d26b598	0.040700525
175	0xbd783e72	-0.060606427
176	0x3d61c4d4	0.05511935
177	0xbd84d4f3	-0.06485929
178	0x3e24ccf8	0.16093814
179	0xbd643fec	-0.055725023
180	0xbd09540f	-0.03352743
181	0x3db517a3	0.08842399
182	0xbe3cfc05	-0.18455513
183	0xbce0ee8c	-0.027457498
184	0x3e4cdae0	0.20005369
185	0xbd7c80d7	-0.06164631
186	0x3b8948ee	0.004189602
187	0xbbcda200	-0.0062754154
188	0x3d615c8a	0.055019893
189	0x3dfb69bb	0.12276026
190	0x3dc60919	0.09669704
191	0xbe00ec13	-0.12590055
192	0x3df43d3d	0.11925743
193	0x3e1aaff9	0.1510619
194	0x3dedd4ac	0.116128296
195	0x3e9104f9	0.28324106
196	0xbd891288	-0.06692988
197	0x3df4b3c3	0.11948349
198	0x3c795247	0.01521737
199	0x3deb3b94	0.11485973
200	0x3e27d8dd	0.1639132
201	0x3e76dd9f	0.24107979
202	0x3eb541ca	0.35401756
203	0x3eb79a19	0.35859755
204	0xbe20b107	-0.1569253
205	0xbc53725b	-0.012905682
206	0x3ceb86bd	0.028750772
207	0xbddc8e7f	-0.107693665
208	0xbd5adfc8	-0.05343607
209	0x3e7eba4f	0.24875759
210	0x3e50e66c	0.20400399
211	0x3e904d54	0.28183997
212	0xbc52ed9e	-0.012874035
213	0xbe1c77bf	-0.15280055
214	0x3d8ce816	0.068802044
215	0xbd9fad1b	-0.07796689
216	0x3e59e72b	0.2127959
217	0x3e5a525d	0.21320482
218	0x3e79d971	0.24399354
219	0x3e5042b2	0.20337942
220	0x3d37e647	0.044897344
221	0xbb12acc6	-0.0022380813
222	0x3e5b1539	0.21394815
223	0xbd6fa1ad	-0.058503795
224	0x3d1afd63	0.037839305
225	0x3e4369ce	0.1908333
226	0x3d7a7676	0.06114813
227	0x3e1acce4	0.15117222
228	0xbd575418	-0.052570432
229	0x3db6e099	0.08929557
230	0x3d2cf72f	0.04222792
231	0xbe5d20ec	-0.2159459
232	0xbab3741f	-0.0013691223
233	0x3e26e5fe	0.16298673
234	0x3e5dba03	0.21652989
235	0x3e4e69d2	0.20157555
236	0x3db66a89	0.08907039
237	0xbd9a3383	-0.07529356
238	0xbd32a32f	-0.043612655
239	0xbdfa60ce	-0.12225495
240	0xbbeb7381	-0.0071854
241	0x3d973ac5	0.07384256
242	0xbdbf5469	-0.09342272
243	0xbdeece4f	-0.11660444
244	0xbdbc86c8	-0.09205395
245	0xbe37aaae	-0.17936203
246	0xbddff3ad	-0.10935149
247	0xbd30899f	-0.043099996
248	0x3b92dafb	0.004481671
249	0xbe482bb0	-0.19547915
250	0xbe2ec43c	-0.17067045
251	0xbd3d35bc	-0.046193823
252	0xbda9a5bb	-0.08283564
253	0x3de6cb61	0.1126926
254	0xbe691d4c	-0.22765082
255	0x3a1b2be8	0.00059193233

main.3.weight f4 [20, 10, 4, 4]
0	0x3b1d9ec0	0.0024050921
1	0x3c364384	0.011124495
2	0x3cda3ee5	0.026641319
3	0x3c48caf9	0.012255424
4	0x3ce231b4	0.02761159
5	0xbc127f33	-0.0089414595
6	0x3ca1d9f4	0.019757248
7	0x3d9f243d	0.07770584
8	0xbce61e2a	-0.028090555
9	0xbcb44fe4	-0.022010751
10	0xbcfc90ea	-0.03083082
11	0x3d1bf522	0.038075574
12	0x3da00495	0.07813374
13	0x3d30c9e0	0.043161273
14	0xbd0dff2a	-0.03466717
15	0xbdacecd5	-0.084436096
16	0x3c5d588e	0.013509883
17	0x3d1c1995	0.038110334
18	0xbd6bf7ff	-0.057609554
19	0xbd24e571	-0.040257875
20	0x3ca3be55	0.019988218
21	0x3d83e152	0.06439461
22	0x3cac084b	0.021000048
23	0xbd69bdfa	-0.05706594
24	0x3db0903e	0.08621262
25	0xbdbb3dc5	-0.09142641
26	0xbcbd0b2d	-0.023076618
27	0xbd5e39b0	-0.054254234
28	0x3c4a81c8	0.012360044
29	0xbae374ff	-0.0017353593
30	0x3d7688d8	0.060189098
31	0xbd18cab6	-0.037302695
32	0x3d5b2aa1	0.05350745
33	0x3da5dfdd	0.08099339
34	0x3de7b71d	0.11314223
35	0xbda68131	-0.0813011
36	0xbc7533d8	-0.014965974
37	0xbdbbe813	-0.09175124
38	0xbddbc9fc	-0.10731885
39	0xbdce3e6b	-0.10070499
40	0xbd22a4d7	-0.039707985
41	0xbe0b4213	-0.13599424
42	0xbd7b9dda	-0.061429836
43	0x3d8c8dc9	0.06862981
44	0xbd0d1f1b	-0.034453493
45	0xbcf7827a	-0.030213583
46	0xbdd0f315	-0.10202614
47	0x3ca9dba8	0.020734623
48	0x3d120531	0.035649482
49	0xbda0e1cc	-0.07855567
50	0xbd27c327	-0.040957596
51	0x3d888ed7	0.066678695
52	0x3daa6dbd	0.08321712
53	0xbc0f660d	-0.008752358
54	0x3b59ead3	0.0033251538
55	0x3d548fc9	0.051894937
56	0xbd48f8ed	-0.04906552
57	0xbd9b8553	-0.07593789
58	0x3de7ed7c	0.113245934
59	0x3d5e67e7	0.054298308
60	0xbd0beab3	-0.034159373
61	0x3d982ed3	0.07430806
62	0x3cd05360	0.025430381
63	0xbd91f05b	-0.07125922
64	0xbd2342b9	-0.039858554
65	0x3dcd8a10	0.10036099
66	0x3e34c1c5	0.17652042
67	0x3e08942f	0.13337778
68	0xbc07ff6e	-0.008300645
69	0xbcead24e	-0.028664734
70	0xbdd3d26c	-0.10342869
71	0x3d176c4d	0.036968518
72	0xbde9b93a	-0.11412282
73	0xbe02f404	-0.12788397
74	0xbe1cdc16	-0.15318331
75	0xbc3b8da8	-0.011447348
76	0x39a882f7	0.00032141033
77	0xbe5d1ebb	-0.21593754
78	0x3d971013	0.07376113
79	0x3df745a3	0.12073829
80	0xbd77a872	-0.060463376
81	0x3dfe4570	0.12415588
82	0x3d706304	0.05868818
83	0x3dc75212	0.097324505
84	0xbdb20348	-0.08692032
85	0xbc481f13	-0.01221444
86	0x3ca2ce9e	0.019873913
87	0xbda54c9c	-0.08071253
88	0x3bd471a2	0.0064832726
89	0x3d4cb5e1	0.04997814
90	0x3d9b1eca	0.07574232
91	0xbd3650f0	-0.04451078
92	0x3d03918f	0.032121237
93	0xbda22c57	-0.079186134
94	0x3e1d2567	0.15346299
95	0xbd32f517	-0.043690767
96	0xbd04c6af	-0.032416042
97	0xbcda5b31	-0.026654812
98	0x3ccd7eb5	0.025084833
99	0x3d3976e5	0.045279402
100	0xbd759bd7	-0.059963074
101	0x3d7ddfa0	0.061980844
102	0xbbadb268	-0.0053008087
103	0xbd2347a0	-0.03986323
104	0x3ddfe23f	0.10931825
105	0x3d6d25ae	0.057897262
106	0xbd27c367	-0.040957835
107	0x3c20ea7b	0.0098215295
108	0x3d6074f6	0.054799043
109	0x3d2dd413	0.042438578
110	0xbd1a4a1b	-0.03766833
111	0xbc212a61	-0.009836764
112	0x3d0846a2	0.033270486
113	0xbd84dc15	-0.0648729
114	0xbc315a93	-0.010824817
115	0x3d074db9	0.033033106
116	0xbd9ce68b	-0.0766116
117	0xbde53ecd	-0.11193619
118	0xbe138fe0	-0.14410353
119	0xbdacb663	-0.08433225
120	0x3dddae2d	0.10824237
121	0x3b281e03	0.0025652654
122	0xbde024c0	-0.109445095
123	0x3d5d86f1	0.05408377
124	0x3d7821b1	0.060579006
125	0xbd3c1f29	-0.045928154
126	0xbd49a986	-0.049233936
127	0x3d9a9f64	0.075499326
128	0xbd959d23	-0.07305362
129	0x3da5e4e2	0.081002966
130	0xbe03fadb	-0.12888663
131	0x3c846134	0.016159631
132	0x3d21415e	0.03936898
133	0x3c9f1e2b	0.019423565
134	0xbd85de79	-0.06536574
135	0xbdeb5cba	-0.114922956
136	0x3b0a8726	0.0021137684
137	0x3e285ed8	0.1644243
138	0x3dd28ffd	0.1028137
139	0x38821d73	6.2043684e-05
140	0x3d9aa96a	0.075518444
141	0x3e1b9d10	0.15196633
142	0xbc9a5cf7	-0.018843157
143	0x3bc988a1	0.0061503206
144	0xbd0c032d	-0.034182716
145	0x3ddf4633	0.10902061
146	0x3c30e2a7	0.010796226
147	0xbdabb231	-0.08383597
148	0xbd70a63e	-0.05875229
149	0x3c89877d	0.016788239
150	0x3de2a107	0.1106587
151	0x3d24de47	0.040251043
152	0xba5129ac	-0.0007978927
153	0x3dbe8283	0.09302237
154	0x3d044e12	0.032301016
155	0x3de04f4f	0.10952627
156	0x3da9076e	0.0825337
157	0x3c54bd65	0.012984608
158	0x3dc239ec	0.09483704
159	0x3d445fcd	0.047942925
160	0x3dc374e1	0.09543777
161	0x3c8733bf	0.016504167
162	0x3d5116cc	0.05104713
163	0x3c948f8d	0.018134857
164	0x3d784c60	0.060619712
165	0x3d199a37	0.037500586
166	0xbd4258cc	-0.047447965
167	0xbc6e0492	-0.014527457
168	0x3acf304c	0.001580724
169	0x3d12d565	0.03584804
170	0x3a916275	0.0011091965
171	0xbc1fefee	-0.009761794
172	0xbc005883	-0.007833603
173	0xbd97d656	-0.07413928
174	0xbd81dfe3	-0.06341531
175	0x3d2c3b9e	0.042049043
176	0x3cecaf4e	0.028892186
177	0x3d96412d	0.0733665
178	0x3d6f50cd	0.058426667
179	0x3d63170f	0.055441912
180	0x3d055ff0	0.032562196
181	0x3d50f266	0.05101242
182	0x3d163bba	0.036678053
183	0xbd4dc8b8	-0.05024025
184	0x3c9e892a	0.019352514
185	0x3c4c933d	0.012486276
186	0xbd1f1f30	-0.038848102
187	0xbd1b17e8	-0.037864596
188	0x3d921041	0.071320064
189	0xbcdb99a6	-0.026806664
190	0xbd33dbac	-0.043910667
191	0x3cb12fe6	0.021629285
192	0x3ce1167f	0.027476547
193	0xbd7b6474	-0.061375096
194	0x3caf7624	0.021418639
195	0xbd07ac38	-0.033123225
196	0x3d0da275	0.03457876
197	0x3d9372f9	0.07199664
198	0xbd846761	-0.064650305
199	0x3d1338fe	0.035943024
200	0xbd280e1a	-0.041029073
201	0x3bcb7f1b	0.0062102205
202	0x3d19ceba	0.037550665
203	0xbcec09b5	-0.028813222
204	0xbd5dd09b	-0.05415402
205	0xbcfd82fa	-0.030946244
206	0xbd66e58e	-0.056371264
207	0xbca4f00f	-0.020134
208	0x3c019719	0.00790956
209	0xbc5c913b	-0.01346236
210	0xbda61c60	-0.08110881
211	0x3d5dcec0	0.05415225
212	0x3d8b7e59	0.06811208
213	0x3d870f4f	0.06594717
214	0x3cead7b1	0.028667303
215	0xbc13d18c	-0.009022128
216	0x3cc1ae47	0.023642672
217	0xbd03d89f	-0.032189008
218	0x3d08a732	0.033362575
219	0xbc87a3e5	-0.016557643
220	0xbcc88108	-0.02447559
221	0xbd047a05	-0.03234293
222	0xba69105d	-0.0008890683
223	0x3d81fcc5	0.0634704
224	0xbddd3f77	-0.108031206
225	0xbd8582b4	-0.0651907
226	0x3d525f00	0.05136013
227	0xbd890dd4	-0.06692091
228	0x3ddae221	0.10687662
229	0x3e110f2b	0.14165942
230	0x3da1b85e	0.078964934
231	0xbe00c078	-0.12573421
232	0xbd84c42f	-0.064827316
233	0x3d97bc69	0.07408983
234	0x3c26a95b	0.010172213
235	0xbdc3fab2	-0.09569301
236	0x3d8a2705	0.06745724
237	0xbbbaf94b	-0.0057059876
238	0x3d52bc09	0.051448856
239	0x3d8a5ce0	0.06755996
240	0xbd8dacc3	-0.06917717
241	0xbbecb471	-0.0072236587
242	0xbcd4bd4e	-0.025969174
243	0xbc83d4eb	-0.016092738
244	0xbd97a0c9	-0.07403714
245	0x3d60761d	0.05480014
246	0x3c961c29	0.018323975
247	0xbc2d5ce8	-0.010581233
248	0xbc9dee46	-0.019278657
249	0x3d4f3330	0.050585926
250	0xbdbe86d9	-0.09303064
251	0xbda1c0d1	-0.07898105
252	0xbcc6a6a1	-0.024249377
253	0xbd129ff2	-0.035797067
254	0xbdaeccc2	-0.08535148
255	0xbda6b636	-0.08140223

main.4.weight f4 [20]
0	0x3f9062e4	1.1280179
1	0x3f84df64	1.0380673
2	0x3f87aa4f	1.0598849
3	0x3f86c1ec	1.052793
4	0x3f89d0e0	1.0766869
5	0x3f869c86	1.0516517
6	0x3f8cacfd	1.0990292
7	0x3f8bd52c	1.092443
8	0x3f85e68b	1.0460981
9	0x3f86a587	1.0519265
10	0x3f802f9e	1.0014532
11	0x3f88cae6	1.068692
12	0x3f809e3c	1.0048289
13	0x3f87dca8	1.0614214
14	0x3f81e598	1.0148191
15	0x3f833252	1.0249732
16	0x3f809a68	1.0047121
17	0x3f83230a	1.0245068
18	0x3f8462ce	1.0342653
19	0x3f83acb1	1.0287076

main.4.bias f4 [20]
0	0x3cf7449c	0.030184083
1	0x3c332f2f	0.010936542
2	0x3c8c8213	0.017151868
3	0x3d0ed0b9	0.034867022
4	0x3d3492ac	0.04408519
5	0x3c852ec0	0.016257644
6	0xba07ce35	-0.00051805686
7	0x3c390021	0.011291535
8	0x3c51a938	0.012796693
9	0x3c8f2b2c	0.01747664
10	0xbbc15b1d	-0.005900754
11	0xbc199e1f	-0.009376078
12	0x3c86289f	0.016376792
13	0x3c183513	0.009289998
14	0x3ccb0434	0.024782278
15	0xbc9045aa	-0.017611343
16	0xbb99c617	-0.0046928036
17	0x3cc3c114	0.023895778
18	0x3ab137df	0.0013520679
19	0x3b6b9071	0.0035944248

main.4.running_mean f4 [20]
0	0xc3991170	-306.13623
1	0x4415cb7e	599.17957
2	0xc519d6c4	-2461.4229
3	0xc4ac10b4	-1376.522
4	0xc4126f30	-585.7373
5	0x439b5752	310.6822
6	0xc3f50fbc	-490.12292
7	0x43c93e96	402.48895
8	0xc4802933	-1025.2875
9	0xc2b0ad05	-88.33793
10	0xc4b61cc2	-1456.8987
11	0x449e6002	1267.0002
12	0xc46f7be9	-957.9361
13	0xc480f7b7	-1031.7411
14	0xc3cbdbf8	-407.7185
15	0x44f6c652	1974.1975
16	0x453e4c43	3044.7664
17	0xc581f361	-4158.4224
18	0xc492a8e7	-1173.2782
19	0xc3bece03	-381.60947

main.4.running_var f4 [20]
0	0x49ae2a31	1.4267581e+06
1	0x4b404777	1.2601207e+07
2	0x4b690bbc	1.5272892e+07
3	0x4a84aa0b	4.3471415e+06
4	0x4a31e241	2.9144482e+06
5	0x4ab37320	5.880208e+06
6	0x49bad1fc	1.5304315e+06
7	0x4a388d75	3.0237092e+06
8	0x4a3b5044	3.068945e+06
9	0x4a0857f8	2.233854e+06
10	0x4b2a986b	1.1180139e+07
11	0x4ab6525b	5.9743175e+06
12	0x4aba5380	6.105536e+06
13	0x4ad470c1	6.9612485e+06
14	0x4a631a21	3.7208402e+06
15	0x4b6c6076	1.549119e+07
16	0x4c0e8bda	3.7367656e+07
17	0x4bd75b4e	2.8227228e+07
18	0x4a3b06b8	3.064238e+06
19	0x4a1df5dd	2.5880232e+06

main.6.weight f4 [40, 20, 4, 4]
0	0xbc22b33a	-0.009930426
1	0xbae90ca7	-0.001778026
2	0xbbff1b1d	-0.0077852146
3	0xbbbe28c6	-0.0058032004
4	0x3cc5e65e	0.0241577
5	0xbc3e9b33	-0.011633682
6	0xb94175a5	-0.0001844974
7	0x3d0ee578	0.034886807
8	0xbcbad6db	-0.02280753
9	0xbd26dfcb	-0.04074077
10	0xba38bc33	-0.0007047087
11	0x3d231448	0.039814264
12	0x3d558e1a	0.05213747
13	0x3cff4331	0.031159969
14	0xbc4a7c19	-0.012358689
15	0x3c972113	0.018448388
16	0x3d05ce94	0.03266771
17	0xbb5a2391	-0.003328536
18	0x3d5110bc	0.05104135
19	0xbc814b6e	-0.015783038
20	0x3d2fd531	0.042927925
21	0xbce252fc	-0.02762746
22	0xbd2a161a	-0.041524984
23	0x3bf443a9	0.007454355
24	0xbd6cae47	-0.05778339
25	0x3d210b22	0.039317258
26	0x3ca1dc04	0.019758232
27	0xbcff1d19	-0.031141805
28	0xbbc506e4	-0.0060127843
29	0x3bc6c801	0.006066323
30	0xbd2032df	-0.039111014
31	0xbd286eb0	-0.041121185
32	0xbd5f33ae	-0.054492645
33	0x3cca742b	0.024713596
34	0x3cc3549c	0.023844056
35	0xbd1e2b5d	-0.038615573
36	0xbd569f8c	-0.05239825
37	0x3bb401dd	0.005493386
38	0x3d235b6e	0.039882116
39	0x3d1771dd	0.036973823
40	0x3d23d1fd	0.039995182
41	0xbd615822	-0.05501569
42	0xbd70a99a	-0.058755495
43	0x3c0b9e9b	0.008521701
44	0xbd30dcf3	-0.043179464
45	0x3bbb6655	0.005718986
46	0x3d34b4bf	0.044117685
47	0xbc81cbbf	-0.015844224
48	0xbd0fd0c6	-0.03511121
49	0xbd318f0d	-0.043349314
50	0x3c8e3aae	0.017361965
51	0x3d19783c	0.03746818
52	0x3caea870	0.021320552
53	0xbcf5d809	-0.03001024
54	0x3d8c29ba	0.06843896
55	0x3d68ae69	0.056806955
56	0x3c17aac8	0.009257026
57	0x3d5f090d	0.05445199
58	0xbc49aab0	-0.0123087615
59	0x3d3cb72f	0.046073135
60	0x3d49e13a	0.04928706
61	0x3c709f28	0.014686383
62	0x3c3ef30c	0.011654627
63	0x3d0b642e	0.034031086
64	0x3c6089bc	0.013704713
65	0x3cd1d410	0.025613815
66	0x3d3dac56	0.04630693
67	0x3c93ac72	0.018026564
68	0x3bbe1216	0.005800496
69	0x3d73e736	0.05954667
70	0x3b8c5fa8	0.004283864
71	0x3d43757a	0.047719456
72	0x3bb4d284	0.0055182595
73	0x3d33be3a	0.043882586
74	0x3a612ee8	0.00085900584
75	0x3d5519b0	0.05202645
76	0xbd3be2c5	-0.04587056
77	0xbbee167b	-0.0072658635
78	0x3cc872e9	0.024468856
79	0x3ccb767f	0.024836777
80	0xbd398e8b	-0.045301955
81	0xbbeaa043	-0.007160218
82	0x3ccb7761	0.024837198
83	0x3d7d3325	0.061816353
84	0xbd3b0dce	-0.045667462
85	0xbca94775	-0.020663956
86	0x3cf1c522	0.029512946
87	0x3ccfdfc1	0.025375249
88	0x3c91985e	0.01777285
89	0x3d2fd293	0.04292543
90	0x3d4bc373	0.04974694
91	0x3d373e47	0.044737127
92	0xbd148156	-0.036256157
93	0xbd2f0f30	-0.042739093
94	0xbc5d873e	-0.013521014
95	0x3d02503e	0.031814806
96	0xbd6ee8c7	-0.058327463
97	0x3c433324	0.011914048
98	0x3cacbd5a	0.021086384
99	0xbd5ccd57	-0.053906765
100	0xbcd1f2eb	-0.025628528
101	0xbd561f44	-0.05227591
102	0x3a314815	0.0006762755
103	0x3c846558	0.016161606
104	0x3c9e0a56	0.019292038
105	0x3bc1e14c	0.00591675
106	0xba47ca57	-0.00076213985
107	0x3ca5eb4a	0.020253796
108	0xbd40a09a	-0.04702816
109	0x3d359c2d	0.044338394
110	0x3d552853	0.05204041
111	0xbd002d18	-0.031293005
112	0x3bf7e6a3	0.007565336
113	0xbd8ee5ae	-0.06977402
114	0x3cd4e923	0.025990075
115	0xbb1b3abc	-0.0023686131
116	0xbc511f8f	-0.012763872
117	0xbccc4368	-0.024934486
118	0xbd492cdb	-0.049115043
119	0x3d15855f	0.036504146
120	0xbd061bf1	-0.03274149
121	0x3cd12dc3	0.025534516
122	0x3c9d3439	0.01918994
123	0xbd049c92	-0.03237588
124	0xbd24629e	-0.04013311
125	0xbd3bf998	-0.045892328
126	0x3ce1a17b	0.02754282
127	0x3cda096d	0.026615823
128	0x3d1eb5ca	0.038747586
129	0x3d04cf2a	0.03242413
130	0xbc82f1c4	-0.015984423
131	0xb9d9b39a	-0.0004152328
132	0x3b872fca	0.00412557
133	0x3d0c8313	0.03430469
134	0x3d0e3863	0.034721743
135	0x3b919084	0.0044422764
136	0x3d15ff2c	0.036620304
137	0xbcb4dec5	-0.022078881
138	0x3d11f267	0.035631564
139	0x3d72be42	0.059263475
140	0xbc80bf9d	-0.015716368
141	0xbcfa882d	-0.030582512
142	0xbd20a97d	-0.039224137
143	0x3cbd1068	0.023079112
144	0x3d0e6d8f	0.034772452
145	0x3cfd5849	0.030925887
146	0x3c9fac3b	0.019491306
147	0x3d2d149c	0.042255983
148	0x3d34c473	0.04413266
149	0x3d21e23a	0.039522387
150	0xbb53c61e	-0.0032314132
151	0xbba09c46	-0.0049014417
152	0x3cf63c9f	0.030058203
153	0x3bf3ce1c	0.0074403416
154	0x3d793ff0	0.06085199
155	0x3d22fad4	0.03978999
156	0x3d83bcf2	0.06432523
157	0x3d2d87eb	0.04236595
158	0xbc3046fb	-0.010759111
159	0x3d17d275	0.03706594
160	0xbcb83ba1	-0.02248937
161	0x3d26f972	0.040765233
162	0xbd0bcbe9	-0.03413001
163	0x3d2da6d5	0.04239543
164	0x3c7dca8f	0.015490188
165	0x3cf67549	0.030085223
166	0x3d15e270	0.0365929
167	0x3b3d4f91	0.0028886537
168	0xbc773f36	-0.015090754
169	0x3cfb3426	0.030664515
170	0xbcd43106	-0.025902282
171	0xb9be6d6a	-0.00036321144
172	0xbcee3fb0	-0.029083103
173	0x3d0a14dd	0.033711303
174	0x3c94cd7d	0.01816439
175	0x3d380661	0.04492796
176	0x3d28a3c4	0.041171804
177	0x3d4c0a34	0.049814418
178	0x3cb8a46d	0.022539342
179	0x3d35fe79	0.044432137
180	0x3d287517	0.04112729
181	0xbc7c1c3d	-0.015387592
182	0x3b229f0a	0.0024814033
183	0xbd45b94f	-0.048272427
184	0xbcdb9617	-0.026804967
185	0xbd0f31af	-0.03495949
186	0xbca70d67	-0.020392133
187	0xbbdecabf	-0.0067990716
188	0x3d04c4ba	0.032414176
189	0xbcf9ce71	-0.030493947
190	0xbd509635	-0.0509245
191	0x3d12e176	0.035859548
192	0xbcddf928	-0.027096346
193	0xbbc2b123	-0.0059415265
194	0xbcf95583	-0.030436283
195	0xbc8d8499	-0.017275142
196	0x3d3f0ab1	0.046641055
197	0x3d298775	0.041388948
198	0x3d660352	0.05615551
199	0x3d55e795	0.052222807
200	0x3d1601c1	0.036622766
201	0xbcde24c1	-0.027117135
202	0x3d5bb964	0.0536436
203	0x3d0d7e5c	0.034544334
204	0x3d73a39b	0.0594822
205	0xbca0ff08	-0.019652858
206	0x3cb71e58	0.022353336
207	0x3d317475	0.043323953
208	0x3c70ece7	0.014704919
209	0x3d69a16d	0.057038713
210	0xbd06377c	-0.032767758
211	0xb9728116	-0.00023127007
212	0x3d630b1c	0.055430517
213	0xbc66eaa9	-0.014094033
214	0x3cc86aeb	0.024465045
215	0x3ba78270	0.005111985
216	0x3d2336ca	0.039847173
217	0xbd7b5011	-0.061355654
218	0xbcaf92a8	-0.021432236
219	0xbd016817	-0.03159341
220	0xbc663449	-0.014050552
221	0x3d1d75eb	0.038442533
222	0x3d5cad8f	0.053876456
223	0xbc05077a	-0.008119458
224	0x3bcc5e38	0.0062368177
225	0xbc05c4d7	-0.008164606
226	0xbd059d0c	-0.032620475
227	0xbc9e6410	-0.019334823
228	0xbd28455f	-0.041081782
229	0x3b467b78	0.0030285995
230	0x3d59397c	0.053033337
231	0x3b6a8e0c	0.0035790233
232	0x3cccc29e	0.024995144
233	0xbb8fa440	-0.004383594
234	0xbd2995e8	-0.041402727
235	0xbba1ab5d	-0.004933758
236	0x3c7bf57f	0.015378355
237	0xbd4f8bec	-0.05067055
238	0x3d2e4ebd	0.04255556
239	0xbd197c44	-0.037472025
240	0xbcdc47af	-0.02688965
241	0xbcd6d235	-0.026223281
242	0x3a137ee7	0.0005626515
243	0xbd156447	-0.036472585
244	0xbcec661f	-0.028857289
245	0x3c4578f2	0.012052761
246	0x3d112708	0.035437614
247	0xbbd4d30d	-0.006494886
248	0x3cf8e4f1	0.030382605
249	0x3c5236a6	0.012830412
250	0xbc0cde98	-0.008597992
251	0x3c21815e	0.009857504
252	0x3cafcce5	0.021460006
253	0x3ca33560	0.019922912
254	0xbd639599	-0.05556259
255	0xbd0e545b	-0.034748416

main.7.weight f4 [40]
0	0x3f83d5b8	1.0299597
1	0x3f838fa8	1.0278215
2	0x3f875600	1.057312
3	0x3f8541f0	1.0410748
4	0x3f8f91c5	1.121636
5	0x3f890fdb	1.0707964
6	0x3f890c85	1.0706946
7	0x3f854ce8	1.0414095
8	0x3f8365de	1.0265462
9	0x3f850d13	1.0394615
10	0x3f885a7e	1.0652616
11	0x3f90f4ec	1.1324744
12	0x3f8424b3	1.03237
13	0x3f8d026d	1.1016365
14	0x3f864095	1.0488459
15	0x3f899ce6	1.0751007
16	0x3f83be78	1.0292501
17	0x3f8262d2	1.0186408
18	0x3f8f83d0	1.1212101
19	0x3f8671a8	1.0503435
20	0x3f8ac37f	1.0840911
21	0x3f844024	1.0332074
22	0x3f828888	1.0197916
23	0x3f830397	1.023547
24	0x3f8258d3	1.0183357
25	0x3f86d19f	1.0532721
26	0x3f8733a4	1.0562634
27	0x3f833f6a	1.0253727
28	0x3f863ff7	1.048827
29	0x3f832871	1.0246717
30	0x3f8a1a9f	1.0789374
31	0x3f821702	1.0163271
32	0x3f87a7ef	1.0598124
33	0x3f8458f1	1.0339643
34	0x3f8519f5	1.0398546
35	0x3f85a844	1.0441976
36	0x3f853472	1.040663
37	0x3f87e768	1.0617495
38	0x3f875ca5	1.0575148
39	0x3f8aa692	1.0832083

main.7.bias f4 [40]
0	0x3ad8d0bc	0.00165417
1	0x3c221a4d	0.009893966
2	0x3c1fff61	0.009765477
3	0x3c291e5f	0.010322182
4	0x3c45962c	0.01205973
5	0x3cc73aa3	0.024319952
6	0x3c90345b	0.01760309
7	0x3c2c3429	0.010510483
8	0x3c347b9f	0.011015802
9	0x3c83516a	0.016030032
10	0x3bd3a7c3	0.0064592077
11	0x3cf55d62	0.029951755
12	0x3c7b686b	0.015344719
13	0x3cabfbac	0.02099403
14	0x3ca035dd	0.019556934
15	0x3c6111b4	0.013737131
16	0x3c079ad0	0.008276656
17	0x3c891c56	0.016737144
18	0x3cc98396	0.024598878
19	0x3c566b8a	0.013087163
20	0x3ca97483	0.02068544
21	0x3c263b27	0.010145939
22	0x3bd3e452	0.006466427
23	0x3b8c1dc8	0.004276011
24	0x3bd730da	0.006567103
25	0x3c32079c	0.010866072
26	0x3c710122	0.014709743
27	0x3b13205d	0.002244971
28	0x3c190ec1	0.0093418965
29	0x3c25229e	0.010079054
30	0x3c3b8df0	0.011447415
31	0x3b30dfb0	0.0026988797
32	0x3c41ef5d	0.011836854
33	0x3c3b4cb0	0.011431858
34	0x3c2edc2a	0.010672608
35	0x3c69128e	0.014225615
36	0x3c0727bd	0.00824922
37	0x3c4b01a2	0.012390526
38	0x3cc37c60	0.023863018
39	0x3c5424a1	0.012948186

main.7.running_mean f4 [40]
0	0x3eea38f0	0.45746565
1	0xbd83a6d0	-0.06428301
2	0x3ce837ca	0.028346915
3	0x3d09e1e9	0.03366271
4	0x3c184e23	0.009295973
5	0x3e3837df	0.17990063
6	0x3d026701	0.031836513
7	0x3e25e386	0.16200075
8	0x3dde85f2	0.10865392
9	0x3d5556e6	0.052084826
10	0x3d38fad2	0.045161076
11	0x3de8eda2	0.1137345
12	0x3e0a4d66	0.13506088
13	0xbe44cfae	-0.19219849
14	0xbcb96240	-0.022629857
15	0x3dba1032	0.0908512
16	0xbd4d536f	-0.050128397
17	0xbe3960ec	-0.18103379
18	0xbd25b160	-0.04045236
19	0xbd677312	-0.056506224
20	0x3ccd3a2a	0.025052149
21	0xbe159303	-0.14606862
22	0x3e19b502	0.15010455
23	0xbddf5efa	-0.10906787
24	0x3dc91af2	0.098195925
25	0x3e53e35e	0.20692202
26	0x3e152be5	0.14567526
27	0x3e1e39b7	0.15451704
28	0xbcb2b808	-0.021816269
29	0xbcf77917	-0.030209107
30	0x3d955644	0.072918445
31	0x3dcbdebf	0.09954595
32	0x3db7d123	0.089754365
33	0x3e2b54de	0.16731593
34	0xbdb583a4	-0.08862999
35	0x3d886c40	0.06661272
36	0x3e780f7d	0.24224658
37	0xbdbcd267	-0.092198186
38	0x3e0631e0	0.13104963
39	0x3d7df8d6	0.062004887

main.7.running_var f4 [40]
0	0x3e1a622d	0.15076514
1	0x3dd10858	0.102066696
2	0x3da3c86a	0.0799721
3	0x3da67694	0.08128086
4	0x3d037f19	0.03210363
5	0x3ca88662	0.020571891
6	0x3ceb1ffc	0.028701775
7	0x3d50c580	0.0509696
8	0x3dd17a09	0.102283545
9	0x3d3ff9b7	0.046869006
10	0x3d2ce352	0.042208977
11	0x3d12bbbe	0.035823576
12	0x3ded3f99	0.11584396
13	0x3c5db4ba	0.013531858
14	0x3d5a5ff7	0.053314175
15	0x3cddc08b	0.02706935
16	0x3d867d26	0.06566839
17	0x3e000de3	0.12505297
18	0x3c92cd15	0.017920056
19	0x3cdd4247	0.027009143
20	0x3c8d9f79	0.017287957
21	0x3d203c24	0.039119855
22	0x3cf3070b	0.029666444
23	0x3d8040a8	0.06262332
24	0x3d310e9e	0.04322683
25	0x3d1b967e	0.037985317
26	0x3d0e60fa	0.034760453
27	0x3dfe52f5	0.124181665
28	0x3d80634f	0.062689416
29	0x3dab295c	0.08357498
30	0x3d0609a5	0.03272404
31	0x3db4b926	0.08824377
32	0x3d67d1c9	0.05659655
33	0x3d757938	0.059930056
34	0x3d0e655e	0.03476464
35	0x3d861e24	0.065487176
36	0x3da5c73b	0.08094641
37	0x3d176362	0.036960013
38	0x3c91e31d	0.017808491
39	0x3cc01821	0.023449006

main.10.weight f4 [180, 360]
0	0xbabe167c	-0.001450255
1	0x3d230739	0.03980181
2	0xbce1f80c	-0.027584098
3	0x3cf43419	0.029809998
4	0x3b4be578	0.0031112116
5	0x3ce54a1f	0.027989445
6	0x3c3e2cd3	0.011607367
7	0x3d486aa0	0.04892981
8	0x3d06036a	0.0327181
9	0x3cc01d2e	0.023451414
10	0xba8a1630	-0.0010535177
11	0x3c897a05	0.016781816
12	0x3d09dbdb	0.033656936
13	0x3cd33511	0.02578214
14	0xbd3096c8	-0.043112546
15	0x3c46dfe6	0.0121383425
16	0xbd2fb1a3	-0.042894017
17	0xbd328b10	-0.04358965
18	0x3d254736	0.040351115
19	0xbcdb207c	-0.026748888
20	0x3d32466c	0.04352419
21	0xbcd99409	-0.026559846
22	0x3c8e1425	0.01734359
23	0x3d4bf97f	0.049798485
24	0xbccb44ce	-0.024813082
25	0x3c32c591	0.010911361
26	0xbbb0b6eb	-0.0053928993
27	0xbcdc0028	-0.026855543
28	0xbcda1b91	-0.026624473
29	0xbbaf6584	-0.005352678
30	0xbc2c2484	-0.010506753
31	0xbc911710	-0.017711192
32	0x3d0d46f0	0.03449148
33	0x3d2a2b67	0.041545298
34	0x3d5d9d11	0.05410487
35	0xbc9358b2	-0.01798663
36	0x3d27d0ed	0.04097073
37	0x3d833975	0.064074434
38	0xbb317f1c	-0.002708382
39	0xbbd7c503	-0.006584765
40	0xbc5e3ac6	-0.013563817
41	0x3a2db386	0.00066261773
42	0xbc721806	-0.014776235
43	0x3cf4465b	0.029818704
44	0xbd03df03	-0.032195102
45	0xbb5f28fa	-0.0034051524
46	0xbbc22158	-0.005924385
47	0xbd003ed8	-0.031309932
48	0x3aee1058	0.001816283
49	0xbcb671b8	-0.022271022
50	0xbc89d6a9	-0.01682599
51	0x3d400e95	0.046888907
52	0x3cfa6c6c	0.030569278
53	0xbcdf192c	-0.027233683
54	0x3d300741	0.042975668
55	0x3a9a01f6	0.0011749852
56	0x3d29d284	0.04146053
57	0x3d5f2b4e	0.054484658
58	0x3d036548	0.03207901
59	0xbc7aadb5	-0.015300204
60	0xbd4f0991	-0.050546233
61	0x3d070e4f	0.03297263
62	0xbbfe2bfb	-0.0077567077
63	0x3d9732f2	0.07382764
64	0xbd2528c4	-0.04032208
65	0xbd1e8c79	-0.038708184
66	0xbd1f4010	-0.038879454
67	0x3c9fbf15	0.019500295
68	0x3d20d673	0.039267015
69	0xbd609dcf	-0.054837998
70	0x3d41fc1d	0.047359575
71	0xbd559fc4	-0.052154317
72	0x3d57af34	0.05265732
73	0xbd2ef3dd	-0.042713035
74	0xbcce99e8	-0.025219873
75	0x3d25e447	0.040500905
76	0xbc51a193	-0.01279487
77	0xbd121928	-0.035668522
78	0x3d267d7c	0.040647015
79	0xbd3a0244	-0.045412317
80	0x3ca2a180	0.0198524
81	0x3bb88c69	0.0056319726
82	0x3d3cb957	0.04607519
83	0xbcc1bfbe	-0.023651
84	0x3caf63d9	0.021409916
85	0xbc6bd860	-0.01439485
86	0xbd3d17a3	-0.04616512
87	0xbc2456d5	-0.010030468
88	0x3d5dfd7f	0.05419683
89	0x3ce807ae	0.028323974
90	0x3d8a17d6	0.067428276
91	0x3d24f6f9	0.040274594
92	0x3c86814b	0.016419074
93	0xbd2b08b5	-0.04175635
94	0xbd188564	-0.037236586
95	0x3bee6185	0.007274809
96	0x3d171191	0.036881987
97	0xbd0ca0fd	-0.034333218
98	0xbd6616e3	-0.05617417
99	0x3d2bb575	0.041921098
100	0x3d520e08	0.051282912
101	0x3d435edb	0.047697883
102	0x3cdb528a	0.026772756
103	0xbccc5445	-0.024942527
104	0xbd12a511	-0.03580195
105	0x3d0ce4c6	0.034397863
106	0xbd22634f	-0.03964549
107	0xbc5f9e13	-0.013648528
108	0x3d265bd6	0.040614925
109	0x3c2f95f9	0.010716909
110	0xbca58604	-0.020205505
111	0xbd403da7	-0.046933796
112	0x3d013efa	0.0315542
113	0xbcf0d8c2	-0.029400233
114	0x3cd3f6d0	0.025874525
115	0xbd04de3c	-0.0324385
116	0xbd64d712	-0.05586917
117	0x3d62cb00	0.055369377
118	0xba435e50	-0.00074527133
119	0x3c7456d8	0.014913283
120	0xbd22fcf4	-0.039792016
121	0xba27817b	-0.00063898385
122	0xbc388371	-0.011261807
123	0x3c32b130	0.010906503
124	0xbd6832fe	-0.056689255
125	0xbcf5696f	-0.029957501
126	0xbd1afeec	-0.03784077
127	0xbbe585a8	-0.0070044585
128	0xbc820672	-0.015872214
129	0x3c351c83	0.011054161
130	0x3c8d8781	0.017276527
131	0x3ce77884	0.028255709
132	0x3bb35aac	0.0054734554
133	0xbd68195f	-0.05666482
134	0xbd1d055c	-0.03833519
135	0xbc09d359	-0.008412206
136	0x3d011676	0.03151556
137	0x3c2fb6fa	0.010724777
138	0x3d637c55	0.055538494
139	0x3cdb2e93	0.026755607
140	0xbc11ecef	-0.008906587
141	0x3d1e78c0	0.038689375
142	0xbd06efd6	-0.03294357
143	0xbc5c749e	-0.013455538
144	0x3d2f3c95	0.042782385
145	0x3c0c5203	0.008564475
146	0x3d381f0c	0.044951484
147	0x3ca108b1	0.019657465
148	0x3ccf170d	0.025279546
149	0xbb5bd78f	-0.003354523
150	0x3cca4716	0.0246921
151	0x3d41921c	0.04725848
152	0xbaf64e6d	-0.0018791683
153	0x3b950382	0.0045475373
154	0x3d0350f8	0.03205964
155	0x3bf8b42f	0.007589839
156	0x3b866013	0.0041008084
157	0x3d17d062	0.037063964
158	0xbbdaa6dd	-0.0066727237
159	0xbcf4f82f	-0.0299035
160	0x3d2a9877	0.041649308
161	0x3c078d49	0.008273431
162	0x3d3e6b84	0.046489254
163	0x3d31bb78	0.043391675
164	0xbc048b1e	-0.008089809
165	0x3d347b01	0.04406262
166	0xbd0bc094	-0.034119204
167	0xbd0c5cf8	-0.03426835
168	0x3d6020fb	0.054718953
169	0x3d0bfef1	0.034178678
170	0x3d98fea5	0.074704446
171	0x3d5098a7	0.05092683
172	0xbcbf31ee	-0.023339238
173	0x3caad986	0.020855676
174	0x3ba5205d	0.0050392584
175	0x3d936c1d	0.07198355
176	0x3d0afa8d	0.03393035
177	0x3d010c4f	0.03150588
178	0xbd31b6fe	-0.043387406
179	0x3d2dd955	0.042443592
180	0xbc0b9560	-0.0085195005
181	0x3d79d979	0.060998414
182	0x3ba634fd	0.0050722347
183	0xbd31e146	-0.043427728
184	0xbba017ee	-0.004885665
185	0xbcb23ff2	-0.021759007
186	0x3b9a0618	0.0047004335
187	0xbd43e691	-0.047827307
188	0xbbb3888e	-0.005478925
189	0xba75f343	-0.0009382257
190	0xbd2bc499	-0.041935537
191	0xb7ccbc8b	-2.4406492e-05
192	0x3cd40c97	0.02588491
193	0x3d35a264	0.04434432
194	0x3d518b86	0.05115845
195	0xbd32088a	-0.043465175
196	0x3cf1560b	0.029459974
197	0x3d5ffc91	0.054684225
198	0x3c58f168	0.0132411495
199	0x3c4b0095	0.0123902755
200	0x3b80978c	0.003924316
201	0x3cadabe9	0.021200137
202	0xbc85dbb1	-0.016340109
203	0xbca02a2e	-0.019551363
204	0x3d1911eb	0.037370604
205	0xbd3a82b4	-0.045534804
206	0x3bf58125	0.007492202
207	0xbd1c75ae	-0.038198166
208	0x3cc9af5d	0.024619753
209	0x3ca8894c	0.02057328
210	0x3d45b0c2	0.048264273
211	0xbcf1de8c	-0.029525064
212	0x3cd30f25	0.025764057
213	0x3cbc2227	0.022965504
214	0xbba9930c	-0.005175
215	0xbbe7dd44	-0.0070759375
216	0x3bea09bd	0.007142274
217	0x3d30ba49	0.043146405
218	0xbb984e71	-0.004648023
219	0x3c426cbb	0.011866744
220	0x3d1e874b	0.038703244
221	0xbd344431	-0.044010345
222	0xbbdfb5b5	-0.006827081
223	0x3ce4a16a	0.027909
224	0x3cd3d8e8	0.025860265
225	0xbabd109e	-0.0014424508
226	0xbc1012f9	-0.008793586
227	0xbc587e0b	-0.013213645
228	0xbcd591d8	-0.02607052
229	0x3c0d5fc4	0.008628789
230	0x3c2669de	0.010157077
231	0x3d932881	0.0718546
232	0x3d0f4560	0.03497827
233	0x3ca0e6ff	0.019641398
234	0x3cd2b81f	0.025722561
235	0x3bd52477	0.006504591
236	0xbcb65eb0	-0.022261947
237	0x3b851b64	0.004062103
238	0x3c932ced	0.017965758
239	0x3d063cc5	0.032772798
240	0x3c4a8611	0.0123610655
241	0x3d02a97d	0.031899918
242	0x3c1496aa	0.009069124
243	0x3cc35bfe	0.023847576
244	0xbcc10620	-0.023562491
245	0xbd490f69	-0.049086962
246	0x3d8c303b	0.06845137
247	0xbc59c2af	-0.013291045
248	0xbc265e74	-0.010154355
249	0xbd223bbb	-0.039607745
250	0x3d17f98b	0.037103217
251	0x3d43031e	0.047610395
252	0x3c1a29f0	0.009409413
253	0xbc99af83	-0.018760448
254	0x3d41d8d3	0.04732592
255	0xbd1f13c7	-0.03883722

main.12.weight f4 [90, 180]
0	0xbd6c77fb	-0.05773161
1	0x3d3fc19c	0.0468155
2	0xbd85a0b5	-0.06524793
3	0xbd9558cf	-0.072923295
4	0x3ab05acd	0.0013454795
5	0x3dd6b618	0.104839504
6	0xbdca2d7f	-0.09871959
7	0xbcdff6e2	-0.027339403
8	0x3cffa172	0.031204913
9	0x3d7d0431	0.061771575
10	0xbd1b075e	-0.037848823
11	0xbd0dc132	-0.034608074
12	0xbdba2790	-0.09089577
13	0x3bda6b41	0.0066656177
14	0x3cc357ea	0.023845632
15	0x3d9d00b2	0.07666148
16	0xbdc02947	-0.09382873
17	0xbd7956e6	-0.06087389
18	0x3d28ddf3	0.041227292
19	0xbd221e06	-0.039579414
20	0x3d0625c5	0.032750864
21	0x3b552cbd	0.0032527887
22	0x3d9aba40	0.075550556
23	0xbc7bc315	-0.015366335
24	0xbcce6ca6	-0.025198292
25	0x3c30aadc	0.010782924
26	0xbd8eef37	-0.0697922
27	0x3de049d2	0.1095158
28	0xbc95b3e9	-0.018274264
29	0xbd91f1f8	-0.0712623
30	0xbd6596c2	-0.056051977
31	0x3dbf638f	0.09345161
32	0x3c6071cd	0.013699007
33	0x3da9be51	0.08288253
34	0x3dbc4f5b	0.09194823
35	0x3c826314	0.015916385
36	0x3c336a89	0.010950693
37	0xbcce7399	-0.025201606
38	0x3d6732d5	0.05644496
39	0x3dbb24af	0.09137856
40	0x3d25e925	0.040505547
41	0x3cdbf680	0.026850939
42	0xbcdf069b	-0.02722483
43	0xbcfc0295	-0.03076295
44	0x3caebc05	0.02132989
45	0x3dc041fa	0.09387584
46	0x3c060ef8	0.00818228
47	0x3c25a032	0.010108994
48	0x3db45106	0.088045165
49	0x3d9e0caa	0.07717259
50	0x3d8d3ba6	0.06896143
51	0x3d56c888	0.052437335
52	0x3da5ef18	0.08102244
53	0x3cb7375c	0.022365265
54	0x3c9f50a0	0.019447625
55	0x3c5d09bf	0.013491093
56	0x3d0781f6	0.033082925
57	0xbd91655a	-0.070994094
58	0x3d33c370	0.043887556
59	0x3d9b681b	0.07588216
60	0x3d64085f	0.055672046
61	0x3d8b7793	0.06809916
62	0xbc6bcd10	-0.014392152
63	0x3d1ba884	0.038002506
64	0x3a935f98	0.0011243699
65	0x3d0762ef	0.033053335
66	0xbd3120c7	-0.04324415
67	0x3d4b241f	0.049594995
68	0xbd31fbf2	-0.043453164
69	0xbcd1e0ab	-0.025619825
70	0xbcfd59d8	-0.03092663
71	0xbca19608	-0.01972486
72	0xbbe9f5d3	-0.0071399002
73	0xbd89d4ba	-0.067300275
74	0x3dc7b393	0.09751048
75	0xbcf85aec	-0.030316792
76	0x3d3c5870	0.045982778
77	0xbd3531c4	-0.044236913
78	0x3b5e8197	0.0033951753
79	0xbd93cb7a	-0.072165444
80	0x3b52e34d	0.003217894
81	0xbdacd9ac	-0.08439955
82	0xbcba154a	-0.02271523
83	0xbcf09512	-0.029367957
84	0xbd265f14	-0.040618017
85	0x3c4f21e9	0.012642362
86	0xbc97cf68	-0.018531516
87	0xbcd433e6	-0.025903653
88	0xbce7b11b	-0.028282693
89	0xbd1a722b	-0.037706535
90	0xbb33da73	-0.0027443438
91	0x3d19d53b	0.037556868
92	0xbc77d6a2	-0.015126856
93	0xbcce7f7c	-0.025207274
94	0xbdb00785	-0.08595184
95	0x3c381a14	0.011236686
96	0xbce8936d	-0.02839061
97	0x3d0b537a	0.034015156
98	0xbcc0cacf	-0.023534207
99	0xbd035043	-0.032058965
100	0x3d607b64	0.054805174
101	0x3d46efdc	0.04856859
102	0xbdc22b0f	-0.09480869
103	0x3d536285	0.051607627
104	0xbc827747	-0.015926016
105	0xbbce7eff	-0.00630176
106	0x3de90e75	0.113797106
107	0x3d69a809	0.057045016
108	0x3d25df4c	0.040496156
109	0x3d497cde	0.04919135
110	0x3d2821be	0.041047804
111	0x3a28156d	0.0006411884
112	0xbd7812d9	-0.06056485
113	0xbd8b4ff1	-0.06802357
114	0xbd239125	-0.039933342
115	0x3d9c1a82	0.076222435
116	0xbd37c35e	-0.04486405
117	0xbbdc9c20	-0.0067324787
118	0xbd8f6ebc	-0.07003543
119	0x3d0df4f7	0.034657445
120	0xbd9b662c	-0.07587847
121	0xbd17bcc4	-0.037045255
122	0x3cc079be	0.023495551
123	0x3c01e634	0.00792842
124	0xbd2c044f	-0.041996296
125	0x3cac1f6f	0.021011082
126	0x3d509ba8	0.050929695
127	0x3d01bbf0	0.03167337
128	0xbd8c6800	-0.06855774
129	0xbd5753aa	-0.052570023
130	0x3c3ffbf1	0.011717782
131	0xbd804c88	-0.06264597
132	0xbd859741	-0.0652299
133	0xbd63ee02	-0.055646904
134	0x3d019646	0.031637453
135	0x3c7b5ab0	0.015341446
136	0x3d6840f7	0.05670258
137	0xbce2c862	-0.02768344
138	0x3d7fca39	0.062448714
139	0xbda0d01d	-0.078521945
140	0xbc6a6bb1	-0.014307902
141	0x3d986106	0.07440381
142	0xbdb633a6	-0.0889657
143	0xbd1af0c9	-0.037827287
144	0x3d2c5d6d	0.042081285
145	0x3c89a2f8	0.016801342
146	0xbd8b906a	-0.06814654
147	0x3d8d3d61	0.06896473
148	0x3c4f6222	0.012657674
149	0x3dee1ec8	0.11626965
150	0xbd32e6b4	-0.043677047
151	0x3d087242	0.03331209
152	0x3dc48ff5	0.0959777
153	0xbda2064a	-0.07911356
154	0x3cdc4e7e	0.026892897
155	0x3c17aaed	0.0092570605
156	0x3d3ff7d6	0.046867214
157	0x3d2b6fae	0.041854553
158	0x3d00ae6b	0.031416338
159	0xbd90c6bf	-0.07069158
160	0xbca129ac	-0.019673191
161	0x3d06fa4a	0.032953538
162	0x3da7b417	0.08188646
163	0x3d830f40	0.06399393
164	0xbca8e61d	-0.020617539
165	0xbd10a88d	-0.035316993
166	0x3d42af91	0.047530714
167	0x3d11fe5a	0.03564296
168	0x3c85dc85	0.016340503
169	0xbd9ea866	-0.07746963
170	0xbd57ed06	-0.052716278
171	0x3da893f4	0.08231345
172	0x3d8501f2	0.06494512
173	0x3b0d8027	0.0021591277
174	0x3d482910	0.048867285
175	0x3c567828	0.013090171
176	0xbd2fef41	-0.04295278
177	0x3b3b3448	0.0028565098
178	0x3d4900d9	0.049073074
179	0xbd817189	-0.06320483
180	0x3dce3acb	0.100698076
181	0xbd332fa4	-0.043746606
182	0xbd5a56d0	-0.053305447
183	0xbcbd9dee	-0.023146596
184	0x3d4e46ac	0.050360367
185	0xbc4e6de8	-0.012599446
186	0x3da22e8b	0.079190336
187	0xbd5dc49e	-0.054142587
188	0x3dec78a6	0.11546449
189	0xbd3053f4	-0.043048814
190	0x3c019975	0.007910122
191	0xbd3b2e29	-0.04569832
192	0xbc979a02	-0.018506054
193	0x3d5c9b34	0.05385895
194	0xbd95362c	-0.07285723
195	0x3d2dcd5c	0.042432174
196	0x3d8e7a00	0.069568634
197	0x3d05204a	0.032501496
198	0xbb4e3b50	-0.0031468458
199	0xbd8da85c	-0.069168776
200	0xbd87902b	-0.06619295
201	0x3d2473e4	0.040149584
202	0x3df30396	0.11865918
203	0xbcdd1a48	-0.026990071
204	0x3dcc56b1	0.099774726
205	0xbd171a94	-0.03689058
206	0xbd78d5f4	-0.060750917
207	0xbd1fb942	-0.038995035
208	0x3d3c8f61	0.046035174
209	0x3df57b49	0.119864054
210	0x3d41aadb	0.04728208
211	0xbcfcfedc	-0.030883245
212	0xbd5d5333	-0.054034423
213	0x3c85c2d7	0.016328258
214	0xbd35531e	-0.04426872
215	0xbd955920	-0.0729239
216	0x3d98fda2	0.074702516
217	0xbcd9984f	-0.026561884
218	0x3c30c38b	0.010788809
219	0xba4946d3	-0.0007678095
220	0x3c8e3655	0.017359892
221	0x3d522100	0.051301003
222	0xbd69c476	-0.057072125
223	0xbd86d88b	-0.06584271
224	0x3bdf03ab	0.006805857
225	0xbd6bc947	-0.057565
226	0x3d4db254	0.050218895
227	0xbbdb56ea	-0.0066937106
228	0x3db7dd01	0.089777
229	0x3d9fedfd	0.078090645
230	0xbb132374	-0.0022451552
231	0x3d518e31	0.051160995
232	0xbd8e9327	-0.06961661
233	0x3c81fb8c	0.015867017
234	0x3c39db18	0.01134374
235	0xbd282db2	-0.041059203
236	0x3d790d88	0.06080392
237	0x3a55b6a7	0.00081525225
238	0xbc5e24e7	-0.013558603
239	0xbd9dbdaf	-0.07702195
240	0x3d9d9b6a	0.076956585
241	0xbc98c038	-0.018646345
242	0x3dd3dd0d	0.103448965
243	0xbcb74966	-0.022373866
244	0x3dafa125	0.08575658
245	0x3d73fd15	0.05956753
246	0xbd9decc9	-0.07711179
247	0xbd7066f2	-0.058691926
248	0xbccf67e0	-0.025318086
249	0xbcabac8e	-0.020956304
250	0x3c84eaea	0.016225297
251	0x3caabb3a	0.02084123
252	0x3d6cb066	0.057785414
253	0xbc7f8f63	-0.015598151
254	0xbb28a530	-0.0025733225
255	0x3d802edc	0.06258938

main.14.weight f4 [45, 90]
0	0xbc8d67d9	-0.017261432
1	0xbd420c37	-0.04737493
2	0x3dbce518	0.09223384
3	0xbc90140b	-0.017587682
4	0x3cd2e5de	0.025744375
5	0x3db55136	0.088533804
6	0x3da8f99b	0.082507335
7	0x3d4b0630	0.049566448
8	0xbdcaa3f6	-0.09894554
9	0xbdc62357	-0.09674709
10	0xbda7241a	-0.08161183
11	0x3cd61871	0.026134701
12	0xbdb4ccb1	-0.08828104
13	0x3dfdfb5a	0.12401457
14	0x3d9875a7	0.074443154
15	0xbd7bec01	-0.061504368
16	0xbd7fb588	-0.06242898
17	0x3d6c6cba	0.057720877
18	0xbd05d584	-0.032674327
19	0x3d95e845	0.073196925
20	0x3dc859c8	0.097827494
21	0x3da67f35	0.081297316
22	0x3dbdb21a	0.09262486
23	0x3cd688a9	0.026188212
24	0x3da2cacd	0.079488374
25	0x3d233df8	0.03985402
26	0x3bb4ae70	0.0055139586
27	0x3d9012fa	0.070348695
28	0x3d817476	0.06321041
29	0xbc194263	-0.009354207
30	0x3c481c89	0.012213835
31	0xbd773bc8	-0.060359746
32	0xbde3e1dc	-0.11127064
33	0x3c8a7eed	0.016906226
34	0x3da373ce	0.07981072
35	0x3d964231	0.07336844
36	0xbd43b6c3	-0.047781717
37	0xbb674df1	-0.003529426
38	0xba585e60	-0.0008253809
39	0xbc6551cf	-0.0139965555
40	0x3d4910a7	0.049088147
41	0xbcc75333	-0.024331665
42	0xbdc16159	-0.09442396
43	0xbdb74606	-0.08948903
44	0xbd24c9be	-0.04023146
45	0x3d2104a2	0.03931106
46	0xbc9ad517	-0.018900437
47	0x3d888dc6	0.06667666
48	0x3dcd6d47	0.100306086
49	0x3c344787	0.011003382
50	0xbc854bb3	-0.016271448
51	0xbdb25fc7	-0.08709674
52	0xbdd878ad	-0.10569892
53	0x3d262937	0.04056665
54	0xbd8429bd	-0.064532734
55	0x3d8d3a30	0.06895864
56	0xbd998de3	-0.07497766
57	0xbdca6bc8	-0.09883839
58	0x3e07e767	0.13271867
59	0xbd3a9c61	-0.04555929
60	0xbd68fda6	-0.056882523
61	0xbdcad2ab	-0.09903463
62	0x3d8bafbe	0.068206295
63	0xbc668540	-0.014069855
64	0x3d826626	0.063671395
65	0x3c61cb7b	0.013781424
66	0x3ded5283	0.115880035
67	0x3e04b50d	0.1295969
68	0xbd927520	-0.07151246
69	0xbdb60411	-0.08887494
70	0x3c2bfaca	0.0104968045
71	0xbd6a58e2	-0.05721367
72	0x3d3eb79d	0.046561826
73	0x3da1029c	0.07861826
74	0xbd946bdb	-0.07247134
75	0xbd22ea69	-0.039774332
76	0xbd06f388	-0.032947093
77	0xbcb4afe0	-0.02205652
78	0x3db424da	0.087960914
79	0x3d074f44	0.033034578
80	0x3d874a3a	0.066059545
81	0xbd27826c	-0.040895864
82	0x3da46586	0.080271766
83	0xbd7fd756	-0.06246122
84	0xbd0dfc37	-0.03466436
85	0x3d9ea063	0.07745435
86	0x3c8b43aa	0.017000038
87	0x3d8efa64	0.06981352
88	0xbc513431	-0.012768791
89	0xbba1c651	-0.0049369712
90	0xbd39beae	-0.045347862
91	0x3e38a44b	0.18031423
92	0xbd7d693d	-0.06186794
93	0xbd56eccc	-0.05247192
94	0x3d1065b1	0.03525323
95	0x3db634ff	0.08896827
96	0x3b61c61f	0.0034450365
97	0x3c4f2514	0.012643117
98	0x3d4d01a7	0.050050404
99	0xbdbd2f94	-0.092375904
100	0xbd81a025	-0.06329373
101	0x3dd9374f	0.106062524
102	0xbd20bdb2	-0.039243408
103	0x3d787313	0.06065662
104	0x3a6b0e12	0.0008966635
105	0x3d0fd4f7	0.03511521
106	0xbcfe112c	-0.031014048
107	0x3d8094cd	0.062783815
108	0x3d285768	0.041098982
109	0xbdc4f0c7	-0.09616237
110	0xbcc6bf3f	-0.024261115
111	0x3e530aec	0.20609635
112	0x3da14c68	0.078759015
113	0x3dd022fc	0.10162923
114	0xbd9958c7	-0.07487636
115	0x3da514d9	0.08060617
116	0xbdec01b1	-0.1152376
117	0x3d54b29f	0.05192816
118	0xbd96e263	-0.073673986
119	0xbdcd4bce	-0.10024224
120	0x3a8f5ef1	0.0010938329
121	0xbcd9d999	-0.026593016
122	0xbe162c56	-0.1466535
123	0xbe264cef	-0.16240285
124	0xbdc82896	-0.09773366
125	0x3db233ad	0.087012626
126	0xbd1467b7	-0.036231723
127	0x3d8eaca5	0.06966523
128	0xbdfcac5b	-0.12337562
129	0xbd6ad59d	-0.057332624
130	0xb9ce8b7a	-0.000393953
131	0x3d0912c6	0.03346517
132	0xbbd2db63	-0.0064348443
133	0x3d04ce6c	0.03242342
134	0xbd7c7c32	-0.06164188
135	0xbcd79da1	-0.02632028
136	0x3d0fe5ae	0.03513115
137	0xbe0ce627	-0.13759671
138	0x3da4c7cf	0.08045923
139	0xbbb02399	-0.0053753373
140	0xbdeed2f1	-0.11661328
141	0x3c8b9d2b	0.017042717
142	0xbd21292d	-0.03934591
143	0x3d6eddd0	0.058317006
144	0x3d96c443	0.07361653
145	0x3d977f6a	0.07397349
146	0x3d7f01d9	0.06225762
147	0xbd80f2f2	-0.06296338
148	0x3d97a6aa	0.074048355
149	0xbd21d0c8	-0.03950575
150	0x3e26e699	0.16298904
151	0x3c736c56	0.014857372
152	0x3d4e3c9e	0.050350778
153	0x3c953774	0.018214919
154	0xbd373b7b	-0.04473446
155	0x3d03cd5e	0.032178275
156	0x3de6ad6a	0.11263545
157	0x3cb52bf0	0.022115678
158	0xbcde9fcb	-0.027175805
159	0xbdcfb35b	-0.10141631
160	0x3baace16	0.0052125556
161	0x3ce90749	0.028445857
162	0x3dc1856c	0.09449276
163	0xbde93d3c	-0.11388633
164	0x3cb5f667	0.02221222
165	0xbd649d78	-0.055814236
166	0xbe39c7ea	-0.18142667
167	0x3dc99faf	0.0984491
168	0x3dcb7a65	0.09935454
169	0xbe0311fd	-0.1279983
170	0x3da3acbe	0.07991932
171	0xbbbbd413	-0.0057320683
172	0x3d78fc83	0.06078769
173	0x3db9437d	0.090460755
174	0xbbb3a1b4	-0.005481923
175	0xbdf17763	-0.11790349
176	0xbcf26cbd	-0.029592866
177	0x3cb843e1	0.022493305
178	0xbdaaa2a3	-0.08331802
179	0x3e1da335	0.1539429
180	0xbd96a292	-0.073552266
181	0x3ab838f0	0.0014055055
182	0x3ce423d5	0.027849117
183	0x3cd449d6	0.025914114
184	0x3e1318ab	0.14364879
185	0xbd963bbf	-0.073356144
186	0xbcdbfb9e	-0.026853379
187	0xbdaf4292	-0.08557619
188	0xbd16190e	-0.036644988
189	0x3d4d5add	0.050135482
190	0x3db070bf	0.086152546
191	0x3d539a66	0.051660918
192	0xbdd00da4	-0.10158852
193	0xbdb8eb4f	-0.090292566
194	0xbdaf481f	-0.08558678
195	0xbdac8158	-0.08423108
196	0x3d5c4d56	0.05378469
197	0xbddb2bbb	-0.107017
198	0x3cdb91fa	0.026803005
199	0x3cd461de	0.025925573
200	0xbbef56b0	-0.007304035
201	0xbc8efe60	-0.01745528
202	0x3decc7df	0.1156156
203	0x3cca0c6d	0.024664128
204	0x3c937b14	0.018003024
205	0x3c05a30f	0.008156552
206	0x3d565314	0.052325323
207	0x3d6ace4f	0.057325657
208	0xbd9dbdf9	-0.0770225
209	0x3c00c1a1	0.007858665
210	0x3df4c06d	0.11950765
211	0x3da24401	0.07923127
212	0x3e015854	0.12631351
213	0x3d57ef84	0.052718654
214	0xbd8da455	-0.069161095
215	0xbd806197	-0.06268614
216	0x3cd921e3	0.026505416
217	0x3d7b4979	0.061349366
218	0xbd53e3c0	-0.05173087
219	0xbccb0740	-0.02478373
220	0x3da154df	0.07877516
221	0xbb7baa3e	-0.0038401033
222	0x3d674eeb	0.056471746
223	0xbd5b0434	-0.053470805
224	0xbbf90744	-0.007599743
225	0x3c895c23	0.016767567
226	0xbdb9a8d1	-0.09065402
227	0x3da535bf	0.08066892
228	0x3d6d1a8c	0.057886645
229	0x3d45f9ce	0.048333935
230	0xbdabae35	-0.08382837
231	0x3a1f0271	0.00060657325
232	0x3d54fa83	0.05199672
233	0xbc4b896f	-0.012422903
234	0x3dc606b7	0.096692495
235	0x3e12699f	0.14298104
236	0xbdec2b42	-0.11531688
237	0xbd9ffedb	-0.07812282
238	0xbdb19d78	-0.08672613
239	0x3dd94102	0.106081024
240	0x3da5c3b9	0.08093972
241	0xbc845afa	-0.016156662
242	0x3ba69aca	0.0050843703
243	0xbd03ddeb	-0.03219406
244	0xbd1eef84	-0.03880264
245	0xbc9f1ed8	-0.019423887
246	0xbd88ccb6	-0.066796705
247	0x3e091488	0.13386738
248	0xbcceeb1a	-0.02525859
249	0x3b172c93	0.002306734
250	0x3dabb82d	0.08384738
251	0xbc594ea6	-0.01326338
252	0xbdaeb4d5	-0.08530585
253	0xbd6d75b2	-0.05797357
254	0xbd8b1abe	-0.0679221
255	0x3da5f8e4	0.08104113
