submission/code/models/spaghettiAlPesto.pth (torch, 902149 bytes, 28 tensors)

main.1.weight f4 [8, 3, 5, 5]
0	0xbe2c3ae8	-0.16819346
1	0xbd0694e1	-0.032856826
2	0xbd909cdf	-0.07061171
3	0xbcf8fad6	-0.030393045
4	0xbd4b4252	-0.049623795
5	0x3c2760c1	0.010215939
6	0x3dca15ce	0.0986744
7	0xbc41255d	-0.011788693
8	0x3dd95b42	0.10613109
9	0xbd9195b1	-0.071086295
10	0xbdc37348	-0.095434725
11	0x3dd8dadb	0.10588618
12	0x3b8ccd9d	0.004296972
13	0x3d9a2a76	0.0752763
14	0x3d0538df	0.03252494
15	0x3c708da2	0.014682205
16	0xbcda1dd6	-0.026625555
17	0xbd111201	-0.03541756
18	0xbd646d68	-0.0557684
19	0x3d7882d2	0.060671635
20	0xbceba983	-0.028767353
21	0xbd5b8959	-0.05359778
22	0xbbd579b0	-0.0065147504
23	0x3d888343	0.06665661
24	0x3d6a4d81	0.05720282
25	0xbdf2bcf5	-0.11852447
26	0xbbef2e6d	-0.0072992356
27	0x3c553254	0.013012487
28	0x3d1dd8cd	0.038536835
29	0xbd1b773a	-0.0379555
30	0xbd8d7561	-0.06907154
31	0xbca6f435	-0.020380119
32	0xbd9a4d7c	-0.0753431
33	0x3b28c8c4	0.0025754431
34	0xbd70667b	-0.058691483
35	0x3c5aa0ce	0.013344003
36	0x3e184623	0.14870505
37	0x3dec2a52	0.115315095
38	0xbd0123c8	-0.031528264
39	0xbdfb0ea6	-0.12258653
40	0xbdba63a1	-0.09101034
41	0x3ddb6b7a	0.10713859
42	0xbb49aa36	-0.003077162
43	0xbdbd6294	-0.09247318
44	0xbcee04cc	-0.029055022
45	0xbe107d59	-0.14110316
46	0x3da8aea5	0.08236436
47	0x3d48bcb0	0.04900807
48	0x3d9c1ee2	0.07623078
49	0xbd9e3b7d	-0.0772619
50	0xbe3d07c7	-0.18459998
51	0xba49ce03	-0.00076982396
52	0xbc87f124	-0.016594477
53	0xbd0ab625	-0.033865113
54	0xbd94ef55	-0.072722115
55	0xbd6d2019	-0.05789194
56	0xbddc7089	-0.10763652
57	0x3dc56919	0.096391864
58	0x3e012cfb	0.12614815
59	0xbdb0c317	-0.086309604
60	0xbc7640a6	-0.015030062
61	0xbd816497	-0.06318014
62	0x3deb33b3	0.1148447
63	0x3cdbe7ef	0.026843993
64	0xbbd9331d	-0.0066284076
65	0x3d6bed60	0.057599425
66	0xbd45a2a5	-0.048250813
67	0x3ca57ca2	0.020201031
68	0xbdcb9561	-0.09940601
69	0xbe110230	-0.1416099
70	0xbe0d027e	-0.13770482
71	0xbc32fd46	-0.010924643
72	0x3dc62feb	0.096771084
73	0x3d2510d5	0.040299255
74	0xbd0f5cc6	-0.035000585
75	0xbd710b8e	-0.05884891
76	0x3d98681b	0.074417315
77	0x3d9063b8	0.0705027
78	0xbcc004a4	-0.023439713
79	0xbd53d9d3	-0.051721405
80	0xbdaa9bfb	-0.08330532
81	0xbd68fc34	-0.056881145
82	0x3d8cfedf	0.0688455
83	0xbd36c4c7	-0.044621255
84	0xbd41aad6	-0.047282062
85	0x3db0ff17	0.086424045
86	0xbd6cc82a	-0.05780808
87	0x3d99ea1d	0.07515357
88	0x3dd95e4d	0.106136896
89	0xbd8d57ad	-0.069014885
90	0xbce77adc	-0.028256826
91	0xbc389e85	-0.011268263
92	0x3dcad4e5	0.09903888
93	0x3d7dc263	0.06195296
94	0xbe0685a2	-0.13136914
95	0x3c61c122	0.013778957
96	0xbd32012a	-0.04345814
97	0x3d1a0939	0.03760645
98	0x3d974174	0.07385531
99	0x3dbb0782	0.091322914
100	0x3ddf2216	0.10895173
101	0x3dd8bb8d	0.105826475
102	0x3d518b0b	0.051157992
103	0xbd12b439	-0.035816405
104	0xbda92dd3	-0.082606934
105	0x3c971be0	0.018445909
106	0xbaae06b3	-0.0013277143
107	0x3938e8c9	0.00017634327
108	0xbd1cbb12	-0.03826434
109	0xbdc95844	-0.098312885
110	0x3dcced79	0.10006232
111	0x39729bf3	0.00023137014
112	0xbc9a1161	-0.018807115
113	0xbbc88408	-0.006119255
114	0x3d60eb9d	0.0549122
115	0x3dd48a90	0.10377991
116	0xbd4772e8	-0.048693568
117	0xbd137881	-0.036003593
118	0xbd4925f3	-0.049108457
119	0xbcdda121	-0.027054371
120	0x3dad15a8	0.08451396
121	0xbcc1b67c	-0.023646586
122	0xb83be508	-4.4797576e-05
123	0xbc8099c0	-0.015698314
124	0xbb836ba8	-0.0040106364
125	0xbc73a0de	-0.014869897
126	0xbd76806c	-0.060181066
127	0xbd693757	-0.05693754
128	0xbd1dfb8d	-0.038569976
129	0xbda3b776	-0.07993977
130	0xbbf61ff0	-0.0075111315
131	0x3cad70fd	0.021172041
132	0xbc5866f7	-0.0132081425
133	0xbccec609	-0.025240915
134	0xbe0399e2	-0.1285167
135	0xbd92355d	-0.071390845
136	0x3d0e1543	0.034688246
137	0x3c54e119	0.012993121
138	0x3c70faba	0.014708215
139	0xbc79bd99	-0.0152429575
140	0xbdd3c1a8	-0.103396714
141	0x3de411cc	0.11136207
142	0x3d947fbb	0.07250925
143	0xbd6c2660	-0.057653785
144	0xbcabd98c	-0.020977758
145	0x3d8b82b4	0.06812039
146	0xbd9f2c31	-0.07772101
147	0xbdce7cf2	-0.10082425
148	0xbe137aeb	-0.14402358
149	0xbd3b8d5f	-0.04578912
150	0x3d2a6b65	0.041606326
151	0x3d506ad9	0.050883148
152	0xbdc9eda4	-0.098597795
153	0xbdd86bbf	-0.10567426
154	0xbdf1ca36	-0.11806147
155	0xbccab5cc	-0.02474489
156	0x3d054c92	0.032543726
157	0xbd5ebefc	-0.054381356
158	0x3d59ca5a	0.053171493
159	0xbe247470	-0.16060042
160	0xbdac3f08	-0.0841046
161	0xbdca0ea7	-0.09866076
162	0xbdf43959	-0.11925001
163	0xbe25e4fd	-0.16200633
164	0xbcfa2df7	-0.030539496
165	0xbcc13584	-0.023585089
166	0x3d8409be	0.06447171
167	0x3c5259d0	0.012838796
168	0xbd973de9	-0.07384855
169	0xbd5b0490	-0.053471148
170	0x3da71068	0.08157426
171	0xbd4d0122	-0.05004991
172	0x3d81965c	0.06327507
173	0x39b614af	0.00034729156
174	0xbc70d6cb	-0.014699648
175	0xbde9a2f1	-0.11408032
176	0xbd61113e	-0.054948084
177	0xbdc8e1cb	-0.098086916
178	0x3cca61c1	0.024704816
179	0x3cbd1266	0.023080062
180	0x3d7ae457	0.061252918
181	0xbdc5929d	-0.09647105
182	0x3dd9a0d8	0.10626382
183	0xbe02b37b	-0.12763779
184	0x3ce956d0	0.028483778
185	0x3d0376df	0.032095786
186	0x3b67934f	0.0035335605
187	0x3c1e31cd	0.009655428
188	0x3d62d3bd	0.05537771
189	0x3d1f5184	0.0388961
190	0xbce33ce8	-0.027739003
191	0x3e109eeb	0.14123122
192	0x3c6c8a69	0.014437296
193	0xbdd24c93	-0.102685116
194	0xbc8fc55b	-0.017550161
195	0x3d965a38	0.073414266
196	0x3dac5ba1	0.08415914
197	0x3db1554e	0.08658849
198	0x3defdd67	0.11712151
199	0x3d9dd926	0.077074334
200	0x3cc84288	0.024445787
201	0xbdfdbcb1	-0.12389506
202	0x3d4c6271	0.04989857
203	0xbc1a434d	-0.00941546
204	0xbd5a5841	-0.05330682
205	0xbdce21f1	-0.100650676
206	0xbd203889	-0.039116416
207	0xbb106bf8	-0.002203701
208	0xbd8af6f0	-0.06785381
209	0xb88c97b1	-6.703975e-05
210	0xbd5f947c	-0.054584965
211	0xbdd77bd0	-0.10521662
212	0xbdbff7c7	-0.09373432
213	0xbdefa931	-0.117021926
214	0xbc90f60d	-0.017695451
215	0x3dc875c0	0.09788084
216	0xbd936d85	-0.071986236
217	0x3d87811f	0.06616425
218	0x3cf4f47f	0.029901741
219	0xbc8d9669	-0.017283635
220	0x3c86bc3c	0.016447179
221	0x3de2222b	0.11041673
222	0xbc84d9aa	-0.016217072
223	0xbd49601c	-0.049163923
224	0xbcc5301c	-0.024070792
225	0x3e07a5b4	0.13246804
226	0xbd600e42	-0.054701097
227	0xbdbf71db	-0.09347888
228	0x3d9968c6	0.07490687
229	0xbd8e0155	-0.06933848
230	0x3cb5a718	0.022174403
231	0xbdc04328	-0.09387809
232	0xbdc35b8f	-0.09538948
233	0xbe187c0d	-0.14891072
234	0xbddc93aa	-0.10770352
235	0x3ce5a5e8	0.028033212
236	0x3d84e67d	0.06489275
237	0xbe0792f8	-0.13239658
238	0xbe1feaff	-0.15616988
239	0xbe5fc7c5	-0.2185355
240	0x3d04d569	0.032430086
241	0x3d382f6f	0.04496711
242	0xbd5fa87f	-0.05460405
243	0xbd6bee4d	-0.05760031
244	0xbe27a81d	-0.16372724
245	0xbbf48cfa	-0.007463095
246	0xbce66337	-0.028123481
247	0xbdf8b620	-0.121441126
248	0xbd7d6e8d	-0.061873008
249	0xbe383399	-0.17988433
250	0x3dbe30ff	0.09286689
251	0x3db5f2d0	0.088842034
252	0xbdc24aaf	-0.09486901
253	0xbd6635d4	-0.05620368
254	0xbcdd264a	-0.026995797
255	0x3e14df65	0.14538343

main.3.weight f4 [16, 8, 3, 3]
0	0x3da2a296	0.07941167
1	0xbc459ef8	-0.012061827
2	0x3ce629ed	0.028096164
3	0xbda41de6	-0.08013515
4	0x3d1f1aac	0.038843796
5	0xbd4f4048	-0.050598413
6	0xbd8e9260	-0.069615126
7	0x3b9b594c	0.0047408696
8	0xbdab386f	-0.08360373
9	0xbdc9962b	-0.098430954
10	0xbd236fe5	-0.039901633
11	0xbd63f956	-0.055657707
12	0xbd0bede8	-0.034162432
13	0xbcf20b1a	-0.02954631
14	0xbdc3d0e1	-0.09561325
15	0x3cad58aa	0.021160442
16	0xbcdbd3cf	-0.026834397
17	0x3d625ae1	0.05526245
18	0xbb3540e8	-0.0027657095
19	0xbdc6e620	-0.097118616
20	0xbbf27629	-0.0073993397
21	0xbd8e7b2b	-0.06957086
22	0x3d189f94	0.03726156
23	0x3e08ddd3	0.13365869
24	0xbde99ebb	-0.114072286
25	0xbcc43429	-0.023950653
26	0xba702746	-0.00091611256
27	0xbd00fcb0	-0.03149098
28	0x3d209d2b	0.039212387
29	0xbcb62fa6	-0.022239517
30	0xbde7f528	-0.11326057
31	0xbdab9d57	-0.083796196
32	0xbde0c136	-0.10974352
33	0x3cc57ac6	0.024106394
34	0xbe33c0c6	-0.17554006
35	0xbdc02f52	-0.09384026
36	0x3d63aa9c	0.055582628
37	0x3d819f39	0.063291974
38	0xbbac50f3	-0.0052586733
39	0x3d543a1b	0.051813226
40	0xbdae7bc0	-0.08519697
41	0x3d73407d	0.059387673
42	0x3e03b290	0.12861085
43	0x3dc4c15d	0.096071936
44	0x3d4e0877	0.05030104
45	0x3de6553a	0.112467244
46	0x3d5a9579	0.053365204
47	0x3d28af2e	0.04118269
48	0xbd5d7eef	-0.05407613
49	0x3e02798b	0.12741677
50	0x3e0dc07d	0.1384296
51	0x3d9bb8ae	0.07603584
52	0xbdac3892	-0.084092274
53	0x3c491796	0.01227369
54	0xbd09db5d	-0.033656467
55	0xbd2e049a	-0.042484857
56	0xbd3b0cae	-0.04566639
57	0xbd4aaef6	-0.049483262
58	0x3d54c74e	0.051947884
59	0xbdaadca0	-0.08342862
60	0x3d87ab33	0.066244505
61	0xbd961f45	-0.07330183
62	0x3d42e588	0.04758218
63	0xbb29ce95	-0.0025910486
64	0xbaee6dd9	-0.0018190696
65	0x3d16a6fb	0.03678034
66	0x3c2179f8	0.00985574
67	0x3be2e286	0.0069239764
68	0x3da80ecb	0.082059465
69	0x3d803ad1	0.06261218
70	0xbd4558b3	-0.048180293
71	0xbd301442	-0.04298807
72	0xbdec9fee	-0.11553942
73	0xbcb6ea2b	-0.022328457
74	0x3da4b8bb	0.08043047
75	0x3d03b63f	0.032156225
76	0x3beb49cc	0.007180428
77	0x3d89bfd3	0.06726041
78	0xbdad8702	-0.08473016
79	0x3d6b2380	0.057406902
80	0x3d98a72b	0.0745376
81	0xbd7e91c8	-0.062150747
82	0x3c1f1ed8	0.009711944
83	0x3d7e4a72	0.062082715
84	0xbdf19383	-0.11795714
85	0x3d502071	0.05081219
86	0xbdf5d674	-0.12003794
87	0xbd507bc2	-0.050899275
88	0xbd87c7d9	-0.06629915
89	0xbdc9e5ce	-0.09858285
90	0xbdde8c86	-0.108666465
91	0xbd97530e	-0.07388888
92	0xbcf309bf	-0.029667733
93	0x3d8d792c	0.06907877
94	0xbd24caca	-0.040232457
95	0xbdf1b1d1	-0.11801494
96	0xbb0e84ae	-0.0021746564
97	0xbd917638	-0.071026266
98	0x3dc098f2	0.09404172
99	0xbc0a6eb3	-0.008449244
100	0x3dd74895	0.10511891
101	0xbd0229b9	-0.03177807
102	0x3de5688b	0.112015806
103	0x3dadc0ed	0.08484063
104	0x3d54fbb5	0.05199786
105	0xbba75114	-0.005106101
106	0xbdb5467a	-0.08851333
107	0x3d595808	0.05306247
108	0x3c85bea7	0.016326262
109	0xbd78461f	-0.060613748
110	0x3c70e2df	0.014702528
111	0xbd580c81	-0.0527463
112	0x3cb4bf7a	0.02206396
113	0x3d9f146f	0.07767569
114	0xbae3c3d4	-0.0017377087
115	0xbdbd444f	-0.092415445
116	0xbdbd2787	-0.09236055
117	0xbd67bee5	-0.056578536
118	0xbce9b0ca	-0.028526682
119	0xbdadd091	-0.084870465
120	0x3d6e544d	0.058185864
121	0xbe2df9d0	-0.16989827
122	0x3dad40cb	0.08459624
123	0x3ce968f8	0.028492436
124	0x3d69f7c4	0.057121053
125	0xbd28fd8a	-0.04125742
126	0xbd0d77c3	-0.03453804
127	0xbdfb8412	-0.1228105
128	0xbda31cf3	-0.07964506
129	0xbcfe13b1	-0.031015249
130	0xbdb4fddf	-0.088374846
131	0xbd2dc8c6	-0.0424278
132	0xbd8ce924	-0.068804055
133	0x3d54e586	0.051976703
134	0xbd090c24	-0.033458844
135	0xbd93210f	-0.0718404
136	0xbc50627a	-0.012718791
137	0x3d90ccf9	0.070703454
138	0xbcaa392e	-0.020779219
139	0xbdddaad5	-0.10823599
140	0xbde8d3ae	-0.113685
141	0x3ce2f8d1	0.027706536
142	0xbbd0aecf	-0.006368495
143	0x3d8ecee6	0.069730565
144	0x3d4494a5	0.04799332
145	0xbd62ec27	-0.055400994
146	0x3d0a2455	0.033726055
147	0xbc1aa5d8	-0.009438954
148	0x3d6258c3	0.05526043
149	0xbcbadab0	-0.022809356
150	0xbcb01506	-0.0214944
151	0xbcb2737e	-0.021783587
152	0xbdaa200d	-0.083068945
153	0xbda13411	-0.07871259
154	0x3dabb53a	0.083841756
155	0x3d492b35	0.04911347
156	0xbd4e2717	-0.050330248
157	0x3c845906	0.016155731
158	0xbcadc947	-0.02121414
159	0xbc540794	-0.01294126
160	0xbd924eb0	-0.07143915
161	0x3b76c047	0.0037651227
162	0x3d910bd3	0.070823334
163	0xbd9a25d5	-0.07526747
164	0xbda27bca	-0.07933767
165	0x3d199958	0.037499756
166	0xbdba85bc	-0.09107539
167	0x3d88b833	0.06675758
168	0xbe00c7ff	-0.12576292
169	0xbe08eadb	-0.1337084
170	0x3b0b3999	0.0021244048
171	0x3d0677e7	0.03282919
172	0xbcc89ef1	-0.024489852
173	0x3e058f40	0.13042927
174	0x3dc7cf6e	0.09756361
175	0x3d0d9721	0.034567956
176	0x3d0aab41	0.033854727
177	0xbda22bf0	-0.07918537
178	0xbe09c2a5	-0.13453157
179	0x3cfd3469	0.03090878
180	0x3d4dc617	0.05023774
181	0x3c6957a0	0.014242083
182	0xbde815e9	-0.11332304
183	0xbd2014f7	-0.039082494
184	0xbdc9ae00	-0.09847641
185	0x3cba22ea	0.022721726
186	0x3d70a468	0.05875054
187	0xba9cec77	-0.0011972327
188	0x3d9bd8ea	0.076097324
189	0xbc8b2100	-0.016983509
190	0x3d26f0ad	0.04075687
191	0xbd152f32	-0.036421962
192	0xbdd6786e	-0.10472189
193	0x3ddb69f4	0.10713568
194	0x3d4f6a06	0.05063822
195	0x3dcf1182	0.10110761
196	0xbc538318	-0.012909673
197	0xbd58522e	-0.052812748
198	0x3c195f39	0.009361082
199	0xbd1a11bb	-0.037614565
200	0xbdb3fe48	-0.08788735
201	0xbc9f3c39	-0.019437896
202	0xbdb9d603	-0.090740226
203	0x3cc7702b	0.024345478
204	0x3dd1de66	0.10247497
205	0xbe1c75af	-0.15279268
206	0x3df3287f	0.118729584
207	0xbd7aff6e	-0.061278753
208	0x3d944a3c	0.072407216
209	0x3d7dea31	0.06199092
210	0x3dbe7325	0.09299306
211	0xbdcef82e	-0.1010593
212	0xbce2373e	-0.027614232
213	0x3cad5af7	0.02116154
214	0x3d8cfe41	0.068844326
215	0xbc2fbd7d	-0.01072633
216	0xbcaed713	-0.02134279
217	0x3dcb0698	0.09913367
218	0x3b89559b	0.004191113
219	0x3e0929f5	0.13394912
220	0x3d18ce61	0.037306193
221	0x3c79642a	0.015221635
222	0xbd54c347	-0.051944043
223	0xbda3477d	-0.0797262
224	0x3d39d699	0.045370672
225	0x3d779e16	0.060453497
226	0x3c77c1e6	0.015121913
227	0x3c6c2286	0.014412528
228	0x3d460f2e	0.04835432
229	0xbe159709	-0.14608397
230	0x3d4ecc56	0.05048784
231	0xbe06f761	-0.13180305
232	0xbd28cdb6	-0.041211806
233	0xbdb531d0	-0.088473916
234	0x3d312275	0.04324575
235	0x3da0cb9f	0.07851338
236	0xbbf087ab	-0.0073403916
237	0x3d89d97f	0.06730937
238	0x3df4e4b5	0.11957685
239	0x3c908679	0.017642247
240	0xbdddf189	-0.10837085
241	0xbd0649c6	-0.0327852
242	0xbd68d3bc	-0.05684255
243	0xbdb2ba5c	-0.087269515
244	0x3d81af48	0.0633226
245	0x3c3a0008	0.0113525465
246	0xbc5d056c	-0.013490062
247	0x3dc2b74c	0.09507617
248	0xbd0016d4	-0.03127177
249	0x3d5d3734	0.054007724
250	0xbdbeb6d2	-0.09312214
251	0xbcbb69a7	-0.022877527
252	0xbdcea895	-0.10090748
253	0xbdcdeed5	-0.10055319
254	0x3dca5471	0.09879387
255	0x3c36a248	0.011147089

main.4.weight f4 [16]
0	0x3f75391c	0.95790267
1	0x3f730592	0.94930375
2	0x3f748758	0.9551902
3	0x3f84c446	1.0372398
4	0x3f787b5b	0.97063226
5	0x3f8e570d	1.1120316
6	0x3f73aa7b	0.9518201
7	0x3f8fb001	1.1225587
8	0x3f8a7253	1.0816139
9	0x3f6d3fa4	0.9267523
10	0x3f67457b	0.90340394
11	0x3f742809	0.9537359
12	0x3f84b00e	1.0366228
13	0x3f7f25c5	0.99667007
14	0x3f86ced4	1.0531869
15	0x3f85ea18	1.0462065

main.4.bias f4 [16]
0	0x3dfc580a	0.123214796
1	0x3d93c4c6	0.07215266
2	0x3d3504fd	0.04419421
3	0x3d97f989	0.07420642
4	0x3d5c8eec	0.05384724
5	0x3ca9d966	0.020733546
6	0x3d9a9122	0.07547213
7	0xbd8dd807	-0.069259696
8	0x3ca03c7f	0.019560097
9	0x3d17434b	0.03692941
10	0xbb9e76ca	-0.004835938
11	0x3de479f2	0.11156072
12	0x3c5b440b	0.013382922
13	0xbd9835d2	-0.074321404
14	0x3d8219de	0.0635259
15	0x3d3e39eb	0.046441954

main.4.running_mean f4 [16]
0	0x3bcf0682	0.0063179145
1	0xbb648f1b	-0.0034875337
2	0xba14350a	-0.00056536554
3	0xbb9714ab	-0.004610618
4	0x3b10c88c	0.0022092192
5	0xbb852c3e	-0.004064112
6	0x3bee2fa4	0.007268863
7	0xbc05d24d	-0.008167815
8	0xbbdeedab	-0.0068032346
9	0x3b12a9c7	0.0022379027
10	0x3c02976d	0.007970673
11	0x3bb4db09	0.005519275
12	0xbb9f2e3d	-0.004857807
13	0xbb4de619	-0.0031417666
14	0xbbd3ab53	-0.0064596324
15	0xb9ffc5d3	-0.0004878478

main.4.running_var f4 [16]
0	0x3906984e	0.00012835974
1	0x386562f2	5.4690005e-05
2	0x3795bc5b	1.7849894e-05
3	0x38b6ab90	8.710392e-05
4	0x381504eb	3.552895e-05
5	0x38cab064	9.664966e-05
6	0x394ea7cd	0.00019708202
7	0x3968acb4	0.00022189581
8	0x393dc35c	0.00018097222
9	0x37fdda9e	3.0261752e-05
10	0x39574e10	0.00020533078
11	0x38f768e6	0.00011797417
12	0x38c543ec	9.4063435e-05
13	0x38328fdb	4.2572483e-05
14	0x392c02ee	0.0001640429
15	0x384b6d49	4.850075e-05

main.6.weight f4 [32, 16, 3, 3]
0	0xbcb3a4e2	-0.021929208
1	0xbdbae253	-0.09125199
2	0xbd4d1a79	-0.050074074
3	0xbc1d1ba3	-0.009589109
4	0xbd4f7cb6	-0.050656043
5	0xbcb8dc9c	-0.022566132
6	0xbd8b9de8	-0.068172276
7	0xbd0c2cb8	-0.034222335
8	0xbdbd2fc9	-0.0923763
9	0x3dc45011	0.09585584
10	0x3d1ae57f	0.03781652
11	0x3d7e2a00	0.062051773
12	0xbcc81259	-0.024422811
13	0x3cb1d908	0.021709934
14	0x3d714bc9	0.058910165
15	0xbc512c28	-0.012766875
16	0xbd2ec9ae	-0.042672805
17	0x3dc72908	0.09724623
18	0x3d3cd4b0	0.046101272
19	0xbd824e01	-0.06362534
20	0x3c87e28b	0.016587516
21	0xbd72424a	-0.05914525
22	0xbc8e6449	-0.017381804
23	0xbbafe228	-0.005367536
24	0xbd3c6a1c	-0.04599963
25	0xbda85526	-0.08219366
26	0x3d323765	0.04350986
27	0xbc7d35e6	-0.015454745
28	0xbbbb856a	-0.0057226913
29	0xbd0a7ed8	-0.033812374
30	0xbb1ae430	-0.0023634546
31	0xbd9df9f5	-0.07713691
32	0xbc96f120	-0.018425524
33	0x3d20863b	0.039190512
34	0xbd6f8967	-0.058480646
35	0x3c4bbe24	0.01243547
36	0x3ba3bcca	0.0049968706
37	0xb9e31a71	-0.00043316514
38	0xbd8ac294	-0.06775394
39	0xbafdc6bb	-0.0019361594
40	0xbd7fd8a4	-0.062462464
41	0x3ca8e4a4	0.020616837
42	0x3d29fb3f	0.041499373
43	0xbdf44305	-0.119268455
44	0xbdc1d61e	-0.09464668
45	0xbda1948b	-0.078896604
46	0x3d24b485	0.04021122
47	0x3dbb185d	0.09135506
48	0xbdcfa7d8	-0.101394355
49	0xbe4d5bed	-0.20054598
50	0xbdcf5932	-0.101244345
51	0x3d562d4f	0.052289303
52	0xbdef251f	-0.11677002
53	0xbdbe99b0	-0.09306657
54	0x3d4f0e1a	0.050550558
55	0xbcba9bf0	-0.022779435
56	0xbdea6d8f	-0.11446678
57	0xbd3d2296	-0.04617556
58	0xbcf8ca1b	-0.030369809
59	0x3d04c85d	0.032417644
60	0x3c058aa6	0.008150732
61	0xbda466b1	-0.08027399
62	0x3c6b9bba	0.01438039
63	0x3dd09069	0.10183794
64	0xbd4a2b7d	-0.04935788
65	0xbdc906c4	-0.098157436
66	0xbdbcf08f	-0.092255704
67	0xbe291ac3	-0.16514115
68	0xbdf37002	-0.11886598
69	0x3dcf31d2	0.10116924
70	0x3d0f4d23	0.034985673
71	0xbc678699	-0.014131212
72	0xbcf2a06d	-0.029617513
73	0xbdc919a3	-0.09819343
74	0x3d193b3b	0.037410002
75	0xbbd58fe3	-0.006517397
76	0xbe048830	-0.12942576
77	0xbdbedb1a	-0.09319134
78	0xbd15e223	-0.036592614
79	0x3a57d521	0.0008233358
80	0x3b803b2f	0.0039133052
81	0xbc1acb11	-0.009447829
82	0x3cb39644	0.021922238
83	0xbca5de90	-0.020247728
84	0xbd51485a	-0.05109439
85	0xbcbf52c0	-0.023354888
86	0xbda1ddfc	-0.07903668
87	0xbc752dd2	-0.014964538
88	0x3d16085f	0.036629077
89	0xbcbeff0e	-0.023314979
90	0xbd79319f	-0.060838338
91	0x3bbea285	0.0058177137
92	0xbd03be46	-0.03216388
93	0xbd19dc26	-0.037563466
94	0xbd9795d8	-0.07401627
95	0xbbc82336	-0.006107713
96	0xbc7b88c7	-0.0153524345
97	0x3d2f8844	0.042854562
98	0xbd85b1c7	-0.06528049
99	0xbd8dc643	-0.06922581
100	0xbd098279	-0.033571694
101	0xbc069be5	-0.008215879
102	0xbd8ec233	-0.06970634
103	0x3d62924c	0.0553153
104	0xbd34dcb1	-0.04415578
105	0x3d3552fb	0.04426859
106	0xbd8c9a00	-0.06865311
107	0xbd17788f	-0.036980208
108	0x3c44978e	0.011999024
109	0xbd6ec3cc	-0.058292195
110	0xbc48cf6f	-0.012256487
111	0x3d054c40	0.03254342
112	0xbdbfef5d	-0.09371827
113	0xbd1c85f6	-0.038213693
114	0x3da99e8b	0.08282193
115	0xbd4c76b9	-0.04991791
116	0x3cced8ed	0.025249923
117	0xbd6d6b9e	-0.05796396
118	0xbe56b95a	-0.20969144
119	0x3d8adb1c	0.06780073
120	0xbd7a84bf	-0.061161753
121	0xbd1dc3f8	-0.03851697
122	0x3d9269c4	0.071490794
123	0xbd18fc89	-0.03735021
124	0xbda5da5d	-0.0809829
125	0xbcd01d8c	-0.025404714
126	0xbd1bff0d	-0.038085032
127	0xbd15592b	-0.03646199
128	0xbcfe7ce3	-0.03106541
129	0xbcb4de96	-0.022078793
130	0xbcd50bbd	-0.026006574
131	0xbc8c3df2	-0.017119382
132	0x3d21cf8b	0.03950457
133	0xbd8cd9da	-0.068774894
134	0xbd0b1ac0	-0.033961058
135	0x3cbde3bf	0.023179887
136	0xbde24425	-0.11048154
137	0xbdebaff4	-0.1150817
138	0xbd2a3c45	-0.041561384
139	0xbd52c402	-0.05145646
140	0x3d9cc3d7	0.07654541
141	0xbc14d509	-0.009083995
142	0xbcbadcfe	-0.022810455
143	0x3dafe055	0.0858771
144	0xbd58ff4d	-0.05297785
145	0x3df2e3a2	0.11859824
146	0xbd0eaa61	-0.034830455
147	0x3d058340	0.032595873
148	0xb8b48b69	-8.609036e-05
149	0x3dbb5b14	0.09148231
150	0xbdc9944b	-0.09842738
151	0x3cf40ff5	0.029792765
152	0xbd02d0f6	-0.031937562
153	0xbd4a1982	-0.049340732
154	0xbd207907	-0.03917792
155	0x3ddb0862	0.10694958
156	0x3cc82b1d	0.02443462
157	0x3c9fbb76	0.019498568
158	0x3ddc782c	0.107651085
159	0x3c7f8199	0.015594863
160	0x3d7115cf	0.05885869
161	0x3cf34ea2	0.029700581
162	0xbca5b10d	-0.020226026
163	0x3cbbfdcc	0.022948168
164	0x3cffecbe	0.031240817
165	0x3c355360	0.011067241
166	0xbcb3af01	-0.021934034
167	0x3d3ecfd2	0.04658491
168	0xbdcad969	-0.09904749
169	0xbdd764be	-0.10517262
170	0xb9198d14	-0.00014643773
171	0xbd5308a6	-0.05152192
172	0xbcd06aee	-0.025441613
173	0xbbc4939c	-0.0059990417
174	0xbd73520a	-0.05940441
175	0x3ac3550e	0.0014902668
176	0xbd96ba6c	-0.07359776
177	0xbd439b7a	-0.047755696
178	0xbd1988e3	-0.03748406
179	0x3d9bbe4f	0.07604658
180	0x3d205730	0.03914565
181	0x3df66072	0.12030114
182	0x3dcf9b5e	0.10137056
183	0x3d8f4981	0.06996442
184	0x3dc16292	0.09442629
185	0x3db7ae60	0.08968806
186	0xbdeafdb0	-0.11474168
187	0xbd5cfdcb	-0.053952973
188	0x3d895725	0.067060746
189	0xbb6b78a3	-0.003593006
190	0x3d46ac89	0.048504386
191	0x3d8cf1e9	0.06882078
192	0x3d98509f	0.07437252
193	0x3d82eaab	0.063924156
194	0xbc3d3952	-0.011549311
195	0x3d5e5a8e	0.05428558
196	0xbd818067	-0.06323319
197	0x3d0aa682	0.0338502
198	0xbd1b2e85	-0.03788616
199	0x3d48e162	0.049043067
200	0x3dd45bad	0.10369048
201	0xbc8312f1	-0.016000243
202	0x3d85bd86	0.06530289
203	0x39593d42	0.00020717553
204	0xbde6ebce	-0.11275445
205	0x3d2d0019	0.04223642
206	0x3ca439dc	0.02004712
207	0xba42c9b3	-0.0007430568
208	0xbd7e2fbb	-0.062057238
209	0xbd16ac47	-0.03678539
210	0x3d0294f2	0.031880327
211	0x3dabc077	0.08386319
212	0x3cb33e17	0.021880193
213	0x3de9bf0b	0.11413392
214	0xbd20f7d5	-0.03929885
215	0xbd4172de	-0.047228687
216	0x3d6e5c53	0.058193516
217	0x3d031979	0.032006714
218	0xbdc0e173	-0.09418001
219	0x3d0616ce	0.032736592
220	0x3d9ea1eb	0.07745727
221	0x3c73bc13	0.014876383
222	0xbc8aff5d	-0.01696747
223	0xbd88228c	-0.06647214
224	0xbd5203cf	-0.051273163
225	0x3d64449a	0.055729486
226	0xbb661d33	-0.003511262
227	0x3d8e4be8	0.06948072
228	0x3d3495ea	0.04408828
229	0x3d1e38a1	0.038628224
230	0x3a02b31f	0.00049857976
231	0xbda06019	-0.07830829
232	0x3d6a0c97	0.057140913
233	0x3d1ff9c0	0.03905654
234	0xbcaefdb2	-0.021361206
235	0x3d9f7da9	0.0778764
236	0x3df58c1b	0.119896136
237	0xbd446c40	-0.047954798
238	0x3ba95c47	0.005168471
239	0x3be0bf7e	0.006858765
240	0xbaed0871	-0.0018084181
241	0x3cb11bb0	0.021619648
242	0x3d0b93c3	0.034076463
243	0xbd812da7	-0.063075356
244	0x3bd5c269	0.0065234196
245	0x3da43f64	0.08019903
246	0xbd51e5e1	-0.05124462
247	0x3d8b39d1	0.06798137
248	0x3cc1dd3f	0.023665069
249	0xbc6e9bfd	-0.014563558
250	0x3d5444fb	0.051823597
251	0x3dd1b7bb	0.10240122
252	0xbd0decff	-0.034649845
253	0x3bf0b23d	0.0073454664
254	0xbd2e40e8	-0.04254237
255	0x3d1cdadd	0.03829466

main.7.weight f4 [32]
0	0x3f879b0a	1.0594189
1	0x3f73accb	0.95185536
2	0x3f85a70e	1.0441606
3	0x3f75c585	0.96004516
4	0x3f884a01	1.0647584
5	0x3f7f5213	0.9973461
6	0x3f70eea4	0.94114137
7	0x3f7b6228	0.9819665
8	0x3f86c39e	1.0528448
9	0x3f833cf0	1.0252972
10	0x3f7d2f26	0.9890007
11	0x3f7c1f5e	0.9848536
12	0x3f6ebb28	0.9325433
13	0x3f81618e	1.0107896
14	0x3f852e6f	1.0404795
15	0x3f6e9668	0.9319825
16	0x3f8742f8	1.0567312
17	0x3f7ce55b	0.9878747
18	0x3f832afa	1.024749
19	0x3f7d6d96	0.9899534
20	0x3f6c6c70	0.9235296
21	0x3f808145	1.003945
22	0x3f852366	1.0401428
23	0x3f83302f	1.024908
24	0x3f8163e3	1.0108608
25	0x3f83d964	1.0300717
26	0x3f7dccbd	0.9914053
27	0x3f69c15b	0.9131066
28	0x3f77fe91	0.9687281
29	0x3f68986e	0.9085759
30	0x3f72d5c4	0.9485743
31	0x3f8556ae	1.0417078

main.7.bias f4 [32]
0	0xbb947a5a	-0.004531187
1	0xbdbc01ad	-0.09180007
2	0x3d21b282	0.03947688
3	0xbd5c21a4	-0.05374302
4	0x3caac0aa	0.020843823
5	0x3d10edb2	0.035382934
6	0x3c830aea	0.015996415
7	0xbaacf266	-0.0013194799
8	0x3c833da0	0.016020596
9	0x3c8fa0d8	0.017532751
10	0xbd3ee7cc	-0.046607777
11	0xb9ba6027	-0.00035548324
12	0xbcfe112a	-0.031014044
13	0xbcf4cbec	-0.029882394
14	0x3cc9697d	0.024586434
15	0x3a56d50a	0.00081951974
16	0x3c99bdbf	0.018767236
17	0xbd121516	-0.03566464
18	0xbc18feb4	-0.00933807
19	0xbceb8ce6	-0.028753709
20	0xbcc5b355	-0.024133364
21	0xbcb7d530	-0.022440523
22	0xbc6135b0	-0.01374571
23	0x3d3c394c	0.04595308
24	0x3cd517c1	0.026012303
25	0xbd14a84e	-0.03629332
26	0xbc0ce8ca	-0.008600423
27	0xbd9d029e	-0.07666515
28	0xbc6e61e8	-0.01454971
29	0xbd19a1c1	-0.037507776
30	0xbc403c4a	-0.011733124
31	0x3bc47e18	0.005996477

main.7.running_mean f4 [32]
0	0xbf5e3de6	-0.868132
1	0x3edc76ad	0.43059292
2	0xbf0d2064	-0.5512755
3	0x3eab52c8	0.33461595
4	0x3f28eba8	0.6598458
5	0xbbf28f7e	-0.0074023595
6	0xbd41f40d	-0.047351886
7	0xbec02a67	-0.3753235
8	0xbf0dd0d1	-0.55396754
9	0x3b0a22d7	0.0021077895
10	0x3b2e5a46	0.00266041
11	0x3f154d92	0.5832149
12	0xbe1991e4	-0.14997059
13	0x3ef8778a	0.485287
14	0xbe4371a0	-0.19086313
15	0xbed01da8	-0.40647626
16	0xbf4fd392	-0.81182206
17	0x3e826a34	0.25471652
18	0xbefc9e0b	-0.49339327
19	0xbd945531	-0.072428115
20	0xbe1a0076	-0.15039238
21	0x3eb3fef5	0.35155454
22	0x3f2ba45d	0.67047673
23	0xbf3e5bf8	-0.74359083
24	0xbe92988f	-0.28632018
25	0xbe36fdc7	-0.17870246
26	0x3ac1eb64	0.0014794883
27	0xbe0e2b63	-0.13883738
28	0xbefb144f	-0.49038932
29	0xbe19a1b9	-0.15003099
30	0xbd143d5e	-0.036191337
31	0x3e12afe8	0.14324915

main.7.running_var f4 [32]
0	0x3eb44051	0.3520532
1	0x3f5c49da	0.8605019
2	0x3f34a0ca	0.70557845
3	0x3f0c90ad	0.5490826
4	0x3eae3506	0.3402483
5	0x3ee814db	0.4532841
6	0x400778b1	2.1167414
7	0x3f435e16	0.7631544
8	0x3ef9d1ab	0.48792776
9	0x3f2d9deb	0.6781909
10	0x3fcab159	1.5835372
11	0x3fa346bb	1.275596
12	0x3fa9e640	1.3273392
13	0x3f822ef7	1.0170583
14	0x3ec4dda0	0.38450336
15	0x3ebe85de	0.37211508
16	0x3f130045	0.57422286
17	0x3f5e40c7	0.8681759
18	0x3ed6ccee	0.41953224
19	0x3fcfb244	1.6226277
20	0x3f7fdcb5	0.9994615
21	0x3fb5cd69	1.4203311
22	0x3f132dd5	0.5749181
23	0x3e5a3b84	0.21311766
24	0x3f38af7e	0.7214278
25	0x3fdeb4fb	1.7398981
26	0x3f638428	0.8887353
27	0x402a5bcd	2.661853
28	0x3f10fec7	0.5663876
29	0x3fc151b2	1.5103056
30	0x3f31e2c5	0.6948665
31	0x3f3c4d69	0.7355562

main.9.weight f4 [64, 32, 2, 2]
0	0xbc318ade	-0.010836331
1	0x3e0c3460	0.13691854
2	0xbca33a35	-0.019925216
3	0x3db985bb	0.0905871
4	0xbd80929b	-0.06277963
5	0x3c0e246d	0.008675677
6	0x3ce27d9d	0.027647788
7	0xbb582665	-0.003298187
8	0xbc8790aa	-0.016548473
9	0xbcded7f7	-0.02720259
10	0xbdabaae4	-0.08382204
11	0x3d81fc70	0.06346977
12	0xbd902920	-0.07039094
13	0xbb02ce4e	-0.0019959393
14	0x39b5ec1f	0.00034698934
15	0xbca0736f	-0.019586293
16	0xbdd6112e	-0.104524955
17	0xbdeed794	-0.11662212
18	0x3dd45d47	0.10369354
19	0x3be3e7f5	0.0069551417
20	0xbdead1fe	-0.11465834
21	0xbc53d3e7	-0.012928939
22	0x3d37caac	0.044871017
23	0xbd22b2c2	-0.039721258
24	0x3dc4733e	0.09592293
25	0x3d94e18b	0.072695814
26	0x3d265e20	0.04061711
27	0xbd5c7b02	-0.053828247
28	0xbd42d3bc	-0.047565207
29	0x3c726972	0.014795648
30	0xbcdbc3ce	-0.026826765
31	0xbd7c4f9c	-0.06159936
32	0x3dc9ca4d	0.09853039
33	0x3c6192d0	0.013767913
34	0x3ca68850	0.02032867
35	0x3cb3b6b3	0.021937704
36	0x3d8c20d9	0.06842203
37	0x3cfcd9ca	0.030865569
38	0x3d1856da	0.037192203
39	0xbd990479	-0.07471556
40	0xbd89aec1	-0.06722785
41	0xbd15e30f	-0.036593493
42	0xbce0198b	-0.02735593
43	0xbc1936e2	-0.009351464
44	0x3bc152ad	0.0058997483
45	0xbdb15967	-0.0865963
46	0xbd56b4d0	-0.05241853
47	0x3c4fcb98	0.012682818
48	0x3caa73e3	0.020807212
49	0x3d20cedd	0.03925978
50	0xbbff34b2	-0.007788264
51	0xbc0e7d2b	-0.008696835
52	0xbd99790e	-0.074937925
53	0xbd72794c	-0.05919771
54	0x3d2a4f13	0.041579317
55	0x3d16fee3	0.036864173
56	0x3def5237	0.11685603
57	0x3da70d6a	0.081568554
58	0xbcc7d4b1	-0.024393411
59	0x3dd84011	0.10559095
60	0xbd94a996	-0.072589085
61	0xbd5740a8	-0.052551895
62	0xbdb9ed51	-0.09078468
63	0xbd83a613	-0.064281605
64	0x3c454233	0.012039709
65	0x3c2eb434	0.010663081
66	0xbda7dd9e	-0.08196567
67	0x3d7428d1	0.059609238
68	0x3dc35fa9	0.0953973
69	0x3d65e44f	0.056125935
70	0x3d948b07	0.0725308
71	0xbd803976	-0.0626096
72	0xbd89500b	-0.0670472
73	0xbc0a2c0e	-0.008433355
74	0x3c8a8a7e	0.016911741
75	0x3ded2c61	0.1158073
76	0x3dc6c697	0.09705847
77	0x3cb49601	0.022044184
78	0xbdb68807	-0.08912664
79	0xbdc643d8	-0.09680909
80	0x3a82a383	0.0009966943
81	0xbc9f84d6	-0.01947252
82	0xbda3116e	-0.07962309
83	0xbd3b79d4	-0.04577048
84	0xbcf0cd2c	-0.029394709
85	0x3da67989	0.0812865
86	0xbd86bdde	-0.06579183
87	0xbd1da583	-0.038487922
88	0xbd86f6ab	-0.06590017
89	0xbd7b6813	-0.06137855
90	0xba02e36c	-0.0004992995
91	0xbc3ddbe5	-0.0115880715
92	0xbcbd96db	-0.023143223
93	0x3e2733cb	0.16328351
94	0x3c955010	0.018226653
95	0x3d0c782f	0.034294304
96	0x3cbede78	0.02329944
97	0x3beecc59	0.0072875437
98	0x3d63f4a1	0.05565322
99	0xbdb39438	-0.08768505
100	0x3c8447ff	0.016147612
101	0x3d3c2741	0.045935873
102	0xbd9a01bf	-0.07519864
103	0x3cbd9401	0.023141863
104	0xbd9df76d	-0.07713208
105	0xbd850f30	-0.064970374
106	0x3d9a59e0	0.075366735
107	0xbd689990	-0.056787074
108	0xbadae737	-0.0016700987
109	0x3d343d48	0.044003755
110	0x3d26368f	0.040579375
111	0xbcc8e07c	-0.024521105
112	0x3df10a26	0.11769514
113	0x3db6260c	0.088939756
114	0x3d01b1e8	0.031663805
115	0x3e0a3321	0.13496067
116	0xbd2de1b4	-0.042451575
117	0x3d287f9f	0.041137334
118	0x3d919d75	0.07110111
119	0x3baac717	0.0052117216
120	0x3d0f580c	0.034996077
121	0xbd0cd09f	-0.034378644
122	0xbc1fc9b7	-0.009752682
123	0xbd7a3bc1	-0.061092142
124	0x3d83a4c1	0.06427909
125	0xbc90812a	-0.017639715
126	0x3d3270b2	0.043564506
127	0xbd415780	-0.047202587
128	0x3c2fba22	0.01072553
129	0xbe115b5e	-0.1419501
130	0x3c40f68a	0.0117775295
131	0xbdb03fbd	-0.08605907
132	0xba8e6f18	-0.0010866849
133	0xbd98772f	-0.074446075
134	0xbc80bae5	-0.015714118
135	0xbdecaec2	-0.1155677
136	0x3c4819a8	0.012213148
137	0xbd8b691b	-0.06807157
138	0x3cbe96d1	0.023265274
139	0xbdc7e135	-0.09759752
140	0xba48d53b	-0.00076611683
141	0xbd09b983	-0.033624183
142	0xbc14bcb2	-0.009078192
143	0xbccac55b	-0.02475231
144	0x3d69b996	0.057061754
145	0x3c548b9d	0.0129727395
146	0xbde68a51	-0.112568505
147	0x3c0e33fe	0.008679388
148	0x3c2412f7	0.010014287
149	0x3d38a597	0.045079794
150	0xbd5a5436	-0.053302966
151	0x3cafbc56	0.02145211
152	0xbd1acaac	-0.03779094
153	0xbcf629f4	-0.030049302
154	0x3cb848fd	0.022495741
155	0x3c9f3a68	0.01943703
156	0x3dab0cad	0.08352027
157	0xbb7c45e6	-0.003849381
158	0xbd4acec1	-0.049513582
159	0xbde2198d	-0.1104003
160	0xbcd921dc	-0.026505403
161	0xbdbfa322	-0.09357287
162	0xbd80d44d	-0.06290493
163	0xbd8c052b	-0.06836923
164	0xbb58fffe	-0.0033111568
165	0x3d7b3bde	0.06133639
166	0x3daff587	0.085917525
167	0x3d8b85ec	0.06812653
168	0xbd6ea636	-0.05826398
169	0xbca84916	-0.020542663
170	0xbd36d149	-0.044633184
171	0xbd8bb710	-0.06822026
172	0x3cf2c368	0.029634193
173	0x3d9dc685	0.0770388
174	0x3d37c57a	0.044866063
175	0xbd40ff82	-0.04711867
176	0x3d30403f	0.04303002
177	0xbc86419e	-0.01638871
178	0xbd312f59	-0.043258045
179	0x3bdff687	0.0068348083
180	0x3d56079b	0.052253347
181	0xbd930c83	-0.07180121
182	0xbc862b31	-0.016378017
183	0xbc241359	-0.0100143785
184	0xbcf0263f	-0.029315112
185	0xbc8c8ebc	-0.017157905
186	0xbd513e31	-0.0510847
187	0x3bfccbc3	0.00771472
188	0xbc0c7837	-0.008573583
189	0xbd412de3	-0.0471629
190	0x3c0eb74f	0.008710696
191	0xbd1e797a	-0.038690068
192	0x3c978f0a	0.018500824
193	0x3cc16d40	0.023611665
194	0xbd777cfa	-0.06042192
195	0xbdd59367	-0.104285054
196	0xbc458d63	-0.012057635
197	0x3d927862	0.071518674
198	0x3cb3b0d8	0.021934912
199	0x3d595008	0.05305484
200	0x3cada951	0.0211989
201	0xbdb21bfc	-0.08696744
202	0x3d67715c	0.056504592
203	0xbd9a4389	-0.075324126
204	0x3c4a73f1	0.012356744
205	0x3d620a2b	0.05518548
206	0xbd8f192d	-0.06987224
207	0x3d8e6fe9	0.06954939
208	0xbd3ff8b6	-0.04686805
209	0xbc0bd069	-0.008533576
210	0xbc27d2e2	-0.0102431495
211	0x3d00f6b6	0.031485282
212	0x3cb5f566	0.022211742
213	0x3ccd8330	0.02508697
214	0x3caf94a1	0.021433176
215	0x3c061ba9	0.008185306
216	0xbcf4b891	-0.029873164
217	0x3d8f0c40	0.069847584
218	0xbd09c1e7	-0.033632185
219	0x3d821d67	0.06353264
220	0xbd852152	-0.06500496
221	0xbda2c89a	-0.07948418
222	0xbdce397a	-0.100695565
223	0x3cfed6db	0.03110831
224	0x3b2172a1	0.0024634975
225	0x3d244633	0.04010601
226	0x3d238825	0.03992476
227	0x3dbb81ae	0.09155594
228	0xbd4e50b5	-0.050369937
229	0xbd4a3536	-0.049367152
230	0xbe0bd362	-0.13654855
231	0xbc91e1f6	-0.017807942
232	0xbdaf7c55	-0.08568636
233	0xbc079b0c	-0.008276712
234	0xbb7625d3	-0.0037559166
235	0x3c4251a4	0.011860285
236	0xbdc2ed97	-0.09517973
237	0x3d42a354	0.047519043
238	0xbb280f2f	-0.0025643816
239	0xbcf3662e	-0.029711809
240	0xbd9c0587	-0.07618242
241	0x3d1d39a2	0.03838504
242	0x39062fa8	0.00012796989
243	0x3c8bcd0b	0.017065546
244	0x3d48fb53	0.049067806
245	0xbde21d85	-0.11040787
246	0xbc052812	-0.008127229
247	0xbda42339	-0.08014531
248	0x3c8c023f	0.017090915
249	0xbdfd073f	-0.12354898
250	0x3d191939	0.03737757
251	0x3d10deeb	0.03536884
252	0xbdb90746	-0.090345904
253	0x3d99760f	0.07493221
254	0x3d38d738	0.045127124
255	0x3c8b9bc6	0.017042052

main.10.weight f4 [64]
0	0x3f83e0cf	1.0302981
1	0x3f761446	0.96124685
2	0x3f603abc	0.8758962
3	0x3f71f4cd	0.9451416
4	0x3f7ea4b9	0.99470097
5	0x3f829c40	1.0203934
6	0x3f80533e	1.0025403
7	0x3f71de73	0.94480056
8	0x3f7b616c	0.9819553
9	0x3f78d63d	0.972019
10	0x3f666346	0.8999523
11	0x3f84b1cb	1.0366758
12	0x3f75a070	0.95947933
13	0x3f8570ae	1.0425012
14	0x3f79ff21	0.9765492
15	0x3f7e8542	0.99422085
16	0x3f7fadab	0.9987437
17	0x3f81036d	1.007917
18	0x3f8d8ccd	1.1058594
19	0x3f84b6ab	1.0368246
20	0x3f6f0741	0.93370444
21	0x3f7ed46c	0.9954288
22	0x3f77d90d	0.9681557
23	0x3f828223	1.0195965
24	0x3f86299b	1.0481447
25	0x3f820778	1.0158529
26	0x3f6d0808	0.9259038
27	0x3f6fe339	0.9370609
28	0x3f7d3a46	0.98917043
29	0x3f80a61e	1.0050695
30	0x3f7d9bbf	0.99065775
31	0x3f765b5a	0.9623314
32	0x3f82e98a	1.022752
33	0x3f7d2abf	0.9889335
34	0x3f7a1339	0.9768558
35	0x3f86e8c3	1.0539783
36	0x3f791a59	0.9730583
37	0x3f654954	0.89565015
38	0x3f826d48	1.01896
39	0x3f839cd4	1.0282235
40	0x3f817053	1.0112404
41	0x3f836175	1.0264117
42	0x3f732472	0.94977486
43	0x3f805584	1.0026097
44	0x3f85624a	1.042062
45	0x3f82ff5e	1.0234182
46	0x3f74601c	0.9545915
47	0x3f7480ef	0.9550924
48	0x3f83756e	1.0270212
49	0x3f702060	0.937994
50	0x3f70ccb9	0.9406238
51	0x3f68cae6	0.909346
52	0x3f821028	1.016118
53	0x3f6f4ac9	0.9347349
54	0x3f7de202	0.99172986
55	0x3f80f8f9	1.007598
56	0x3f6c671b	0.92344826
57	0x3f83c305	1.029389
58	0x3f8411d2	1.0317938
59	0x3f827ad0	1.0193729
60	0x3f877713	1.0583214
61	0x3f8400bc	1.0312724
62	0x3f7d2f60	0.98900414
63	0x3f718c7a	0.94354975

main.10.bias f4 [64]
0	0xbbd0469a	-0.0063560726
1	0xbd54e0cf	-0.051972207
2	0xbdd8ae8a	-0.10580166
3	0xbd22f91d	-0.039788354
4	0xbcbd6f2e	-0.023124304
5	0x3abc30cb	0.0014357803
6	0xbc568601	-0.013093472
7	0xbc703a09	-0.014662274
8	0x3d2083df	0.039188262
9	0xbda225ab	-0.07917341
10	0xbd1895a6	-0.03725209
11	0xbc0a139f	-0.00842753
12	0xbc12f4ea	-0.008969525
13	0xbbb1ddfb	-0.0054280735
14	0x3c1afeb1	0.009460137
15	0xbd3c17c6	-0.04592111
16	0x3be6ab0b	0.007039433
17	0x3c39f3d6	0.011349639
18	0x3cf46871	0.029834958
19	0xbc178df0	-0.009250149
20	0xbd90f649	-0.07078225
21	0xbc0edef9	-0.008720153
22	0x3b936dce	0.0044991737
23	0x3d2000ca	0.039063253
24	0x3cde2bb3	0.027120447
25	0xbd07ec84	-0.033184543
26	0xbd0d4a4a	-0.034494676
27	0xbc90fc14	-0.017698325
28	0xbc2452b0	-0.01002948
29	0x3c1fa4e6	0.009743905
30	0xbce9799d	-0.028500373
31	0xbc943bbc	-0.01809489
32	0x3caed388	0.0213411
33	0xbd344be4	-0.044017687
34	0xbd43814e	-0.047730736
35	0x3d474369	0.04864827
36	0xbcbeb08e	-0.023277547
37	0xbcd21931	-0.025646778
38	0x3b7a5e1b	0.0038203064
39	0x39dd3494	0.00042191579
40	0xbc81ef96	-0.015861314
41	0x3c48ca81	0.012255312
42	0x3c8853cb	0.016641518
43	0x3bf04194	0.0073320363
44	0x3cba30aa	0.022728283
45	0x3c933117	0.017967744
46	0xbd67e21c	-0.05661212
47	0x3b79977f	0.0038084683
48	0x3be692f6	0.007036562
49	0xbc0d60bf	-0.008629023
50	0xbcbee566	-0.023302745
51	0xbd615106	-0.05500891
52	0xbcad079f	-0.021121798
53	0xbcfd05b7	-0.030886514
54	0xbcaf8660	-0.02142638
55	0x3b499d8c	0.0030764071
56	0xbd16eca1	-0.03684676
57	0xbbb4bd7c	-0.0055157524
58	0xbc06f67c	-0.008237477
59	0x3bd8ddcc	0.006618237
60	0x3c8485ed	0.016177142
61	0xbd24faca	-0.040278234
62	0xba78f57d	-0.000949703
63	0xbd819ee2	-0.063291326

main.10.running_mean f4 [64]
0	0x3d920f60	0.07131839
1	0xbe821797	-0.25408623
2	0x3d816544	0.06318143
3	0x3d826b71	0.06368149
4	0xbe12bf56	-0.14330801
5	0x3d032095	0.032013495
6	0x3e0caef5	0.13738616
7	0xbd82a107	-0.0637837
8	0x3a9bb416	0.0011879231
9	0xbe3dea87	-0.18546496
10	0xbbba2977	-0.0056812125
11	0xbe5efe0d	-0.217766
12	0x3e4cc71e	0.19997832
13	0x3d4799fa	0.048730828
14	0xbe31b3b2	-0.17353705
15	0x3daa7718	0.083234966
16	0xbd6e6222	-0.058199055
17	0x3d35b5d0	0.044362843
18	0x3de6c191	0.112673886
19	0xbe08c4dc	-0.13356346
20	0x3d7dd9d9	0.061975334
21	0x3db906c8	0.090344965
22	0x3e007e9d	0.12548299
23	0xbdc558c6	-0.09636073
24	0xbdc1d71a	-0.094648555
25	0xbe233a8a	-0.159403
26	0xbe319dc9	-0.17345347
27	0xbe28a9c2	-0.16471007
28	0x3d85904f	0.06521665
29	0xbe0e78a4	-0.13913208
30	0xbccb8398	-0.024843022
31	0xbd8de4eb	-0.06928428
32	0x3e12f6d9	0.14351977
33	0xbd930679	-0.07178969
34	0xbe9a8ec3	-0.30187044
35	0x3de6c729	0.112684555
36	0xbe276bbf	-0.16349696
37	0xbedecbc7	-0.43514845
38	0x3e495ba5	0.19663866
39	0x3e2ffe8c	0.17186946
40	0x3d8cc1c5	0.06872896
41	0xbd9e4e90	-0.07729828
42	0xbdb76372	-0.089545146
43	0xbec2dcd9	-0.38059118
44	0xbc8718ce	-0.01649132
45	0x3d864d09	0.06557662
46	0xbe2ce745	-0.16885097
47	0xbe9ca5ef	-0.30595347
48	0xbe2c5049	-0.16827501
49	0xbe69e149	-0.22839846
50	0x3e1f4b23	0.15556006
51	0x3ce8dd54	0.02842585
52	0xbe1f007a	-0.15527526
53	0x3c88cf5b	0.016700437
54	0xbdedf3d3	-0.116187714
55	0xbd573220	-0.052538037
56	0xbcc7b7e2	-0.024379674
57	0xbe4b6197	-0.19861446
58	0xbdb1ade3	-0.086757444
59	0x3da23c3a	0.079216436
60	0xbd8cb32e	-0.06870113
61	0xbe21ed1d	-0.15813108
62	0xbe3db53e	-0.1852617
63	0xbd2c2535	-0.04202767

main.10.running_var f4 [64]
0	0x3dcf32d4	0.101171166
1	0x3e7080eb	0.23486678
2	0x3ef7845c	0.4834317
3	0x3e653d2d	0.22386618
4	0x3e4798ab	0.19491832
5	0x3e8df5ce	0.27726597
6	0x3e56ba9a	0.2096962
7	0x3eaaf4f3	0.33390006
8	0x3ef5e0ef	0.48023173
9	0x3e9c3908	0.3051226
10	0x3eb93f15	0.3618094
11	0x3e45c4ce	0.19313356
12	0x3e4c1f9f	0.19933937
13	0x3e163486	0.14668474
14	0x3e5a6873	0.21328907
15	0x3e11f0fd	0.14252086
16	0x3e8cbbfb	0.27487168
17	0x3e5ed474	0.21760732
18	0x3d7ad710	0.061240256
19	0x3e39f840	0.18161106
20	0x3ec0a0b4	0.37622607
21	0x3e131f53	0.14367418
22	0x3ebcac4b	0.368502
23	0x3e3cdb36	0.18442997
24	0x3dce316d	0.10068021
25	0x3e83fc57	0.25778458
26	0x3eb85e72	0.36009556
27	0x3eed055a	0.46293145
28	0x3e29dfd6	0.16589293
29	0x3e4cc52d	0.19997092
30	0x3e798a0d	0.24369068
31	0x3e6fffea	0.23437467
32	0x3e2a48b8	0.16629303
33	0x3e7bfaac	0.24607342
34	0x3ea17401	0.31533816
35	0x3de8775a	0.113508895
36	0x3e4af699	0.19820632
37	0x3e9f6170	0.31129026
38	0x3dc7ee70	0.09762275
39	0x3d91c1e5	0.071170606
40	0x3db27b14	0.087148815
41	0x3e969b59	0.29415396
42	0x3eae8496	0.3408553
43	0x3e010027	0.12597714
44	0x3e041acd	0.12900849
45	0x3e5102fe	0.20411298
46	0x3dc55e5c	0.09637138
47	0x3ecf1a10	0.40449572
48	0x3eaa5224	0.33265793
49	0x3ea9e5f8	0.33183265
50	0x3ea59d62	0.32346636
51	0x3e06493f	0.13113879
52	0x3e1d558f	0.1536467
53	0x3e87e263	0.26539907
54	0x3e76f058	0.24115121
55	0x3e8c1a41	0.2736378
56	0x3e71beb7	0.23607908
57	0x3e173838	0.1476754
58	0x3e87f3d9	0.26553228
59	0x3e1e6152	0.15466812
60	0x3db7ab83	0.0896826
61	0x3e898136	0.26856393
62	0x3e1eafac	0.15496701
63	0x3ee6fd30	0.45115042

main.12.weight f4 [128, 64, 2, 2]
0	0x3bf43790	0.0074529126
1	0x3d3bc3c2	0.045840986
2	0xbd353f33	-0.044249725
3	0xbd99049b	-0.074715815
4	0xbd87efe4	-0.066375524
5	0x3d151fe7	0.036407378
6	0xbc0235c5	-0.00794739
7	0x3d68b79a	0.05681572
8	0x3d249967	0.04018536
9	0xbce6774d	-0.028133059
10	0xbd9d5cb6	-0.07683699
11	0x3d0fb0de	0.035080783
12	0x3cc19f75	0.023635605
13	0xbc2af008	-0.0104332045
14	0xb95b67d9	-0.00020924154
15	0x3d3cef39	0.046126578
16	0x3ae02951	0.0017102157
17	0x3d67b4eb	0.05656902
18	0xbd28b2e0	-0.041186213
19	0x3d011a40	0.031519175
20	0xbd29f785	-0.04149582
21	0xbc6a8f54	-0.014316399
22	0x3d851869	0.064987965
23	0x3be935f9	0.0071170297
24	0xbd4d8dcf	-0.050184067
25	0x3cd34fe9	0.02579494
26	0xbd8424c9	-0.06452329
27	0x3c759ae6	0.014990544
28	0x3d609cf6	0.05483719
29	0xbc91e661	-0.017810049
30	0xbc9ae903	-0.018909937
31	0xbc943d2a	-0.018095572
32	0xbd446cba	-0.047955252
33	0xbd8f8638	-0.07008022
34	0xbd3d6e59	-0.046247814
35	0xbc9d3672	-0.019191
36	0x3dcae7fc	0.09907529
37	0x3bc2c368	0.0059437044
38	0xbbb481db	-0.005508644
39	0xbd422d23	-0.047406327
40	0xbce8dbb3	-0.028425073
41	0xbc11993d	-0.0088866325
42	0xbd6d7c36	-0.057979785
43	0xbd70c4eb	-0.058781546
44	0x3e0c3df1	0.13695504
45	0x3c2fa6a7	0.010720885
46	0xbc6846de	-0.014177052
47	0xbd4767fc	-0.04868315
48	0xbd0b06b0	-0.033941925
49	0xbcbfa97f	-0.023396252
50	0xbd984695	-0.074353375
51	0xbd013a73	-0.031549882
52	0xbd6298f5	-0.055321652
53	0xbd243976	-0.04009386
54	0xbc5ccc2a	-0.013476411
55	0xbc7ac8fa	-0.015306706
56	0x3dde977d	0.10868738
57	0x3bfe97f6	0.00776958
58	0xbd9b7af1	-0.075918086
59	0xbd2047ed	-0.039131094
60	0xbc27ad61	-0.010234208
61	0xbb8516cb	-0.004061555
62	0xbdd49aee	-0.10381113
63	0x3d006e7a	0.03135536
64	0x3b335226	0.0027362197
65	0xbd48a53f	-0.048985716
66	0x3d152367	0.036410715
67	0xbd360f81	-0.04444838
68	0xbd5a2873	-0.05326123
69	0xbca19e4f	-0.019728808
70	0x3d9c7fe7	0.07641583
71	0xbcf41710	-0.029796153
72	0xbd72c922	-0.059273846
73	0xbd8f9e36	-0.07012598
74	0xbdef44f5	-0.116830744
75	0xbd66450d	-0.056218196
76	0x3de776bd	0.113019444
77	0x3d0a1b00	0.033717155
78	0xbb85cb23	-0.0040830537
79	0x3d0659c1	0.03280044
80	0xbd23b457	-0.039966907
81	0x3b035510	0.0020039715
82	0xbd3975f9	-0.045278523
83	0xbd20a35c	-0.03921829
84	0x3b5f9fa6	0.0034122257
85	0xbd2791ab	-0.040910404
86	0x3d0f5b23	0.034999024
87	0xbcaf4628	-0.021395758
88	0xbdccfc1a	-0.10009022
89	0x3cdd26bb	0.026996007
90	0x3ca77f90	0.020446569
91	0xbcffc671	-0.031222554
92	0xbc048241	-0.008087696
93	0xbd05294b	-0.032510083
94	0x3dbddbf0	0.092704654
95	0xbd5b9302	-0.053606994
96	0x3c40c9dc	0.011766877
97	0xbb8f5086	-0.004373613
98	0xbd6b45b2	-0.057439514
99	0x3d29aa7c	0.041422352
100	0x3db95841	0.09050036
101	0xbd178199	-0.03698883
102	0x3a5c868b	0.00084123824
103	0xbcc7921c	-0.024361663
104	0x3be7fd1a	0.0070797326
105	0x3d0d437b	0.034488183
106	0x3b0820d4	0.002077152
107	0xbd186bf6	-0.037212335
108	0x3d193cd6	0.037411533
109	0xbc808e91	-0.015692981
110	0xbb8a091a	-0.004212511
111	0x3d25236a	0.040316977
112	0x3c15c0c8	0.009140201
113	0xbd600877	-0.054695573
114	0xbcf29ef6	-0.029616814
115	0x3d54a0d6	0.051911198
116	0xbd1ca639	-0.03824446
117	0x3c9dab18	0.019246623
118	0xbcc4cfb2	-0.024024818
119	0x3d21391a	0.039361097
120	0x3c070d68	0.008242942
121	0x3d3d76fe	0.046256058
122	0x3d27fa51	0.041010205
123	0xbd8b4962	-0.06801106
124	0xbcdd50f5	-0.027016142
125	0x3d7225ef	0.059118208
126	0xbc220bb4	-0.009890486
127	0x3df75286	0.12076287
128	0xbd083f06	-0.03326323
129	0xbca44e27	-0.020056797
130	0xbd1c3ddf	-0.038144942
131	0xbbfb1fe8	-0.0076637156
132	0x3bfd032b	0.007721325
133	0x3bff69df	0.0077946032
134	0xbbf5e70f	-0.007504351
135	0xbd488440	-0.04895425
136	0x3dee2efd	0.11630056
137	0xbcc352f2	-0.023843262
138	0xbb311117	-0.0027018243
139	0x3c2e0dc4	0.010623399
140	0xbc366b3d	-0.011133966
141	0x3d15b734	0.03655167
142	0x3d186fe9	0.0372161
143	0xbb713be7	-0.0036809386
144	0x3d2f7b54	0.042842224
145	0x3cf54a17	0.029942555
146	0xbd795d19	-0.0608798
147	0xbc9af7a8	-0.01891692
148	0x3d16cf87	0.036819007
149	0x3d815199	0.06314392
150	0x3d03135b	0.03200088
151	0xbd10910f	-0.03529459
152	0xbd817a4d	-0.06322155
153	0x3c95fde7	0.018309547
154	0xbcb3753c	-0.021906488
155	0xbc2064ff	-0.009789704
156	0xbd0b9c88	-0.034084827
157	0xbc893330	-0.01674804
158	0xbd1f3cdc	-0.0388764
159	0xbd921230	-0.07132375
160	0xbdb2cb10	-0.08730137
161	0xbd95419c	-0.072879046
162	0x3d166d8d	0.03672557
163	0xbd2271fb	-0.03965948
164	0x3d716cae	0.058941536
165	0xbd0802f4	-0.03320594
166	0x3d26a943	0.040688764
167	0xbd9bc857	-0.07606571
168	0x3b96223d	0.0045817182
169	0xbce754ed	-0.028238738
170	0xbd7a2638	-0.061071604
171	0xbd208d37	-0.039197173
172	0xba953dcc	-0.0011386215
173	0xbc7f786d	-0.015592677
174	0x3d081fce	0.033233456
175	0x3d1710e9	0.03688136
176	0x3d5d540b	0.054035228
177	0x3c179955	0.009252866
178	0xbd9fc2ae	-0.07800804
179	0x3d27b00b	0.040939372
180	0xbd0faf3f	-0.035079237
181	0xbd6d6c8d	-0.05796485
182	0xbdaaacdf	-0.08333754
183	0xbc3120bc	-0.010811027
184	0xbc2a7c55	-0.01040562
185	0x3a8821da	0.0010386065
186	0xbc9a8370	-0.018861502
187	0x3d4d8da3	0.050183903
188	0x3da40012	0.08007826
189	0xbd1a0d0a	-0.03761009
190	0x3cd06fb7	0.025443895
191	0xbcffd199	-0.031227874
192	0x3c64036e	0.013916833
193	0x3d2010c0	0.039078474
194	0xbca7a618	-0.020464942
195	0x3c8f5c4e	0.017500069
196	0xbb9d0c87	-0.004792753
197	0x3d53b7ac	0.051688835
198	0x3de00baf	0.109397285
199	0xbbb4d2ee	-0.005518309
200	0x3a9fe659	0.0012199386
201	0xbda58bf6	-0.08083336
202	0xbdc588d3	-0.09645238
203	0xbaa5aa40	-0.001263924
204	0x3d3ceb33	0.04612274
205	0xbafad71b	-0.0019137593
206	0xbda358f1	-0.079759486
207	0x3b4b0799	0.003097987
208	0x3cbb4695	0.022860805
209	0x3cf5551e	0.029947814
210	0xbd330782	-0.043708332
211	0x3ccc03ab	0.024904093
212	0x3d0462c7	0.032320764
213	0xb96b882e	-0.00022462077
214	0x3cea8dec	0.028632127
215	0xbd5cc4e7	-0.05389872
216	0x3d3e58a0	0.046471238
217	0xbd005bcd	-0.031337548
218	0x3d7d7ad3	0.061884712
219	0x3cdf9baa	0.027295906
220	0xbc899b6e	-0.016797747
221	0x3d4b72bb	0.049669962
222	0xbd789e61	-0.060697917
223	0xbc057027	-0.008144415
224	0x3d41fc9c	0.047360048
225	0xbd282eb6	-0.041060172
226	0xbdb9e612	-0.090770856
227	0xba749eda	-0.0009331532
228	0x3db7ef6b	0.08981212
229	0x3dc0d47a	0.09415527
230	0x3d3cd37a	0.046100117
231	0xbcb35f70	-0.021896094
232	0x3d393b11	0.045222346
233	0x3b15e4ec	0.0022872044
234	0x3b1d191a	0.002397126
235	0x3d040f2e	0.03224104
236	0xbd94fcf3	-0.07274809
237	0x3d358d23	0.04432405
238	0xbdb31a81	-0.087452896
239	0xbd9661fb	-0.07342907
240	0xbd8f0fc5	-0.0698543
241	0x3cfe7eb3	0.031066274
242	0xbdbec894	-0.09315601
243	0xbce51ee6	-0.027968835
244	0x3d0c2e53	0.034223866
245	0xbd375774	-0.044761136
246	0xbd90a002	-0.07061769
247	0xbd09d09e	-0.03364622
248	0xbbfb4a7e	-0.0076687923
249	0xbc79e80f	-0.015253081
250	0x3d547527	0.051869538
251	0x3cf47452	0.029840622
252	0x3d175260	0.036943793
253	0x3d1b28da	0.037880756
254	0xbd615a2a	-0.055017628
255	0xbd3efef7	-0.046629872

main.13.weight f4 [128]
0	0x3f89f8ca	1.0779049
1	0x3f89d1dc	1.0767169
2	0x3f8400c3	1.0312732
3	0x3f8a3467	1.0797242
4	0x3f84e5ea	1.0382664
5	0x3f890d61	1.0707208
6	0x3f8199a1	1.0125009
7	0x3f879f69	1.0595523
8	0x3f82e36a	1.0225651
9	0x3f90fa0e	1.1326311
10	0x3f89fd31	1.0780393
11	0x3f8cd471	1.1002332
12	0x3f88dada	1.0691788
13	0x3f89a5eb	1.0753759
14	0x3f88c329	1.0684558
15	0x3f84aced	1.0365273
16	0x3f843310	1.0328083
17	0x3f8ebdb6	1.1151645
18	0x3f8536b8	1.0407324
19	0x3f88fd2c	1.0702262
20	0x3f865919	1.049594
21	0x3f8bf9ad	1.093557
22	0x3f8cc5c8	1.0997858
23	0x3f8cd348	1.1001978
24	0x3f8267e1	1.0187951
25	0x3f8a6978	1.0813437
26	0x3f8b2a91	1.0872365
27	0x3f8dc895	1.1076838
28	0x3f8f5672	1.1198256
29	0x3f869804	1.0515141
30	0x3f847ca8	1.0350542
31	0x3f840f28	1.0317125
32	0x3f8484fe	1.0353086
33	0x3f8866de	1.0656393
34	0x3f8076a0	1.0036201
35	0x3f8dfdcf	1.1093081
36	0x3f8a38e3	1.079861
37	0x3f8bb7a4	1.0915418
38	0x3f8578dc	1.0427508
39	0x3f8b983a	1.0905831
40	0x3f889a0b	1.067201
41	0x3f89fc65	1.078015
42	0x3f8285fe	1.0197141
43	0x3f86fe19	1.0546294
44	0x3f8a23d4	1.0792184
45	0x3f809da1	1.0048105
46	0x3f8b9beb	1.0906957
47	0x3f8afeae	1.0858972
48	0x3f858953	1.0432533
49	0x3f892e80	1.0717316
50	0x3f84ed61	1.0384942
51	0x3f8dbdf9	1.10736
52	0x3f8c5141	1.0962297
53	0x3f82a082	1.0205233
54	0x3f842095	1.0322443
55	0x3f8b244e	1.0870454
56	0x3f85fa4c	1.046701
57	0x3f893cfe	1.0721738
58	0x3f885245	1.0650107
59	0x3f8ac32a	1.0840809
60	0x3f876c61	1.057995
61	0x3f8bbeb0	1.0917568
62	0x3f8b16ad	1.0866295
63	0x3f8517e7	1.039792
64	0x3f867c1a	1.0506623
65	0x3f8a31c5	1.0796438
66	0x3f83a6a2	1.0285227
67	0x3f887a8c	1.0662398
68	0x3f829a8a	1.0203412
69	0x3f852722	1.0402567
70	0x3f860e36	1.0473087
71	0x3f88921a	1.0669587
72	0x3f8befba	1.0932534
73	0x3f8a7fbe	1.0820234
74	0x3f8a0e0a	1.0785534
75	0x3f84ae2d	1.0365654
76	0x3f8e0b13	1.109713
77	0x3f82bad9	1.0213271
78	0x3f8a0ee1	1.0785791
79	0x3f896481	1.0733796
80	0x3f861660	1.0475578
81	0x3f80e14b	1.0068754
82	0x3f912d77	1.1342
83	0x3f890a3d	1.070625
84	0x3f88d72c	1.0690665
85	0x3f83284a	1.024667
86	0x3f905d56	1.1278484
87	0x3f8a498f	1.0803698
88	0x3f870c42	1.0550616
89	0x3f84b968	1.0369081
90	0x3f8687c8	1.0510187
91	0x3f88250f	1.0636309
92	0x3f8145b0	1.0099392
93	0x3f894699	1.072467
94	0x3f805114	1.0024743
95	0x3f86f341	1.0542985
96	0x3f854432	1.0411437
97	0x3f861984	1.0476537
98	0x3f874294	1.0567193
99	0x3f8a5f39	1.081031
100	0x3f8bed05	1.0931708
101	0x3f83e080	1.0302887
102	0x3f81c88f	1.0139331
103	0x3f814798	1.0099974
104	0x3f83a25a	1.0283921
105	0x3f88161d	1.0631748
106	0x3f82a360	1.0206108
107	0x3f84558f	1.033861
108	0x3f8c09da	1.0940506
109	0x3f856295	1.042071
110	0x3f8af007	1.08545
111	0x3f837768	1.0270815
112	0x3f8d6dc2	1.104912
113	0x3f86215e	1.0478933
114	0x3f87f541	1.062172
115	0x3f91f834	1.140387
116	0x3f8aa167	1.0830506
117	0x3f87cc8d	1.0609299
118	0x3f8be766	1.0929992
119	0x3f828ae1	1.0198632
120	0x3f900317	1.1250943
121	0x3f8736f6	1.0563648
122	0x3f7b03a6	0.9805244
123	0x3f8c548b	1.09633
124	0x3f8ac899	1.0842468
125	0x3f8f4c51	1.1195165
126	0x3f8e6ab0	1.1126308
127	0x3f850231	1.0391294
