src/models/fettucineAlPesto1.pth (torch, 211995 bytes, 5 tensors)

main.0.weight f4 [20, 3, 5, 5]
0	0x3d25a8c7	0.04044416
1	0x3dfd343d	0.12363479
2	0x3e3ce463	0.18446498
3	0x3d46832c	0.04846494
4	0x3df439d5	0.11925093
5	0x3d34c683	0.044134628
6	0xbdc237ca	-0.09483297
7	0x3ed98e02	0.42491156
8	0xbc7b21d3	-0.015327889
9	0xbc8cfa7a	-0.01720928
10	0x3e325a53	0.17417268
11	0x3e9177da	0.28411752
12	0x3e95034b	0.29104075
13	0x3e0540de	0.13013026
14	0xbd8230c1	-0.06356955
15	0xbc923758	-0.017848656
16	0x3d8858fb	0.06657597
17	0x3d963089	0.07333476
18	0x3ea17a81	0.31538776
19	0xbebb5e49	-0.3659537
20	0x3da0fe35	0.07860986
21	0xbd535b0b	-0.051600497
22	0x3cd6803b	0.026184192
23	0x3e2725f0	0.16323066
24	0x3cb521bb	0.02211081
25	0xbd8d418d	-0.068972684
26	0x3dd7ab5e	0.105307326
27	0x3e8f17b6	0.27947778
28	0x3da7a422	0.08185603
29	0xbaa0a117	-0.001225504
30	0x3dc87495	0.09787861
31	0x3e0d32b0	0.13788867
32	0x3e9ddab2	0.30830914
33	0x3d4678e9	0.048455153
34	0xbc9f2dad	-0.01943096
35	0x3e32da91	0.17466189
36	0x3eaca742	0.33721358
37	0x3ebd65e3	0.36991796
38	0x3dda3324	0.106542856
39	0x3c825f3e	0.015914556
40	0x3e3aba64	0.18235165
41	0x3c915ef5	0.017745474
42	0xbe7697d2	-0.24081352
43	0x3c43db4e	0.011954142
44	0x3e2aedd9	0.16692294
45	0x3dc16f22	0.09445025
46	0xbc003095	-0.007824083
47	0x3da0f21b	0.07858678
48	0x3e2ad228	0.16681731
49	0xbdf172d8	-0.11789483
50	0x3d0f2167	0.034943964
51	0x3b7e7468	0.0038826708
52	0x3e169969	0.14706959
53	0x3e2319b8	0.1592778
54	0xbdc43365	-0.09580115
55	0x3e0cda05	0.13755043
56	0xbd8c1566	-0.06840019
57	0x3ea2caf5	0.3179547
58	0xbd2cbd8c	-0.042172953
59	0x3d60f924	0.0549251
60	0x3e176a3d	0.1478662
61	0x3e0af0eb	0.13568465
62	0x3ea6a059	0.3254421
63	0x3dcf5177	0.1012296
64	0x3e0343c2	0.12818816
65	0xbe01bbe1	-0.12669326
66	0x3e2164c4	0.15761095
67	0xbe415c4b	-0.18882863
68	0x3e7cf365	0.24702223
69	0xbe30f32a	-0.1728026
70	0x3e3c0c94	0.18364173
71	0x3d64de7d	0.055876244
72	0xbdc20aa5	-0.094746865
73	0x3d604f41	0.054763082
74	0x3d8cb612	0.06870665
75	0x3e07155a	0.13191739
76	0x3c02a507	0.007973916
77	0x3c4d5af3	0.012533891
78	0x3e2bb07d	0.16766544
79	0x3dd70771	0.10499466
80	0x3dfb5b41	0.12273265
81	0xbdcd438a	-0.10022648
82	0x3d90e810	0.070755124
83	0x3da86c59	0.08223791
84	0xbd46507a	-0.048416592
85	0xbde2477d	-0.110487916
86	0x3c9d388b	0.019192
87	0xbd2b2562	-0.041783698
88	0x3e6e855b	0.23293059
89	0x3db06133	0.08612289
90	0xbdb645d0	-0.089000344
91	0x3c30f23f	0.0107999435
92	0xbd45c578	-0.048284024
93	0xbcf2ffdd	-0.02966302
94	0xba21aac3	-0.0006167108
95	0xbc1d5bc6	-0.0096044
96	0xbdbc09b8	-0.09181541
97	0xbdda763a	-0.10667081
98	0xbdf8f462	-0.12155987
99	0x3e1e067c	0.15432161
100	0xbce7b73d	-0.028285617
101	0x3d8d1b01	0.06889916
102	0xbd12c1b6	-0.03582927
103	0x3e38073e	0.17971513
104	0x3e3328d0	0.17496037
105	0xbdbdb51a	-0.09263058
106	0xbe034dca	-0.12822643
107	0x3dccd905	0.10002331
108	0x3ccf5376	0.025308352
109	0x3e1d709f	0.15374993
110	0xbdb4382b	-0.08799776
111	0x3bd596c8	0.0065182187
112	0xbcb8641f	-0.022508679
113	0x3dfe5fdc	0.124206275
114	0x3e0192ad	0.12653609
115	0x3db63291	0.088963635
116	0xbca032e4	-0.019555517
117	0xbd153ac3	-0.036432993
118	0x3e547080	0.2074604
119	0x3e27cf80	0.16387749
120	0xbd3b6514	-0.045750692
121	0x3dee9e48	0.116512835
122	0xbcc408a4	-0.023929901
123	0xbd061608	-0.032735854
124	0x3c6471a8	0.013943113
125	0x3daea3a6	0.08527307
126	0xbd838806	-0.06422429
127	0x3d55401f	0.052063104
128	0xbc80c0c0	-0.01571691
129	0x3e4db20a	0.20087448
130	0x3e185b5f	0.14878605
131	0xbd9e4d20	-0.07729554
132	0x3cee33d3	0.029077446
133	0x3d7e639a	0.062106706
134	0x3dc76459	0.09735937
135	0xbd735fca	-0.059417523
136	0xbd8b3b34	-0.067984015
137	0x3d7b1c15	0.061306078
138	0x3d053fc4	0.032531515
139	0x3e5f0c8f	0.21782134
140	0xbd90945e	-0.07059549
141	0xbcbc8b16	-0.02301554
142	0xbd6caea5	-0.05778374
143	0xbd9a190a	-0.07524307
144	0x3c56be11	0.013106839
145	0x3c05c1d5	0.008163889
146	0x3d835bf3	0.06414022
147	0xbddd59c2	-0.108081356
148	0xbce4535e	-0.027871784
149	0x3d3de8af	0.046364482
150	0xbdc3e88a	-0.09565838
151	0xbdc8576d	-0.097823
152	0x3db9bcef	0.09069239
153	0x3dc75b88	0.09734255
154	0x3df3649e	0.118844256
155	0xbd7497c1	-0.059715036
156	0xbe01f852	-0.12692383
157	0xbdbdce18	-0.09267825
158	0x3de4d582	0.11173536
159	0x3cdc0601	0.026858332
160	0xbc686cba	-0.014186079
161	0xbd91aa9f	-0.071126215
162	0x3bc0f5d8	0.005888682
163	0x3da61c73	0.08110895
164	0x3d8cc11d	0.06872771
165	0xbc1a2224	-0.009407554
166	0xbdc1850d	-0.094492055
167	0xbdcc4a66	-0.09975128
168	0x3c68bebc	0.014205631
169	0x3d7ae057	0.061249103
170	0xbb2c9fc1	-0.0026340338
171	0x3d5e08cd	0.05420761
172	0x3e5cc170	0.21558166
173	0x3ec88062	0.39160448
174	0x3e1c5136	0.15265355
175	0x3cabbbbb	0.02096354
176	0x3c26c316	0.010178348
177	0x3df1397b	0.11778542
178	0x3e72776d	0.2367837
179	0x3e956286	0.2917673
180	0x3d7291ce	0.05922108
181	0xbdb7e491	-0.089791425
182	0xbd6f6fbc	-0.058456168
183	0x3ebf2da7	0.37339517
184	0x3e675b10	0.22593331
185	0x3daf3711	0.08555425
186	0xbca2df73	-0.01988194
187	0x3db711c2	0.08938934
188	0x3eb1f537	0.34757397
189	0x3e36a95e	0.17838046
190	0x3da0db0f	0.07854282
191	0x3d3a968b	0.045553725
192	0x3d0afda6	0.033933304
193	0x3e937d8c	0.28806722
194	0x3c3681b3	0.011139321
195	0x3d0c108a	0.03419546
196	0x3dbc1d8a	0.09185322
197	0x3e0e4c93	0.13896398
198	0x3ec5a3ee	0.3860163
199	0x3e8d6b73	0.2762104
200	0xbc3da0ba	-0.011573965
201	0x3c5510af	0.013004466
202	0x3d5a3d2e	0.053281
203	0x3e5bf886	0.21481523
204	0x3e3512eb	0.17682998
205	0xbc14fdf0	-0.009093747
206	0xbda1894f	-0.07887518
207	0x3cf212f8	0.02955006
208	0x3ecee217	0.40406868
209	0x3d84438e	0.064581975
210	0xbd5bafc9	-0.05363444
211	0xbdf9beb7	-0.12194579
212	0x3dc0801b	0.09399434
213	0x3e54f29a	0.2079567
214	0x3de44cd7	0.111474685
215	0x3dd66cd5	0.10469977
216	0x3d92eda5	0.07174233
217	0x3e850ce0	0.25986385
218	0x3e1c1037	0.1524056
219	0x3e682597	0.2267059
220	0x3e0df87e	0.13864323
221	0x3c11c9cd	0.008898211
222	0x3e155144	0.14581782
223	0x3e8181d4	0.25294363
224	0x3e6dd717	0.23226582
225	0x3e3306d3	0.17483072
226	0x3d5f3bf0	0.05450052
227	0xbd0a5ea3	-0.03378166
228	0x3e010b4e	0.12601969
229	0x3e6ed3b3	0.23322944
230	0xbdeacc7e	-0.11464785
231	0x3db2adc5	0.0872455
232	0xbc93e621	-0.01805407
233	0xbd0a7764	-0.033805266
234	0x3e34b928	0.17648757
235	0x3c589aaf	0.013220473
236	0x3e06ff0c	0.1318323
237	0x3c785233	0.015156317
238	0x3e9ea2e5	0.30983654
239	0x3d985b94	0.07439342
240	0xbc2494fa	-0.010045284
241	0x3e1d957c	0.15389055
242	0x3d51721c	0.051134214
243	0x3cad6213	0.02116493
244	0x3e583171	0.2111261
245	0xbda879bd	-0.08226345
246	0x3e5b062d	0.21389075
247	0x3d462982	0.04837943
248	0x3df6639f	0.1203072
249	0x3e6fef28	0.23431075
250	0x3d8aa54f	0.06769811
251	0x3e1a8530	0.1508987
252	0xbd453e33	-0.04815502
253	0x3dc9a4f9	0.09845919
254	0x3e560874	0.20901662
255	0xbe325d19	-0.17418326

main.3.weight f4 [64, 20, 5, 5]
0	0x3e1c2f84	0.15252501
1	0x3d349f7b	0.044097405
2	0xbc38f201	-0.011288167
3	0xbce31ce1	-0.027723731
4	0xbceba7fb	-0.028766623
5	0xbd4ab85c	-0.049492225
6	0x3d0e74ba	0.034779288
7	0x3d8184cd	0.06324158
8	0x3d8b6e68	0.06808168
9	0x3e24e592	0.16103199
10	0xbd49bdf5	-0.049253423
11	0xbbd3c556	-0.0064627333
12	0x3d771288	0.060320407
13	0xbdda86bc	-0.1067023
14	0x3d045067	0.03230324
15	0x3c8fccce	0.017553713
16	0xbd80d89e	-0.062913164
17	0x3cc1e9cb	0.023671051
18	0xbdcd7220	-0.10031533
19	0x3c8efd78	0.017454848
20	0x3d90e567	0.07075005
21	0x3ca1630c	0.01970055
22	0x3d8a3069	0.06747515
23	0xbd23c62d	-0.039983917
24	0x3cc4f5f6	0.024043065
25	0x3d248970	0.040170133
26	0x3d333f14	0.043761328
27	0xbc1bf1e3	-0.0095181195
28	0x3cd64866	0.02615757
29	0x3c656d7f	0.014003157
30	0x3b890da1	0.004182533
31	0xbd25d0c8	-0.040482312
32	0x3d91ea2d	0.071247436
33	0xbc212360	-0.009835094
34	0xbc793d69	-0.015212395
35	0xbce8ad8e	-0.02840307
36	0xbd921ad2	-0.07134022
37	0xbca5eaf5	-0.020253638
38	0xbb9c6101	-0.004772306
39	0x3d642c59	0.055706356
40	0xbcc7609d	-0.024338061
41	0x3c37fae0	0.011229247
42	0xbcd6f8bf	-0.026241658
43	0x3cbc6350	0.022996575
44	0x3d287920	0.04113114
45	0x3b56bb5f	0.003276549
46	0xbad1ef9f	-0.0016016847
47	0x3d1ee89b	0.03879605
48	0xbd1701f0	-0.036867082
49	0xbc2a748d	-0.010403764
50	0x3d151aea	0.03640262
51	0xbbf0cd8a	-0.007348721
52	0x3c88a508	0.016680256
53	0x3c88da7f	0.01670575
54	0xbd61e8ed	-0.055153776
55	0x3cec60d1	0.02885476
56	0x3c98d15f	0.018654523
57	0x3e071ce2	0.13194612
58	0xbd357c51	-0.04430801
59	0xbd1b0751	-0.037848774
60	0xbd29af4e	-0.04142695
61	0xbd9cfdd7	-0.076656036
62	0x3d0047dd	0.031318534
63	0xbd9158a8	-0.07096988
64	0x3dac3349	0.08408219
65	0x3b376c9e	0.0027988325
66	0x3d09085e	0.033455245
67	0xbc9a2e11	-0.018820794
68	0xbd9ea0cf	-0.077455156
69	0xbd7f5809	-0.062339816
70	0x3c4a22bd	0.012337384
71	0x3c7dcab6	0.015490225
72	0xbd5104e2	-0.051030047
73	0xbd4bfd1e	-0.04980194
74	0xbc7b612a	-0.01534299
75	0x3d16feff	0.036864277
76	0x3d7dbd30	0.061948
77	0xbaf5cbee	-0.0018752792
78	0x3d1132ea	0.035448946
79	0xbd88bec5	-0.066770114
80	0x3d98612c	0.07440409
81	0x3dd7a867	0.10530167
82	0x3bfa5a07	0.0076401266
83	0xbdc004fa	-0.09375949
84	0xbe3505db	-0.17678015
85	0x3def2f7a	0.11678977
86	0x3d95e5c1	0.07319213
87	0x3dc52fd4	0.09628263
88	0xbce9c8f2	-0.028538201
89	0x3d929115	0.071565785
90	0x3d4daa3d	0.05021118
91	0x3d40eb15	0.04709919
92	0x3d8395b1	0.06425036
93	0xbdd88a67	-0.10573273
94	0xbdb91c18	-0.090385616
95	0x3dbe9b41	0.09306956
96	0x3da0d279	0.078526445
97	0xbd70ce33	-0.058790397
98	0xbd716cef	-0.058941778
99	0x3ccdd16c	0.025124274
100	0x3de97e95	0.11401097
101	0x3ce9cf84	0.028541334
102	0x3d4e9d06	0.050442718
103	0x3bf6f031	0.0075359573
104	0xbd45f761	-0.048331622
105	0xbcc33c40	-0.02383244
106	0x3d27fddf	0.041013595
107	0x3ca6bd98	0.020354077
108	0x3d6e5ac1	0.05819202
109	0xbc8d2bce	-0.017232802
110	0x3d1013f5	0.035175283
111	0x3e00da3c	0.1258325
112	0x3d8628d4	0.06550756
113	0xbbdbc679	-0.0067070094
114	0xbb0226f8	-0.0019859653
115	0xbcb0c963	-0.021580404
116	0x3a5cf1df	0.00084283756
117	0xbc5fcea6	-0.013660109
118	0xbd80a08d	-0.06280623
119	0xbd00acc1	-0.03141475
120	0x3dc78c2f	0.09743535
121	0xbd34f8e4	-0.044182673
122	0x3cd894f4	0.026438214
123	0xbdaee057	-0.08538883
124	0xbca5078e	-0.020145204
125	0xbd121bc7	-0.03567102
126	0x3d58168c	0.052755877
127	0xbd2af861	-0.04174078
128	0x3c227be5	0.009917234
129	0xbd91f330	-0.071264625
130	0xbc8f050b	-0.01745846
131	0xbd764fea	-0.060134806
132	0x3d9cd21a	0.07657261
133	0xbd1db087	-0.038498428
134	0xbd400f29	-0.046889458
135	0x3c46150a	0.012089977
136	0xbc71f123	-0.014766964
137	0x3c7764e0	0.015099734
138	0xbc4eb306	-0.012615925
139	0x3dbffda1	0.09374548
140	0x3ca3af7e	0.019981142
141	0x3c729eaf	0.014808341
142	0x3cb1dd0e	0.021711852
143	0xbd489447	-0.048969533
144	0x3bb9d21c	0.005670799
145	0x3d0039ea	0.03130523
146	0x3cdf1ef4	0.02723644
147	0xbd1b81fc	-0.03796576
148	0xbc9cdcf3	-0.019148326
149	0x3d59f152	0.053208657
150	0x3c9d6f43	0.019218093
151	0xbb95af60	-0.0045680255
152	0xbc2f7e69	-0.010711291
153	0xbbfc3c28	-0.007697601
154	0x3bcd7508	0.0062700547
155	0x3d2f7755	0.042838413
156	0x3d34dc7b	0.04415558
157	0x3d53bc42	0.05169321
158	0xbd1000fe	-0.035157196
159	0x3c78d4d8	0.015187465
160	0x3d4f0301	0.050539974
161	0x3c664bb3	0.014056134
162	0x3cc77638	0.024348363
163	0xbd04bf71	-0.032409135
164	0x3d1bd7d6	0.038047634
165	0x3d6459c7	0.05574968
166	0x3a994914	0.0011694753
167	0xbc108c28	-0.008822478
168	0xbd771cca	-0.06033019
169	0xbae325a8	-0.0017329948
170	0x3ce0796f	0.027401654
171	0xbc9315b6	-0.017954689
172	0xbca3459f	-0.019930659
173	0xbd029c2d	-0.031887222
174	0xbc255c22	-0.010092767
175	0x3dd4cd57	0.10390728
176	0x3db7b499	0.08969993
177	0x3ceefaef	0.029172389
178	0xbc229c73	-0.009924996
179	0xbd462e97	-0.048384275
180	0xbd899345	-0.067175426
181	0x3cf0f768	0.029414847
182	0x3e0b35ec	0.13594788
183	0x3da28a58	0.07936543
184	0x3db1c324	0.08679798
185	0xbd396327	-0.045260575
186	0x3d615093	0.055008482
187	0x3d1c3c47	0.038143422
188	0xbd3b218a	-0.045686282
189	0x3ddfaead	0.10921989
190	0xbc9af998	-0.018917844
191	0xbcd5cbb0	-0.026098102
192	0x3bc36f08	0.0059641637
193	0xbdafb256	-0.08578937
194	0xbc54bf31	-0.012985037
195	0x3d29283f	0.041298147
196	0x3ce183fa	0.027528752
197	0xbcf92e7a	-0.03041767
198	0xbe410cc0	-0.1885252
199	0xbd715ca1	-0.05892623
200	0xbcf471d8	-0.029839441
201	0xbcc21da3	-0.023695773
202	0xbc788080	-0.015167356
203	0xbbe3fd46	-0.006957683
204	0x3cf25d4e	0.029585507
205	0xbc978b00	-0.018498898
206	0x3cf2c3de	0.029634412
207	0xbb690269	-0.0035554415
208	0xbd472e06	-0.048627876
209	0xbc508c99	-0.012728834
210	0xbdc05c37	-0.093925886
211	0xbdf0cd51	-0.11757911
212	0xbd525ed3	-0.051359963
213	0xbd66afaa	-0.05631987
214	0xbdb3022b	-0.08740648
215	0x3bd020d5	0.00635157
216	0xbc6d6640	-0.01448971
217	0xba82d737	-0.0009982352
218	0x3c16afab	0.009197156
219	0xbc3e01f4	-0.011597145
220	0xbc69246b	-0.014229874
221	0xbc856467	-0.016283227
222	0xbc6ad0ba	-0.014331991
223	0x3be0125f	0.0068381275
224	0xbc0371c3	-0.008022728
225	0xbd6a5d14	-0.057217672
226	0xbd03ebbf	-0.032207247
227	0xbcfe256f	-0.03102371
228	0x3d66234c	0.056186005
229	0x3c40584a	0.0117398
230	0xbd6d97f2	-0.058006234
231	0xbcb89d61	-0.022535982
232	0xbbff169a	-0.0077846767
233	0xbb9e6c3e	-0.004834681
234	0x3c428a2e	0.011873765
235	0xbd06a853	-0.03287537
236	0xbd015c94	-0.03158243
237	0xbd42df44	-0.047576204
238	0x3b77d43d	0.0037815713
239	0xbd7ff5d6	-0.062490307
240	0x3c0302d2	0.007996278
241	0xbd663f4d	-0.056212712
242	0x3d25facd	0.040522385
243	0xbc1ad4b0	-0.009450123
244	0xb7f65bc2	-2.9368213e-05
245	0x3d3cf5c3	0.046132814
246	0xbc970807	-0.018436445
247	0xbd01f2b0	-0.031725585
248	0x3d5dc934	0.05414696
249	0x3d55368d	0.052053977
250	0x3d436300	0.047701836
251	0xbd11e6c1	-0.035620455
252	0x3d053f5d	0.03253113
253	0x3cf453d9	0.029825138
254	0xbb43e0fb	-0.0029888737
255	0x3d27cd9d	0.040967572

main.6.weight f4 [32, 64, 3, 3]
0	0xbd16321c	-0.03666888
1	0x38b74e90	8.7407534e-05
2	0xbc318ff6	-0.010837546
3	0xba10d040	-0.0005524196
4	0xbdf494f4	-0.11942473
5	0xbc91f534	-0.017817117
6	0xbbf4f08e	-0.0074749654
7	0xbeceaf94	-0.4036833
8	0x3eedee8e	0.46471065
9	0x3ccf45c7	0.025301827
10	0xbc61e436	-0.01378732
11	0xbd15b23d	-0.036546934
12	0x3ce59628	0.028025702
13	0xbe6cfe0d	-0.23143788
14	0xbde9b430	-0.11411321
15	0x3cbd493c	0.02310621
16	0x3dd56e36	0.10421412
17	0x3eb9033e	0.36135286
18	0x3c4055af	0.011739179
19	0xbce52e4e	-0.027976181
20	0xbc280cac	-0.010256927
21	0xbb682da4	-0.0035427595
22	0xbd2e38a8	-0.0425345
23	0xbda46dcc	-0.080287546
24	0xbd35ad95	-0.044354994
25	0x3d1f5d56	0.03890737
26	0xbde7bd24	-0.113153726
27	0x3cda3ea8	0.026641205
28	0xbc3df016	-0.0115928855
29	0xbc8908e4	-0.016727872
30	0x3b5be47d	0.0033552938
31	0xbd1c6e7c	-0.038191304
32	0xbcc992d7	-0.024606152
33	0x3b1afd4a	0.0023649507
34	0x3e1436f8	0.14474094
35	0xbe244a16	-0.16043887
36	0xbc559daa	-0.013038078
37	0xbd01b117	-0.031663027
38	0x3ce3f295	0.027825633
39	0x3cf5aedc	0.029990606
40	0x3c57d8a1	0.013174207
41	0xbc457395	-0.012051483
42	0xbbfbaaa6	-0.007680255
43	0x3d3dfd63	0.046384227
44	0xbe1355ce	-0.143882
45	0x3c99fca8	0.018797234
46	0x3c3bea52	0.011469441
47	0x3d1921fc	0.037385926
48	0x3c45abaa	0.012064854
49	0xbca950df	-0.020668445
50	0x3d85cb37	0.06532901
51	0x3b0c0ff9	0.0021371825
52	0x3c36f160	0.011165947
53	0xbda47678	-0.080304086
54	0x3cffd140	0.031227708
55	0x3a2be299	0.0006556898
56	0x3c0e5a3a	0.008688504
57	0xbc69f6bf	-0.01428002
58	0xbc48adb5	-0.012248446
59	0x3d424631	0.04743022
60	0xbbacb56b	-0.00527065
61	0x3ea11d89	0.31467846
62	0xbe1c768b	-0.15279596
63	0xbc930a95	-0.017949382
64	0x3c9c4d7b	0.019079914
65	0xbccdd877	-0.025127633
66	0x3d23bb13	0.03997333
67	0xbbc9b5c2	-0.0061557004
68	0x3b791ae6	0.0038010417
69	0x3d0f6565	0.035008807
70	0xbcb051af	-0.021523325
71	0x3e68b8aa	0.22726694
72	0x3ca0ee85	0.019644985
73	0xbc961ff0	-0.018325776
74	0x3d236699	0.039892767
75	0xbc432e96	-0.011912962
76	0xbcfcd0ba	-0.030861247
77	0xbd090960	-0.033456206
78	0xbcfff534	-0.031244852
79	0xbe6d92e5	-0.23200567
80	0x3e24b278	0.16083705
81	0xbcda4532	-0.026644323
82	0xbccb4923	-0.024815148
83	0x3d215252	0.039385147
84	0xbcd8ad92	-0.026449952
85	0x3af72456	0.0018855433
86	0x3d210cd9	0.039318893
87	0x3d1ce45e	0.038303725
88	0x3dcee539	0.101023145
89	0xbe04b617	-0.12960087
90	0xbcb5cd12	-0.022192512
91	0xbbb04867	-0.005379725
92	0x3caf52a5	0.021401713
93	0x3cef7960	0.02923268
94	0x3c8245bc	0.015902393
95	0xbc75de50	-0.015006617
96	0x3beefb99	0.0072931764
97	0xbe37741d	-0.17915387
98	0xbe18e826	-0.14932308
99	0xbb19c025	-0.0023460474
100	0x3cfc1d93	0.03077582
101	0xbc62dbc7	-0.013846344
102	0xbcb7116c	-0.022347175
103	0xbd0df30d	-0.03465562
104	0xbc8574bc	-0.016291015
105	0xbd30d7e1	-0.04317463
106	0x3d9c344c	0.07627162
107	0xbda01358	-0.078161895
108	0x3c066b81	0.008204342
109	0xbc8aafcc	-0.01692953
110	0x3cffa9c4	0.03120888
111	0x3d0c4f4b	0.034255307
112	0x3c7f4ab3	0.0155817745
113	0x3c14c807	0.009080893
114	0x3c25441a	0.010087037
115	0xbeb3377e	-0.35003275
116	0xbdbc1657	-0.091839485
117	0xbcec5920	-0.028851092
118	0x3d014087	0.03155568
119	0xbc9a9cdc	-0.018873625
120	0xbd019fa4	-0.031646386
121	0xbd1aa311	-0.03775317
122	0x3bb2df70	0.0054587647
123	0x3b2eda02	0.0026680236
124	0xbe6b75fd	-0.22994228
125	0xbe08f610	-0.13375115
126	0xbc542b06	-0.012949711
127	0x3abeda4a	0.0014560905
128	0xbaa8f3fc	-0.0012890096
129	0xbcbc3d7e	-0.02297854
130	0xbd48e2c8	-0.0490444
131	0x3d0fa313	0.03506763
132	0xbcb133cc	-0.021631144
133	0x3e5b253b	0.21400921
134	0xbdef0098	-0.11670035
135	0xbd059a2f	-0.032617744
136	0x3d286cc4	0.041119352
137	0x3ce1ee74	0.027579524
138	0xbcb1c71a	-0.021701384
139	0xbdaa34fa	-0.08310886
140	0x3c4aa367	0.01236806
141	0xbc9e087e	-0.019291159
142	0xbd59fa90	-0.05321747
143	0x3e7b11cd	0.24518509
144	0x3c2d1f55	0.010566552
145	0x3c64c1fa	0.013962263
146	0x3c52d7c3	0.012868824
147	0xbca109b2	-0.019657943
148	0xbcb004ac	-0.021486603
149	0xbcb60fe0	-0.022224367
150	0xbc74b27a	-0.01493513
151	0xbe028a1a	-0.12747994
152	0x3b7561fc	0.0037442436
153	0xbcdbd9e6	-0.0268373
154	0xbcfc29f7	-0.03078173
155	0xbc34c62e	-0.011033578
156	0xba187910	-0.00058163796
157	0xbdbb56ef	-0.09147441
158	0x3d435334	0.04768677
159	0xbca72885	-0.020405063
160	0xbe223133	-0.1583908
161	0x3ce9d20b	0.02854254
162	0xbd19ed7b	-0.037579995
163	0x3cd436c6	0.025905024
164	0xbc0d7705	-0.0086343335
165	0x3cfbcdc5	0.030737767
166	0x3cfcceb8	0.03086029
167	0xbd255d10	-0.040371954
168	0x3bdf62f0	0.006817214
169	0x3d4c9781	0.049949173
170	0xbd94efbf	-0.072722904
171	0x3a205ad6	0.0006117051
172	0x3b9e476e	0.0048302924
173	0x3b46c4ec	0.0030329777
174	0x3d0f98ff	0.035058018
175	0x3cf56252	0.02995411
176	0x3ce219f7	0.027600272
177	0xbce88c04	-0.028387077
178	0xbd3c9c4e	-0.0460475
179	0x3d223a15	0.039606173
180	0x3d1f9602	0.038961418
181	0xbc25a1f3	-0.0101094125
182	0x3d23569b	0.039877515
183	0xbcd6cb7c	-0.026220076
184	0x3c8e2659	0.01735227
185	0x3bcfd023	0.0063419505
186	0xbd346c35	-0.044048507
187	0xbe39eeb8	-0.1815747
188	0xbd0155c3	-0.03157593
189	0xbd0e72c5	-0.03477742
190	0x3c8a39dd	0.016873294
191	0x3cfab237	0.030602558
192	0xbcfffdc4	-0.031248935
193	0xbd8bcf79	-0.06826682
194	0xbd70eff2	-0.05882258
195	0xbd3b4d6d	-0.045728136
196	0xbdbbd9be	-0.091723904
197	0xbd79cf85	-0.06098892
198	0xbbf1333a	-0.007360843
199	0xbbc31008	-0.005952839
200	0xbd17c1a3	-0.0370499
201	0x3c8a27e6	0.016864728
202	0xbcea1b02	-0.028577331
203	0x3d4fa0cc	0.050690457
204	0x3d24369a	0.040091135
205	0x3cc683c2	0.024232749
206	0xbe94a293	-0.29030284
207	0xbd143ad2	-0.036188908
208	0xbcf66b04	-0.030080326
209	0x3ce218f8	0.027599797
210	0x3d2474ed	0.04015057
211	0xbcc52de8	-0.024069741
212	0xbcdedaef	-0.027204005
213	0x3cf93fc2	0.03042591
214	0xbe860733	-0.26177368
215	0xbea63361	-0.32461074
216	0x3ce69db2	0.028151367
217	0x3bb5772a	0.005537887
218	0xbc5eacf9	-0.013591045
219	0xbd5142ae	-0.05108898
220	0xbdcd2144	-0.100161105
221	0xbd5d9721	-0.054099206
222	0xbd0b1681	-0.03395701
223	0x3e6ea391	0.23304583
224	0x3d44ff85	0.048095245
225	0x3cc2ab94	0.023763455
226	0xbc49df7d	-0.01232135
227	0xbb0776b3	-0.0020670115
228	0x3b079a38	0.0020691287
229	0xbbbf6be7	-0.0058417204
230	0x3c39ecbf	0.011347949
231	0x3ce8de6a	0.028426368
232	0xbe9b87ef	-0.30377147
233	0xbd889b72	-0.06670274
234	0xbc2ea65e	-0.010659782
235	0x3ce4514e	0.0278708
236	0xbcdb4ff9	-0.026771532
237	0xbc70e633	-0.014703321
238	0xbdb61384	-0.08890441
239	0x3cf7be4e	0.030242112
240	0x3cd99c83	0.026563888
241	0xbe4c3e77	-0.19945703
242	0x3e886384	0.26638424
243	0x3d0dbd62	0.034604438
244	0x3cb335f8	0.02187632
245	0xbd09146a	-0.033466734
246	0x3d178408	0.03699115
247	0xbd2ac6ef	-0.041693624
248	0x3d830d4c	0.063990206
249	0x3c058b59	0.008150899
250	0xbe4b0cc8	-0.19829094
251	0x3d6a3e71	0.057188455
252	0xbc7f7301	-0.015591384
253	0x3c0defe5	0.008663152
254	0x3d11acc3	0.03556515
255	0xbcd52b51	-0.026021631

main.10.weight f4 [16, 32]
0	0x3e215972	0.15756777
1	0x3ecc29ff	0.3987579
2	0xbe0108f4	-0.12601072
3	0xbe2c2aaf	-0.16813157
4	0xbe48797d	-0.19577594
5	0xbe89cc40	-0.26913643
6	0xbda0208f	-0.0781871
7	0x3defae10	0.11703122
8	0x3db5a866	0.0887001
9	0xbc0b64a2	-0.008507879
10	0x3c05d97c	0.008169528
11	0xbd2f58c7	-0.042809274
12	0x3e9a49f0	0.30134535
13	0xbe9c29a2	-0.30500513
14	0x3de233f5	0.11045066
15	0xbe629b3b	-0.22129528
16	0xbe141bfd	-0.14463802
17	0x3cb220d2	0.021744166
18	0x3c94fda6	0.018187355
19	0xbe49d130	-0.19708705
20	0x3f18d9cf	0.5970735
21	0x3dd0933f	0.10184335
22	0x3dd00f46	0.10159163
23	0xbe8045eb	-0.25053343
24	0x3eed4c5d	0.46347323
25	0x3ddf094b	0.10890444
26	0x3c08aff0	0.008342728
27	0xbdee560e	-0.116375074
28	0x3dbf375f	0.09336733
29	0xbddef1d6	-0.1088597
30	0x3ed963b1	0.4245887
31	0xbe2ee7b8	-0.17080581
32	0x3e05f64d	0.13082238
33	0xbe2909ec	-0.16507691
34	0xbceaf410	-0.028680831
35	0xbd9807f1	-0.0742339
36	0x3d9d5312	0.0768186
37	0x3d404224	0.046938077
38	0xbe0f1a2b	-0.13974826
39	0xbe2bd161	-0.1677909
40	0x3e0a5f07	0.13512813
41	0x3d6e4098	0.05816707
42	0xbd1daa4c	-0.038492486
43	0xbe03aeee	-0.12859699
44	0xbcf58cb8	-0.029974326
45	0xbdb3f078	-0.087861
46	0xbcbeb660	-0.023280323
47	0x3de700ea	0.11279471
48	0xbe19429c	-0.14966816
49	0xbe01446e	-0.1262376
50	0x3d204fc4	0.03913857
51	0xbac48b80	-0.0014995188
52	0xbe26e823	-0.1629949
53	0x3d83f398	0.06442946
54	0xbc56f210	-0.013119236
55	0xbd7ff8aa	-0.062493004
56	0x3c8e9088	0.017402902
57	0xbd3d8078	-0.046265095
58	0x3e19d4d7	0.15022598
59	0xbc1fba60	-0.009749025
60	0x3e1e8df9	0.15483846
61	0xbbb99d40	-0.0056644976
62	0xbdf5792d	-0.11986003
63	0xbd55e98e	-0.05222469
64	0x3e27c67e	0.16384313
65	0xbec2e84a	-0.38067847
66	0x3e8b3509	0.271889
67	0x3eb79e4f	0.35862967
68	0x3e5b81fe	0.21436307
69	0x3e8d5f59	0.27611807
70	0x3f14c148	0.58107424
71	0x3e9899e1	0.298049
72	0x3ea882ee	0.3291239
73	0x3eadcda1	0.33945945
74	0xbd1e0886	-0.038582347
75	0x3ea21a2e	0.316606
76	0xbdc81ec2	-0.097714916
77	0x3eb70997	0.35749504
78	0x3e63e9e3	0.2225719
79	0x3d91e9c1	0.07124663
80	0x3f03be25	0.5146201
81	0x3dc4cec0	0.09609747
82	0x3e8b9543	0.27262315
83	0x3eb3eeeb	0.35143217
84	0xbe9a5195	-0.30140367
85	0xbe2300b1	-0.15918233
86	0x3d9da0a0	0.076966524
87	0x3e8042d0	0.25050974
88	0xbea2cb10	-0.3179555
89	0x3e675cd0	0.22593999
90	0x3cce3bd6	0.025175016
91	0x3cf9b37e	0.030481096
92	0x3e18e96e	0.14932796
93	0xbd19dcaa	-0.037563957
94	0x3e6423c1	0.22279264
95	0x3e97bc11	0.2963567
96	0x3e01aa2e	0.12662575
97	0x3eb54518	0.35404277
98	0xbe364d40	-0.17802906
99	0x3ddc46a4	0.10755661
100	0xbe7d9a0e	-0.24765798
101	0xbd8fd555	-0.07023112
102	0xbd8729d7	-0.06599777
103	0xbdc3d1be	-0.095614895
104	0xbe6b4b86	-0.22978029
105	0xbd6ea110	-0.05825907
106	0xbbe69ee7	-0.0070379856
107	0xbda04fd9	-0.0782773
108	0x3cc2267b	0.02369999
109	0xbec1307b	-0.377323
110	0x3ccd287b	0.025043717
111	0xbdd9293e	-0.106035694
112	0xbe32089c	-0.17386097
113	0x3dc81035	0.09768716
114	0x3e1a73af	0.15083192
115	0xbe026bfc	-0.12736505
116	0x3f1afa24	0.60537934
117	0x3d61c57d	0.05511998
118	0x3e3ee3c7	0.18641578
119	0xbe4e3471	-0.20137192
120	0x3ede7535	0.43448797
121	0x3d7d1ea6	0.061796807
122	0x3dbb6a85	0.09151176
123	0xbe2136c2	-0.15743545
124	0xbe617323	-0.22016577
125	0xbd150c85	-0.036388893
126	0x3e621b38	0.22080696
127	0xbe3480bb	-0.17627232
128	0x3f641fd2	0.89111054
129	0x3e1127d3	0.14175348
130	0xbe6a9e38	-0.22911918
131	0x3f0e03b6	0.5547441
132	0x3e0d8af0	0.13822532
133	0x3f400bfa	0.75018275
134	0xbeb835fb	-0.35978684
135	0xbf309826	-0.6898216
136	0xbe9f19be	-0.31074327
137	0xbe1c14c1	-0.15242292
138	0x3e391385	0.18073852
139	0xbe573103	-0.2101479
140	0xbe1cda54	-0.1531766
141	0x3f0191be	0.5061301
142	0xbd9aa4eb	-0.07550987
143	0x3ed36bac	0.41293085
144	0x3e963b38	0.29342055
145	0xbea87040	-0.3289814
146	0x3e1bb101	0.1520424
147	0xbd890dfd	-0.06692121
148	0x3dd2af4b	0.10287341
149	0xbe60f0c8	-0.21966851
150	0xbe57ea28	-0.21085417
151	0x3f031210	0.51199436
152	0xbf8498e6	-1.0359161
153	0x3ef374fe	0.47550195
154	0x3ea51399	0.32241514
155	0x3ee57813	0.44818172
156	0x3e692d1f	0.22771119
157	0x3e577228	0.21039641
158	0xbf1e1a5f	-0.6175899
159	0x3ebb1888	0.36542153
160	0x3ec3c200	0.38233948
161	0x3eeed0a7	0.46643564
162	0xbe48d2e9	-0.19611706
163	0x3c9c98b5	0.019115785
164	0xbe5dea37	-0.21671377
165	0x3da27b36	0.07933657
166	0xbe716d76	-0.23576912
167	0xbe3edaf5	-0.18638213
168	0xbea00ec3	-0.31261262
169	0xbdd502f2	-0.104009524
170	0x3d8f72d6	0.07004325
171	0xbe100725	-0.14065225
172	0x3dee5d66	0.11638908
173	0xbe95501b	-0.29162678
174	0xbe0ac221	-0.13550617
175	0x3d4ddbc5	0.050258417
176	0xbe590e45	-0.2119685
177	0xbdb1a7db	-0.08674594
178	0xbe12a63d	-0.14321227
179	0xbe5026cf	-0.20327304
180	0x3f0ba142	0.54542935
181	0x3c330b9b	0.01092806
182	0xbe17e7a4	-0.14834458
183	0x3de70443	0.1128011
184	0x3dd859f4	0.10564032
185	0x3c13a37c	0.009011146
186	0x3d1c1b45	0.038111944
187	0x3e5d2ae2	0.2159839
188	0x3d1f4573	0.03888459
189	0x3ea6165d	0.32438937
190	0xbd6f9fd6	-0.05850204
191	0xbe2db1fc	-0.16962427
192	0xbe89e53a	-0.26932698
193	0xbe0b0d99	-0.13579406
194	0xbde0c55c	-0.10975143
195	0xba0d8e75	-0.0005399951
196	0x3da57187	0.08078294
197	0xbec98cb9	-0.39365175
198	0x3e8d50b6	0.2760064
199	0x3ea36d7f	0.31919476
200	0x3e91a947	0.2844946
201	0x3eb50065	0.35351864
202	0xbe22ea68	-0.15909731
203	0xbdcdada2	-0.100428835
204	0x3e549c72	0.20762804
205	0xbec4fe55	-0.3847529
206	0x3d5f63a6	0.05453839
207	0xbe94d138	-0.2906587
208	0xbe02ad2b	-0.12761371
209	0x3e88289a	0.26593477
210	0xbd404ec7	-0.046950128
211	0xbdbbcdfb	-0.09170147
212	0x3f08d40d	0.53448564
213	0x3e1c2d20	0.15251589
214	0x3cebb17d	0.028771156
215	0x3c0f0594	0.008729357
216	0x3f3577d4	0.7088597
217	0x3daed46f	0.08536612
218	0x3e2a9156	0.16657004
219	0xbddea129	-0.108705826
220	0xbe92a114	-0.28638518
221	0xbd833186	-0.0640593
222	0x3f3f3e05	0.7470401
223	0xbc8a2f4e	-0.01686826
224	0x3f328a9c	0.6974275
225	0xbd809b23	-0.0627959
226	0x3df0a76e	0.11750685
227	0x3ec7a2fa	0.3899153
228	0x3dd2fa10	0.10301602
229	0x3f0fa035	0.5610383
230	0xbde2e66b	-0.11079105
231	0xbf232732	-0.6373168
232	0x3e44ea70	0.19230056
233	0xbe27379a	-0.16329804
234	0xbdb8df40	-0.090269566
235	0xbc234bf7	-0.009966842
236	0xbe5579e2	-0.20847276
237	0x3f0dde7a	0.554176
238	0x3daacc93	0.08339801
239	0x3e56fe5b	0.20995466
240	0x3f1920bb	0.5981557
241	0xbee50de8	-0.44737172
242	0xbd334d2d	-0.043774772
243	0xbc32d28e	-0.010914458
244	0x3d016192	0.03158719
245	0xbe217549	-0.15767397
246	0xbd9226c5	-0.07136301
247	0x3e9954d8	0.29947543
248	0xbf47afa7	-0.780024
249	0x3ee82751	0.45342496
250	0x3e041169	0.12897266
251	0x3e404403	0.18775944
252	0x3ec2aec9	0.38023975
253	0xbd5430c7	-0.05180433
254	0xbe8af810	-0.27142382
255	0x3e27671c	0.16347927

main.12.weight f4 [4, 16]
0	0x3f1362a5	0.57572395
1	0x3d705658	0.058676094
2	0xbf8ab680	-1.0836945
3	0x3f18901e	0.59594905
4	0xbfe3e670	-1.7804699
5	0x3ed9980c	0.42498815
6	0x3f37a96e	0.71742904
7	0xbfbe8a52	-1.4885962
8	0x3f1a24b7	0.6021227
9	0xbfd91a5a	-1.6961167
10	0xbf4872e1	-0.7830029
11	0xbdf9206a	-0.121643856
12	0x3f6d102a	0.9260279
13	0x3e2f7b92	0.17136982
14	0xbf792366	-0.9731964
15	0x3ecffd76	0.40623063
16	0x3e22ffb6	0.15917858
17	0x3da3383c	0.0796971
18	0xbe8a4bbf	-0.27010915
19	0x3eb9d64d	0.3629631
20	0x3f0f4b30	0.559741
21	0x3efdcf9d	0.4957246
22	0x3ec67d68	0.38767552
23	0xbe4a2759	-0.19741572
24	0x3e6f5e3b	0.2337579
25	0xbdd0aaf3	-0.10188856
26	0x3e95a25e	0.2922544
27	0xbef479ac	-0.47749078
28	0x3ea677a0	0.32513142
29	0xbf07be32	-0.5302459
30	0x3ea4ebc8	0.32211137
31	0x3ef13f41	0.4711857
32	0xbf03c98c	-0.5147941
33	0x3e5440fa	0.20727912
34	0x3f6ce5fa	0.92538416
35	0xbf025600	-0.50912476
36	0xbe05adb6	-0.13054547
37	0xbf40fb89	-0.7538381
38	0x3e1f7a70	0.1557405
39	0x3f10675f	0.5640773
40	0x3e6ba0ec	0.23010606
41	0x3fd1dae5	1.6394926
42	0x3f062965	0.52406913
43	0x3f889d8d	1.0673081
44	0xbf8d88cf	-1.1057376
45	0x3f784121	0.9697438
46	0x3e19f94b	0.15036504
47	0x3d943053	0.072357796
48	0xbf523d4d	-0.8212479
49	0x3e68e68e	0.227442
50	0x3e40162d	0.1875846
51	0xbef08dbd	-0.46983138
52	0x3fb47a93	1.4099907
53	0x3c84106b	0.01612111
54	0xbf89ac3b	-1.0755686
55	0x3f8a9d2f	1.0829219
56	0xbf74ea78	-0.9567027
57	0xbd71897a	-0.058969
58	0x3f21418d	0.6299065
59	0xbf0dfb32	-0.5546142
60	0x3e2b4d2b	0.16728656
61	0xbe742f61	-0.23846199
62	0x3f616a8f	0.8805322
63	0xbf29b38f	-0.6628961
