src/models/penneAlTonnoEPesto.pth (torch, 413042 bytes, 15 tensors)

main.0.weight f4 [10, 3, 4, 4]
0.023842927 0.035703674 -0.026923902 -0.06624756 0.10371177 0.06300614 0.052261606 -0.04861289
-0.080537185 0.045152184 0.0015644734 -0.07413721 0.07024684 0.03305371 0.0771075 -0.16105409
0.057753187 0.04812062 0.025611628 -0.069313996 0.0447863 -0.03301654 -0.056410775 -0.09651651
-0.027372368 -0.040114317 -0.07190626 -0.13767578 -0.006912094 0.07796731 -0.07324526 -0.08946226
-0.07240612 0.089287445 -0.048128128 -0.009746822 0.036482826 0.012287901 -0.037279204 -0.04032881
0.07924158 0.073412165 0.11937385 0.00062958925 -0.007689988 0.025341393 0.04685069 -0.042736437
-0.13322416 -0.15393925 -0.12726074 0.060013972 0.011963858 0.08806224 -0.13488533 -0.1272419
-0.08220945 -0.11704002 -0.07760211 -0.08984596 -0.13859795 -0.105115496 -0.08543673 0.028797835
0.0572461 0.06848132 -0.056034736 0.031193485 -0.10090959 0.0330238 -0.030680366 0.027817527
-0.011839262 -0.14448392 -0.08247797 -0.104997225 -0.062768675 -0.107793465 -0.14594424 -0.08929088
-0.075421855 0.0050099455 0.08651512 -0.16069256 -0.14454108 -0.09919025 -0.13749343 0.073502146
-0.15699366 0.04831407 -0.13298298 0.02191097 -0.06496851 -0.13157046 -0.16437204 0.032924168
0.022208113 0.017769016 -0.029448718 0.028917832 -0.020413503 -0.1834133 -0.22253145 -0.21347743
-0.06367782 -0.14912567 -0.18520285 -0.22315536 0.08235322 -0.016252056 0.046404332 0.04914699
0.05583462 0.08639328 0.019160157 0.040285576 -0.098586924 0.06933156 -0.17858593 -0.23028842
0.0043790303 -0.04675953 -0.14030156 -0.21349524 -0.014063877 0.022296676 -0.02358055 0.0075248405
0.09967259 0.06448051 0.12071521 0.16268885 -0.077882916 -0.14207068 -0.030827018 -0.17698792
0.14088966 -0.121783696 0.029514065 -0.05255152 0.054652248 0.07069163 0.10135157 0.053547867
0.017451243 -0.02576062 0.1250757 -0.042101666 -0.026688704 -0.05236008 0.055258207 -0.019601056
0.0778665 0.04087227 -0.050866436 0.10710487 -0.05063145 0.09111138 0.05161699 -0.038547087
0.046454813 -0.048185445 0.062161535 0.19666429 -0.0120633915 -0.0042954003 0.09451063 0.06886626
0.01009227 0.09759951 0.030286076 0.011875235 -0.015355186 0.04167744 0.053924482 0.11754239
-0.030021815 0.09375681 -0.12444447 -0.08202932 -0.017547572 -0.0063762576 -0.08238177 0.027825966
-0.13865301 -0.10449473 0.020557297 -0.035963554 0.0573518 -0.062192306 -0.08858193 0.12462091
-0.06343141 0.18816732 0.08426142 0.14989512 0.08506723 0.21176642 0.122883335 0.21384114
0.15168628 0.20184496 0.16549124 0.20111625 0.20138463 0.05945552 0.10060785 0.08804178
-0.042956594 -0.10086896 0.010564255 -0.016810205 -0.005910785 -0.096582405 0.05112873 -0.097891815
-0.10416181 -0.04160291 -0.118826136 -0.06421385 0.047442567 0.08387536 -0.1650348 0.001619604
0.09735709 -0.035076175 -0.07181943 -0.10927286 -0.06673368 -0.05524358 -0.15044425 -0.062383797
-0.010608078 -0.17780948 -0.008441433 -0.095349155 -0.18956682 -0.1318645 0.08659907 -0.037320115
0.1439582 0.06752704 -0.027448578 -0.0033866786 0.025898656 -0.016675416 -0.16741648 -0.1320198
-0.031281345 0.018759418 -0.09988496 0.006984485 0.12707737 -0.07511445 -0.14812925 -0.009542117
00000000: 3e52 c33c 043e 123d 848f dcbc cdac 87bd
00000010: d666 d43d 5d09 813d 4410 563d 4f1e 47bd
00000020: aef0 a4bd 7ff1 383d 040f cd3a 40d5 97bd
00000030: 93dd 8f3d 5463 073d 89ea 9d3d 5deb 24be
00000040: 9b8e 6c3d 211a 453d 7acf d13c 7ff4 8dbd
00000050: d771 373d 5a3c 07bd fc0e 67bd 73aa c5bd
00000060: 043c e0bc e94e 24bd 9743 93bd e1fa 0cbe
00000070: d97e e2bb 53ad 9f3d 9c01 96bd fd37 b7bd
00000080: a949 94bd 56dc b63d 0022 45bd 22b1 1fbc
00000090: 046f 153d 3153 493c 14b2 18bd d32f 25bd
000000a0: 6949 a23d 1e59 963d 477a f43d 050b 253a
000000b0: 4bfc fbbb c198 cf3c 82e6 3f3d 670c 2fbd
000000c0: ea6b 08be 40a2 1dbe a450 02be 36d1 753d
000000d0: 0f04 443c fa59 b43d 611f 0abe b34b 02be
000000e0: 6e5d a8bd aeb2 efbd dbed 9ebd 2901 b8bd
000000f0: 9fec 0dbe cb46 d7bd 74f9 aebd 70e9 eb3c
00000100: e37a 6a3d ef3f 8c3d ae84 65bd 7b89 ff3c
00000110: b0a9 cebd f743 073d 6455 fbbc 95e1 e33c
00000120: 77f9 41bc 98f3 13be 36ea a8bd c908 d7bd
00000130: dd8c 80bd d2c2 dcbd 6872 15be 23de b6bd
00000140: c676 9abd 782a a43b d72e b13d 978c 24be
00000150: 9402 14be 4224 cbbd 14cb 0cbe 4b88 963d
00000160: f2c2 20be f9e4 453d b12c 08be a27e b33c
00000170: 360e 85bd 68ba 06be 2551 28be 7edb 063d
00000180: caed b53c 5490 913c 703e f1bc 17e5 ec3c
00000190: 383a a7bc b2d0 3bbe 49df 63be d499 5abe
000001a0: 8469 82bd 66b4 18be d1a5 3dbe d782 64be
000001b0: cea8 a83d 0823 85bc 7812 3e3d 5b4e 493d
000001c0: d8b2 643d f6ee b03d c3f5 9c3c 7d02 253d
000001d0: f1e7 c9bd b4fd 8d3d 3bdf 36be bad0 6bbe
000001e0: f87d 8f3b ec86 3fbd 36ab 0fbe 7f9e 5abe
000001f0: 2d6c 66bc 85a7 b63c ff2b c1bc f092 f63b
00000200: 2521 cc3d 5c0e 843d 8939 f73d e897 263e
00000210: 1481 9fbd fa7a 11be f188 fcbc 523c 35be
00000220: 6145 103e bb69 f9bd 7bc7 f13c 4340 57bd
00000230: 09db 5f3d c6c6 903d 6991 cf3d 0255 5b3d
00000240: e9f5 8e3c f007 d3bc d813 003e cc72 2cbd
00000250: 45a2 dabc 8677 56bd 6e56 623d 6592 a0bc
00000260: 7978 9f3d ae69 273d 5359 50bd cc59 db3d
00000270: ec62 4fbd 9a98 ba3d 566c 533d 8de3 1dbd
00000280: 6747 3e3d 1a5e 45bd 189d 7e3d 5d62 493e
00000290: 88a5 45bc 6ec0 8cbb ca8e c13d c109 8d3d
000002a0: 0c5a 253c 40e2 c73d 811a f83c 5890 423c
000002b0: 5194 7bbc f7b5 2a3d ebdf 5c3d 11ba f03d
000002c0: 4ff0 f5bc 9203 c03d bedc febd fdfe a7bd
000002d0: edbf 8fbc edef d0bb c6b7 a8bd 48f3 e33c
000002e0: 0efb 0dbe 5501 d6bd c767 a83c 854e 13bd
000002f0: b9e9 6a3d 5cbd 7ebd 716a b5bd 3f39 ff3d
00000300: 54e8 81bd efae 403e 4091 ac3d 1b7e 193e
00000310: ba37 ae3d 4cd9 583e 42aa fb3d 2cf9 5a3e
00000320: a653 1b3e 72b0 4e3e 8976 293e 6bf1 4d3e
00000330: c637 4e3e a287 733d 7d0b ce3d 404f b43d
00000340: 41f3 2fbd 6394 cebd b215 2d3c 8eb5 89bc
00000350: 42af c1bb ffcc c5bd 5c6c 513d 817b c8bd
00000360: c952 d5bd d067 2abd 1e5b f3bd 8d82 83bd
00000370: 2353 423d d8c6 ab3d e2fe 28be e448 d43a
00000380: 2763 c73d 09ac 0fbd 1116 93bd 73ca dfbd
00000390: abab 88bd 1847 62bd 0f0e 1abe 2786 7fbd
000003a0: 81cd 2dbc b013 36be f04d 0abc 6b46 c3bd
000003b0: ce1d 42be 7d07 07be da5a b13d fadc 18bd
000003c0: c769 133e 9e4b 8a3d d7db e0bc 0af3 5dbb
000003d0: 6b29 d43c e29a 88bc 3a6f 2bbe 3330 07be
000003e0: de20 00bd 5aad 993c 7c90 ccbd 1bde e43b
000003f0: 9220 023e 9bd5 99bd 32af 17be 8a56 1cbc

main.3.weight f4 [20, 10, 4, 4]
-0.061854806 0.087419264 -0.03984114 -0.091684274 -0.0092429165 0.037970446 -0.0684893 0.05646497
-0.012753076 -0.036573857 -0.0065705967 0.012002014 -9.742836e-05 -0.04484874 0.0075927 -0.02633181
-0.032797188 -0.001808703 -0.044189006 0.015136858 -0.038465697 -0.02764368 0.057427652 -0.06572032
-0.033557482 -0.035119645 0.050754156 0.008635598 -0.00832836 -0.05126842 -0.07892379 -0.067585416
-0.052681107 -0.079638295 0.0005214457 0.00880033 0.0035687173 -0.03483706 -0.024360154 0.072676316
0.02437908 0.017407922 0.063547134 -0.03347706 0.0030498516 -0.07073215 -0.026345246 0.07870294
-0.04728524 0.0112021845 -0.069131754 0.030978775 0.043961138 -0.06681211 0.042645622 -0.029733459
0.0021587515 0.0069956197 -0.05316609 0.04125923 -0.057275847 -0.058384173 -0.048924875 0.10497465
0.021888357 0.09937995 -0.03204729 0.03957273 -0.0757241 0.050319828 0.093047425 -0.062000237
-0.08748126 -0.0884826 -0.006940568 -0.0379611 -0.0440971 -0.089866646 0.041625798 0.07215264
0.027781732 0.0032286914 0.04299481 -0.011824139 0.06419734 -0.00017276741 -0.043519218 -0.0918674
-0.07086992 0.009332294 -0.009493948 0.0318555 -0.035922363 0.04323099 -0.079895616 -0.018155703
0.0066974047 -0.03976847 -0.036676094 0.061507422 0.09241536 0.08430984 0.036518224 0.07152081
-0.06309963 -0.009719907 -0.11382876 -0.0504323 -0.00420929 -0.010221872 0.014167849 0.010167357
-0.05705948 -0.014384394 -0.016145699 0.05289011 0.08161534 -0.012069717 -0.059062067 0.10000466
-0.045583904 -0.042116266 0.009663135 -0.068240985 0.011475629 -0.0073028216 -0.011553273 0.03283845
-0.04947147 -0.0062311953 0.019851252 0.0546864 -0.10629044 -0.011802015 0.070770636 -0.0002067885
-0.09066804 -0.034633663 -0.050060954 -0.0020259488 -0.029719984 0.056082748 0.029905776 -0.039721
-0.061355226 0.042501133 -0.026748845 -0.048088707 -0.0452387 0.0061733704 0.003356298 0.039643943
0.05319376 0.0018647722 0.015463588 -0.02767637 0.009180552 0.015734637 0.04587574 0.027161948
0.010612025 0.011660683 -0.021440212 -0.008144866 -0.03414155 -0.04330838 -0.09936168 0.037968606
-0.048448846 0.013155938 -0.057587385 -0.0023134055 -0.050662197 0.0431438 0.055334374 0.027129576
-0.058906168 -0.055169083 0.011890753 -0.04063878 -0.0706297 -0.06526737 -0.08148543 -0.032091413
0.040820383 0.041109264 -0.07811773 0.05986499 -0.006502444 0.0484009 -0.00026839753 -0.011778934
-0.030918708 -0.03464257 0.0012058342 0.087596655 -0.0007988478 -0.016571317 0.071889855 0.019111954
0.0072449595 -0.0051746084 -0.044340152 0.07832652 -0.000941589 -0.14254896 0.07055255 0.07019453
-0.07587912 0.002282307 0.0559867 -0.014286538 0.016539242 -0.038698543 0.03319358 -0.042612936
0.017760271 0.067438275 0.07722123 0.044718355 -0.05539969 -0.10756442 0.06505123 -0.008886305
-0.03723388 -0.12335921 -0.01519949 0.08622519 -0.02224215 -0.06460762 0.041200735 0.08987508
0.006607435 -0.0061135497 -0.025579477 0.13138866 -0.050107744 -0.10739622 -0.08680526 0.04266164
-0.004170686 0.008955793 -0.024855986 0.059940856 0.016793387 -0.09092951 -0.026269402 0.014351745
0.026949888 0.018316671 -0.059956398 0.0061529675 0.011993064 0.03889338 -0.028162768 0.036790587
00000000: 775b 7dbd df08 b33d 7730 23bd f7c4 bbbd
00000010: 9a6f 17bc e686 1b3d 1e44 8cbd d047 673d
00000020: 47f2 50bc 78ce 15bd 294e d7bb 18a4 443c
00000030: 7452 ccb8 50b3 37bd 2fcc f83b cfb5 d7bc
00000040: 5856 06bd 0012 edba 88ff 34bd 9600 783c
00000050: 358e 1dbd 0075 e2bc 4239 6b3d 6098 86bd
00000060: 9273 09bd 9ed9 0fbd 97e3 4f3d 537c 0d3c
00000070: ac73 08bc d6fe 51bd cca2 a1bd 396a 8abd
00000080: 25c8 57bd 6719 a3bd a1b1 083a 422f 103c
00000090: 24e1 693b 4eb1 0ebd f28e c7bc 52d7 943d
000000a0: a3b6 c73c 0f9b 8e3c 0025 823d 3e1f 09bd
000000b0: 05e0 473b 04dc 90bd fcd1 d7bc 022f a13d
000000c0: 2bae 41bd 5e89 373c f394 8dbd 33c7 fd3c
000000d0: 9810 343d cad4 88bd 2dad 2e3d 9593 f3bc
000000e0: d779 0d3b 833b e53b b0c4 59bd 70ff 283d
000000f0: 149a 6abd 3e24 6fbd 7365 48bd f3fc d63d
00000100: 364f b33c b787 cb3d 0544 03bd 0417 223d
00000110: 3d15 9bbd 2a1c 4e3d a68f be3d f6f3 7dbd
00000120: 6029 b3bd 5e36 b5bd b46d e3bb 197d 1bbd
00000130: 299f 34bd 010c b8bd d07f 2a3d c3c4 933d
00000140: 8496 e33c 7498 533b 531b 303d 09ba 41bc
00000150: e579 833d e628 35b9 3541 32bd fa24 bcbd
00000160: 4024 91bd 7ae6 183c 818c 1bbc ea7a 023d
00000170: 5423 13bd fb12 313d 50a0 a3bd 45bb 94bc
00000180: e775 db3b 43e4 22bd ac39 16bd 35ef 7b3d
00000190: 4444 bd3d a3aa ac3d 2294 153d 8179 923d
000001a0: 613a 81bd 3f40 1fbc 0e1f e9bd 1992 4ebd
000001b0: 15ee 89bb a379 27bc 4420 683c fc94 263c
000001c0: 34b7 69bd 85ac 6bbc fc43 84bc 4da3 583d
000001d0: f225 a73d 10c0 45bc 11eb 71bd 3ecf cc3d
000001e0: 30b6 3abd 1b82 2cbd 2052 1e3c eec1 8bbd
000001f0: 4704 3c3c 824c efbb f049 3dbc 9c81 063d
00000200: 99a2 4abd 0e2f ccbb 189f a23c d9fe 5f3d
00000210: cdae d9bd 3d5d 41bc 32f0 903d 5ed5 58b9
00000220: 2ab0 b9bd 07dc 0dbd b70c 4dbd c8c5 04bb
00000230: 5377 f3bc 06b7 653d f5fc f43c 7db2 22bd
00000240: 9e4f 7bbd ab15 2e3d 6520 dbbc aaf8 44bd
00000250: 374c 39bd fc49 ca3b 56f5 5b3b b061 223d
00000260: b3e1 593d 5f6b f43a fd5a 7d3c 8eb9 e2bc
00000270: 076a 163c ede5 803c 33e8 3b3d bc82 de3c
00000280: 0fde 2d3c 730c 3f3c 62a3 afbc 0b72 05bc
00000290: 03d8 0bbd 2164 31bd 237e cbbd f884 1b3d
000002a0: 4c72 46bd 018c 573c c0e0 6bbd 819c 17bb
000002b0: 2a83 4fbd 8eb7 303d 4ca6 623d d83e de3c
000002c0: 9847 71bd faf8 61bd 6fd1 423c d974 26bd
000002d0: 4ea6 90bd e6aa 85bd d5e1 a6bd 4972 03bd
000002e0: 4633 273d 3062 283d 30fc 9fbd fe34 753d
000002f0: 7412 d5bb 0640 463d b5b7 8cb9 6efc 40bc
00000300: 3b49 fdbc 5ee5 0dbd 150d 9e3a e065 b33d
00000310: c569 51ba 92c0 87bc fd3a 933d ac90 9c3c
00000320: 2067 ed3b c38f a9bb 059e 35bd a869 a03d
00000330: f8d4 76ba 5bf8 11be db7d 903d 26c2 8f3d
00000340: 8366 9bbd c292 153b 4f52 653d 1512 6abc
00000350: 4e7d 873c 5d82 1ebd fef5 073d e78a 2ebd
00000360: fd7d 913c 141d 8a3d 2a26 9e3d 982a 373d
00000370: c9ea 62bd bc4a dcbd 9439 853d dd97 11bc
00000380: 8e82 18bd c1a3 fcbd 4807 79bc d596 b03d
00000390: 2b35 b6bc 0051 84bd 1ac2 283d 6d10 b83d
000003a0: 2f83 d83b 2c54 c8bb 0d8c d1bc c08a 063e
000003b0: c73d 4dbd 8df2 dbbd f5c6 b1bd f9bd 2e3d
000003c0: 40aa 88bb 52bb 123c c89e cbbc 8b84 753d
000003d0: 4992 893c 4039 babd ee32 d7bc 9523 6b3c
000003e0: 03c6 dc3c d80c 963c d794 75bd d59e c93b
000003f0: 8e7e 443c aa4e 1f3d 9bb5 e6bc bab1 163d

main.4.weight f4 [20]
1.0016192 1.071587 0.84808475 0.87203115 0.8355898 0.89846134 1.1013778 1.0902057
0.86603117 1.0816861 1.0747555 1.0055977 1.0453331 1.1409351 0.83653367 1.1622432
0.85701525 0.8875283 1.0445681 1.0420064
00000000: 0f35 803f c329 893f 151c 593f 6f3d 5f3f
00000010: 37e9 553f 9001 663f f3f9 8c3f dc8b 8b3f
00000020: 38b4 5d3f b174 8a3f 9791 893f 6db7 803f
00000030: 7acd 853f 290a 923f 1227 563f 63c4 943f
00000040: 5a65 5b3f 0e35 633f 68b4 853f 7760 853f

main.4.bias f4 [20]
-0.075701855 -3.0961313e-05 0.025092516 0.05282748 -0.0071585975 -0.029757963 -0.25464135 -0.037911978
0.00058534794 -0.16007975 -0.062550984 -0.1474171 -0.04887716 -0.23001115 -0.05631264 -0.249846
0.016790666 0.01554829 0.0076313205 -0.23697887
00000000: 9309 9bbd 75dc 01b8 d28e cd3c a161 583d
00000010: ab92 eabb f9c6 f3bc 5a60 82be 9749 1bbd
00000020: 0972 193a f2eb 23be bb1a 80bd 82f4 16be
00000030: 6b33 48bd 0b88 6bbe 15a8 66bd a1d7 7fbe
00000040: 948c 893c 41be 7e3c 2810 fa3b 97aa 72be

main.4.running_mean f4 [20]
-0.0032230336 -0.0030031723 0.000934356 0.0068409275 0.0027995382 -4.35785e-05 -0.007561533 -0.0033132404
0.0028088891 -0.0043556974 -0.0024880427 -0.0055379043 -0.003406397 -0.0047934963 0.0056931544 -0.0070985104
0.0008713806 0.0012018118 -0.004197317 -0.005653933
00000000: 8839 53bb dfd0 44bb 92ef 743a dc29 e03b
00000010: 7578 373b 0fc8 36b8 bcc6 f7bb f322 59bb
00000020: 5715 383b 3dba 8ebb 6e0e 23bb 4f77 b5bb
00000030: dc3d 5fbb c312 9dbb a48d ba3b 9f9a e8bb
00000040: 5d6d 643a 1d86 9d3a a689 89bb a144 b9bb

main.4.running_var f4 [20]
2.7940556e-05 4.9175884e-05 6.669611e-05 0.0001380302 2.409009e-05 2.8318402e-05 0.00017728296 6.425109e-05
6.367651e-05 5.396769e-05 3.9491657e-05 8.218358e-05 8.7859844e-05 6.979902e-05 0.0001354732 0.00016011135
1.7664857e-05 3.691513e-05 5.6522713e-05 9.2858674e-05
00000000: e361 ea37 3442 4e38 34df 8b38 33bc 1039
00000010: 1315 ca37 4e8d ed37 08e5 3939 8bbe 8638
00000020: 118a 8538 5e5b 6238 d8a3 2538 f959 ac38
00000030: 6541 b838 1061 9238 cf0d 0e39 90e3 2739
00000040: fe2e 9437 52d5 1a38 cd12 6d38 1fbd c238

main.6.weight f4 [40, 20, 4, 4]
0.00659951 0.052637644 0.020746848 0.01485685 0.054890104 -0.03306693 -0.04540108 0.03257298
0.017909428 -0.0152440015 -0.03733021 -0.016576855 0.06869838 0.041513853 -0.064376645 -0.029255796
0.0030580554 0.02500049 0.022368992 0.019125892 -0.03502176 -0.004131188 0.009014302 -0.04637111
0.022221508 0.02827311 -0.05077349 0.029708102 -0.028482493 -0.03582545 -0.05860966 -0.000588765
0.028969523 -0.03304643 -0.023924878 0.006178017 0.04028475 0.02239891 0.033644296 -0.011270872
0.0059866244 -0.0011078597 0.040788993 0.053812593 0.020941129 -0.024420755 -0.014433531 0.034020413
-0.006429161 -0.038411275 0.0017972447 -0.03669832 0.04116925 0.0875685 0.015097221 -0.011121402
0.032592203 0.07445851 -0.043523405 -0.02563148 0.013446834 -0.030114086 0.042307645 -0.002861801
0.030546002 0.0490447 0.002521254 0.00469591 -0.03952178 -0.007928843 0.010983623 -0.024483187
-0.022037297 0.038320944 -0.014955084 -0.044653956 0.034351613 -0.038666494 -0.022551455 0.047760982
-0.01479281 -0.049686123 0.0340832 -0.033442486 -0.017833471 -0.038411684 -0.0401613 -0.031013355
-0.033067353 0.043279152 0.0057663517 0.031596616 -0.045982808 -0.012485709 0.012883102 -0.010461954
0.012914825 -0.026877293 -0.0025419071 -0.014513959 0.01302169 -0.024997583 -0.023295071 0.006582044
0.05162865 0.041231416 0.041408606 0.011826541 0.028247057 -0.00036653437 0.023600727 0.06019899
-0.011247233 0.07531381 0.03535465 -0.039458368 -0.0037058373 0.029581543 -0.07579972 -0.06382863
-0.022785705 -0.023807298 -0.057662703 -0.036331486 0.059211455 -0.03252329 -0.042475794 -0.0034342557
0.014505591 -0.012428453 0.010777879 -0.045828216 0.066148475 -0.0667674 -0.0153055545 0.047880895
0.024685172 0.023056794 0.014320395 -0.007910294 0.011095131 -0.049600605 -0.018025652 -0.024766719
0.022366028 -0.0076813516 0.03482544 0.05115733 0.054395262 0.0255821 0.039910518 -0.05864534
-0.030226056 -0.042066004 0.028656283 -0.006379331 0.058374245 -0.00045650703 -0.045660324 -0.022149513
-0.052579675 -0.04462352 0.05379885 -0.044032287 0.01663577 0.009351609 0.06030556 0.0386272
-0.005239332 0.02442723 -0.0005268488 0.05316368 -0.029093934 -0.0506135 -0.029344114 0.0048941523
-0.047734905 0.028333452 0.01028922 -0.006832106 -0.014097144 0.027353883 -0.016403867 0.049750317
0.0402623 -0.0053429925 -0.034785185 0.019043343 0.006612919 0.023688046 -0.059858173 -0.0094379755
-0.029104283 0.023733247 -0.017488988 -0.02028017 0.020886814 -0.002058971 -0.023811772 0.053363916
0.029439146 0.03772159 -0.042607795 -0.022516564 -0.023786582 0.016917473 0.029336276 -0.03201575
0.024681007 0.0073209032 0.030422948 0.009526517 0.06267744 -0.019355925 0.054108754 -0.046627015
0.0073138485 -0.06192463 -0.04070313 0.035562593 -0.01485889 0.0028564183 -0.04300239 -0.051944464
0.040412325 0.044508953 -0.019213585 0.013108393 0.0031481069 -0.02786281 -0.03843626 0.018281553
0.053665746 -0.056097236 -0.05432325 0.014010001 -0.043587185 -0.049618423 -0.017533202 -0.013315102
0.036153015 0.006079028 -0.009891125 0.038516708 -0.009812436 0.027704393 0.050581038 0.0024580057
-0.018290333 -0.0033124483 -0.040686015 -0.026570272 -0.031268645 0.0052135084 -0.050959915 -0.022627931
00000000: b440 d83b 929a 573d 4bf5 a93c 256a 733c
00000010: 72d4 603d 3071 07bd 7cf6 39bd 3f6b 053d
00000020: cbb6 923c fac1 79bc 90e7 18bd 2fcc 87bc
00000030: bcb1 8c3d 6e0a 2a3d e7d7 83bd daa9 efbc
00000040: a869 483b d4cd cc3c 2d3f b73c e7ad 9c3c
00000050: fa72 0fbd eb5e 87bb b9b0 133c a2ef 3dbd
00000060: e109 b63c 029d e73c ddf7 4fbd 685e f33c
00000070: 1e54 e9bc b5bd 12bd af10 70bd 5a57 1aba
00000080: 7e51 ed3c b25b 07bd 1bfe c3bc f670 ca3b
00000090: 9f01 253d eb7d b73c 9ace 093d 77a9 38bc
000000a0: 722b c43b 9a35 91ba 5c12 273d 986a 5c3d
000000b0: bb8c ab3c 090e c8bc 9e7a 6cbc fd58 0b3d
000000c0: b6ab d2bb 2455 1dbd 8691 eb3a fa50 16bd
000000d0: 16a1 283d 1d57 b33d 565a 773c 8a36 36bc
000000e0: 677f 053d b47d 983d 9945 32bd 1cf9 d1bc
000000f0: 1c50 5c3c d1b1 f6bc c84a 2d3d 0e8d 3bbb
00000100: 9c3b fa3c 18e3 483d 9f3b 253b 26e0 993b
00000110: 97e1 21bd fae7 01bc a7f4 333c f790 c8bc
00000120: 9087 b4bc 6cf6 1c3d 2b06 75bc 11e7 36bd
00000130: 47b4 0c3d c260 1ebd d4bd b8bc 05a1 433d
00000140: 8b5d 72bc ad83 4bbd d39a 0b3d fdfa 08bd
00000150: 8017 92bc 9255 1dbd 2d80 24bd b80f febc
00000160: a271 07bd 7b45 313d aaf3 bc3b 746b 013d
00000170: 7858 3cbd dc90 4cbc a513 533c 9e68 2bbc
00000180: b498 533c c52d dcbc 2096 26bb f5cb 6dbc
00000190: ed58 553c bbc7 ccbc 4ed5 bebc 30ae d73b
000001a0: 9078 533d 46e2 283d 129c 293d 1cc4 413c
000001b0: 5f66 e73c 692b c0b9 5056 c13c 3793 763d
000001c0: 5046 38bc 203e 9a3d 0ad0 103d 199f 21bd
000001d0: a2dd 72bb fe54 f23c e23c 9bbd 96b8 82bd
000001e0: 16a9 babc 8607 c3bc ba2f 6cbd 53d0 14bd
000001f0: b687 723d 2437 05bd 19fb 2dbd 4011 61bb
00000200: dca8 6d3c b6a0 4bbc b395 303c 5eb6 3bbd
00000210: da78 873d 59bd 88bd 26c4 7abc c21e 443d
00000220: 8f38 ca3c 9ae1 bc3c 17a0 6a3c 2e9a 01bc
00000230: 5ac8 353c 012a 4bbd 88aa 93bc 93e3 cabc
00000240: f638 b73c d9b3 fbbb 1fa5 0e3d 598a 513d
00000250: 91cd 5e3d 8d91 d13c 3679 233d 1936 70bd
00000260: a29c f7bc 674d 2cbd 95c0 ea3c b509 d1bb
00000270: d519 6f3d 5657 efb9 5206 3bbd e572 b5bc
00000280: c95d 57bd 27c7 36bd 2f5c 5c3d 335b 34bd
00000290: bd47 883c 7e37 193c f602 773d 8e37 1e3d
000002a0: b4ae abbb 9d1b c83c 391c 0aba 29c2 593d
000002b0: 6756 eebc 1a50 4fbd 1163 f0bc 205f a03b
000002c0: ad85 43bd 8e1b e83c 1e94 283c dcdf dfbb
000002d0: b5f7 66bc 4015 e03c 6761 86bc fdc6 4b3d
000002e0: 15ea 243d 4514 afbb e97a 0ebd c900 9c3c
000002f0: 2fb1 d83b 6f0d c23c d82d 75bd bda1 1abc
00000300: 1b6c eebc 3a6c c23c 1145 8fbc 9922 a6bc
00000310: d31a ab3c cdef 06bb e810 c3bc 1f94 5a3d
00000320: 5d2a f13c f481 1a3d 8385 2ebd a874 b8bc
00000330: 14dc c2bc 8396 8a3c a152 f03c f222 03bd
00000340: d32f ca3c 30e4 ef3b 8c39 f93c 1c15 1c3c
00000350: 085d 803d 5190 9ebc 24a1 5d3d f8fb 3ebd
00000360: 02a9 ef3b aea4 7dbd 53b8 26bd 15aa 113d
00000370: b472 73bc bf32 3b3b 4623 30bd b8c3 54bd
00000380: 6587 253d 054f 363d cf65 9dbc 96c4 563c
00000390: 7850 4e3b 8c40 e4bc 576f 1dbd 32c3 953c
000003a0: 9dd0 5b3d 37c6 65bd 0e82 5ebd 348a 653c
000003b0: 7a88 32bd b03c 4bbd caa1 8fbc 9627 5abc
000003c0: 2f15 143d 9532 c73b 630e 22bc b2c3 1d3d
000003d0: 57c4 20bc 53f4 e23c 102e 4f3d 7e16 213b
000003e0: 9cd5 95bc a915 59bb 61a6 26bd e6a9 d9bc
000003f0: 8d13 00bd 14d6 aa3b 58bb 50bd 365e b9bc

main.7.weight f4 [40]
1.058063 1.1093234 1.1262858 1.151527 1.2283489 1.1603198 1.1144032 1.1228349
1.1320182 1.11138 1.0666561 1.1502459 1.1282405 1.1293919 1.1161052 1.0800086
1.1472093 1.163198 1.1043844 1.1450391 1.0995256 1.0567904 1.0832765 1.090667
1.0883157 1.1078259 1.0431483 1.0504396 1.0755545 1.0951107 1.0646694 1.139859
1.070438 1.0628709 1.1183271 1.0350322 1.1166353 1.1394646 1.0882413 1.0557969
00000000: 9c6e 873f 4ffe 8d3f 222a 903f 3d65 933f
00000010: 893a 9d3f 5c85 943f c4a4 8e3f 0eb9 8f3f
00000020: f9e5 903f b341 8e3f 3088 883f 423b 933f
00000030: 2f6a 903f ea8f 903f 89dc 8e3f b93d 8a3f
00000040: c1d7 923f ace3 943f 785c 8d3f a490 923f
00000050: 41bd 8c3f e844 873f cea8 8a3f fa9a 8b3f
00000060: ee4d 8b3f 3dcd 8d3f e285 853f ce74 863f
00000070: c5ab 893f 962c 8c3f 1647 883f e6e6 913f
00000080: 1d04 893f 270c 883f 5825 8f3f ef7b 843f
00000090: e8ed 8e3f fad9 913f 7e4b 8b3f 5a24 873f

main.7.bias f4 [40]
0.016287893 0.05899965 0.045379244 0.03677804 0.030223124 0.08791635 0.040445086 0.044393368
0.06053993 0.025729323 0.022884736 0.08323274 0.03498561 0.046847243 0.06122507 0.040354475
0.0693447 0.08844631 0.031386927 0.03546371 0.025869207 0.04726917 0.012249873 0.012734666
0.07371782 0.017368201 0.03485094 0.033988602 0.012151058 0.034350213 0.03085764 0.045016013
0.023428598 0.024186322 0.058821406 0.022455702 0.04318503 0.05337937 0.028817484 0.033914257
00000000: 306e 853c 9ea9 713d 96df 393d 92a4 163d
00000010: 7c96 f73c 7d0d b43d bfa9 253d d2d5 353d
00000020: b8f8 773d 4dc6 d23c c578 bb3c ed75 aa3d
00000030: 124d 0f3d e5e2 3f3d 24c7 7a3d bc4a 253d
00000040: 9804 8e3d 5723 b53d 948f 003d 6542 113d
00000050: a9eb d33c 519d 413d b1b3 483c 0fa5 503c
00000060: 5ef9 963d c247 8e3c dcbf 0e3d a237 0b3d
00000070: 3b15 473c cfb2 0c3d 29c9 fc3c b662 383d
00000080: 55ed bf3c 6522 c63c b7ee 703d 05f5 b73c
00000090: c9e2 303d 54a4 5a3d a512 ec3c ade9 0a3d

main.7.running_mean f4 [40]
-0.024128392 -0.43196377 0.055989675 0.24175641 0.08549337 0.19051492 0.105458535 0.1706619
0.014492768 -0.36974612 -0.08103363 -0.01727328 0.18935584 -0.15099487 0.090901814 0.17357899
-0.16320261 -0.0092094485 0.23822238 -0.026950443 0.21431479 -0.04633204 0.14490995 -0.2285068
0.019312778 0.00049412675 -0.16606995 -0.009990551 -0.28154135 0.045968596 -0.086192615 -0.13222565
-0.26972276 -0.16292122 -0.0218681 -0.0271444 -0.04439537 0.16735147 -0.19607666 -0.1364566
00000000: e8a8 c5bc 5b2a ddbe 6e55 653d fe8e 773e
00000010: 2617 af3d 5816 433e a5fa d73d fec1 2e3e
00000020: 1373 6d3c 5d4f bdbe f6f4 a5bd b280 8dbc
00000030: 7fe6 413e 669e 1abe bb2a ba3d b1be 313e
00000040: 961e 27be 3ae3 16bc 91f0 733e 2dc7 dcbc
00000050: 5675 5b3e aac6 3dbd 4663 143e b0fd 69be
00000060: d535 9e3c 4988 013a 3e0e 2abe 68af 23bc
00000070: 3026 90be 9149 3c3d c185 b0bd 2966 07be
00000080: 1a19 8abe d2d4 26be bb24 b3bc ef5d debc
00000090: ebd7 35bd 2f5e 2b3e 52c8 48be 47bb 0bbe

main.7.running_var f4 [40]
0.020181239 0.05340188 0.034199122 0.0348259 0.037982102 0.03900002 0.017531052 0.039539073
0.024366593 0.041495316 0.014295961 0.019916657 0.030943213 0.02640319 0.044104483 0.023600511
0.026213551 0.026912078 0.03437705 0.027225276 0.03562594 0.019728132 0.02744941 0.021716356
0.051770695 0.037091244 0.033030268 0.058623176 0.028031865 0.037990183 0.016721983 0.021156311
0.035363324 0.07479389 0.018613042 0.021540882 0.02370857 0.028218707 0.02294051 0.049338896
00000000: 2053 a53c eebb 5a3d 6114 0c3d 9aa5 0e3d
00000010: 1f93 1b3d 7cbe 1f3d 489d 8f3c b9f3 213d
00000020: 739c c73c fef6 293d 9b39 6a3c 4228 a33c
00000030: 9f7c fd3c 814b d83c e7a6 343d dc55 c13c
00000040: cdbd d63c b876 dc3c f3ce 0c3d 8b07 df3c
00000050: 81ec 113d e49c a13c 96dd e03c 80e6 b13c
00000060: 820d 543d fdec 173d bf4a 073d db1e 703d
00000070: 15a3 e53c 989b 1b3d 8afc 883c 0050 ad3c
00000080: 22d9 103d 8a2d 993d 617a 983c 8176 b03c
00000090: 7a38 c23c eb2a e73c bded bb3c 9517 4a3d

main.10.weight f4 [180, 360]
0.008817682 -0.0028796017 0.02128284 -0.047722444 -0.0032510003 -0.001487005 0.023235068 0.054546
0.033689678 -0.03538447 -0.009979971 -0.0374954 0.044491965 -0.0123585425 0.04496861 -0.054002356
0.027975878 0.017728055 0.005290061 -0.056118928 -0.044814207 -0.027386364 0.037630226 -0.01356219
0.012770556 -0.042252645 0.025514238 0.042720087 0.015683124 -0.03809535 -0.050498497 0.025499066
0.032517064 0.013588064 0.0449302 0.034477323 0.013245788 -0.031316895 -0.049004924 -0.0042919354
-0.021513255 0.007724852 -0.00802653 -0.019012704 0.023229646 -0.000110008776 0.02469247 -0.009803978
-0.01918823 0.010303054 0.011283118 -0.020718914 -0.036769863 -0.0019920506 -0.03216637 0.051315445
-0.03929544 0.0041986895 -0.05792939 0.01872401 0.014407972 -0.020673662 -0.001270181 0.050050583
0.035854734 -0.01142611 -0.015826395 -0.04478918 -0.025272725 -0.00249111 0.0006163397 0.0021417867
4.1146253e-05 0.02059416 0.058293834 -0.038522787 0.027145537 0.015120271 -0.035338152 -0.03724848
0.048386198 0.051255394 0.012845569 -0.006514029 -0.048397142 0.032925025 0.0007149103 0.0067574084
-0.033809878 0.021609247 0.024264365 -0.031392023 -0.002387851 0.05198226 0.032101594 0.059059735
-0.00813861 -0.03924779 -0.009875495 0.022380607 -0.051879507 -0.0186206 0.011984327 0.023937758
-0.003013613 -0.03707037 -0.012767568 -0.02971775 0.034764722 -0.03307878 -0.030118404 -0.051467642
-0.026657429 0.028949982 0.028576342 0.038150407 0.026221486 -0.046794407 -0.0340873 0.04831115
0.020928115 -0.052391704 -0.0023585693 0.0037028627 0.032701332 0.032893907 0.061019816 -0.014132507
0.050071646 -0.037763663 0.013653485 0.012581137 0.034597028 0.05085161 0.026217403 0.06061045
-0.046180658 0.034049947 0.05022402 -0.04124711 0.039160963 0.038841903 0.0239499 0.0233316
0.011024382 0.012321844 -0.028016113 0.055414647 -0.040492862 0.018242534 0.038388915 -0.0041997046
0.038380675 -0.046071395 0.034522183 -0.048876252 -0.015964963 0.038237516 -0.009822635 -0.045615166
-0.020448962 -0.00145742 0.01501435 -0.0015656797 -0.015874844 -0.016282275 0.013890992 0.035996657
0.013222282 -0.022872718 0.04802668 -0.020841105 0.032262154 0.022629661 -0.010188113 -0.025911845
-0.0011122334 0.00869538 0.03707061 -0.03116698 -0.0429003 -0.041158404 -0.001124516 0.039821126
0.045355406 -0.04508014 0.036112066 0.05759876 -0.027106227 0.050715666 -0.023540685 -0.052741308
0.04234758 -0.037534334 -0.034629893 0.029774603 -0.0016225335 0.033446275 -0.010462338 -0.014256681
-0.018818827 -0.019375538 -0.039996263 0.003084671 -0.032526772 -0.0371335 -0.037112564 -0.02069492
0.052836627 0.036150925 0.02877952 0.020303769 0.036538336 0.022975797 0.0385423 0.0015038237
-0.050950866 0.017981058 -0.038205795 -0.0035706214 0.025544858 0.006375493 -0.053168226 -0.0027450286
0.016100151 0.007208204 0.024828522 0.02650293 -0.010022555 0.038856085 -0.029198686 0.04606006
0.031712346 0.030740753 0.031308196 0.034471564 -0.0070730518 -0.045280118 0.029533826 -0.047253013
-0.011917103 0.035389584 0.053365417 -0.032261495 -0.024416385 -0.004132352 -0.00049891055 -0.043541
0.0048812833 -0.045373283 0.023750892 -0.032083537 0.014453616 -0.012667331 0.011423288 0.023405617
00000000: 0a78 103c b3b7 3cbb 5a59 ae3c 9c78 43bd
00000010: bc0e 55bb 9ce7 c2ba 7857 be3c a06b 5f3d
00000020: 30fe 093d 4eef 10bd 0883 23bc c794 19bd
00000030: 353d 363d 7c7b 4abc 0131 383d 9331 5dbd
00000040: ab2d e53c 6d3a 913c 3f58 ad3b f6dc 65bd
00000050: 1a8f 37bd 5e59 e0bc 2722 1a3d f333 5ebc
00000060: 983b 513c 1c11 2dbd 3c03 d13c 42fb 2e3d
00000070: e579 803c df09 1cbd 83d7 4ebd 6be3 d03c
00000080: 9d30 053d 79a0 5e3c bb08 383d 1838 0d3d
00000090: dd04 593c 2546 00bd 63b9 48bd 5da3 8cbb
000000a0: 913c b0bc c120 fd3b b581 03bc 88c0 9bbc
000000b0: 194c be3c 83b4 e6b8 dd47 ca3c dda0 20bc
000000c0: a330 9dbc 24ce 283c d4dc 383c b6ba a9bc
000000d0: ff9b 16bd 108d 02bb e2c0 03bd 2530 523d
000000e0: 41f4 20bd 2995 893b 5e47 6dbd 1863 993c
000000f0: 6a0f 6c3c d05b a9bc 347c a6ba d701 4d3d
00000100: 6adc 123d 9434 3bbc 5ba6 81bc dc74 37bd
00000110: bf08 cfbc e441 23bb db91 213a 385d 0c3b
00000120: 7494 2c38 15b5 a83c 84c5 6e3d 12ca 1dbd
00000130: 5160 de3c 03bb 773c bdbe 10bd dd91 18bd
00000140: 9b30 463d 2df1 513d 3976 523c a373 d5bb
00000150: 153c 46bd 64dc 063d d168 3b3a 406d dd3b
00000160: 3a7c 0abd e005 b13c 10c6 c63c ec94 00bd
00000170: 7e7d 1cbb 5aeb 543d f67c 033d 9fe8 713d
00000180: ce57 05bc 4ac2 20bd d4cc 21bc 8957 b73c
00000190: 9b7f 54bd 3b8a 98bc e959 443c 1e19 c43c
000001a0: 0980 45bb 1ad7 17bd 102f 51bc a472 f3bc
000001b0: 7465 0e3d 9d7d 07bd dfba f6bc bccf 52bd
000001c0: ae60 dabc 8328 ed3c ef18 ea3c 9a43 1c3d
000001d0: 71ce d63c 7eab 3fbd 209f 0bbd eae1 453d
000001e0: 7071 ab3c af98 56bd 3a92 1abb baab 723b
000001f0: d5f1 053d c3bb 063d eaef 793d 088c 67bc
00000200: ed17 4d3d 12ae 1abd deb2 5f3c 1d21 4e3c
00000210: 9db5 0d3d c749 503d e1c5 d63c aa42 783d
00000220: ee27 3dbd f577 0b3d b4b7 4d3d bbf2 28bd
00000230: 3f67 203d b018 1f3d 9532 c43c e921 bf3c
00000240: 9c9f 343c 8fe1 493c 0c82 e5bc 78fa 623d
00000250: d8db 25bd 5e71 953c b23d 1d3d ad9d 89bb
00000260: 0e35 1d3d 5cb5 3cbd 2267 0d3d 7732 48bd
00000270: f4c8 82bc f19e 1c3d 1eef 20bc f8d6 3abd
00000280: 9584 a7bc e606 bfba c0fe 753c 7e37 cdba
00000290: f60b 82bc 6862 85bc 0b97 633c 3b71 133d
000002a0: 45a2 583c 915f bbbc a0b7 443d f7ba aabc
000002b0: 5225 043d d761 b93c 0bec 26bc 1445 d4bc
000002c0: 5cc8 91ba 1177 0e3c 5ad7 173d e551 ffbc
000002d0: 3ab8 2fbd b795 28bd 7f64 93ba 7a1b 233d
000002e0: 97c6 393d f4a5 38bd 3fea 133d adec 6b3d
000002f0: e10d debc 3bbb 4f3d 65d8 c0bc 4507 58bd
00000300: a874 2d3d 9abd 19bd 13d8 0dbd dee9 f33c
00000310: 31ab d4ba f6fe 083d 3a6a 2bbc db94 69bc
00000320: f129 9abc 73b9 9ebc 1fd3 23bd 3128 4a3b
00000330: cb3a 05bd 4c19 18bd 5803 18bd 6588 a9bc
00000340: 386b 583d fe12 143d 07c3 eb3c 1754 a63c
00000350: 39a9 153d bd37 bc3c 88de 1d3d f31b c53a
00000360: dbb1 50bd 034d 933c ae7d 1cbd 1601 6abb
00000370: 7343 d13c 83e9 d03b edc6 59bd f0e5 33bb
00000380: 77e4 833c cc32 ec3b 2f65 cb3c ac1c d93c
00000390: a435 24bc 8f27 1f3d 1532 efbc 79a9 3c3d
000003a0: cee4 013d 08d4 fb3c 063d 003d 0e32 0d3d
000003b0: 0fc5 e7bb a577 39bd ecf0 f13c 608c 41bd
000003c0: f43f 43bc abf4 103d b295 5a3d a124 04bd
000003d0: df04 c8bc ae68 87bb 52c9 02ba 0c58 32bd
000003e0: 2cf3 9f3b 56d9 39bd 3b91 c23c 076a 03bd
000003f0: dcce 6c3c a38a 4fbc be28 3b3c 23bd bf3c

main.12.weight f4 [90, 180]
0.032712262 0.092392094 0.022779044 -0.020897081 0.030725408 -0.112770736 0.09678324 -0.060847603
-0.034408055 -0.09263781 -0.05044781 0.022808008 0.11153022 -0.04963044 -0.03649791 0.08432872
0.11838548 0.009801112 -0.033521783 0.076096736 0.088754065 0.011953723 -0.07881362 0.07538163
-0.09521999 0.10807836 0.10771325 0.065560065 0.017106622 0.100635804 0.05054868 -0.07403038
0.022954172 -0.032826673 0.020759016 -0.04257644 0.07600321 0.10912286 -0.0790165 0.074773245
0.06782534 0.16147527 0.050731443 -0.0017875682 -0.07708572 0.0107205175 0.12952502 0.14689298
0.027378028 -0.07883677 0.055563994 0.0023586056 0.027754698 0.010354357 -0.03855715 -0.02870678
-0.058116626 0.077895015 0.007071203 -0.06301969 -0.045736536 0.039340667 -0.07177964 0.00063555996
-0.13217118 0.01884193 0.06256436 0.10995023 -0.01674058 0.05678738 -0.065778844 0.018888662
0.09405819 -0.052435793 0.018605959 0.065518804 0.10264728 0.089341365 -0.1550251 -0.025889782
0.01393256 0.032770377 0.11697574 -0.06738601 -0.030921597 0.04007454 0.022916554 0.069253944
0.06631204 0.014822807 -0.024178773 -0.012262137 0.052018426 0.010816045 0.07053505 -0.027258895
-0.017234355 -0.021754846 -0.0065337922 -0.113277756 0.09904427 -0.04570999 0.0063978215 0.11489586
0.0320623 0.061570205 0.11781728 0.03077975 -0.01572324 0.066572994 0.0336539 0.1318258
0.056009162 -0.04151192 -0.04872172 -0.023435742 0.031395897 0.09923012 -0.03371354 0.1829587
0.0306841 0.03575221 0.01479133 -0.060194824 0.17276339 -0.030842206 -0.0027762621 0.061337072
-0.019992614 0.12945083 0.0221404 0.04664322 -0.021893792 -0.030278612 -0.0057837702 0.0013535831
-0.10000408 -0.06317996 0.08947711 0.09954092 0.08465229 0.060734797 -0.05547271 0.027560633
0.06587979 0.008321853 0.10126213 -0.03533242 0.0679948 -0.049104773 -0.11038068 -0.066590175
0.0027929414 0.13334888 0.10766175 0.05598599 -0.013893914 0.015126456 -0.045947958 -0.07830542
-0.004527412 0.023676174 0.024670744 -0.06425279 -0.045427397 0.06419698 -0.059271764 -0.07917349
0.010999443 0.11398341 0.055991363 0.028289963 0.047828313 -0.01756375 0.060626645 0.03323085
-0.039367717 0.031752408 0.035251744 0.008067461 0.035926215 -0.010462948 -0.0065377364 -0.0058242357
0.07025685 0.05834266 -0.034300808 -0.039265156 0.03934416 -0.0025413954 -0.03398796 -0.03449409
0.021317612 -0.0017810181 0.0048407638 0.091681555 -0.023613987 0.054977797 -0.0052705044 -0.07389141
0.043487877 -0.0066067064 -0.02565823 -0.021685196 0.019908195 -0.023398481 -0.037592698 0.0357309
-0.018600423 0.010244699 0.07852077 0.08554205 -0.033593185 -0.05760063 0.00038038887 -0.011197301
-0.07665061 0.0043242993 0.030065227 0.05182381 -0.045937322 -0.078632966 -0.041039754 -0.022727927
-0.062190697 -0.06866125 0.047697674 -0.05521681 0.0025584626 0.08038358 0.025352646 -0.0016826674
0.016414376 -0.059736412 -0.0036771586 -0.060299084 0.025558356 0.065187134 0.010110354 -0.053655457
-0.05324282 -0.024120802 0.00024301077 0.023690982 0.07879607 -0.07388154 0.04684149 0.013449628
0.023983305 -0.07223519 -0.07224647 0.017372843 -0.018686661 0.02382383 -0.006286501 -0.071173415
00000000: 4bfd 053d 1138 bd3d 1e9b ba3c 5b30 abbc
00000010: dab3 fb3c 58f4 e6bd 4b36 c63d 563b 79bd
00000020: 76ef 0cbd e4b8 bdbd 5da2 4ebd dcd7 ba3c
00000030: f569 e43d 4a49 4bbd d57e 15bd 89b4 ac3d
00000040: 1674 f23d d894 203c 234e 09bd 9bd8 9b3d
00000050: b1c4 b53d 8cd9 433c 0969 a1bd af61 9a3d
00000060: b302 c3bd 3058 dd3d c498 dc3d 5b44 863d
00000070: 3023 8c3c 251a ce3d 220c 4f3d 3d9d 97bd
00000080: 630a bc3c 4375 06bd d00e aa3c a264 2ebd
00000090: 92a7 9b3d ce7b df3d 67d3 a1bd b722 993d
000000a0: 03e8 8a3d c659 253e c6cb 4f3d d64c eaba
000000b0: 1edf 9dbd 1ca5 2f3c 35a2 043e 1d6b 163e
000000c0: e347 e03c 2c75 a1bd 1297 633d d692 1a3b
000000d0: d25d e33c 52a5 293c 1aee 1dbd 7b2a ebbc
000000e0: b30b 6ebd 6c87 9f3d 8db5 e73b 7810 81bd
000000f0: 3c56 3bbd ae23 213d 3401 93bd b59b 263a
00000100: e257 07be 645a 9a3c be21 803d 962d e13d
00000110: 8a23 89bc e299 683d 0fb7 86bd 65bc 9a3c
00000120: 95a1 c03d eac6 56bd 866b 983c b92e 863d
00000130: bd38 d23d 9bf8 b63d e6be 1ebe cf16 d4bc
00000140: 6445 643c 3b3a 063d fa90 ef3d ad01 8abd
00000150: 4a4f fdbc 3325 243d 7fbb bb3c 03d5 8d3d
00000160: 9bce 873d 5cdb 723c 9012 c6bc 21e7 48bc
00000170: 4611 553d c835 313c ae74 903d 0c4e dfbc
00000180: 102f 8dbc 3837 b2bc 6c19 d6bb 2bfe e7bd
00000190: b9d7 ca3d 663a 3bbd d1a4 d13b 854e eb3d
000001a0: c253 033d 0a31 7c3d 304a f13d d025 fc3c
000001b0: 06ce 80bc 6c57 883d acd8 093d 58fd 063e
000001c0: dd69 653d 6708 2abd 6d90 47bd 50fc bfbc
000001d0: fc98 003d 2939 cb3d 3517 0abd 8759 3b3e
000001e0: 395d fb3c e970 123d 5657 723c d98e 76bd
000001f0: e3e8 303e cba8 fcbc f3f1 35bb 953c 7b3d
00000200: 8dc7 a3bc c28e 043e c95f b53c f60c 3f3d
00000210: 9c5a b3bc da0a f8bc c885 bdbb b66a b13a
00000220: f0ce ccbd 7f64 81bd c63f b73d 1cdc cb3d
00000230: 2e5e ad3d 0dc5 783d 5a37 63bd d6c6 e13c
00000240: fceb 863d 6258 083c 8562 cf3d bab8 10bd
00000250: dc40 8b3d 1622 49bd 440f e2bd 6e60 88bd
00000260: c809 373b 9c8c 083e c37d dc3d 9151 653d
00000270: 4da3 63bc f4d4 773c ed33 3cbd 985e a0bd
00000280: af5a 94bb 89f4 c13c 4d1a ca3c f796 83bd
00000290: 1412 3abd b579 833d f3c6 72bd b625 a2bd
000002a0: 0237 343c 2270 e93d 3357 653d 5ac0 e73c
000002b0: 9fe7 433d dae1 8fbc a553 783d 121d 083d
000002c0: 0b40 21bd d00e 023d 2264 103d 622d 043c
000002d0: 5e27 133d c96c 2bbc 823a d6bb 3bd9 bebb
000002e0: d3e2 8f3d b7f8 6e3d 017f 0cbd 80d4 20bd
000002f0: 5827 213d 8a8d 26bb f636 0bbd ad49 0dbd
00000300: 46a2 ae3c 0d71 e9ba 459f 9e3b 8ac3 bb3d
00000310: 1f72 c1bc 6630 613d 32b4 acbb 6154 97bd
00000320: 5820 323d 127d d8bb 3531 d2bc 27a5 b1bc
00000330: 8316 a33c 2cae bfbc cdfa 19bd 905a 123d
00000340: ea5f 98bc 62d9 273c 7fcf a03d ac30 af3d
00000350: 0299 09bd a3ee 6bbd ee6e c739 e274 37bc
00000360: fffa 9cbd dab2 8d3b 5a4b f63c 3445 543d
00000370: c628 3cbd 520a a1bd 4d19 28bd eb2f babc
00000380: acbb 7ebd 459e 8cbd a35e 433d 062b 62bd
00000390: e1ab 273b 25a0 a43d 5ab0 cf3c f38c dcba
000003a0: 7177 863c 2bae 74bd 7cfc 70bb 2cfc 76bd
000003b0: c25f d13c d580 853d e6a5 253c d3c5 5bbd
000003c0: 2515 5abd fd98 c5bc b5d0 7e39 9713 c23c
000003d0: d55f a13d 344f 97bd dddc 3f3d d45b 5c3c
000003e0: a378 c43c 0bf0 93bd f5f5 93bd 7e51 8e3c
000003f0: c514 99bc 312a c33c fefe cdbb 5ec3 91bd

main.14.weight f4 [45, 90]
0.0843453 -0.019923203 0.06478803 0.002851897 -0.07385718 0.022119546 -0.0129243005 0.064135745
0.03967186 0.015171803 -0.09371079 0.07120474 0.025926532 0.08575355 0.03404341 -0.029588545
-0.0468293 -0.0020579032 -0.07730452 -0.08432719 -0.03595318 0.055528138 0.05268203 0.0014763152
0.027108734 0.0039377753 -0.054817453 -0.049696304 -0.08188879 0.041922558 -0.069889255 -0.05405055
0.01026493 0.10450033 -0.07314888 0.035490584 -0.0948744 0.017814236 0.050018057 -0.102461025
-0.0879151 0.021923158 0.10505884 0.07957697 -0.051108 -0.015094628 -0.029752865 -0.10458359
0.107105196 -0.101510316 0.07973775 -0.06033556 -0.023105515 0.042483456 -0.082870126 -0.09405427
0.0051058 0.018851293 0.07074357 -0.089683056 -0.0013138022 0.06740733 0.04260333 0.03403108
-0.0035769176 0.008281933 -0.036105152 -0.02686067 -0.09925788 0.063562565 -0.0023910312 0.03528615
0.008346652 0.08375423 -0.0046692938 0.09491044 -0.026501533 0.0009024516 -0.10534841 -0.015755942
-0.04596156 0.0067382366 0.05525535 -0.021078127 0.07916146 0.025941601 0.03202097 0.048007764
0.02523439 -0.055457655 -0.11223391 0.060369577 -0.044440407 0.090205975 -0.013505672 0.0013522404
-0.008892451 -0.01467483 0.025313025 0.0043743737 0.041143045 0.0024483828 -0.07504095 -0.0334685
0.05417974 0.088098004 -0.12482175 -0.017768363 -0.006556147 -0.053774774 -0.10027284 -0.072902046
0.027601695 0.048025995 0.0022646354 -0.08113875 -0.0049180514 0.063819855 0.010729357 0.1914536
0.14581391 0.10314905 0.081230424 0.055918943 -0.015343426 0.0097922925 -0.1779213 -0.042775348
-0.00997183 0.07466165 0.16403708 -0.084690385 -0.03521085 0.0028518853 0.066535994 -0.0708477
-0.054193724 -0.054214045 -0.036409706 -0.09558432 0.10745617 -0.10562543 0.081218734 0.10371314
-0.010376633 0.040240042 -0.06971417 0.14320104 0.09737816 0.019873314 -0.0021787698 -0.03076707
-0.024418721 0.08097951 0.033539847 0.13084686 -0.10792946 0.044307433 0.0006378872 -0.027413178
-0.056373212 0.07745984 -0.016232662 0.0023079314 -0.01910499 -0.03902765 0.024524838 0.0535461
0.066391975 -0.09382975 0.0628598 0.036272284 -0.12573202 -0.13552523 0.15659334 0.0030851983
0.0288712 0.06402432 0.112600535 -0.09928824 0.26134083 0.017107727 0.035536747 -0.053804897
-0.0701489 0.10270422 -0.0041396557 -0.099737726 0.01830415 -0.06862374 0.015631247 -0.0970934
0.019960254 -0.093038544 -0.00990625 -0.0668795 0.15486668 -0.088590786 -0.036773767 0.038353737
0.09598333 0.020453462 -0.10564725 0.09597762 -0.067272395 0.0256898 0.08800939 0.022544347
0.116211005 -0.09242571 0.011366111 -0.18509257 0.17893428 0.046683732 -0.05542332 -0.11100926
-0.07502322 -0.092638776 -0.12468256 -0.04653885 -0.13819742 0.14948902 0.06491027 -0.0030040778
0.030020682 0.014629989 -0.041498173 0.17143643 -0.045130275 0.0051139435 0.071500525 0.13435972
0.08942011 0.04878504 -0.045412324 0.07429199 -0.081324 -0.07806887 -0.025822276 0.10097636
0.08247734 0.06374408 0.034906127 0.07792666 0.12334037 0.09517606 0.118904516 0.009015712
0.07046631 0.03929268 -0.023804078 -0.07374356 -0.12509288 -0.07629877 0.118513696 -0.006607245
00000000: 3bbd ac3d fc35 a3bc 96af 843d e4e6 3a3b
00000010: 6f42 97bd 0d34 b53c 72c0 53bc 9a59 833d
00000020: f67e 223d 2793 783c 71eb bfbd cad3 913d
00000030: e163 d43c 8f9f af3d 1a71 0b3d ad63 f2bc
00000040: 14d0 3fbd e3dd 06bb d551 9ebd bcb3 acbd
00000050: a443 13bd 7971 633d 1dc9 573d eb80 c13a
00000060: 2313 de3c 7408 813b 4488 60bd 5a8e 4bbd
00000070: 4fb5 a7bd fdb6 2b3d 1922 8fbd 1c64 5dbd
00000080: 3d2e 283c 4504 d63d 14cf 95bd 935e 113d
00000090: 824d c2bd 29ef 913c bcdf 4c3d 16d7 d1bd
000000a0: d50c b4bd 3298 b33c 1729 d73d 40f9 a23d
000000b0: 9f56 51bd 754f 77bc 48bc f3bc ec2f d6bd
000000c0: f859 db3d a4e4 cfbd 8c4d a33d 6c22 77bd
000000d0: c747 bdbc 2203 2e3d d0b7 a9bd 869f c0bd
000000e0: 8e4e a73b 076e 9a3c 01e2 903d c0ab b7bd
000000f0: e333 acba db0c 8a3d d480 2e3d 2c64 0b3d
00000100: b86a 6abb f2b0 073c ffe2 13bd e80a dcbc
00000110: b747 cbbd 172d 823d d9b2 1cbb 3688 103d
00000120: 65c0 083c 5687 ab3d e000 99bb 6860 c23d
00000130: be19 d9bc 8092 6c3a e8c0 d7bd 9b12 81bc
00000140: 3042 3cbd 6dcc dc3b 6f53 623d 09ac acbc
00000150: 671f a23d 7b83 d43c 6c28 033d caa3 443d
00000160: 5ab8 ce3c 9127 63bd e4da e5bd 1746 773d
00000170: 2507 36bd e9bd b83d e546 5dbc a93d b13a
00000180: a5b1 11bc b36e 70bc 435d cf3c e856 8f3b
00000190: 9c85 283d 0c75 203b 12af 99bd 4416 09bd
000001a0: 93eb 5d3d ba6c b43d 8ca2 ffbd f58e 91bc
000001b0: f2d4 d6bb f042 5cbd d95b cdbd ab4d 95bd
000001c0: f31c e23c e8b6 443d 476a 143b 132c a6bd
000001d0: 9b27 a1bb fcb3 823d 2fca 2f3c 6a0c 443e
000001e0: 3e50 153e cf3f d33d 235c a63d 430b 653d
000001f0: fe62 7bbc da6f 203c 0031 36be 3435 2fbd
00000200: e360 23bc 35e8 983d 56f9 273e 2772 adbd
00000210: 4139 10bd b2e6 3a3b 0644 883d 9918 91bd
00000220: 3dfa 5dbd 8c0f 5ebd 5822 15bd b6c1 c3bd
00000230: fb11 dc3d 2552 d8bd 0256 a63d 8e67 d43d
00000240: c102 2abc bed2 243d 4ec6 8ebd 4ba3 123e
00000250: 336e c73d 5ccd a23c b1c9 0ebb 390b fcbc
00000260: c509 c8bc 96d8 a53d 1461 093d b8fc 053e
00000270: 1f0a ddbd b67b 353d e337 273a 9a91 e0bc
00000280: 99e7 66bd 44a3 9e3d 5cfa 84bc aa40 173b
00000290: 1182 9cbc 75db 1fbd 50e8 c83c 2853 5b3d
000002a0: 84f8 873d d029 c0bd a4bc 803d 3f92 143d
000002b0: e5bf 00be 20c7 0abe 015a 203e 0a31 4a3b
000002c0: 4b83 ec3c 2f1f 833d 1c9b e63d a257 cbbd
000002d0: 77ce 853e 8125 8c3c fb8e 113d 8662 5cbd
000002e0: 3aaa 8fbd 9756 d23d f3a5 87bb 4b43 ccbd
000002f0: 96f2 953c 9a8a 8cbd 1a0d 803c e8d8 c6bd
00000300: b083 a33c fe8a bebd d34d 22bc 1ff8 88bd
00000310: 5f95 1e3e 166f b5bd 17a0 16bd cf18 1d3d
00000320: e892 c43d 058e a73c 965d d8bd ea8f c43d
00000330: 1cc6 89bd 6a73 d23c 443e b43d ecae b83c
00000340: 0900 ee3d b149 bdbd ed38 3a3c e888 3dbe
00000350: 8c3a 373e 7137 3f3d 9003 63bd d358 e3bd
00000360: c6a5 99bd 66b9 bdbd 9259 ffbd 859f 3ebd
00000370: a083 0dbe a613 193e adef 843d 10e0 44bb
00000380: efed f53c 9fb2 6f3c fdf9 29bd 088d 2f3e
00000390: 86da 38bd de92 a73b de6e 923d 9895 093e
000003a0: e421 b73d d2d2 473d 4602 3abd 6626 983d
000003b0: 338d a6bd 92e2 9fbd 3d89 d3bc b2cc ce3d
000003c0: e1e9 a83d 428c 823d baf9 0e3d 0398 9f3d
000003d0: e099 fc3d abeb c23d 3684 f33d a3b6 133c
000003e0: a450 903d 5cf1 203d c500 c3bc dd06 97bd
000003f0: 5918 00be 8842 9cbd 4fb7 f23d 9781 d8bb

main.16.weight f4 [4, 45]
0.03501546 -0.1098081 0.22873008 -0.14845897 -0.15659247 -0.016370572 -0.25974506 -0.19379601
-0.16892608 -0.23660277 -0.52952164 -0.048410818 -0.09207501 -0.15848298 -0.05138335 0.031368002
0.0006994376 0.12996809 0.065402776 -0.4847216 0.1336726 -0.04739064 0.08209416 0.110060334
-0.008705954 0.099852666 0.12108161 -0.14752732 0.14524297 0.24335064 0.15040496 0.18483722
-0.17606588 -0.26211432 0.15190604 -0.03395338 -0.45312032 0.028306516 -0.023675313 -0.08798086
-0.31006864 -0.13418299 0.1892986 -0.024946326 0.020417714 -0.035755195 -0.39841375 -0.39144877
0.14005019 0.3867658 0.1512935 0.3587614 0.075873785 -0.4548903 0.042777933 0.109551944
0.04543008 0.19893713 -0.62048924 -0.38211736 0.18859014 -0.7301931 -0.10002208 0.15709361
0.1988789 0.1123381 -0.101964936 0.029866664 -0.36262414 0.051683463 0.03800701 0.06988109
-0.2913876 0.08560034 -0.40680003 0.0872952 0.009027865 0.38153586 -0.28296852 0.16078052
0.0118510425 -0.416677 -0.08652758 0.22187638 0.16116452 -0.057056867 -0.009868016 -0.19430117
-0.3839126 0.016757188 -0.110946916 0.1303805 -0.022515185 0.12578477 -0.21732636 0.12757784
-0.19650334 0.056261044 0.06050564 0.054835092 0.13828778 -0.4590623 0.113591634 0.55964094
0.05399339 -0.4567575 0.40444908 -0.09853666 -0.061296754 -0.09674766 0.08306997 -0.5317731
0.1391942 -0.57815945 -0.4952561 0.10166634 -0.06090849 0.059707478 0.089901306 -0.044465564
-0.06639561 -0.12920944 -0.0732902 0.2225769 -0.015637623 0.105029576 0.19786997 0.10705293
-0.15227039 -0.0883393 -0.08421127 -0.091437005 -0.8165391 0.047521897 -0.03790026 0.076978594
0.2891881 -0.36188778 0.009432793 -0.11068804 -0.329193 -0.5957103 -0.093024515 0.105161995
-0.6128181 -0.057455868 -0.08419205 0.0002014817 -0.21545666 0.14606252 -0.05262197 -0.24577117
-0.014445154 -0.065688394 0.0500843 0.0020823497 -0.0220006 0.015121159 0.043653123 0.3437527
-0.11646965 0.067816675 0.06266327 0.01702464 -0.44312978 0.1164917 -0.08503675 -0.5844502
-0.12710682 -0.08341801 0.12630542 -0.22870654 0.02552133 0.063214675 0.27019462 0.6660551
-0.07870443 -0.18255126 0.32727095 0.03235111
00000000: 5f6c 0f3d 12e3 e0bd 3838 6a3e a105 18be
00000010: c759 20be 941b 86bc 4efd 84be 7672 46be
00000020: f5fa 2cbe ff47 72be bb8e 07bf 6c4a 46bd
00000030: d391 bcbd 5d49 22be 5977 52bd bc7b 003d
00000040: 765a 373a 5b16 053e e4f1 853d 6e2d f8be
00000050: 78e1 083e b01c 42bd fc20 a83d 5067 e13d
00000060: 6ba3 0ebc 8e7f cc3d a3f9 f73d 6711 17be
00000070: 93ba 143e e930 793e c203 1a3e f845 3d3e
00000080: 9d4a 34be d933 86be 428d 1b3e b312 0bbd
00000090: 63ff e7be 11e3 e73c bbf2 c1bc 4f2f b4bd
000000a0: 51c1 9ebe 4467 09be 7ed7 413e 3d5c ccbc
000000b0: 0d43 a73c 0a74 12bd e3fc cbbe f96b c8be
000000c0: 5169 0f3e 2b06 c63e afec 1a3e 93af b73e
000000d0: b763 9b3d 62e7 e8be ea37 2f3d c55c e03d
000000e0: e414 3a3d 2db6 4b3e 62d8 1ebf e3a4 c3be
000000f0: c61d 413e efed 3abf 60d8 ccbd 26dd 203e
00000100: e9a6 4b3e 8511 e63d fed2 d0bd efaa f43c
00000110: dfa9 b9be 0ab2 533d 3dad 1b3d d11d 8f3d
00000120: c130 95be 3b4f af3d 1848 d0be d3c7 b23d
00000130: 9ce9 133c ab58 c33e 40e1 90be a6a3 243e
00000140: e02a 423c b056 d5be 5f35 b1bd 9033 633e
00000150: 5008 253e 76b4 69bd 75ad 21bc e3f6 46be
00000160: 3190 c4be 5f46 893c 2338 e3bd 7782 053e
00000170: c471 b8bc b9cd 003e cd8a 5ebe c4a3 023e
00000180: 2c38 49be fb71 663d c3d4 773d c39a 603d
00000190: 509b 0d3e 370a ebbe bba2 e83d a144 0f3f
000001a0: 2c28 5d3d 1edc e9be f313 cf3e 97cd c9bd
000001b0: 4e12 7bbd a323 c6bd 9720 aa3d 4822 08bf
000001c0: ed88 0e3e 4202 14bf 3592 fdbe 7136 d03d
000001d0: 2e7b 79bd d48f 743d 2d1e b83d 8621 36bd
000001e0: 6cfa 87bd 7b4f 04be 2c19 96bd 33eb 633e
000001f0: 791a 80bc bf19 d73d 6d9e 4a3e 913e db3d
00000200: c5ec 1bbe 3ceb b4bd f576 acbd 5343 bbbd
00000210: b508 51bf 52a6 423d 4e3d 1bbd f4a6 9d3d
00000220: 7610 943e 5b49 b9be 008c 1a3c 69b0 e2bd
00000230: fc8b a8be 7880 18bf a383 bebd 2c5f d73d
00000240: a6e1 1cbf d856 6bbd e26c acbd d544 5339
00000250: aca0 5cbe 6a91 153e 238a 57bd 70ab 7bbe
00000260: 5eab 6cbc a387 86bd 3225 4d3d 0878 083b
00000270: 9a3a b4bc bdbe 773c 9ecd 323d 5b00 b03e
00000280: a487 eebd 78e3 8a3d 9a55 803d 4277 8b3c
00000290: e8e1 e2be 3393 ee3d bf27 aebd 879e 15bf
000002a0: 4a28 02be 10d7 aabd 3556 013e 0c32 6abe
000002b0: 1c12 d13c b276 813d f356 8a3e 9682 2a3f
000002c0: ca2f a1bd b8ee 3abe 0f90 a73e 9982 043d
