src/models/penneAlPestoETonno2.pth (torch, 413042 bytes, 15 tensors)

main.0.weight f4 [10, 3, 4, 4]
0	0xbca73dee	-0.020415273
1	0xbafa01fa	-0.0019074075
2	0xbe1b46f6	-0.15163788
3	0x3d950565	0.072764196
4	0x3d58fc20	0.05297482
5	0xbdbfe80f	-0.093704335
6	0xbe3794e7	-0.17927895
7	0xbd793b62	-0.060847647
8	0x3d84f735	0.064924635
9	0xbe29d275	-0.16584189
10	0xbe243bb5	-0.16038401
11	0x3cb11fd7	0.021621628
12	0xbc94c415	-0.018159905
13	0x3c948379	0.018129097
14	0x3d5b3f39	0.05352709
15	0x3bafbe2a	0.0053632455
16	0x3d8e6686	0.069531485
17	0x3d901c70	0.07036674
18	0x3e400064	0.18750149
19	0xbcca96e8	-0.02473016
20	0xbd1674ae	-0.03673237
21	0x3e026ccd	0.12736817
22	0x3e083e8c	0.1330511
23	0x3d5b9473	0.05360837
24	0xbde8b929	-0.113634415
25	0xbd01fead	-0.03173702
26	0xbe240eb9	-0.16021241
27	0x3e0ede5f	0.13952015
28	0x3da2c069	0.079468556
29	0x3dc73406	0.097267196
30	0x3dc32989	0.095294066
31	0x3d42cd73	0.047559213
32	0x3e1aab61	0.15104438
33	0x3bd75e74	0.006572539
34	0x3e22515e	0.15851352
35	0x3dfe3bd3	0.12413754
36	0xba4bd997	-0.0007776259
37	0xbe675e17	-0.22594486
38	0xbde0af89	-0.10970981
39	0xbd2f9ae4	-0.042872325
40	0xbe0cf0bc	-0.13763708
41	0x3e224233	0.15845565
42	0x3df1a19e	0.11798404
43	0xbdf0666e	-0.11738287
44	0x3e12f23c	0.14350218
45	0x3d350915	0.044198114
46	0x3d8ab59c	0.067729205
47	0x3d86e686	0.065869376
48	0x3dd616d9	0.104535766
49	0xbdfa02e6	-0.12207584
50	0xbd7d8f23	-0.061904084
51	0x3e26bde9	0.16283382
52	0xbe2e3421	-0.17012073
53	0xbcb6f9da	-0.022335935
54	0x3e491da0	0.19640207
55	0xbc462257	-0.012093148
56	0x3da63646	0.081158206
57	0xbc039155	-0.008030255
58	0x3e1229e7	0.14273797
59	0x3e1f6ebf	0.1556959
60	0xbcbac592	-0.022799287
61	0xbc9a5d84	-0.01884342
62	0xbc4cdcaf	-0.012503787
63	0xbdab4fbe	-0.08364819
64	0x3b06ba3d	0.0020557784
65	0x3db8a743	0.09016278
66	0x3d1a56e3	0.037680518
67	0xbcc51e28	-0.024062231
68	0x3cfb4355	0.030671755
69	0x3bd73805	0.0065679573
70	0xbd1446aa	-0.036200203
71	0x3dd21752	0.10258354
72	0xbbfdd7fd	-0.007746695
73	0xbe000faa	-0.12505975
74	0x3d64b5d1	0.055837456
75	0x3e4ef9cb	0.20212476
76	0x3cbab2ce	0.022790339
77	0x3dc4e7c2	0.09614517
78	0x3d06abba	0.032878615
79	0x3d76e9e6	0.060281657
80	0xbcabd056	-0.020973366
81	0x3d58b277	0.052904572
82	0x3e3ad7f1	0.18246438
83	0xbdc5745f	-0.09641337
84	0x3dae44ce	0.08509217
85	0x3db6e239	0.08929867
86	0xbe29da48	-0.16587174
87	0xbd3d9a3a	-0.04628966
88	0xbdfdaa2b	-0.123859726
89	0x3cdc42ba	0.026887286
90	0x3e15f097	0.14642559
91	0xbdc8b359	-0.09799833
92	0xbc52fb87	-0.012877352
93	0xbd2c5bbc	-0.042079672
94	0xbe3c163b	-0.18367855
95	0xbe535cb8	-0.20640838
96	0x3b43f81a	0.0029902519
97	0xbd5da184	-0.05410911
98	0xbd08ef14	-0.033431128
99	0xbe05fdb0	-0.13085055
100	0x3dac5cf7	0.08416169
101	0xbd97767e	-0.073956475
102	0xbd95d804	-0.07316592
103	0xbe5de024	-0.21667534
104	0x3dc77c00	0.09740448
105	0x3ccca390	0.024980336
106	0xbd9443d3	-0.07239499
107	0xbd668a1a	-0.056284048
108	0x3d0b730d	0.034045268
109	0x3db7b849	0.089706965
110	0xbd845fe3	-0.064636014
111	0xbe3c3733	-0.18380432
112	0xbd07e465	-0.0331768
113	0xbdb39697	-0.08768957
114	0xbe4bb5fd	-0.19893642
115	0xbde804b6	-0.113290235
116	0x3dc0f153	0.09421029
117	0xbd9176df	-0.07102751
118	0xbd23a57b	-0.039952736
119	0x3d288ffb	0.041152935
120	0xbb185035	-0.0023241166
121	0x3d199e9a	0.03750477
122	0xbdd11f1c	-0.10211012
123	0x39886a4d	0.00026019142
124	0x3e044c16	0.1291965
125	0xbb1a9d4c	-0.0023592291
126	0xbd892cdb	-0.066980086
127	0xbd795c0e	-0.060878806
128	0x3c2e6dc6	0.010646289
129	0x3b8a4cf1	0.004220598
130	0xbc190a8a	-0.009340892
131	0xbd3dda5a	-0.046350814
132	0x3dc7725e	0.09738611
133	0x3d48ec7c	0.049053654
134	0xbd26a548	-0.04068497
135	0x3cf1cbb2	0.029516075
136	0x3d51ad6d	0.051190782
137	0x3d9de16b	0.07709011
138	0xbd22afe0	-0.03971851
139	0x3d2f8fcf	0.042861756
140	0x3db36ca6	0.087609574
141	0xbb582206	-0.0032979264
142	0x3dec322c	0.11533007
143	0xbdc369f6	-0.09541695
144	0xbd5c006d	-0.053711344
145	0x3c49892b	0.01230077
146	0xbd81030c	-0.06299409
147	0xbe38e8cb	-0.18057553
148	0xbde8778b	-0.11350926
149	0x3d0d4560	0.03448999
150	0xbd3262db	-0.043551307
151	0xbd9ef36c	-0.07761273
152	0xbd83cf4a	-0.064360216
153	0x3cfd606d	0.030929768
154	0x3da2984b	0.07939204
155	0x3c27fa17	0.010252497
156	0xbc19d4c1	-0.009389103
157	0xbdcb2620	-0.09919381
158	0xbda29585	-0.07938675
159	0xbdd6bc85	-0.10485176
160	0x3d84c402	0.06482698
161	0x3dbda519	0.092600055
162	0x3d54a4cc	0.051914975
163	0xbe14b7e6	-0.14523277
164	0xbd9b2829	-0.07576019
165	0x3da8d18c	0.08243093
166	0xbd35cced	-0.044384886
167	0xbe02a467	-0.12758027
168	0xbdf209e8	-0.11818296
169	0x3da3f9fe	0.080066666
170	0x3dcc4fa7	0.0997613
171	0xbc1245e0	-0.008927792
172	0xbd0d8c4f	-0.034557637
173	0xbd8e736f	-0.06955611
174	0xbc27bfb5	-0.010238578
175	0x3cbfb2ab	0.023400625
176	0xbc22614d	-0.009910894
177	0x3e0950fc	0.134098
178	0xbd42abb6	-0.047527038
179	0xbd98c367	-0.07459145
180	0xbcd9f46f	-0.026605813
181	0x3e385640	0.18001652
182	0x3cb5a84c	0.022174977
183	0x3c30d3d6	0.010792693
184	0x3c803698	0.015651032
185	0x3d896ce3	0.067102216
186	0xbdaeba41	-0.08531619
187	0x3caef280	0.021355867
188	0x3d611975	0.05495592
189	0x3da66ef4	0.081266314
190	0xbca09e76	-0.01960681
191	0xbe156663	-0.14589839
192	0xbd9f8115	-0.07788292
193	0xbe113e51	-0.14183928
194	0x3e3ccdd5	0.18437894
195	0x3e6be548	0.23036683
196	0x3d504071	0.050842706
197	0xbe80a77f	-0.2512779
198	0x3d4b8048	0.049682885
199	0x3d76f19c	0.06028901
200	0x3dd3c90e	0.103410825
201	0xbbe4eb5c	-0.006986065
202	0xbd97a40f	-0.074043386
203	0xbda957bf	-0.08268689
204	0x3dc12f37	0.09432834
205	0xbd27f8e4	-0.041008845
206	0xbd931ca2	-0.07183196
207	0xbd8aa03a	-0.06768842
208	0x3c1e2b8e	0.009653939
209	0x3e79d5fe	0.24398038
210	0xbe416544	-0.18886286
211	0xbe2dedad	-0.16985197
212	0x3cbe0e83	0.02320028
213	0xbe03eb47	-0.1288272
214	0xbd8a555b	-0.067545615
215	0x3d310023	0.04321302
216	0x3db1eeb6	0.086881086
217	0x3e24b15c	0.16083282
218	0xbcc75e7c	-0.024337046
219	0x3c495794	0.012288947
220	0xbdb318c7	-0.0874496
221	0x3d4a81c1	0.04944015
222	0x3d722939	0.059121344
223	0xbe0caf33	-0.13738708
224	0x3dacd229	0.08438522
225	0xbdb7601a	-0.08953877
226	0x3b88cc04	0.004174711
227	0xbb290ece	-0.0025796178
228	0xbe021dfe	-0.12706754
229	0x3e9b4a35	0.30330053
230	0x3e2a6c64	0.1664291
231	0xbe44ef1a	-0.19231835
232	0xbe0e5f87	-0.13903628
233	0xbe4dc6d3	-0.20095377
234	0x3e18b2f3	0.14912014
235	0x3dc70469	0.09717638
236	0xbc1a0d6c	-0.009402614
237	0x3d8dd4ee	0.06925379
238	0x3d3fcf2f	0.046828445
239	0x3e595494	0.2122367
240	0xbdad1b6d	-0.08452497
241	0xbcbca49a	-0.023027707
242	0xbdae1d1b	-0.08501645
243	0x3e417249	0.18891253
244	0xbe87024a	-0.26368934
245	0x3e69d1c4	0.22833925
246	0xbcd86d16	-0.026419204
247	0x3dbecde5	0.09316615
248	0x3d794f89	0.060866866
249	0xbe1ccc3f	-0.15312289
250	0xbd9a8623	-0.07545116
251	0x3d79b2a9	0.0609614
252	0x3e0e1e5d	0.1387877
253	0xbd1f067e	-0.03882455
254	0xbd2298a2	-0.039696343
255	0xbe6ffe2f	-0.23436807

main.3.weight f4 [20, 10, 4, 4]
0	0x3da68910	0.08131611
1	0xbd83120f	-0.06399929
2	0xbd29aae0	-0.041422725
3	0x3da75cec	0.0817202
4	0x3d9ce778	0.07661337
5	0xbc4c1f79	-0.012458676
6	0xbd23fdc7	-0.040036943
7	0x3e1b62c9	0.15174402
8	0x3cedca36	0.029027086
9	0xbd42b950	-0.04754001
10	0xbe057a5c	-0.13034958
11	0xbde22e31	-0.110439666
12	0xbd3876a7	-0.04503503
13	0x3d700d61	0.05860651
14	0x3cd0ad57	0.02547328
15	0x3cf5ee09	0.03002073
16	0x3c6c18be	0.014410196
17	0x3d99339a	0.07480545
18	0x3d68762a	0.056753315
19	0x3dd5a1d9	0.104312606
20	0xbc9ae2e5	-0.01890702
21	0x3d5a34fd	0.05327319
22	0xbe09eba9	-0.13468803
23	0x3ba6a2b8	0.0050853156
24	0x3d0f6293	0.035006117
25	0x3cd97a8a	0.026547689
26	0xbd8820db	-0.06646892
27	0xbd42e501	-0.047581676
28	0xbca2a2a6	-0.019852947
29	0xbd68a397	-0.056796636
30	0xbca6ca57	-0.020360155
31	0x3c974a29	0.01846798
32	0x3b9c54af	0.0047708373
33	0x3d37c7b2	0.04486818
34	0x3c1a2663	0.009408566
35	0xbda2b7bd	-0.079452015
36	0xbd33d459	-0.043903682
37	0x3c2839b9	0.010267668
38	0x3dc2829c	0.09497568
39	0xbde054ab	-0.10953649
40	0x3cc98a3a	0.024602044
41	0x3cdaf582	0.026728395
42	0x3dc77ce9	0.097406216
43	0x3d96f83f	0.07371568
44	0x3d70dd33	0.058804702
45	0x3da9f390	0.08298409
46	0xbcb22f40	-0.021751046
47	0xbd90bd25	-0.070673265
48	0x3b672f80	0.0035276115
49	0xbd04b81e	-0.03240215
50	0xbdb805b9	-0.089854665
51	0x3d5d0d66	0.053967856
52	0x3d25894d	0.040414143
53	0xbd6e5b36	-0.058192454
54	0xbd5d254a	-0.05399064
55	0x3dc5ff13	0.09667792
56	0x3bcac184	0.0061876196
57	0x3d8f6108	0.07000929
58	0xbd9216d0	-0.071332574
59	0x3e0f4126	0.13989696
60	0xbc6b211a	-0.014351154
61	0x3cdef16c	0.027214728
62	0xbd6982f4	-0.057009652
63	0x3dbc1eb5	0.091855444
64	0xbd19aec1	-0.037520174
65	0xbbebd1eb	-0.007196655
66	0x3daa6f97	0.08322065
67	0xbdfef261	-0.12448574
68	0x3d09bde2	0.033628352
69	0xbda74d2e	-0.08169018
70	0xbe1f0c0f	-0.15531944
71	0xbe95c0df	-0.2924871
72	0xbd0ba5e5	-0.034093756
73	0xbd68739a	-0.05675087
74	0xbe8d9908	-0.27655816
75	0xbed718ba	-0.42011052
76	0x3db90b3b	0.09035345
77	0x3d637646	0.055532716
78	0xbd9c9d46	-0.07647185
79	0xbe53de13	-0.20690183
80	0x3dc1fd07	0.09472089
81	0xbdfa3fa0	-0.12219167
82	0xbe3bb94e	-0.18332407
83	0xbe5d4acf	-0.21610568
84	0xbde6110a	-0.11233719
85	0xbe2746a6	-0.16335544
86	0xbecf5cc7	-0.4050047
87	0xbf4599d1	-0.7718783
88	0xbe28457c	-0.16432756
89	0xbe97cc50	-0.29648066
90	0xbf041ec2	-0.5160943
91	0xbf46bf22	-0.77635396
92	0x3daae701	0.08344842
93	0x3d5e0167	0.054200556
94	0xbe2c1a95	-0.16807015
95	0xbea0c939	-0.3140352
96	0xbbd226b8	-0.006413307
97	0xbde1bd5f	-0.11022448
98	0x3d560570	0.05225128
99	0xbc81e1e0	-0.015854776
100	0xbd908bd9	-0.07057924
101	0x3d90d8b7	0.07072585
102	0x3ccf60cc	0.025314711
103	0x3db91f1f	0.09039139
104	0x3d48e772	0.04904885
105	0x3b675c58	0.0035302844
106	0x3e0c2050	0.13684201
107	0x3dc67be8	0.09691602
108	0xbd0ddd8f	-0.034635123
109	0xb92e9367	-0.00016648845
110	0x3d094c4f	0.03352004
111	0x3daeab91	0.085288174
112	0x3dc20065	0.094727315
113	0x3e4d088d	0.20022793
114	0x3da2c598	0.07947844
115	0xbe26cd2a	-0.16289201
116	0xbd7552cf	-0.059893426
117	0xbd1377bd	-0.036002863
118	0xbdf2a09e	-0.118470415
119	0xbecf408d	-0.40478936
120	0xbe22dceb	-0.15904586
121	0xbe42d4f9	-0.19026555
122	0xbe94b0bf	-0.29041097
123	0xbf27ea21	-0.6559163
124	0x3d2e024b	0.042482655
125	0x3e10047f	0.14064215
126	0x3e00c570	0.12575316
127	0xbde6a19c	-0.11261293
128	0x3cdf4703	0.02725554
129	0x3d43f327	0.04783931
130	0xbd2e3908	-0.042534858
131	0x3a97bd22	0.0011576752
132	0x3bd083be	0.006363361
133	0xbad0f45b	-0.0015941964
134	0xbe521b17	-0.20518146
135	0xbef09cb1	-0.46994546
136	0x3c6fc89a	0.0146352295
137	0xbd230e2c	-0.039808437
138	0xbe91994e	-0.28437275
139	0xbf1d24d3	-0.61384314
140	0x3d3214d0	0.04347688
141	0x3d5de865	0.054176707
142	0x3c5b99c8	0.0134033635
143	0xbdd3a682	-0.10334493
144	0x3ced6109	0.028976934
145	0x3d874e74	0.066067606
146	0xbbde7e21	-0.006789938
147	0xbc9a2f5b	-0.018821409
148	0xbb363012	-0.0027799648
149	0xbc84e345	-0.016221652
150	0xbda2ac1b	-0.07942983
151	0xbc8bb0a6	-0.017052006
152	0xbda8f366	-0.082495496
153	0xbdb20197	-0.086917095
154	0xbce831ca	-0.028344054
155	0xbe02e672	-0.1278322
156	0x3ab19fc5	0.0013551643
157	0x3a423134	0.00074078445
158	0x3cf91b30	0.030408472
159	0x3d63d603	0.05562402
160	0x3e0ebfc2	0.13940337
161	0xbd4177c3	-0.047233354
162	0xbde2112e	-0.11038433
163	0x3ccb3a78	0.024808154
164	0xbcd8c6ee	-0.026462045
165	0xbbdd626f	-0.006756119
166	0xbde78677	-0.11304944
167	0xbdb635cc	-0.0889698
168	0x3cc7d9a1	0.024395766
169	0x3c03c5a7	0.008042729
170	0xbe56461f	-0.20925187
171	0xbe3bbeb3	-0.18334465
172	0x3d2e3a18	0.04253587
173	0x3d2f0a39	0.04273436
174	0xbda62ce7	-0.08114033
175	0x3db41eeb	0.0879496
176	0x3d450604	0.04810144
177	0x3cce6144	0.025192864
178	0xbc6dcd22	-0.0145142395
179	0x3e29f1ed	0.16596194
180	0xbd939f11	-0.07208074
181	0x3defa54a	0.11701448
182	0xbd8d2091	-0.06890977
183	0xbc93a2a8	-0.018021896
184	0x3d7fddc7	0.062467363
185	0xbcfb25b5	-0.030657629
186	0xbdf7db68	-0.12102395
187	0x3d9b9ff4	0.07598868
188	0x3bc703ff	0.0060734744
189	0x3d7da363	0.061923396
190	0x3d070f83	0.032973778
191	0x3d0db6de	0.034598224
192	0x3c1c2c3c	0.009532031
193	0x3cc77aab	0.024350485
194	0xbce47c15	-0.027891198
195	0xbe141ced	-0.1446416
196	0x3b589b72	0.0033051637
197	0x3d381989	0.044946227
198	0x3e14647f	0.14491461
199	0xbe0b6ce0	-0.13615751
200	0x3d17b377	0.037036385
201	0x3ccfa70b	0.025348207
202	0x3e386b1e	0.18009612
203	0xbe0dad30	-0.13835597
204	0xbca26484	-0.01982332
205	0x3cf4e158	0.029892609
206	0x3cf88586	0.030337106
207	0xbd9a65cf	-0.0753895
208	0xbd178ea9	-0.037001286
209	0x3b81cb7f	0.003961026
210	0xbcf7656b	-0.030199727
211	0x3d53df2b	0.0517265
212	0xbaac6250	-0.0013151858
213	0x3ca0ce69	0.019629674
214	0x3d26009f	0.040527936
215	0xbbbf2b87	-0.0058340463
216	0x3c063399	0.008191013
217	0xbdcb0155	-0.099123634
218	0x3dc5879c	0.09645006
219	0x3e2205c5	0.15822513
220	0xbd1d653d	-0.038426626
221	0xbdc7ad3f	-0.09749841
222	0x3e2cdff4	0.16882306
223	0x3e3e5755	0.18588002
224	0x3c86bae4	0.016446538
225	0x3da9b16c	0.08285794
226	0x3dafa449	0.08576257
227	0x3ce471d0	0.027886301
228	0xbd2b37b2	-0.041801162
229	0xb8b57de2	-8.6542e-05
230	0xbde8aaa1	-0.1136067
231	0xbe9361eb	-0.28785643
232	0x3cb0fe61	0.021605672
233	0xbd21ff68	-0.039550215
234	0xbe51e606	-0.20497903
235	0xbeadedd7	-0.3397052
236	0x3df8b5a3	0.121440195
237	0xbca43254	-0.02004353
238	0xbd8595bd	-0.06522701
239	0xbd894647	-0.067028575
240	0xbd628468	-0.055302054
241	0xbd4fde4f	-0.05074912
242	0xbda3f598	-0.08005828
243	0xbdbebc9c	-0.09313318
244	0xbd97f1c7	-0.07419162
245	0xbdc6ded7	-0.09710472
246	0xbec9fd50	-0.39451075
247	0xbf155a60	-0.58341026
248	0xbc9b244d	-0.018938208
249	0xbe49810a	-0.19678131
250	0xbe8bd165	-0.27308193
251	0xbef5ce83	-0.48009118
252	0x3cc47452	0.023981247
253	0xbc1992ea	-0.009373406
254	0x3da3e61f	0.080028765
255	0xbdcf7e04	-0.101314574

main.4.weight f4 [20]
0	0x3f88d0a0	1.0688667
1	0x3f965d4d	1.1747223
2	0x3f32c558	0.6983237
3	0x3f787525	0.9705375
4	0x3f6b9f89	0.92040306
5	0x3f902804	1.1262212
6	0x3f952085	1.1650549
7	0x3f4fa5de	0.8111247
8	0x3f76902b	0.9631373
9	0x3f78a80a	0.9713141
10	0x3f8d2c70	1.1029186
11	0x3f62849e	0.8848361
12	0x3f7cd8f1	0.98768526
13	0x3f5aa857	0.85413116
14	0x3f696f75	0.91185695
15	0x3f6a5b55	0.9154561
16	0x3f91aa41	1.1380082
17	0x3f5fd8ab	0.87439984
18	0x3f8579a2	1.0427744
19	0x3f9512b4	1.1646333

main.4.bias f4 [20]
0	0xbec0148c	-0.37515676
1	0xbeb3ccc4	-0.3511716
2	0xbc9a7570	-0.018854827
3	0xbe42ba6f	-0.19016431
4	0xbdcbb211	-0.09946073
5	0xbea4089a	-0.32037812
6	0xbe98cd42	-0.298441
7	0xbd396a53	-0.045267414
8	0xbe5b43a7	-0.21412526
9	0xbe2adddf	-0.166862
10	0xbe94a33f	-0.29030797
11	0x3d9d7056	0.07687442
12	0xbd1296bd	-0.035788286
13	0xbdb434c5	-0.087991275
14	0xbe7d7bcc	-0.24754256
15	0xbdbcd71e	-0.09220718
16	0xbd4bb257	-0.049730625
17	0x3dbf733a	0.093481496
18	0xbd196b80	-0.037456036
19	0xbe0c208e	-0.13684294

main.4.running_mean f4 [20]
0	0xbcd14ca1	-0.025549235
1	0xbc772032	-0.01508336
2	0x3bb0c787	0.0053948793
3	0xbcdebfcf	-0.02719107
4	0xbc1d5401	-0.009602548
5	0xbc38dff5	-0.011283864
6	0xbc1b516b	-0.009479861
7	0x3b1a6919	0.0023561178
8	0xbcb4cd8e	-0.022070672
9	0xbc4a7691	-0.01235737
10	0xbc7c40a6	-0.015396273
11	0x3c43cb65	0.0119503485
12	0xbc0cf907	-0.008604295
13	0xbbec0883	-0.007203163
14	0xbca4190d	-0.020031476
15	0xbc8d2ac0	-0.017232299
16	0xbb9de12d	-0.004818103
17	0x3c82cb3a	0.015966047
18	0xbc1f914f	-0.009739234
19	0xbc05e4cb	-0.008172224

main.4.running_var f4 [20]
0	0x3b292813	0.002581124
1	0x3a870fb9	0.0010304368
2	0x3a01afcd	0.0004947156
3	0x3b133812	0.002246384
4	0x39fab251	0.00047816572
5	0x3a3a28bb	0.0007101406
6	0x3a01ec94	0.00049562124
7	0x399a2962	0.00029404002
8	0x3ac8cae3	0.0015319254
9	0x39f7f3fb	0.0004729329
10	0x3a7f2aa7	0.0009733834
11	0x3a92da28	0.0011203932
12	0x3a054956	0.0005084475
13	0x39a6feea	0.00031851913
14	0x3a9b993f	0.0011871232
15	0x3a599cdf	0.00083012687
16	0x391ed069	0.00015145693
17	0x3ab1f186	0.0013576008
18	0x3a0c3d1e	0.00053496833
19	0x39b8cbb0	0.00035246974

main.6.weight f4 [40, 20, 4, 4]
0	0x3d62c65e	0.05536496
1	0x3d04de47	0.032438543
2	0xbd17948b	-0.037006896
3	0x3d606ed3	0.05479319
4	0x3db649c4	0.089007884
5	0x3909c4eb	0.00013138696
6	0xbe252150	-0.16125989
7	0x3c964558	0.018343613
8	0xbbf0bfc9	-0.0073470813
9	0x3a6fa612	0.0009141873
10	0xbd7b77a3	-0.06139339
11	0x3dbef1b6	0.093234465
12	0x3d097838	0.033561915
13	0x3d36334e	0.04448252
14	0xbce83577	-0.028345807
15	0x3e0afd1c	0.13573116
16	0xbbd5e7bc	-0.006527869
17	0x3b09b466	0.0021012067
18	0xbcdcd114	-0.026955165
19	0x3e2c5ecb	0.16833036
20	0x3e1413f3	0.14460735
21	0x3d8464b1	0.06464518
22	0xbe5aaa35	-0.21353991
23	0xbd22cd10	-0.039746344
24	0x3d5f7b06	0.054560684
25	0x3e254a7c	0.16141695
26	0xbdb60b00	-0.08888817
27	0x3d4cae7a	0.04997108
28	0xbd077f45	-0.033080358
29	0xbbae96a3	-0.005328016
30	0xbd92ccee	-0.071679935
31	0x3e584f6b	0.21124046
32	0x3d98baac	0.0745748
33	0xbdc06d46	-0.09395842
34	0xbdd2cddb	-0.1029317
35	0xbd4efd5b	-0.050534587
36	0x3d61a0d5	0.055085022
37	0x3c0b8bf4	0.008517254
38	0x3de37ecd	0.1110817
39	0x3d3fbee3	0.046812903
40	0xbd361701	-0.044455532
41	0x3d7e8c85	0.06214573
42	0x3e0bfc31	0.13670422
43	0x3da21d97	0.079158
44	0xbd5f1faa	-0.054473557
45	0x3c59664e	0.01326902
46	0xbd70b126	-0.058762692
47	0xbcfd5503	-0.030924326
48	0xbc6d0048	-0.014465399
49	0xbd60cc71	-0.05488247
50	0x3b05c141	0.0020409378
51	0x3d5e9fcd	0.054351617
52	0x3dcc9adf	0.09990477
53	0x3df10bd8	0.11769837
54	0x3bcb1829	0.0061979485
55	0x3c8b44b3	0.017000532
56	0xbd274e39	-0.040846083
57	0x3cc438b2	0.023952816
58	0x3d32423b	0.043520194
59	0x3db6062e	0.088878974
60	0xbe1d5404	-0.1536408
61	0xbd79a583	-0.06094886
62	0x3d3941fb	0.04522894
63	0x3d7062bc	0.05868791
64	0xba185cc2	-0.0005812162
65	0xbd6eaf42	-0.058272608
66	0x3d93cffe	0.07217406
67	0x3d1bb8ef	0.038018163
68	0x3d38931c	0.04506217
69	0x3d02d077	0.03193709
70	0xbcb9e594	-0.02269248
71	0xbd4d63cd	-0.050144006
72	0xbe6382b9	-0.22217835
73	0x3d03687f	0.032082077
74	0x3e042f5e	0.12908694
75	0x3d36f93b	0.04467128
76	0xba5a6b0f	-0.0008331993
77	0xbd6e6641	-0.058202986
78	0xbc6dff1a	-0.014526153
79	0xbc8c092a	-0.017094214
80	0xbd10b9ce	-0.035333447
81	0x3da55c45	0.0807424
82	0x3d242814	0.040077284
83	0x3e05a652	0.13051727
84	0x3d42fb3a	0.04760287
85	0xbde5f474	-0.11228266
86	0xbe0c80fa	-0.13721076
87	0xbddb67a1	-0.10713125
88	0xbda0377f	-0.07823085
89	0x3d2f7233	0.04283352
90	0xbc2ca5da	-0.010537589
91	0x3cb1daa9	0.02171071
92	0x3ddb52ef	0.10709178
93	0x3c0fa795	0.008767982
94	0x3dcaf244	0.0990949
95	0x3d19148f	0.03737312
96	0x3d16a357	0.036776867
97	0xbc8da87a	-0.01729225
98	0x3e0afc89	0.13572897
99	0xbd1bc25a	-0.038027145
100	0x3d954bc3	0.07289841
101	0xbe341815	-0.17587312
102	0xbdb07b3e	-0.086172566
103	0xbe27eb4f	-0.16398357
104	0xbd671715	-0.056418497
105	0xbd4bf44f	-0.049793538
106	0x3d05aba6	0.0326344
107	0xbdca1d61	-0.09868885
108	0xbccdbb14	-0.02511362
109	0xbc4fffab	-0.012695233
110	0xbcd0af1d	-0.025474126
111	0xbde76ab2	-0.112996474
112	0xbd2c5562	-0.042073615
113	0xbbc3f418	-0.005980026
114	0x3e616a05	0.220131
115	0x3d32b344	0.043627992
116	0x3ce93120	0.028465807
117	0xbc306d7b	-0.01076829
118	0x3b91f658	0.0044544153
119	0xbce4bb65	-0.027921388
120	0x3dc95050	0.098297715
121	0xbc83ac72	-0.01607344
122	0x3d5edd93	0.05441053
123	0xbb4dd9ea	-0.0031410404
124	0x3d343777	0.043998208
125	0xbb1949b5	-0.002338988
126	0x3dd85b2a	0.10564263
127	0x3d2a06d4	0.041510418
128	0x3baa7787	0.005202237
129	0x3d4ad08c	0.049515292
130	0xbc78a995	-0.01517715
131	0x3de81a79	0.11333174
132	0x3d969169	0.073519535
133	0x3da2039e	0.07910846
134	0xbd2b28bd	-0.041786898
135	0xbc5974b9	-0.013272458
136	0xbd0442a5	-0.03229012
137	0x3db494cb	0.088174425
138	0xbd3641ce	-0.04449635
139	0x3d85ee7b	0.06539627
140	0xbd9e9d9b	-0.077449046
141	0x3d5d1bc4	0.053981557
142	0xbd0e0480	-0.03467226
143	0x3d7fae48	0.062422067
144	0x3d8ea80e	0.06965648
145	0x3ae70e19	0.0017628103
146	0x3c196de2	0.009364577
147	0x3d28ab58	0.04117903
148	0x3e021fcf	0.12707447
149	0x3e51cc41	0.20488073
150	0x3d1e274d	0.0386117
151	0x3cfd7e93	0.030944144
152	0x3c3dcfc0	0.011585176
153	0x3dea70ad	0.114472724
154	0x3d793b6e	0.060847692
155	0x3d453a45	0.048151273
156	0x3cf1773a	0.029475797
157	0xbc31595b	-0.010824527
158	0x3d7923dc	0.060825214
159	0xbd1b7083	-0.037949096
160	0x3d4c4d3b	0.04987834
161	0x3b998219	0.0046846983
162	0x3ca3183d	0.019909019
163	0x3ccfb430	0.025354475
164	0x3d3a7209	0.04551891
165	0xbb8aad56	-0.004232089
166	0xbe2bdf67	-0.1678444
167	0xbdc1e552	-0.094675675
168	0xbe703f1e	-0.23461577
169	0x3d8242bd	0.063603856
170	0x3d264554	0.04059346
171	0x3d821685	0.063519515
172	0x3cdb389f	0.026760397
173	0xba7e7295	-0.0009706405
174	0xbc79b180	-0.015240073
175	0x3d98e40e	0.07465373
176	0xbd4f5c41	-0.05062509
177	0xba34cf19	-0.0006897315
178	0xbdaab41a	-0.08335133
179	0x3d3a71b5	0.045518596
180	0x3c8fbaac	0.017545067
181	0xbcf83fe0	-0.030303895
182	0x3a22da69	0.0006212355
183	0x3c8bf4a4	0.017084427
184	0xbc17f76a	-0.009275297
185	0xbc84f8c1	-0.016231896
186	0x3d083465	0.033253092
187	0x3bbbef5c	0.005735321
188	0x3db0c1b3	0.08630695
189	0xbd415336	-0.047198497
190	0xbc340957	-0.010988555
191	0x3d8f9d5c	0.07012436
192	0xbdd08135	-0.10180894
193	0x3de55f04	0.111997634
194	0xbe008442	-0.12550452
195	0xbd863ca4	-0.06554535
196	0xbc43a62a	-0.011941472
197	0x3e4f0e28	0.20220244
198	0xbca855cb	-0.020548722
199	0x3e4668a2	0.19375852
200	0x3d155d3c	0.03646587
201	0x3e57ab48	0.21061432
202	0x3da9ff13	0.08300605
203	0x3cae1832	0.021251772
204	0xbd0daf25	-0.03459086
205	0x3dfa6e0c	0.12228021
206	0xbd002196	-0.03128203
207	0xbdac0ebe	-0.08401249
208	0xbcc5055c	-0.024050407
209	0x3bb2052e	0.0054327464
210	0xbbe75178	-0.0070592724
211	0x3c3568d3	0.011072355
212	0x3bd06e6d	0.00636082
213	0x3d3ef8f5	0.046624143
214	0x3e33a614	0.17543823
215	0xbcb995fd	-0.022654528
216	0xbd47f75a	-0.048819877
217	0x3d384433	0.044986915
218	0x3dcc3817	0.09971636
219	0xbd2e0d90	-0.042493403
220	0xbb799ac5	-0.0038086635
221	0x3c08d227	0.0083508855
222	0xbd543fff	-0.051818844
223	0xbdd1aa41	-0.102375515
224	0x3d90c3eb	0.070686184
225	0x3d1290e9	0.03578273
226	0xbd793653	-0.060842823
227	0x3d80ddc1	0.06292296
228	0x3dc3ac64	0.09554365
229	0x3d9a251b	0.075266086
230	0x3bb3b66f	0.0054843943
231	0x3d95ec74	0.073204905
232	0xbde966ac	-0.11396536
233	0x3df24cf4	0.11831084
234	0xbce0d6be	-0.027446147
235	0x3d38c085	0.045105476
236	0xbd1cbbb8	-0.03826496
237	0x3d25d1dc	0.04048334
238	0xbce49b8c	-0.027906202
239	0x3d668664	0.05628051
240	0xbd9e2f0c	-0.07723817
241	0x3d12614d	0.035737325
242	0xbd412d92	-0.0471626
243	0x3d18dd4f	0.03732043
244	0x3d2f4177	0.04278704
245	0x3e6af6b2	0.2294567
246	0x3de5a28b	0.11212643
247	0xbd665f26	-0.056243084
248	0xbd2cd6a8	-0.0421969
249	0x3d730620	0.059332013
250	0x3d70f0bd	0.058823336
251	0x3d8c46cf	0.06849443
252	0xbdd9cf2c	-0.10635218
253	0x3c31dc50	0.010855749
254	0x3cfb7598	0.030695722
255	0xbd0da7c0	-0.034583807

main.7.weight f4 [40]
0	0x3f8ecc80	1.1156158
1	0x3f96718c	1.1753402
2	0x3f8653d4	1.0494332
3	0x3f8a3ac6	1.0799186
4	0x3f89de59	1.077098
5	0x3f86b885	1.0525061
6	0x3f8079c3	1.0037159
7	0x3f87df3a	1.0614998
8	0x3f888602	1.0665896
9	0x3f8a3a37	1.0799016
10	0x3f8ad2b4	1.0845551
11	0x3f8a5719	1.080783
12	0x3f9069ae	1.1282251
13	0x3f792d50	0.97334766
14	0x3f882662	1.0636714
15	0x3f939a28	1.153142
16	0x3f873e39	1.0565864
17	0x3f90105b	1.1254991
18	0x3f850547	1.0392236
19	0x3f930928	1.1487169
20	0x3f81ca9f	1.013996
21	0x3f8e7d36	1.1131961
22	0x3f89d52a	1.0768178
23	0x3f83beb8	1.0292578
24	0x3f87a2d8	1.0596571
25	0x3f8bf8e6	1.0935333
26	0x3f735474	0.9505074
27	0x3f8f7b81	1.1209565
28	0x3f8dacc6	1.1068351
29	0x3f8650ee	1.0493448
30	0x3f9b16aa	1.2116292
31	0x3f8b8c19	1.090213
32	0x3f8127ea	1.0090306
33	0x3f9479b1	1.1599637
34	0x3f8206d2	1.0158331
35	0x3f8257a1	1.0182992
36	0x3f82a33d	1.0206066
37	0x3f84d27e	1.0376737
38	0x3f851e26	1.0399826
39	0x3f84cb31	1.0374509

main.7.bias f4 [40]
0	0xbda06a92	-0.07832827
1	0xbcb2302c	-0.021751486
2	0x3debb783	0.115096115
3	0xbdafb922	-0.08580233
4	0xbda2d156	-0.07950084
5	0xbc815df1	-0.015791865
6	0xbc87f674	-0.01659701
7	0x3c7fb0cd	0.015606117
8	0xbdb5d402	-0.08878328
9	0xbdb2124d	-0.08694897
10	0xbde07c4e	-0.10961209
11	0x3bc46625	0.005993622
12	0xbd84070b	-0.06446656
13	0xbc9f66c7	-0.019458188
14	0x3ae68a63	0.001758885
15	0x3ce4d07c	0.027931444
16	0xbcc6337b	-0.02419447
17	0xbd29f9a6	-0.04149785
18	0xbcf1beda	-0.02950995
19	0xbe003f2b	-0.12524097
20	0xbde7f151	-0.11325324
21	0xbd88432a	-0.066534355
22	0xbc542eaa	-0.012950579
23	0x3a9a64ec	0.0011779345
24	0xbb35e086	-0.0027752235
25	0xbd0be43d	-0.03415321
26	0xbe08d426	-0.13362178
27	0x3cdb8bcd	0.02680006
28	0xbd5d8164	-0.054078475
29	0x3c95d88e	0.018291738
30	0xbd618c61	-0.055065516
31	0xbda27f6b	-0.07934459
32	0xbdb30b4f	-0.08742391
33	0x3b6260d8	0.0034542587
34	0x3cd32d05	0.025778303
35	0x3c23a7a1	0.009988696
36	0x3c379b8f	0.011206522
37	0x3d0f4478	0.034977406
38	0x3dd191e4	0.102329046
39	0xbdd6497b	-0.10463234

main.7.running_mean f4 [40]
0	0x3efb7a9d	0.49116984
1	0x3ea3c439	0.31985644
2	0xbe4afb9a	-0.19822541
3	0x3f3dfd72	0.7421485
4	0x3ede82e6	0.43459243
5	0xbe1bee27	-0.15227567
6	0xbefba86c	-0.49151933
7	0xbebd83f6	-0.3701474
8	0x3ece474c	0.4028877
9	0x3ebde686	0.37089938
10	0x3e8a1d18	0.26975322
11	0x3dec6a4b	0.11543711
12	0x3ec43877	0.3832433
13	0x3edbddc5	0.42942634
14	0xbe9b9399	-0.30386046
15	0xbefcf200	-0.4940338
16	0xbd40490b	-0.04694466
17	0x3d6993fb	0.05702589
18	0xbe08d579	-0.13362683
19	0x3f02f637	0.51156944
20	0x3ebe9a5f	0.3722715
21	0xbe51b46e	-0.20478985
22	0xbf10fda6	-0.56637037
23	0xbf17a9c8	-0.5924344
24	0xbeaa6a55	-0.3328425
25	0xbed61fe4	-0.41821206
26	0x3ef42b0f	0.476891
27	0x3d175d4b	0.036954205
28	0x3f11ad01	0.5690461
29	0xbf357a3d	-0.70889646
30	0x3dbb997c	0.09160134
31	0x3eb7505b	0.35803494
32	0x3ebe12e7	0.37123796
33	0xbdfef145	-0.12448362
34	0x3f5b09c4	0.85561776
35	0xbf3372d2	-0.70097077
36	0xbf2c168b	-0.672219
37	0xbe9e40c2	-0.3090878
38	0xbf31926a	-0.69364035
39	0x3eab9223	0.3350993

main.7.running_var f4 [40]
0	0x3f1aef60	0.6052151
1	0x3f491079	0.7854076
2	0x3f856199	1.042041
3	0x3ed75398	0.42055964
4	0x3f84233a	1.032325
5	0x3ede8580	0.43461227
6	0x3fb06b4f	1.3782748
7	0x3f00113f	0.50026315
8	0x3f00aeae	0.5026654
9	0x3f02733e	0.50957096
10	0x3f01c4e7	0.50691074
11	0x3e9ce9c8	0.3064711
12	0x3ee00bd1	0.43759015
13	0x3f4bbef8	0.7958827
14	0x3f06a368	0.5259309
15	0x3e41fb44	0.18943506
16	0x3f093573	0.5359718
17	0x3f0ef52b	0.55842847
18	0x3f0d5da3	0.55221003
19	0x3edf7751	0.4364572
20	0x3f170361	0.5898953
21	0x3ee7be8b	0.4526256
22	0x3f079fc8	0.5297818
23	0x3f5de75f	0.8668117
24	0x3ecc12f2	0.39858204
25	0x3efbd1f4	0.4918362
26	0x3ece68d3	0.4031435
27	0x3eeb87b9	0.46001986
28	0x3e651848	0.22372544
29	0x3f4a12c3	0.7893488
30	0x3edeedaf	0.43540713
31	0x3efdd834	0.49579012
32	0x3f1d3858	0.614141
33	0x3ef87616	0.48527592
34	0x3f852d11	1.0404378
35	0x3f263b2d	0.64934045
36	0x3f1eaba2	0.6198064
37	0x3f6a67f2	0.9156486
38	0x3f838350	1.0274448
39	0x3f2990be	0.66236484

main.10.weight f4 [180, 360]
0	0x3c6d1a74	0.014471639
1	0xbdd6c85b	-0.104874335
2	0xbdf77644	-0.12083104
3	0xbd03b54e	-0.032155327
4	0x3dfb68be	0.12275837
5	0x3e269428	0.16267455
6	0x3c59a030	0.013282821
7	0x3d805f90	0.06268227
8	0xbdb35c0e	-0.087577924
9	0x3de8e7d2	0.11372341
10	0xbb15d319	-0.002286142
11	0x3e18ee92	0.14934757
12	0xbd31dcca	-0.04342345
13	0x3dba6522	0.09101321
14	0x3dafe359	0.08588285
15	0xbe3ba4c0	-0.18324566
16	0xbda6415a	-0.081179336
17	0x3db2184f	0.08696043
18	0xbdb58b19	-0.088644214
19	0xbd8f7c04	-0.07006076
20	0xbd9436bb	-0.072370015
21	0xbd9da53e	-0.07697533
22	0xbe2f4e84	-0.17119795
23	0xbccb0548	-0.024782792
24	0xbe08566f	-0.13314222
25	0xbd3e41f6	-0.046449624
26	0xbdd0a413	-0.10187545
27	0x3db49c35	0.088188566
28	0x3da73ac8	0.081655085
29	0x3d5212c7	0.05128744
30	0xbd0124aa	-0.031529106
31	0x3dcb1c3d	0.099174954
32	0x3e0b63b9	0.1361226
33	0x3dceb035	0.100922026
34	0x3dbd7ef6	0.092527315
35	0x3d280de2	0.041028865
36	0xbd409256	-0.047014557
37	0x384b31b9	4.844528e-05
38	0x3bff7a96	0.007796596
39	0xbb41e685	-0.0029586863
40	0x3dc59f4b	0.09649523
41	0x3cebe6d7	0.028796596
42	0xbbcc43d0	-0.00623367
43	0x3d2d3286	0.04228451
44	0x3aececa4	0.0018075895
45	0x3c47e6aa	0.012200991
46	0xbcccfc9e	-0.025022801
47	0x3de57e27	0.11205702
48	0x3c3fc399	0.011704349
49	0xbdf069fb	-0.11738964
50	0xbe4f787b	-0.20260803
51	0xbd9f4117	-0.07776087
52	0xbccc6461	-0.024950208
53	0xbd55257e	-0.05203771
54	0xbe0c3fa9	-0.1369616
55	0xbd887370	-0.06662643
56	0x3cf18b7b	0.029485455
57	0x3c154c54	0.009112436
58	0xbd937cf4	-0.07201567
59	0xbdec1e44	-0.1152921
60	0xbd01dfcb	-0.031707566
61	0xbc22841b	-0.009919192
62	0xbdc07de0	-0.09399009
63	0xbd91abd2	-0.0711285
64	0xbdee845a	-0.11646338
65	0xbd0683ca	-0.032840528
66	0x3ddf29f3	0.10896673
67	0xbe019084	-0.12652785
68	0xbdeb743e	-0.11496781
69	0x3cc916a1	0.024546923
70	0xbd1b788d	-0.037956763
71	0xbde70d9b	-0.11281892
72	0x3dd1a131	0.10235823
73	0x3df2848a	0.11841686
74	0xbc850f56	-0.016242664
75	0x3b5527dc	0.0032524979
76	0xbdaa2c5f	-0.08309244
77	0x3d6b59b2	0.057458587
78	0x3da0cc71	0.07851494
79	0x3d417851	0.047233883
80	0x3d8a021a	0.06738682
81	0x3de6a33a	0.11261602
82	0x3d98b229	0.07455856
83	0x3db6a7af	0.08918702
84	0x3d865588	0.065592825
85	0x3ddb0356	0.10693996
86	0xbd55d71d	-0.0522071
87	0x3dd20324	0.10254505
88	0x3d56e0c4	0.052460447
89	0x3dd17959	0.10228223
90	0x3e0f87a7	0.14016591
91	0xbd97588f	-0.07389938
92	0xbc1c016a	-0.0095218215
93	0xbd6d2c30	-0.05790347
94	0xbcdd6856	-0.02702729
95	0xba3cc217	-0.00072005525
96	0x3e342169	0.1759087
97	0x3df15e04	0.1178551
98	0x3d9fd3c2	0.078040615
99	0xbdaca934	-0.084307104
100	0xbd9becea	-0.07613547
101	0xbe850c6e	-0.25986046
102	0xbdd957eb	-0.10612472
103	0x3c1ef001	0.009700776
104	0x3deea81b	0.11653157
105	0xbdf62683	-0.12019064
106	0x3d8685b3	0.0656847
107	0x3c72b283	0.014813068
108	0x3df55d0d	0.11980639
109	0x3c8a0300	0.016847134
110	0x3d76bd5c	0.06023918
111	0xbc3f4b74	-0.011675704
112	0x3e1fbda0	0.1559968
113	0xbe0aea9d	-0.1356606
114	0x3e173d3d	0.14769454
115	0x3dcd6a07	0.10029989
116	0x3d64efb7	0.055892672
117	0xbd9f6367	-0.07782631
118	0xbdfbbde3	-0.122920774
119	0x3db8d842	0.09025623
120	0x3d5cd11b	0.053910356
121	0x3da83838	0.08213848
122	0xbbfca4e5	-0.0077100866
123	0x3e28005b	0.16406386
124	0xbd1fc1ea	-0.03900329
125	0x3d2967b3	0.04135866
126	0xbe26382a	-0.16232362
127	0xbe07d78e	-0.13265821
128	0xbdee0128	-0.11621314
129	0x3d9dce72	0.07705392
130	0x3e09088c	0.13382167
131	0xbe1d8352	-0.15382126
132	0x3d94eea5	0.0727208
133	0xbc97c782	-0.01852775
134	0xbd38ee22	-0.045148976
135	0xbe2a529b	-0.16633074
136	0xbda2e0ff	-0.07953071
137	0xbe134697	-0.14382397
138	0xbd27443e	-0.040836565
139	0xbe0e84c4	-0.13917834
140	0xbd1d42dd	-0.038393844
141	0xbcba6695	-0.022753993
142	0xbc8a0a86	-0.016850721
143	0xbccb5065	-0.024818609
144	0xbda3f5b7	-0.08005851
145	0x3d68225d	0.056673396
146	0xbde3a16f	-0.111147754
147	0x3c6956d1	0.01424189
148	0x3dd10821	0.102066286
149	0xbe4b3dac	-0.19847745
150	0xbd8c69c5	-0.068561114
151	0xbd106ed9	-0.035261963
152	0xbd3adaa6	-0.045618676
153	0xbce92403	-0.028459555
154	0x3cb0f576	0.02160142
155	0xbde940ee	-0.113893375
156	0x3cff5a4a	0.031170983
157	0x3e493deb	0.19652526
158	0x3d0c4fc3	0.034255754
159	0x3dbe5bcd	0.09294853
160	0x3de5b87e	0.1121683
161	0xbcf29dec	-0.029616319
162	0xbe73bd32	-0.23802641
163	0xbd2f4dbc	-0.042798743
164	0xbd3a0eef	-0.045424398
165	0x3dde49a9	0.10853893
166	0x3d8dcad4	0.06923452
167	0xbd181e19	-0.03713808
168	0x3d86b222	0.06576945
169	0xbda47c95	-0.08031575
170	0xbddadfd3	-0.10687222
171	0x3dc592ab	0.09647115
172	0xbdf0d001	-0.117584236
173	0x3d05906b	0.03260843
174	0xbdd54055	-0.10412661
175	0x3e2d2788	0.16909611
176	0x3ce4dd6f	0.027937619
177	0x3b47146a	0.0030377158
178	0xbe37980e	-0.17929098
179	0x3c9f9e15	0.01948456
180	0x3c0a0cad	0.008425874
181	0x3ddef133	0.10885849
182	0x3dd2bbaf	0.10289704
183	0x3d0a6748	0.033789903
184	0x3d88d750	0.066816926
185	0x3df66b38	0.12032169
186	0x3d09850f	0.03357416
187	0x3dfd4379	0.12366385
188	0x3d2647d7	0.040595856
189	0xb90d50a8	-0.00013476855
190	0x3b99680c	0.004681593
191	0x3dfaa90c	0.122392744
192	0x3dad48ec	0.08461174
193	0x3b5e00fb	0.0033875096
194	0x3cee788d	0.029110217
195	0xbb079bb4	-0.0020692172
196	0xbe2e88f4	-0.17044431
197	0xbdddd4be	-0.10831593
198	0x3da1e658	0.07905263
199	0x3cc2ba9e	0.023770627
200	0x3e58df07	0.21178828
201	0x3d9a6158	0.07538098
202	0xbdaa0bae	-0.08303009
203	0xbe91bcb6	-0.28464288
204	0xbdacfaca	-0.08446272
205	0xbde7f602	-0.11326219
206	0x3cb7f0db	0.022453716
207	0x3c9836ae	0.01858076
208	0xbdb36fb0	-0.08761537
209	0xbe04e223	-0.1297689
210	0x3e469741	0.19393636
211	0xbad6cca7	-0.0016387895
212	0xbe61c02f	-0.22045968
213	0xbb35d286	-0.002774389
214	0xbda84229	-0.08215744
215	0xbd6c08a3	-0.057625424
216	0xbdb67419	-0.089088626
217	0xbda69efd	-0.08135793
218	0xbd9c26ab	-0.07624563
219	0x3dbdf5a6	0.09275369
220	0xbd5f776f	-0.05455726
221	0xbe07420a	-0.13208786
222	0x3d9d1756	0.076704666
223	0x3c779dde	0.015113322
224	0xbe36aa56	-0.17838416
225	0xbd87b014	-0.06625381
226	0x3d098aa7	0.033579495
227	0xbe0c881d	-0.13723798
228	0x3df1753d	0.117899396
229	0xbe51b0b5	-0.20477565
230	0x3e2650c3	0.16241746
231	0x3dacc237	0.08435481
232	0xbcec7b4c	-0.028867386
233	0xbd94a0b0	-0.07257211
234	0x3dba8ffa	0.091094926
235	0x3d569cd8	0.05239567
236	0x3df31c7c	0.11870667
237	0xbd5889f8	-0.052865952
238	0xbd0584ec	-0.032597467
239	0x3cc3fe3c	0.02392494
240	0x3cefcd02	0.02927256
241	0x3e09d59e	0.13460395
242	0xbc39a6ea	-0.011331299
243	0xbdb7a90a	-0.089677885
244	0xbe5e04ad	-0.21681471
245	0xbcf367d6	-0.029712599
246	0xbdb7ff8c	-0.089842886
247	0x3ddb4cb3	0.107079886
248	0xbc46ac2f	-0.012126013
249	0xbd07d487	-0.033161666
250	0xbc4eeb2a	-0.01262931
251	0xbd3fd033	-0.046829414
252	0x3e105dc1	0.14098264
253	0x3c884db9	0.016638624
254	0x3e07f45b	0.13276808
255	0xbd09d434	-0.03364964

main.12.weight f4 [90, 180]
0	0xbd2f8767	-0.04285374
1	0xbeca08bc	-0.3945979
2	0x3d8e4374	0.069464594
3	0x3e096a56	0.1341947
4	0xbdbb4cc0	-0.09145498
5	0xbcd0a69e	-0.025470074
6	0xbd1f38e6	-0.038872622
7	0x3e546c0f	0.20744346
8	0x3d80c8bb	0.06288286
9	0xbe3963be	-0.18104455
10	0x3d23e3b8	0.04001209
11	0xbd6c91df	-0.0577563
12	0x3dca78cc	0.098863214
13	0x3e235e57	0.15953957
14	0x3b4e2d33	0.0031460046
15	0xbe0c9d0a	-0.1373178
16	0xbd791a25	-0.06081595
17	0xbe0d8ce4	-0.13823277
18	0xbe68bf73	-0.22729282
19	0xbe98f053	-0.29870853
20	0x3ca89cbb	0.020582547
21	0xbec673b6	-0.38760155
22	0xbd8f6563	-0.0700176
23	0x3c429b5c	0.011877861
24	0xbe34e0bb	-0.17663853
25	0xbdc7521d	-0.09732459
26	0xbe6f9313	-0.23395948
27	0xbb94f31e	-0.0045455834
28	0x3d16152d	0.03664129
29	0xbd83ea81	-0.064412124
30	0x3d12499c	0.03571473
31	0xbdb17065	-0.08664016
32	0x3c3b11f3	0.011417854
33	0xbcd588ca	-0.026066203
34	0x3d43bd81	0.047788147
35	0xbe6a1184	-0.22858244
36	0xbdddf393	-0.10837474
37	0xbd9ec57e	-0.077525124
38	0x3d1ce660	0.03830564
39	0xba340e0a	-0.0006868547
40	0x3da5ddc6	0.080989406
41	0xbe05eb9a	-0.13078156
42	0xbd654816	-0.05597695
43	0x3d8393f9	0.06424708
44	0xbe25790a	-0.16159454
45	0xbca8c128	-0.020599917
46	0xbc9e3fa6	-0.01931746
47	0xbba78b5c	-0.0051130485
48	0xbdfb09c8	-0.12257725
49	0xbe414b6c	-0.18876427
50	0xbd5a1b3e	-0.053248636
51	0x3b0efa49	0.0021816662
52	0xbd1abf99	-0.037780378
53	0x3e69d559	0.22835292
54	0x3de7cb6e	0.11318098
55	0xbd461cf1	-0.048367444
56	0x3c67e0d4	0.014152724
57	0x3e86629e	0.26247114
58	0x3ca68365	0.020326326
59	0xbe21b6c1	-0.15792371
60	0x3d96c11d	0.07361052
61	0xbde1ab9f	-0.11019062
62	0xbe02941f	-0.12751816
63	0xbd641cab	-0.055691402
64	0xbdc27f0b	-0.09496888
65	0xbdc35033	-0.09536781
66	0xbd4fe8ff	-0.05075931
67	0xbb9a6b79	-0.004712519
68	0x3e0a64dd	0.13515039
69	0x3cc96dab	0.024588427
70	0x3dbfd09a	0.093659595
71	0x3c451432	0.012028741
72	0xbca39afb	-0.019971361
73	0xbe96d5e1	-0.29460052
74	0xbe5496c9	-0.20760645
75	0xbe42dbff	-0.19029234
76	0x3e0c4930	0.13699794
77	0x3c08aa2d	0.008341354
78	0x3d0a82cc	0.033816144
79	0xbe07a70c	-0.13247317
80	0xbc988d1c	-0.018621974
81	0xbdaec11d	-0.08532927
82	0xbd167e32	-0.036741443
83	0xbe36e90f	-0.17862342
84	0x3d5e575e	0.05428254
85	0xbd22dbde	-0.039760463
86	0xbd366463	-0.04452933
87	0x3e32e628	0.1747061
88	0xbd9e2fe8	-0.07723981
89	0xbde2089a	-0.11036797
90	0x3dcd9f5c	0.10040161
91	0xbcca22f0	-0.024674863
92	0xbda2e876	-0.07954495
93	0xbd8fa3ad	-0.070136406
94	0xbe9fa08e	-0.3117718
95	0x3b42b326	0.0029708832
96	0xbd81ee15	-0.06344239
97	0xbdb26c76	-0.087120935
98	0x3d5a661a	0.053320028
99	0xbe838122	-0.25684458
100	0xbeb33ceb	-0.35007414
101	0x3dbf736a	0.09348185
102	0xbc9742ef	-0.018464534
103	0xbd8bf359	-0.06833524
104	0xbe01489e	-0.12625358
105	0xbcf87c15	-0.030332604
106	0xbdee9028	-0.116485894
107	0xbc9c4482	-0.019075636
108	0x3dd5a28c	0.10431394
109	0xbe1a8e3c	-0.1509332
110	0x3c09e5a5	0.008416568
111	0xbd50bcfa	-0.050961472
112	0xbccba36e	-0.024858203
113	0xbecb9773	-0.39763984
114	0xbc0099e2	-0.0078491885
115	0x3d39cbc7	0.045360353
116	0xba1018d4	-0.0005496864
117	0xbe45dea6	-0.19323215
118	0x3c51a819	0.012796425
119	0x3c305b30	0.010763928
120	0x3d0ca1cc	0.03433399
121	0x3d10d795	0.035361845
122	0xbddb0c14	-0.10695663
123	0x3d9bdab1	0.076100715
124	0x3d8ca18d	0.06866751
125	0xbcbb1009	-0.022834795
126	0xbd681ad2	-0.056666203
127	0xbdb54e66	-0.08852844
128	0x3b565ea7	0.0032710226
129	0x3d288bbd	0.04114889
130	0x3cc75156	0.024330776
131	0xbd5798d4	-0.052635983
132	0xbde6c56e	-0.112681255
133	0xbd6a928f	-0.057268675
134	0xbdccff97	-0.100096874
135	0xbc02db66	-0.007986879
136	0xbea94d2b	-0.33066687
137	0xbe0f8fae	-0.14019653
138	0xbc256288	-0.010094292
139	0x3c7713a7	0.015080369
140	0xbd71fd39	-0.059079383
141	0x3d252309	0.040316615
142	0x3c5c7b97	0.0134572005
143	0x3d9957f8	0.07487482
144	0xbe2ef0fc	-0.17084116
145	0x3d92a0d8	0.07159585
146	0x3dbfd18c	0.0936614
147	0xbd3503c4	-0.044193044
148	0xbe7ed26c	-0.24884957
149	0xbe05fd4f	-0.13084911
150	0xbe105f7d	-0.14098926
151	0xbe51fb39	-0.2050599
152	0xbdbdadf3	-0.09261694
153	0x3dc0575c	0.093916625
154	0xbd2adae2	-0.04171265
155	0xbe587864	-0.21139675
156	0xbd66d420	-0.056354642
157	0x3d633ff0	0.055480897
158	0x3dabe80a	0.08393867
159	0xbea22666	-0.3166992
160	0xbd801ec7	-0.0625587
161	0xbdbdace8	-0.09261495
162	0xbcd366f2	-0.025805924
163	0xbd764581	-0.060124878
164	0x3dfed5b1	0.12443102
165	0xbd9ad04f	-0.07559263
166	0xbcd23739	-0.025661098
167	0x3e002d86	0.12517366
168	0x3dc06b89	0.09395511
169	0xbcd801c1	-0.026368024
170	0x3de4755b	0.11155196
171	0x3ab36734	0.0013687373
172	0xbdd601c5	-0.10449556
173	0xbc9a9742	-0.018870953
174	0x3cf46460	0.029833019
175	0xbd335adf	-0.043787833
176	0xbd88c978	-0.06679052
177	0xbc4fb8b2	-0.012678312
178	0xbdc4f50c	-0.096170515
179	0x3df0c383	0.11756041
180	0xbd5f2f07	-0.05448821
181	0x3d0a3745	0.033744115
182	0xbc0880e8	-0.008331515
183	0x3d6d3929	0.05791584
184	0xbe09cb31	-0.13456418
185	0x3ccd4326	0.025056433
186	0xbd00618f	-0.03134304
187	0xbd8a88aa	-0.06764348
188	0xbd9df1f2	-0.07712163
189	0x3d5d93ac	0.05409591
190	0xbd216e2f	-0.03941172
191	0x3b46b19b	0.0030318263
192	0xbdf40cfc	-0.11916539
193	0xbd001dad	-0.0312783
194	0xbcda64a6	-0.026659321
195	0x3d91a382	0.07111265
196	0x3d204f4f	0.039138135
197	0xbd63d533	-0.055623244
198	0x3cae1d75	0.02125428
199	0x3c84a5a8	0.016192272
200	0xbc7dda09	-0.015493878
201	0xbd1b0be9	-0.037853155
202	0x3ca9d13d	0.020729655
203	0xbe7f221f	-0.2491536
204	0x3d8ae4d4	0.06781927
205	0xbda693bc	-0.08133647
206	0xbcf73f74	-0.030181624
207	0x3b7df887	0.003875287
208	0x3d467f5f	0.048461314
209	0xbd163beb	-0.036678236
210	0x3dd3c0c8	0.103395045
211	0x3cdf8cf6	0.027288895
212	0x3d9755b6	0.07389395
213	0xbcaef883	-0.021358734
214	0x3bba12c7	0.005678508
215	0x3da56f67	0.08077889
216	0x3cb9ac8d	0.022665286
217	0xbd04e798	-0.032447428
218	0xbc345ebb	-0.011008914
219	0x3bd0f862	0.006377266
220	0xbe2daa23	-0.16959433
221	0x3d393efe	0.04522609
222	0x39a9d2e3	0.00032391315
223	0x3d37024f	0.044679936
224	0x3d1dfb8f	0.038569983
225	0x3d95ebac	0.073203415
226	0x3bf6ee07	0.0075356993
227	0xbe07108a	-0.13189903
228	0x3dd726f1	0.10505474
229	0xbd8adc07	-0.06780248
230	0x3d19fc49	0.037594113
231	0xbc978311	-0.018495115
232	0xbd19f4ca	-0.037586965
233	0xbe3a90c3	-0.18219285
234	0xbd09cb91	-0.0336414
235	0x3d530fda	0.05152879
236	0x3da9a38d	0.08283148
237	0xbdebd107	-0.11514478
238	0x3cdb5678	0.02677463
239	0xbdb16b67	-0.086630635
240	0xba39acdd	-0.00070829486
241	0xbdf4bd11	-0.11950124
242	0xbe02f056	-0.12786993
243	0x3d6da1c8	0.058015615
244	0xbd3c1ab8	-0.04592392
245	0xbaafb04d	-0.0013403982
246	0x3bf03135	0.0073300847
247	0x3d959f5c	0.07305786
248	0xbca15b9b	-0.019697001
249	0x3cdda952	0.027058277
250	0xbd42b2f8	-0.04753396
251	0x3d1e3cc2	0.038632162
252	0x3d3c8c42	0.046032198
253	0xbcd5fd9b	-0.026121905
254	0xbb6a24b8	-0.0035727452
255	0x3cb4a748	0.022052422

main.14.weight f4 [45, 90]
0	0x3ad80f26	0.0016484007
1	0xbe11c61f	-0.14235733
2	0xbdd559dc	-0.1041753
3	0x3e36f013	0.17865019
4	0xbdc25017	-0.09487932
5	0x3d255c27	0.040371086
6	0x3e6d76e7	0.23189889
7	0xbe43c087	-0.19116412
8	0xbe8f98d0	-0.28046274
9	0x3d2ea9df	0.04264247
10	0xbb86ba0c	-0.004111534
11	0x3d953d0c	0.072870344
12	0xbd80ad8f	-0.06283104
13	0xbe250afd	-0.16117473
14	0xbd06dfdb	-0.03292833
15	0xbd88ac56	-0.066734955
16	0x3da02660	0.078198195
17	0xbe2d91b9	-0.1695012
18	0xbe1e2c5a	-0.15446606
19	0xbe45b53f	-0.19307421
20	0xbde66b0f	-0.112508886
21	0x3e305beb	0.17222564
22	0xbd5e66af	-0.054297145
23	0x3d809b98	0.06279677
24	0xbb9cbe19	-0.0047834036
25	0x3db30de1	0.087428816
26	0x3e3d6681	0.18496133
27	0x3d6df466	0.058094405
28	0xbbf5c75e	-0.007500573
29	0xbd091136	-0.03346368
30	0xbcea1716	-0.028575461
31	0x3d3275dd	0.043569434
32	0xbaba489c	-0.0014212313
33	0x3e1df1ff	0.15424345
34	0xbe1019a2	-0.14072278
35	0xbde0a897	-0.10969656
36	0x3d88aa0e	0.0667306
37	0xbc4acbb3	-0.012377667
38	0x3c5594ed	0.013035995
39	0xbd6afe53	-0.05737145
40	0x3e5732b0	0.2101543
41	0xbd6841ad	-0.05670326
42	0x3d27c922	0.0409633
43	0x3dcf990a	0.10136612
44	0xbdc85c6b	-0.09783252
45	0x3d909779	0.07060141
46	0xbd2986eb	-0.041388433
47	0x3e57f37f	0.2108898
48	0xbc0b7e02	-0.008513929
49	0x3d947e3f	0.07250642
50	0x3e448cc0	0.19194317
51	0x3e015fa0	0.12634134
52	0x3dcb1911	0.099168904
53	0xbdf3dfb1	-0.119079
54	0x3dedb556	0.11606853
55	0xbdb9b05c	-0.09066841
56	0x3d478460	0.048710227
57	0x3e063fe1	0.13110305
58	0xbe12e318	-0.14344442
59	0x3dd60330	0.10449827
60	0xbe2f1a46	-0.17099866
61	0xbd83239e	-0.06403278
62	0xbce1730d	-0.02752068
63	0xbda4aedb	-0.080411635
64	0xbdc90015	-0.09814469
65	0x3d78351d	0.060597528
66	0xbe02f3d3	-0.12788324
67	0x3d0626e8	0.032751948
68	0xbdca04df	-0.0986421
69	0xbd89d3fd	-0.06729887
70	0x3d12fe73	0.035887193
71	0x3de3a6fe	0.111158356
72	0x3e67c439	0.22633447
73	0x3e14d117	0.14532886
74	0xbdce056d	-0.10059629
75	0x3e010836	0.12600788
76	0x3d8562c8	0.06512982
77	0x3e2b78f0	0.16745353
78	0xbd48352a	-0.048878826
79	0xbd51b6de	-0.051199786
80	0x3d335cfa	0.04378984
81	0x3e5f2075	0.21789725
82	0x3d489557	0.048970547
83	0xbdd2dfbc	-0.1029658
84	0x3e2464c4	0.16054064
85	0x3d236cff	0.03989887
86	0xbdc9d4eb	-0.09855064
87	0xbd9d61ee	-0.07684694
88	0xbd7fed4e	-0.06248217
89	0xbdaa30f0	-0.08310115
90	0xbdd5f692	-0.1044742
91	0x3e225411	0.15852381
92	0xbd81787a	-0.06321807
93	0xbd944112	-0.07238974
94	0x3d86f4db	0.06589671
95	0x3d082e93	0.03324754
96	0xbd0865ba	-0.03330014
97	0x3df7c85a	0.12098761
98	0xbde9f7e9	-0.11424238
99	0xbd31d4bc	-0.04341577
100	0x3e11dc5d	0.14244218
101	0xbbba297f	-0.0056812163
102	0x3df430c4	0.11923364
103	0x3d37caf7	0.044871297
104	0x3de72272	0.11285867
105	0xbdab12b8	-0.0835318
106	0xbe9c4c1a	-0.3052681
107	0x3e9bbf50	0.30419397
108	0x3e96b813	0.29437312
109	0x3de5210e	0.11187945
110	0xbd7db415	-0.061939318
111	0x3d4f85d8	0.050664753
112	0x3d1bb3ca	0.038013257
113	0xbe17a3f5	-0.14808638
114	0x3d51e826	0.051246785
115	0xbe1f5ca3	-0.15562682
116	0x3c03382d	0.008008999
117	0xbd8ca9a6	-0.06868295
118	0xbe0d15e6	-0.13777885
119	0x3de28487	0.11060434
120	0xbddb73b3	-0.10715427
121	0x3e029eab	0.1275584
122	0xbdadf7c4	-0.08494523
123	0x3b51b846	0.0032000705
124	0x3deb135e	0.114783034
125	0x3cc3f322	0.023919646
126	0xbe5dfe15	-0.21678956
127	0x3bb757bf	0.005595177
128	0xbe2b8e50	-0.16753507
129	0x3e261fb9	0.16223039
130	0xbd99d0c5	-0.07510523
131	0x3d92e6c8	0.07172924
132	0xbd8cad34	-0.068689734
133	0x3c910bc0	0.017705798
134	0x3dd6eb56	0.104941055
135	0xbdcbbdf2	-0.099483386
136	0x3e1ef079	0.1552142
137	0xbbe782e1	-0.0070651625
138	0xbda93f20	-0.08263993
139	0x3e213df0	0.15746284
140	0x3b73e704	0.0037216553
141	0xbd74a06e	-0.05972331
142	0xbe0e65a4	-0.1390596
143	0x3bda0bc2	0.0066542337
144	0xbde007f7	-0.10939019
145	0x3d40f112	0.047104903
146	0xbe124612	-0.14284542
147	0xbd800414	-0.06250778
148	0x3e88ce6b	0.26719984
149	0xbee1140a	-0.439606
150	0xbd8a9204	-0.067661315
151	0x3e5a4279	0.2131442
152	0x3c1372a5	0.008999501
153	0xbe1c6e34	-0.15276414
154	0x3e4c8093	0.19970922
155	0xbe138db9	-0.14409532
156	0xbda9e51e	-0.08295654
157	0xbb483d6b	-0.0030554186
158	0x3da7df68	0.08196908
159	0xbdc3ff67	-0.095701985
160	0xbe998d69	-0.299907
161	0xbe20fa12	-0.15720394
162	0xbdbd816e	-0.092532024
163	0xbde44fba	-0.11148019
164	0x3e19c5b1	0.1501682
165	0xbea1247d	-0.3147315
166	0xbe1ad32a	-0.15119615
167	0xbe75a99c	-0.23990482
168	0x3d88ea00	0.06685257
169	0xbc91e1bf	-0.01780784
170	0xbe22c079	-0.15893735
171	0xbde62279	-0.11237044
172	0xbd8ac546	-0.06775908
173	0x3a103ad7	0.0005501932
174	0xbe1a9d38	-0.15099037
175	0xbc51ab7f	-0.0127972355
176	0x3dd8b81e	0.105819926
177	0x3d212c81	0.039349083
178	0xbd979262	-0.07400967
179	0x3dfc58ef	0.1232165
180	0x3df2df39	0.118589826
181	0xbd82be14	-0.06383911
182	0x3c47e14c	0.012199711
183	0x3e6791ef	0.22614263
184	0x3e1289f6	0.1431044
185	0xbd9290ac	-0.071565
186	0x3e47cd41	0.19511892
187	0x3da84f1e	0.082182154
188	0xbda4ead3	-0.08052602
189	0x3e176f22	0.14788488
190	0x3dada77e	0.08479212
191	0x3cec26d7	0.028827114
192	0xbcf77ab2	-0.030209873
193	0xbe272f90	-0.16326737
194	0xba636a14	-0.00086751697
195	0xbd13a3ed	-0.036045004
196	0x3cc10ed2	0.023566637
197	0x3e04dc02	0.12974551
198	0xbd8f4a6b	-0.06996616
199	0xbdb76cb7	-0.089562826
200	0xbd519532	-0.051167674
201	0x3dea3fb4	0.11437932
202	0x3d129ec6	0.03579595
203	0x3cb69186	0.022286188
204	0x3d1b4577	0.037908044
205	0x3e9cdc7e	0.30636972
206	0x3e7b662b	0.24550693
207	0x3e322f75	0.17400916
208	0x3e35736d	0.17719813
209	0x3dd05b76	0.10173695
210	0x3d2c64f1	0.042088453
211	0xbdb49da0	-0.08819127
212	0x3d9c942f	0.07645451
213	0x3e8a622b	0.2702802
214	0x3d02af31	0.031905357
215	0xbacd1903	-0.0015647713
216	0x3dfaf6e2	0.122541204
217	0x3dcf9ae1	0.10136963
218	0x3df2cd25	0.118555345
219	0xbc658877	-0.014009587
220	0x3e371746	0.17879972
221	0xbd8c3c51	-0.06847442
222	0xbdd310db	-0.10305949
223	0x3d345856	0.044029556
224	0x3de29df9	0.11065287
225	0x3de647c7	0.11244159
226	0xbcd7f509	-0.026361959
227	0x3e834998	0.25642085
228	0xbcfcb464	-0.030847736
229	0xbc3c15c4	-0.011479799
230	0x3e6a54d5	0.22883923
231	0x3e70cbb7	0.23515211
232	0x3e4e2250	0.20130277
233	0xbc926ba0	-0.017873585
234	0xba123132	-0.00055767887
235	0xbc38224e	-0.011238648
236	0x3dcbe0b9	0.09954972
237	0x3dbfaa69	0.09358675
238	0x3dd33746	0.10313277
239	0x3e5b4dd2	0.21416405
240	0xbd736250	-0.05941993
241	0xbda1e235	-0.07904474
242	0xbb5de57a	-0.0033858703
243	0x3ddab5cf	0.106792085
244	0xbe1c2d87	-0.15251742
245	0xbcd4538b	-0.025918743
246	0x3d347262	0.044054396
247	0xbbc96ae3	-0.006146775
248	0xbc149543	-0.00906879
249	0x3de7f751	0.11326469
250	0x3def1735	0.11674348
251	0x3e6417db	0.22274725
252	0x3e409e32	0.18810347
253	0x3e6bfc92	0.23045567
254	0xbdae4117	-0.08508509
255	0xbd78abdd	-0.060710777
