src/models/penneAlPesto3.pth (torch, 413042 bytes, 15 tensors)

main.0.weight f4 [10, 3, 4, 4]
0.04383285 0.0008482598 -0.08170493 0.12762277 -0.08486902 -0.0959791 0.0703723 0.08556719
-0.029821206 0.122278415 -0.091947 -0.046628147 0.023028305 -0.1524346 -0.0582312 -0.020610033
-0.012915563 -0.03287663 -0.11068067 -0.09860919 -0.11075033 -0.019804144 0.024159906 -0.07483338
-0.090605006 -0.0063886135 0.12054218 -0.09559786 -0.105607755 0.01867092 -0.13672462 -0.030601049
-0.008694638 -0.11323664 -0.09750142 -0.13191257 0.045514718 0.020795098 0.079507545 0.120109625
0.076516226 -0.07633601 0.049239855 -0.038678158 0.07974749 0.039038695 0.03474799 -0.028997168
-0.044787925 -0.058822952 0.14122082 -0.10480079 0.039100084 -0.11153818 0.12528673 0.026873456
0.07139625 0.0020662223 0.05302931 0.09190778 0.074893326 0.062705904 0.012793923 -0.039574247
-0.0033151382 0.021078214 -0.053048886 -0.030406067 0.03484927 -0.13208905 0.048169084 0.036515243
-0.12817444 0.047438078 -0.032873005 0.08004938 -0.040763635 -0.09788338 0.022423722 -0.015149658
0.09231633 0.082103215 -0.04075218 0.15412666 0.10301401 0.12467389 0.013525106 -0.0884186
0.07498905 -0.1252667 0.112241335 -0.09659251 0.07678523 0.1205093 0.027973836 -0.110049285
-0.10663368 -0.021362714 -0.13049059 0.10069143 -0.025077384 -0.09331112 -0.11961594 0.10957566
-0.037026227 -0.030943437 0.06880627 0.089476116 -0.11791246 -0.034652013 0.0025219053 -0.06368371
0.0114371525 -0.02944178 -0.1131846 0.07977192 -0.0064149527 -0.0279602 -0.047972385 0.08463347
-0.07486692 -0.12204184 0.02916704 0.094352104 -0.13153861 -0.059545353 -0.062121544 -0.07346265
-0.05217531 0.053485174 -0.121863246 -0.0013122696 -0.060341552 0.027139122 -0.059687056 -0.054546043
0.019063588 0.04455786 -0.07342835 0.051303003 0.09102766 -0.00061467726 0.03258669 0.10528225
0.05119447 -0.06892078 -0.10759362 -0.03085615 -0.09164297 0.091737986 -0.06242058 0.076622315
-0.009198099 -0.0018752667 -0.061543167 -0.06295325 -0.11089419 -0.0023708388 -0.106721625 -0.027523007
0.086054556 -0.098871455 -0.08784503 0.054658547 0.08798064 -0.036998108 0.09685556 -0.015668679
0.1353543 -0.086066864 -0.08448758 -0.020408617 0.093246005 -0.06947372 -0.009234389 0.050797015
-0.10727557 0.16013542 0.1243852 -0.09752706 0.020731049 0.040276777 0.041722436 0.039902054
0.00018667523 0.08149714 0.019336736 0.044568036 -0.031328 0.12255332 -0.015270187 -0.03969648
-0.0048305634 0.107365035 0.051163018 -0.108339466 -0.10390142 -0.14311175 -0.1540799 -0.14767903
0.012251828 0.013764107 -0.11793126 -0.081619844 -0.020386137 -0.051455468 0.13188882 0.1789036
0.020256644 0.044711143 -0.01841195 0.14325114 -0.0064548147 0.10501067 -0.03609142 -0.04135
-0.12688461 -0.14300838 0.020864801 0.032535266 0.02743297 -0.0478947 0.039458316 -0.038067363
-0.04723008 -0.0032566907 -0.08114803 0.09410044 -0.10942697 -0.1471808 -0.108614065 -0.0017845008
-0.10291384 -0.08532427 -0.07357816 -0.08080069 0.059481673 0.14159016 -0.10229506 -0.058537126
0.106246196 0.09919412 0.0009380449 0.09931817 -0.051383696 0.102131285 -0.14852498 0.14503182
-0.04836805 0.07631956 -0.051311936 0.08170847 -0.027205288 -0.047832344 0.08061298 0.08417637
00000000: 138a 333d c05d 5e3a ea54 a7bd 8baf 023e
00000010: cfcf adbd b190 c4bd 5a1f 903d da3d af3d
00000020: 9a4b f4bc 1b6d fa3d b54e bcbd 28fd 3ebd
00000030: dba5 bc3c d117 1cbe d783 6ebd 5fd6 a8bc
00000040: cc9b 53bc a5a9 06bd 8cac e2bd 9df3 c9bd
00000050: 12d1 e2bd 4d3c a2bc ffea c53c 3e42 99bd
00000060: 1e8f b9bd 9357 d1bb d2de f63d d0c8 c3bd
00000070: e148 d8bd c2f3 983c 8a01 0cbe 0daf fabc
00000080: f473 0ebc 9de8 e7bd d3ae c7bd 1714 07be
00000090: a46d 3a3d 7b5a aa3c dad4 a23d 09fc f53d
000000a0: 8ab4 9c3d 0e56 9cbd bbaf 493d fd6c 1ebd
000000b0: a752 a33d 0ae7 1f3d e953 0e3d 788b edbc
000000c0: 8b73 37bd 56f0 70bd 319c 103e cca1 d6bd
000000d0: 6927 203d 216e e4bd 2a4b 003e b925 dc3c
000000e0: 3238 923d 7569 073b 4335 593d 253a bc3d
000000f0: ac61 993d f46b 803d 9a9d 513c 9b18 22bd
00000100: ca42 59bb 38ac ac3c ca49 59bd 2516 f9bc
00000110: 1cbe 0e3d 5a42 07be f24c 453d 0291 153d
00000120: 2940 03be 6e4e 423d d8a5 06bd eef0 a33d
00000130: c5f7 26bd 1577 c8bd f4b1 b73c 4536 78bc
00000140: 5810 bd3d bb25 a83d c2eb 26bd 61d3 1d3e
00000150: 02f9 d23d 0655 ff3d 6898 5d3c d014 b5bd
00000160: dc93 993d ea45 00be c9de e53d 4bd2 c5bd
00000170: 9341 9d3d 94cd f63d 6329 e53c 8561 e1bd
00000180: c262 dabd dc00 afbc 539f 05be 4f37 ce3d
00000190: 166f cdbc e719 bfbd 34f9 f4bd 3469 e03d
000001a0: d0a8 17bd 177d fdbc 4dea 8c3d 413f b73d
000001b0: 167c f1bd 45ef 0dbd 8d46 253b 9b6c 82bd
000001c0: e562 3b3c e32f f1bc 54cd e7bd 765f a33d
000001d0: 8634 d2bb ca0c e5bc b17e 44bd 5054 ad3d
000001e0: d453 99bd 12f1 f9bd b7ef ee3c ad3b c13d
000001f0: 0fb2 06be d4e5 73bd 2973 7ebd 9673 96bd
00000200: c7b5 55bd 4513 5b3d 7093 f9bd 7600 acba
00000210: b428 77bd dd52 de3c 6a7a 74bd ac6b 5fbd
00000220: 3e2b 9c3c 4d82 363d 9a61 96bd 1923 523d
00000230: b66c ba3d 4b22 21ba 9f79 053d 389e d73d
00000240: 4bb1 513d 5726 8dbd 0b5a dcbd 09c6 fcbc
00000250: 4faf bbbd 20e1 bb3d b9ac 7fbd 29ec 9c3d
00000260: a0b3 16bc 82cb f5ba b014 7cbd a2ed 80bd
00000270: 7e1c e3bd 1360 1bbb de90 dabd ee77 e1bc
00000280: 5f3d b03d 1e7d cabd 18e8 b3bd a4e1 5f3d
00000290: 322f b43d 548b 17bd 355c c63d 9a5b 80bc
000002a0: 519a 0a3e d343 b0bd d307 adbd f92f a7bc
000002b0: c3f7 be3d 3d48 8ebd d64b 17bc 8810 503d
000002c0: 4bb3 dbbd 8afa 233e abbd fe3d 44bc c7bd
000002d0: 29d4 a93c 43f9 243d 25e5 2a3d 5670 233d
000002e0: 40be 4339 f9e7 a63d 1368 9e3c f98c 363d
000002f0: ca51 00bd 3cfd fa3d ce2f 7abc c798 22bd
00000300: b449 9ebb 33e2 db3d 5090 513d 15e1 ddbd
00000310: 45ca d4bd e38b 12be 1fc7 1dbe 2c39 17be
00000320: e4bb 483c d982 613c f285 f1bd 4e28 a7bd
00000330: d400 a7bc f8c2 52bd dd0d 073e 8132 373e
00000340: 43f1 a53c 0823 373d a8d4 96bc 6db0 123e
00000350: e982 d3bb d60f d73d 99d4 13bd 9e5e 29bd
00000360: 0aee 01be ca70 12be a9ec aa3c b343 053d
00000370: 1cbb e03c 3c2d 44bd 0b9f 213d 86ec 1bbd
00000380: 5474 41bd 346e 55bb f030 a6bd bbb7 c03d
00000390: 3f1b e0bd 90b6 16be 0d71 debd e9e5 e9ba
000003a0: 7ec4 d2bd 7ebe aebd 25b0 96bd d57a a5bd
000003b0: 0ea3 733d 03fd 103e 1380 d1bd a0c4 6fbd
000003c0: 9b97 d93d 4926 cb3d 21e7 753a 5367 cb3d
000003d0: b677 52bd 352a d13d ef16 18be 3983 143e
000003e0: 941d 46bd 6e4d 9c3d 772c 52bd c556 a73d
000003f0: a0dd debc d9eb 43bd 6b18 a53d a964 ac3d

main.3.weight f4 [20, 10, 4, 4]
0.020014973 -0.04257353 0.051456757 0.013905616 0.076971546 0.06866573 0.0059574093 0.032330018
0.0468849 -0.035077468 -0.030554568 -0.04908927 -0.03277902 0.017059542 0.016988024 -0.0368107
-0.07533435 0.045636803 0.00031743993 0.0115396 -0.0033876973 -0.070147455 0.028691173 0.020786436
0.073217735 -0.004693117 -0.0029362056 0.010122343 -0.028140105 0.019411674 -0.043538377 0.002178214
0.097704135 -0.023740819 0.065674454 -0.030313058 -0.024087226 0.024345286 0.0039226003 0.054235447
0.072170205 0.009060626 -0.012357295 -0.038055178 -0.0009180963 -0.031957157 0.037641346 -0.024407994
-0.007066165 0.028397864 0.010132361 -0.060704626 -0.035230603 -0.0813618 -0.011409471 0.0007040059
0.037604287 0.042775 0.028674817 0.0013934033 -0.004647004 0.05628315 -0.052151576 -0.06967955
0.016306758 -0.044576734 0.05658647 -0.024151592 -0.04757266 -0.08582863 -0.06852371 -0.006770183
-0.0016682713 -0.043491926 -0.03632346 0.009357065 -0.039452065 -0.025037415 0.057941534 0.055395123
0.017535374 -0.07645396 -0.04400773 0.005433742 -0.04228127 -0.017387113 -0.060402956 -0.0051251156
0.033684187 0.08653072 0.015642691 0.076658204 0.026599193 0.041585147 -0.08473892 -0.023150703
-0.021973478 -0.042997506 -0.02665686 0.000583514 -0.065588154 -0.0272468 0.06080386 -0.011853404
0.0032266164 -0.031472947 -0.056853242 0.0807188 -0.038465336 -0.052537374 -0.072911136 0.024311194
0.024371756 -0.012467773 0.05687114 0.053269215 -0.073221155 -0.076413706 -0.07307082 -0.037693843
-0.03636672 0.057704225 0.0112477755 -0.06284267 -0.0793069 -0.018030144 0.024888156 0.013453911
-0.035951003 -0.033128656 -0.010976846 -0.0076048784 -0.08464282 0.051773578 -0.053894404 -0.045050353
-0.04933349 0.0015488974 0.048441157 0.103075236 -0.040152147 -0.05225726 -0.12047484 -0.015470393
-0.037619296 -0.020732507 -0.016854813 -0.006097051 0.09465068 -0.05609071 -0.08983074 0.051821124
0.050441183 -0.008534538 0.07689026 0.09001039 -0.076596305 0.03796631 -0.014451665 -0.04903048
-0.04232866 0.028486395 -0.043869138 -0.037750557 0.011181362 -0.004160588 0.039867062 0.028746359
-0.03766812 0.031604275 -0.06911504 -0.07876145 0.0077191065 0.058936898 -0.007559753 0.0436873
-0.004545718 -0.055670235 -0.002388063 0.0019221153 0.0040688585 -0.058549024 0.004711792 0.021056997
0.016814977 0.022418404 0.060315683 -0.00047020975 -0.037161447 0.03219576 0.07979977 0.08073285
0.058698505 -0.08535489 0.05654655 0.05930041 0.019307358 0.049817048 -0.05853349 -0.011512839
-0.04000144 -0.10597766 0.030067187 0.012839291 -0.017343225 0.043213975 0.050592624 -0.04798242
0.019429507 0.010068307 0.021074248 -0.03677002 0.02459837 0.00038424248 0.04328503 -0.01458419
-0.021122176 -0.035369195 -0.04412059 0.040734403 -0.064153604 0.03625964 0.041371953 -0.050386127
-0.081684604 -0.028653825 -0.06976186 -0.04992743 -0.077545255 0.061042935 0.005369031 0.02119766
-0.046317372 0.041356105 0.023552509 0.010625053 0.0438034 -0.08559036 0.021109594 0.050782267
-0.039108153 -0.051028904 -0.023945294 -0.08246689 -0.09178673 0.012482172 0.05023425 0.035255793
-0.084462345 -0.0043684207 0.06842613 0.05397919 0.059999533 -0.036692545 0.0075828633 0.09342564
00000000: 71f6 a33c 9561 2ebd 52c4 523d 61d4 633c
00000010: 42a3 9d3d 9ea0 8c3d 5f36 c33b 7b6c 043d
00000020: 620a 403d 64ad 0fbd 934d fabc d511 49bd
00000030: 4b43 06bd 74c0 8b3c 782a 8b3c d1c6 16bd
00000040: e548 9abd a8ed 3a3d 116e a639 9710 3d3c
00000050: 2104 5ebb 78a9 8fbd c009 eb3c 5148 aa3c
00000060: 2ef3 953d b8c8 99bb 5b6d 40bb 2fd8 253c
00000070: 1486 e6bc 3b05 9f3c 4c55 32bd 5ec0 0e3b
00000080: 1b19 c83d 1b7c c2bc 5480 863d 1753 f8bc
00000090: 9352 c5bc c46f c73c 2889 803b fd25 5e3d
000000a0: f9cd 933d 0573 143c 4076 4abc bfdf 1bbd
000000b0: 66ac 70ba 82e5 02bd d02d 1a3d 46f3 c7bc
000000c0: 4a8b e7bb a3a2 e83c 3402 263c 6aa5 78bd
000000d0: f74d 10bd 04a1 a6bd caee 3abc 098d 383a
000000e0: f406 1a3d d734 2f3d 73e7 ea3c dba2 b63a
000000f0: e545 98bb 2989 663d e49c 55bd 27b4 8ebd
00000100: c095 853c 1896 36bd 37c7 673d 8fd9 c5bc
00000110: 8ddb 42bd ecc6 afbd 2956 8cbd 69d8 ddbb
00000120: e5a9 daba 9724 32bd e9c7 14bd 604e 193c
00000130: 7d98 21bd 441b cdbc 1a54 6d3d ffe5 623d
00000140: 58a6 8f3c e593 9cbd 7341 34bd 880d b23b
00000150: 202f 2dbd 6b6f 8ebc 1769 77bd 96f0 a7bb
00000160: 6ef8 093d 0537 b13d 1a25 803c fafe 9c3d
00000170: 8de6 d93c 3055 2a3d 998b adbd 8ba6 bdbc
00000180: b901 b4bc 271e 30bd 7d5f dabc f6f6 183a
00000190: 1553 86bd ae34 dfbc 780d 793d c834 42bc
000001a0: a475 533b c7e9 00bd f2de 68bd e64f a53d
000001b0: d48d 1dbd 6e31 57bd 6f52 95bd 4528 c73c
000001c0: 47a7 c73c a145 4cbc b6f1 683d d230 5a3d
000001d0: f9f4 95bd ca7e 9cbd 27a6 95bd dc64 1abd
000001e0: 45f5 14bd 445b 6c3d 9748 383c a8b3 80bd
000001f0: a86b a2bd f4b3 93bc 3fe2 cb3c cb6d 5c3c
00000200: 5c41 13bd eab1 07bd 3bd8 33bc 5832 f9bb
00000210: 3759 adbd 8810 543d 61c0 5cbd b886 38bd
00000220: ea11 4abd 5f04 cb3a 3c6a 463d 1c19 d33d
00000230: 9476 24bd b50b 56bd 83bb f6bd 8877 7dbc
00000240: b116 1abd 38d7 a9bc 1b13 8abc c5c9 c7bb
00000250: 37d8 c13d 5fbf 65bd 2ef9 b7bd 6342 543d
00000260: 6a9b 4e3d 72d4 0bbc a478 9d3d 5e57 b83d
00000270: 86de 9cbd 9082 1b3d adc6 6cbc 2fd4 48bd
00000280: d160 2dbd 4d5c e93c 20b0 33bd 54a0 1abd
00000290: 0832 373c 8b55 88bb a54b 233d 7c7d eb3c
000002a0: e349 1abd 7c73 013d 308c 8dbd af4d a1bd
000002b0: 8ff0 fc3b d167 713d ceb7 f7bb 74f1 323d
000002c0: 3ff4 94bb 7906 64bd 0c81 1cbb 7def fb3a
000002d0: 0f54 853b 1ad1 6fbd 6065 9a3b b97f ac3c
000002e0: 90bf 893c cda6 b73c 940d 773d 7c86 f6b9
000002f0: 9a36 18bd b4df 033d 106e a33d 4457 a53d
00000300: d86d 703d 8bce aebd 5b9d 673d fde4 723d
00000310: 772a 9e3c f60c 4c3d d0c0 6fbd 59a0 3cbc
00000320: 8dd8 23bd d10a d9bd 764f f63c e45b 523c
00000330: 6113 8ebc 2301 313d 363a 4f3d 3789 44bd
00000340: a12a 9f3c 8af5 243c e7a3 ac3c 299c 16bd
00000350: 8582 c93c 2774 c939 a54b 313d 87f2 6ebc
00000360: 6a08 adbc 4adf 10bd cbb7 34bd 1ed9 263d
00000370: f762 83bd fd84 143d a375 293d af61 4ebd
00000380: 424a a7bd 6dbb eabc 4edf 8ebd b480 4cbd
00000390: 0cd0 9ebd 2808 7a3d b2ee af3b b7a6 ad3c
000003a0: 49b7 3dbd 0565 293d 31f1 c03c b414 2e3c
000003b0: 326b 333d 004a afbd 07ee ac3c 1101 503d
000003c0: df2f 20bd af03 51bd ec28 c4bc 67e4 a8bd
000003d0: aefa bbbd 0682 4c3c 6ec2 4d3d 6168 103d
000003e0: 98fa acbd f824 8fbb 0023 8c3d 4819 5d3d
000003f0: 12c2 753d ec4a 16bd ab79 f83b f155 bf3d

main.4.weight f4 [20]
1.0120785 0.9897129 0.942139 1.0396067 1.0247192 0.98729634 1.0057789 0.9973154
0.93055874 1.0070243 0.9924309 0.97021586 1.0180829 1.0183791 1.0081065 1.0264484
0.9150954 0.9889459 1.0040951 1.0454923
00000000: ca8b 813f d35d 7d3f 0630 713f d511 853f
00000010: 002a 833f 74bf 7c3f 5dbd 803f 1050 7f3f
00000020: 1939 6e3f 2ce6 803f f40f 7e3f 1160 783f
00000030: 8a50 823f 3f5a 823f a209 813f a962 833f
00000040: b143 6a3f 8f2b 7d3f 3086 803f b1d2 853f

main.4.bias f4 [20]
-0.07728748 -0.014223925 0.041971814 -0.06342823 -0.14073902 -0.055407595 -0.035245065 -0.06602586
0.011523477 0.013370786 -0.15753214 0.11893349 -0.12379625 -0.04250641 -0.033396803 -0.14488283
0.05712297 0.0012450897 -0.028281352 -0.12952663
00000000: e648 9ebd 770b 69bc a3ea 2b3d a9e6 81bd
00000010: e41d 10be 13f3 62bd 215d 10bd 9138 87bd
00000020: f7cc 3c3c 2411 5b3c 1b50 21be 6793 f33d
00000030: e388 fdbd 341b 2ebd 16cb 08bd 2a5c 14be
00000040: c7f9 693d 4732 a33a 4bae e7bc a1a2 04be

main.4.running_mean f4 [20]
-0.0032357017 -0.0019155674 0.0041457564 -0.0029627325 -0.0037324228 -0.0020780321 -0.0032410892 -0.0024072523
0.0012461721 -0.0008342237 -0.0043860693 0.002101972 -0.0033969367 -0.0020191653 -0.0059519997 -0.004045441
0.0041902508 -0.0014206804 -0.0021807048 -0.0045197243
00000000: 110e 54bb c713 fbba 20d9 873b 672a 42bb
00000010: aa9b 74bb 982f 08bb 7468 54bb fec2 1dbb
00000020: 9956 a33a ceaf 5aba 04b9 8fbb 3dc1 093b
00000030: 249f 5ebb f953 04bb fe08 c3bb 9e8f 84bb
00000040: 5f4e 893b 2036 baba 28ea 0ebb 321a 94bb

main.4.running_var f4 [20]
1.9521874e-05 2.0384026e-05 3.4122007e-05 2.246242e-05 2.8337932e-05 1.2433695e-05 2.2146654e-05 1.1475629e-05
1.1242039e-05 2.1130068e-05 5.286079e-05 2.4331159e-05 2.202605e-05 1.950411e-05 5.2263622e-05 3.443993e-05
3.2058095e-05 2.5072464e-05 1.3483316e-05 3.9953266e-05
00000000: e8c2 a337 5dfe aa37 3a1e 0f38 ae6d bc37
00000010: 3fb7 ed37 509a 5037 94c7 b937 7487 4037
00000020: 319c 3c37 7a40 b137 d7b6 5d38 c41a cc37
00000030: 95c4 b837 c29c a337 a335 5b38 9873 1038
00000040: 1e76 0638 b552 d237 6736 6237 7e93 2738

main.6.weight f4 [40, 20, 4, 4]
0.024733994 0.019821092 -0.011553824 -0.004043437 0.036790673 -0.020770352 -0.033028834 -0.01659385
0.021605872 -0.02161865 0.034310117 -0.024148932 0.039136477 0.009243358 -0.047442075 -0.028456992
-0.0014976041 0.021379603 0.04432782 0.0434434 -0.0021628907 -0.025029825 -0.041911192 -0.04965862
-0.025557278 -0.011120647 -0.048348553 0.061587177 0.011104533 -0.0171108 -0.034518924 -0.01920037
0.004105388 -0.039597318 -0.0020488624 -0.047915507 0.054678485 -0.0032374414 -0.039929718 0.033025533
0.043367613 -0.004433354 -0.02737872 0.004039878 0.014970271 0.023808295 -0.041438334 -0.0019290771
0.04291596 -0.0021420019 -0.008838915 -0.0053985836 0.042433478 0.03438032 -0.03775867 0.018569302
-0.007758248 -0.032401588 -0.042077452 0.043414153 -0.05205273 -0.00069952634 -0.010184769 -0.05962614
-0.030852286 0.014787582 0.042300068 -0.048867766 -0.01574288 0.040223632 -0.005541706 -0.017273929
-0.050836544 -0.027636122 -0.03631786 -0.018978385 0.01073576 -0.0029502034 -0.03501578 -0.004061347
-0.0041055284 0.035496097 0.04955936 -0.055641253 0.0028020276 0.018719299 -0.024851581 0.027824422
-0.005773047 0.0055269385 -0.023031803 -0.052525196 0.025932048 -0.07187164 0.0098711 -0.06430182
-0.015840475 0.047782086 -0.02430455 0.0056367805 0.025277033 -0.0011195919 0.02383969 0.028570578
0.02072105 -0.08075393 0.0005492565 0.051535115 -0.016795902 0.022450376 -0.013736028 -0.0439049
0.031715676 -0.04560735 -0.010913501 0.007626197 0.050660174 0.037577823 0.009710095 0.043867644
-0.03364589 -0.0199729 -0.016728465 -0.008487086 0.023351684 0.019887682 0.041944202 -0.03169733
-0.0022249385 0.013943191 0.019176716 0.028642846 -0.006920928 0.024306707 0.018257381 -0.0119610345
-0.043666024 0.020168386 0.039075892 0.008080545 0.0018237019 -0.01744021 -0.049053755 -0.017671667
-0.03796824 0.050473332 0.028966082 -0.044646513 0.00454602 -0.00030997483 0.012158097 -0.032444928
-0.083078906 -0.003507456 -0.0005917756 0.03325363 -0.0068717543 -0.034239817 -0.04237513 -0.0075154784
0.01916791 -0.011514222 -0.03211305 -0.0054695425 0.016603602 -0.04455336 0.009577584 -0.028872797
-0.031443868 -0.03835447 0.016485414 -0.030982466 0.0016458886 -0.019782024 0.011459076 0.037545778
-0.016560212 -0.008257842 0.018890563 0.023634836 0.024386592 0.04207977 0.016012046 -0.033020545
-0.018914428 0.023051448 -0.0026771708 0.02675752 -0.03980925 0.0018938447 0.03050277 -0.04232398
-0.047816053 0.01533638 0.021599727 0.042566024 0.03697333 0.057149857 0.0010639024 0.030535659
0.024507336 -0.063632615 -0.03436056 -0.005834478 -0.026647162 -0.014276506 0.00079046126 -0.0067477194
0.0032755597 -0.0630093 0.056447025 -0.026042301 0.05501603 -0.031436566 0.08909403 0.0031178617
-0.028134348 -0.004506118 -0.056558907 0.023814654 -0.020328801 -0.008630494 0.0004887425 0.015299635
-0.05222964 -0.014455063 -0.021318264 0.027092837 0.04618353 -0.029229302 0.033460747 0.004983491
0.045487966 -0.036125727 0.031319365 -0.003814572 0.055589028 -0.045904297 0.01600182 0.052416593
-0.07081655 -0.015168049 0.042001884 0.02417143 -0.046293933 0.017341848 -0.002237801 0.031729855
-0.03430287 0.0136688305 -0.03465572 0.07060595 0.028890306 -0.020023692 -0.037114985 -0.035719685
00000000: f29e ca3c d85f a23c 404c 3dbc cf7e 84bb
00000010: d1b1 163d 9626 aabc 3e49 07bd d3ef 87bc
00000020: ccfe b03c 9819 b1bc c488 0c3d fbd3 c5bc
00000030: 924d 203d 7471 173c 9f52 42bd a31e e9bc
00000040: 414b c4ba 4724 af3c 1791 353d b5f1 313d
00000050: 49bf 0dbb 590b cdbc 12ab 2bbd d666 4bbd
00000060: 7f5d d1bc 6033 36bc 2209 46bd d642 7c3d
00000070: caef 353c f32b 8cbc b763 0dbd 184a 9dbc
00000080: 7e86 863b cc30 22bd 3546 06bb 0d43 44bd
00000090: 8cf6 5f3d 412b 54bb 588d 23bd c845 073d
000000a0: 3da2 313d ab45 91bb 5649 e0bc f460 843b
000000b0: de45 753c 9d09 c33c 3ebb 29bd 16d9 fcba
000000c0: a5c8 2f3d d460 0cbb 19d1 10bc 9ae6 b0bb
000000d0: bace 2d3d 61d2 0c3d d6a8 1abd a61e 983c
000000e0: e738 febb 87b7 04bd 6859 2cbd 0ad3 313d
000000f0: 3e35 55bd 6b60 37ba 04de 26bc 8a3a 74bd
00000100: efbd fcbc 9d47 723c d642 2d3d 9129 48bd
00000110: 36f7 80bc 89c1 243d 3397 b5bb 0e82 8dbc
00000120: fb39 50bd 2665 e2bc 09c2 14bd 8f78 9bbc
00000130: 0be5 2f3c 3358 41bb b56c 0fbd 0c15 85bb
00000140: ab87 86bb 5b64 113d c1fe 4a3d 15e8 63bd
00000150: 39a2 373b 3759 993c 8b95 cbbc 0bf0 e33c
00000160: d42b bdbb 521b b53b 31ad bcbc a924 57bd
00000170: 726f d43c 7031 93bd 65ba 213c acb0 83bd
00000180: e2c3 81bc 26b7 433d 561a c7bc beb4 b83b
00000190: c811 cf3c 45bf 92ba 744b c33c d80c ea3c
000001a0: 31bf a93c 5162 a5bd fbfb 0f3a 7c16 533d
000001b0: 8f97 89bc dae9 b73c 140d 61bc a0d5 33bd
000001c0: 4ce8 013d c6ce 3abd 8ace 32bc 2de5 f93b
000001d0: 0b81 4f3d 34eb 193d 1717 1f3c 8fae 333d
000001e0: 46d0 09bd 359e a3bc 220a 89bc 6b0d 0bbc
000001f0: 084c bf3c 7eeb a23c afcd 2b3d 0fd5 01bd
00000200: 46d0 11bb fb71 643c 7d18 9d3c 67a4 ea3c
00000210: f4c8 e2bb dc1e c73c 8190 953c 37f8 43bc
00000220: 25db 32bd 2c38 a53c 0b0e 203d 4364 043c
00000230: 4809 ef3a c5de 8ebc 97ec 48bd 2cc4 90bc
00000240: 9684 1bbd 20bd 4e3d 474a ed3c 43df 36bd
00000250: c8f6 943b 1e84 a2b9 c132 473c f9e4 04bd
00000260: 4625 aabd 59dd 65bb 6321 1bba f534 083d
00000270: 742c e1bb 0d3f 0cbd 8b91 2dbd 6744 f6bb
00000280: 0506 9d3c 26a6 3cbc f988 03bd d939 b3bb
00000290: 4704 883c 967d 36bd 4deb 1c3c a586 ecbc
000002a0: 49cb 00bd 9419 1dbd 6b0c 873c f1ce fdbc
000002b0: dbba d73a e90d a2bc d9be 3b3c 9ac9 193d
000002c0: 48a9 87bc e64b 07bc 62c0 9a3c d89d c13c
000002d0: 64c6 c73c d65b 2c3d b22b 833c 8d40 07bd
000002e0: 6ef2 9abc 64d6 bc3c 7973 2fbb 9632 db3c
000002f0: 060f 23bd e23a f83a f2e0 f93c e95b 2dbd
00000300: c4da 43bd 7145 7b3c e9f1 b03c b659 2e3d
00000310: 5971 173d f815 6a3d a472 8b3a eb25 fa3c
00000320: 9cc3 c83c d151 82bd a9bd 0cbd 262f bfbb
00000330: 264b dabc 02e8 69bc f536 4f3a f91b ddbb
00000340: c6aa 563b 050b 81bd ff34 673d aa56 d5bc
00000350: 7d58 613d a1c3 00bd ee76 b63d 0a55 4c3b
00000360: 017a e6bc 0fa8 93bb 50aa 67bd f316 c33c
00000370: 9688 a6bc ea66 0dbc f41e 003a 52ab 7a3c
00000380: bfee 55bd eed4 6cbc a4a3 aebc ccf1 dd3c
00000390: f12a 3d3d 4a72 efbc 230e 093d 8d4c a33b
000003a0: 9751 3a3d 92f8 13bd bc48 003d e6fd 79bb
000003b0: 52b1 633d 2506 3cbd 4016 833c c8b2 563d
000003c0: 4408 91bd 6983 78bc 2b0a 2c3d 2a03 c63c
000003d0: b59e 3dbd 7e10 8e3c 12a8 12bb 2af7 013d
000003e0: 2b81 0cbd 3bf3 5f3c 28f3 0dbd da99 903d
000003f0: 5dab ec3c ba08 a4bc e205 18bd ce4e 12bd

main.7.weight f4 [40]
1.0876493 1.0491192 1.0205894 1.1125431 1.0616045 1.0863582 1.024889 1.0487587
1.0530744 1.0399283 1.065277 1.0447131 1.0584517 1.0454853 1.0723653 1.0188369
1.0501766 1.0319033 1.0831068 1.0291717 1.046762 1.0716999 1.0823734 1.0308868
1.0562835 1.0601726 1.0444359 1.1224506 1.1648002 1.1149007 1.1124238 1.0833509
1.065369 1.088253 1.0729285 1.0676512 1.0349619 1.0911778 1.0789305 1.0655395
00000000: 1838 8b3f 8a49 863f aca2 823f d067 8e3f
00000010: a8e2 873f c90d 8b3f 902f 833f ba3d 863f
00000020: 24cb 863f 5f1c 853f ff5a 883f 29b9 853f
00000030: 587b 873f 76d2 853f 4443 893f 3f69 823f
00000040: 306c 863f 6815 843f 3ea3 8a3f e6bb 833f
00000050: 4cfc 853f 762d 893f 368b 8a3f 19f4 833f
00000060: 4c34 873f bcb3 873f 13b0 853f 76ac 8f3f
00000070: 2c18 953f 11b5 8e3f e763 8e3f 3eab 8a3f
00000080: 035e 883f e04b 8b3f b955 893f cba8 883f
00000090: a279 843f b7ab 8b3f 651a 8a3f 9963 883f

main.7.bias f4 [40]
0.024094835 0.03986652 0.014915885 0.036080725 0.018074423 0.020429337 0.026392952 0.030382553
0.030288031 0.037590247 0.017795524 0.013096454 0.024451125 0.0136654 0.0525718 0.012503065
0.022109909 0.027983328 0.04526416 0.017852608 0.029873373 0.028880898 0.03979476 0.025423268
0.030588608 0.011574964 0.032252382 0.024214009 0.028126817 0.021938391 0.0397454 0.033440772
-0.0008502484 0.048767153 0.045262776 0.026011607 0.021825153 0.0074779997 0.050111517 0.0339341
00000000: 8862 c53c 134b 233d c261 743c 62c9 133d
00000010: d010 943c 6d5b a73c 0836 d83c d5e4 f83c
00000020: 9b1e f83c 3bf8 193d ebc7 913c 8292 563c
00000030: ba4d c83c d8e4 5f3c 8755 573d a8d9 4c3c
00000040: d71f b53c 4b3d e53c e966 393d a23f 923c
00000050: 01b9 f43c a297 ec3c d5ff 223d 7544 d03c
00000060: f694 fa3c eba4 3d3c 131b 043d 755c c63c
00000070: 366a e63c 24b8 b33c 13cc 223d 31f9 083d
00000080: 34e3 5eba 11c0 473d 7665 393d 4b16 d53c
00000090: aaca b23c 020a f53b bc41 4d3d 7cfe 0a3d

main.7.running_mean f4 [40]
-0.10979809 -0.32343036 0.017670412 0.023418501 0.2546625 0.39465523 -0.13432139 -0.079269715
-0.20455389 -0.13314208 0.35421494 -0.20144063 -0.05755484 0.14500585 -0.05462764 0.034679525
-0.1997477 -0.11571376 -0.276913 -0.06866759 0.012695987 -0.21016268 -0.07733809 -0.22700594
-0.063489445 0.25588158 -0.19678734 0.17443596 0.23056929 0.3949505 -0.063581645 -0.075072244
0.25738955 -0.22115795 -0.2315972 -0.4296895 -0.0553966 0.36171845 -0.23847003 -0.11508356
00000000: d2dd e0bd aa98 a5be 8ac1 903c 28d8 bf3c
00000010: 2063 823e 4010 ca3e 8c8b 09be 2958 a2bd
00000020: 9376 51be 6656 08be a95b b53e 7446 4ebe
00000030: a0be 6bbd 6a7c 143e 3bc1 5fbd 1e0c 0e3d
00000040: a98a 4cbe 56fb ecbd 8ac7 8dbe 98a1 8cbd
00000050: d402 503c e334 57be 6f63 9ebd 3f74 68be
00000060: c106 82bd e902 833e 9f82 49be 579f 323e
00000070: 5b1a 6c3e f436 ca3e 1837 82bd 7abf 99bd
00000080: 90c8 833e 3b77 62be d127 6dbe 4300 dcbe
00000090: 8ce7 62bd 2933 b93e 7d31 74be eeb0 ebbd

main.7.running_var f4 [40]
0.010078413 0.058241278 0.09791477 0.00923089 0.014764458 0.023164148 0.038392775 0.016468719
0.023057673 0.02957001 0.017366905 0.008973084 0.010340056 0.013181115 0.029464517 0.015595606
0.019920612 0.055978686 0.031453427 0.027186217 0.2005344 0.015666606 0.007645606 0.036848526
0.023028215 0.01313742 0.022046536 0.006077285 0.010688146 0.020567633 0.0060005183 0.009378399
0.014745734 0.012949457 0.021038484 0.03230615 0.016738266 0.019962667 0.0129065225 0.021619381
00000000: ee1f 253c 688e 6e3d 8a87 c83d 293d 173c
00000010: a0e6 713c bdc2 bd3c be41 1d3d 68e9 863c
00000020: 72e3 bc3c ce3c f23c 0a45 8e3c d803 133c
00000030: 5769 293c 9af5 573c 925f f13c b684 7f3c
00000040: 8d30 a33c e849 653d 4fd5 003d a1b5 de3c
00000050: e458 4d3e 4157 803c fe87 fa3b 7bee 163d
00000060: aba5 bc3c 553e 573c f09a b43c f623 c73b
00000070: 551d 2f3c 747d a83c ff9f c43b dba7 193c
00000080: 1798 713c f629 543c e658 ac3c 7453 043d
00000090: b01e 893c bf88 a33c e175 533c 211b b13c

main.10.weight f4 [180, 360]
-0.039800525 0.0053288145 0.0025105893 0.025682267 -0.013151892 -0.002734624 -0.00030678615 -0.011135151
-0.03996127 0.046623625 -0.01897381 0.021253042 0.032282136 -0.03818703 0.0037713617 -0.01821341
0.033694457 -0.011892502 -0.019896401 0.04790077 -0.03672733 -0.00942052 -0.034818675 -0.04145705
-0.049575996 0.0193114 -0.004881392 0.01731227 -0.020614527 -0.0059771263 0.009706356 0.023387752
-0.040024754 -0.046710227 0.04455667 -0.0367951 -0.009067832 -0.02094543 -0.009415669 0.013646951
-0.0061023803 -0.020116402 -0.037393373 0.01815456 -0.03258742 0.0043435735 -0.0050323866 -0.0132555235
0.023195587 -0.051032 -0.050349575 0.047599636 -0.0134903435 -0.011451456 0.0010573259 0.018328726
0.052751996 -0.018078735 -0.044809733 -0.036960155 0.04340234 -0.01841792 0.0054467972 0.0013848478
0.051198527 0.02258267 -0.039150227 -0.029349376 -0.014048091 0.037011318 -0.049123783 -0.0091543095
-0.036319252 -0.0096073225 -0.04802141 0.0072054733 -0.012119363 -0.004121961 -0.025342673 -0.0106564285
0.026351277 -0.03467943 0.00093912537 -0.0017645163 0.01570657 0.026032958 0.018415652 -0.027980354
-0.044996627 0.011265827 0.043325245 -0.03654933 -0.043098927 -0.03645477 0.034065224 -0.0431693
-0.008668319 0.027828742 -0.031107934 -0.048684325 0.047472343 -0.024190247 0.0019770334 0.04023391
0.038306925 0.029320508 0.044462305 0.035847627 -0.03424653 0.04815391 -0.0050284187 -0.0060727852
-0.051564977 0.035231777 0.047084004 0.025603969 0.03698285 0.013937846 0.020843716 -0.012771224
0.0367236 -0.051075716 -0.020424364 -0.0501985 -0.015000335 0.026996642 0.0021419858 -0.032180212
0.03580413 0.0344409 0.017733984 -0.002158193 -0.04628317 0.048208367 0.044026062 -0.04722787
-0.042360928 -0.039267603 0.026068132 0.04125802 0.0065238113 -0.04384813 -0.015068291 0.03048815
-0.037067976 -0.047131836 -0.035945512 0.049280703 -0.012648724 0.0012361273 -0.010474168 0.014934177
0.049814943 -0.01645943 0.043303058 0.03185946 -0.040346652 -0.017401911 0.023582127 -0.040328506
-0.0026447987 -0.015947618 0.048450284 -0.03617951 -0.023939842 0.026160635 -0.045922995 -0.044759177
0.0046854955 0.007109689 -0.026082171 -0.012024295 0.00884398 0.028383607 0.019844344 -0.044770963
-0.039434947 -0.0014430915 0.033935048 0.0012934571 -0.024630545 -0.0032614006 -0.03348265 0.03447309
-0.010112592 -0.01737713 -0.05001133 0.025185592 -0.010045597 -0.024440253 -0.02670827 0.024085
-0.051156946 -0.013129416 -0.027773427 -0.018198267 -0.028312098 -0.023034189 -0.0023414013 0.023615332
-0.04309095 0.009923996 0.028413612 -0.035379846 0.04653294 0.020877305 -0.0139988605 -0.036365297
-0.029049223 -0.04709077 -0.040554114 -0.03193351 -0.029604895 0.046687014 0.019611884 -0.006268557
-0.004225374 -0.029886417 0.028830376 0.022991901 0.021824127 0.030817365 0.04843651 -0.050299663
0.04852395 0.05135065 0.0030002748 0.031511188 -0.024016954 0.04939921 0.017559333 -0.010684564
0.046476837 -0.012353278 -0.05032085 -0.006254651 7.798289e-05 -0.048146714 -0.027853278 -0.015579765
-0.018447967 0.050853554 0.047195844 -0.013387643 -0.004293492 0.014086312 -0.015459029 -0.017032633
0.030312574 -0.0023135887 -0.014951531 0.030641338 -0.035434972 -0.043190658 -0.05012446 0.006741523
00000000: e005 23bd 569d ae3b b388 243b 9e63 d23c
00000010: 097b 57bc 6137 33bb 24d8 a0b9 3570 36bc
00000020: 6eae 23bd 6af8 3e3d f76e 9bbc dc1a ae3c
00000030: 463a 043d 016a 1cbd f328 773b 4a34 95bc
00000040: 3303 0a3d c5d8 42bc c7fd a2bc 9933 443d
00000050: 666f 16bd 8658 1abc 079e 0ebd dece 29bd
00000060: 3310 4bbd f132 9e3c 15f4 9fbb 76d2 8d3c
00000070: ccdf a8bc c5db c3bb 6807 1f3c ac97 bf3c
00000080: fff0 23bd 3953 3fbd 0e81 363d 75b6 16bd
00000090: 3e91 14bc c095 abbc 2e44 1abc 7697 5f3c
000000a0: 7af6 c7bb 27cb a4bc cb29 19bd dfb8 943c
000000b0: 637a 05bd 8954 8e3b b8e6 a4bb b22d 59bc
000000c0: ac04 be3c ee06 51bd 5b3b 4ebd d6f7 423d
000000d0: 9a06 5dbc e39e 3bbc f895 8a3a 2026 963c
000000e0: 7a12 583d db19 94bc 698a 37bd 8863 17bd
000000f0: a7c6 313d 2ee1 96bc 0c7b b23b c883 b53a
00000100: 8cb5 513d 4bff b83c fd5b 20bd 1a6e f0bc
00000110: f729 66bc 2e99 173d 0536 49bd f5fb 15bc
00000120: 7fc3 14bd 0868 1dbc 19b2 44bd e41b ec3b
00000130: 4b90 46bc 8411 87bb 709b cfbc 4d98 2ebc
00000140: a2de d73c 050c 0ebd a32f 763a 5847 e7ba
00000150: 11ab 803c 1243 d53c 6cdc 963c 0e37 e5bc
00000160: 624e 38bd 4e94 383c d075 313d c0b4 15bd
00000170: 8088 30bd 9951 15bd fa87 0b3d 4bd2 30bd
00000180: 9105 0ebc 1af9 e33c 11d6 febc 3769 47bd
00000190: 5c72 423d a02a c6bc 1e91 013b 50cc 243d
000001a0: b9e7 1c3d 9031 f03c 1b1e 363d f6d4 123d
000001b0: 1746 0cbd 093d 453d 6fc5 a4bb 37fe c6bb
000001c0: cc35 53bd 324f 103d 28db 403d 6abf d13c
000001d0: 547b 173d 905b 643c 71c0 aa3c 653e 51bc
000001e0: 7c6b 163d c534 51bd ff50 a7bc f19c 4dbd
000001f0: f7c3 75bc 1028 dd3c 8f60 0c3b 66cf 03bd
00000200: 5aa7 123d e711 0d3d dc46 913c 7870 0dbb
00000210: 6c93 3dbd 2376 453d ac54 343d 0372 41bd
00000220: a782 2dbd 11d7 20bd d68c d53c 2bfe 283d
00000230: b2c5 d53b 199a 33bd fee0 76bc 49c2 f93c
00000240: 97d4 17bd 500d 41bd 9a3b 13bd 90da 493d
00000250: 983c 4fbc 8d05 a23a d89b 2bbc 7aae 743c
00000260: c10a 4c3d edd5 86bc 8c5e 313d 117f 023d
00000270: 8842 25bd 748e 8ebc 4e2f c13c 812f 25bd
00000280: 5c54 2dbb 94a4 82bc ce73 463d f730 14bd
00000290: 7d1d c4bc d44e d63c c019 3cbd 6655 37bd
000002a0: c988 993b 65f8 e83b 47aa d5bc 8c01 45bc
000002b0: 57e6 103c bd84 e83c 9b90 a23c c261 37bd
000002c0: 8a86 21bd 1e26 bdba 7aff 0a3d 3889 a93a
000002d0: ffc5 c9bc 39bd 55bb 1a25 09bd a833 0d3d
000002e0: 49af 25bc 7c5a 8ebc aed8 4cbd 0452 ce3c
000002f0: 4a96 24bc ed36 c8bc 4dcb dabc e84d c53c
00000300: f289 51bd c31c 57bc 1985 e3bc 8814 95bc
00000310: c6ee e7bc 32b2 bcbc 3272 19bb f174 c13c
00000320: 2380 30bd 4298 223c aac3 e83c 75ea 10bd
00000330: 5399 3e3d e206 ab3c 7a5b 65bc c7f3 14bd
00000340: a3f8 edbc 40e2 40bd 121c 26bd b6cc 02bd
00000350: f785 f2bc e23a 3f3d 1aa9 a03c 7868 cdbb
00000360: 0275 8abb 5cd4 f4bc ae2d ec3c 8359 bc3c
00000370: 83c8 b23c b374 fc3c 5d65 463d 0507 4ebd
00000380: 0dc1 463d 0f55 523d 42a0 443b e011 013d
00000390: 34bf c4bc d356 4a3d 97d8 8f3c 4f0e 2fbc
000003a0: 7f5e 3e3d 6765 4abc 3c1d 4ebd d1f3 ccbb
000003b0: bf8a a338 7d35 45bd 8f2c e4bc 4542 7fbc
000003c0: 3120 97bc d14b 503d 6e50 413d d857 5bbc
000003d0: 6cb0 8cbb 46ca 663c de47 7dbc 0588 8bbc
000003e0: 1352 f83c 949f 17bb 44f7 74bc 8b03 fb3c
000003f0: 4324 11bd b0e8 30bd 4e4f 4dbd fee7 dc3b

main.12.weight f4 [90, 180]
0.035896458 -0.012554117 0.06159754 0.008771101 -0.039038118 -0.036928672 -0.02117602 -0.04465405
-0.074558794 0.016371919 -0.06209048 -0.02480967 -0.049789514 -0.054681536 -0.05669365 -0.025725396
-0.04002278 0.029508041 -0.037069414 -0.027527677 -0.011050172 -0.04387292 -0.021518746 0.027036753
0.07049426 0.0047994405 -0.023533706 -0.03351853 0.06790872 0.020873653 0.04766318 -0.0005439158
0.05844262 -0.0050057834 0.06923228 -0.066801496 0.06991215 -0.030462895 0.012782657 0.06076619
-0.055457275 0.020096833 -0.072371505 0.016844762 0.058857165 0.06156895 -0.007958777 -0.07349192
0.03069317 -0.005579199 -0.06641271 0.07350169 -0.0542785 0.055932213 0.024556693 -0.037353724
-0.04566699 0.0031085957 0.057028625 -0.04937197 0.054542564 -0.0329921 -0.031902317 -0.07131702
-0.027950749 0.047459014 -0.014869547 -0.034341406 -0.029451879 -0.009689059 -0.030776592 0.019285798
-0.017275468 0.015695658 -0.036544953 -0.027674254 -0.03265641 0.05928426 0.054549824 0.00065024354
-0.024610221 -0.04202985 -0.06983757 0.011126844 -0.024118533 -0.039744243 -0.036063783 0.04432081
0.037385087 -0.025651015 -0.014948319 0.06320817 -0.046425413 -0.048862938 -0.060951207 0.033489764
-0.029526718 -0.00086804177 -0.03618705 0.018851513 0.008693441 -0.030513953 0.011353278 -0.03200224
-0.0062539154 0.070589386 0.06116149 0.055812653 0.054151345 -0.0001295486 -0.05940169 -0.042426586
0.027698098 0.020527681 -0.0024667128 0.058680277 0.020870766 0.06830558 0.064381145 -0.003473893
-0.06542014 -0.053058643 0.01773562 -0.058329042 0.0065885927 0.072417185 -0.010713249 -0.037277687
-0.010464582 -0.053943474 -0.02418778 0.062431704 -0.0067423824 -0.059624515 -0.047525503 0.02853256
-0.031812962 0.06318932 0.000702269 -0.03516784 -0.02283747 0.069500014 0.010604901 0.068675496
-0.050804805 -0.008944939 0.02076509 0.035493497 -0.031837273 0.015485729 0.038874324 0.05107333
-0.0013552074 0.038207654 -0.012457519 0.03858873 0.07299305 0.06758053 0.039643247 -0.07061164
-0.03226156 0.0507928 -0.030389234 -0.029545609 -0.028628815 -0.068155155 -0.043080833 0.065077186
-0.00878738 -0.02474443 -0.062349442 -0.045043886 0.018542178 -0.029463843 -0.052562546 0.0636379
-0.044515308 0.007675929 0.00716127 -0.074141175 -0.06560624 0.026429597 0.03806404 0.0044261487
0.0740016 0.024697654 0.07011966 -0.046272 0.04597318 0.06488415 -0.035090163 -0.061589032
-0.02670394 -0.05279486 0.0068205027 0.08684459 0.004633591 -0.06784332 0.066771366 0.053031985
-0.00092062907 -0.006957582 0.008991476 -0.05428417 0.009982071 -0.065834686 0.04129726 -0.07118833
0.042327072 -0.031305604 -0.0012897037 0.041296806 0.03175667 0.022936907 -0.049104508 0.016414823
0.022189511 0.086381644 0.046924494 0.0005864446 -0.021282239 0.033210803 0.05212126 -0.05461182
-0.06277515 0.03927844 0.002592663 0.08235143 0.06702014 0.049596813 0.046653524 0.01376595
0.052883506 0.0059640785 0.023423284 0.004974842 -0.01655017 -0.016238397 -0.055399533 0.040250666
-0.033640135 0.038051512 -0.01608868 0.00054668135 0.00380111 0.08401787 0.0521122 -0.059877284
-0.014140262 0.024463471 0.0073041166 0.08871209 0.012001704 -0.050434574 -0.043330826 0.06653908
00000000: 2a08 133d c8af 4dbc b44d 7c3d aab4 0f3c
00000010: 6fe6 1fbd 8542 17bd 5579 adbc 2ae7 36bd
00000020: 48b2 98bd 671e 863c 9652 7ebd a63d cbbc
00000030: 17f0 4bbd bff9 5fbd 9a37 68bd 11be d2bc
00000040: edee 23bd d9ba f13c 19d6 17bd b981 e1bc
00000050: c80b 35bc 17b4 33bd 1548 b0bc 2e7c dd3c
00000060: 4b5f 903d a044 9d3b c2c9 c0bc ba4a 09bd
00000070: ba13 8b3d 39ff aa3c 773a 433d 9295 0eba
00000080: 8761 6f3d 8e07 a4bb a7c9 8d3d 39cf 88bd
00000090: 1a2e 8f3d 528d f9bc 596e 513c f8e5 783d
000000a0: 2b27 63bd 1da2 a43c 8337 94bd 07fe 893c
000000b0: 3614 713d b92f 7c3d 8865 02bc ef82 96bd
000000c0: 3e70 fb3c b7d1 b6bb 6303 88bd 0e88 963d
000000d0: 2253 5ebd 2d19 653d 1e2b c93c 3800 19bd
000000e0: 4f0d 3bbd 95b9 4b3b d996 693d 433a 4abd
000000f0: 0668 5f3d b922 07bd 01ac 02bd a80e 92bd
00000100: f8f8 e4bc 6264 423d 679f 73bc 93a9 0cbd
00000110: 1145 f1bc dcbe 1ebc 311f fcbc 40fd 9d3c
00000120: 4885 8dbc 2e94 803c 29b0 15bd 1eb5 e2bc
00000130: bac2 05bd 0dd4 723d a36f 5f3d 1b75 2a3a
00000140: 609b c9bc 7e27 2cbd 0007 8fbd 5e4d 363c
00000150: 3b94 c5bc dcca 22bd 9eb7 13bd bd89 353d
00000160: 1b21 193d 1422 d2bc cbe9 74bc 4973 813d
00000170: 9328 3ebd 8124 48bd f9a7 79bd 902c 093d
00000180: 04e2 f1bc 4c8d 63ba df38 14bd 7d6e 9a3c
00000190: ef6e 0e3c 66f8 f9bc 1903 3a3c c814 03bd
000001a0: a5ed ccbb 2b91 903d 7884 7a3d cf9b 643d
000001b0: cdcd 5d3d 70d7 07b9 304f 73bd 80c7 2dbd
000001c0: 1fe7 e23c ab29 a83c 93a8 21bb bb5a 703d
000001d0: 2bf9 aa3c cce3 8b3d 43da 833d 41aa 63bb
000001e0: fffa 85bd 0554 59bd 4a4a 913c 6fea 6ebd
000001f0: 1fe5 d73b 764f 943d a086 2fbc 7db0 18bd
00000200: a373 2bbc d5f3 5cbd 7425 c6bc 63b8 7f3d
00000210: 34ef dcbb d638 74bd 1aaa 42bd 1ebd e93c
00000220: 4f4e 02bd 6769 813d 7a18 383a 270c 10bd
00000230: a515 bbbc 0656 8e3d 2ec0 2d3c bda5 8c3d
00000240: b318 50bd cb8d 12bc 8d1b aa3c a161 113d
00000250: cd67 02bd dbb7 7d3c af3a 1f3d 4532 513d
00000260: 37a1 b1ba a17f 1c3d 9f1a 4cbc 370f 1e3d
00000270: 617d 953d a967 8a3d f560 223d d69c 90bd
00000280: b324 04bd 1c0c 503d d8f2 f8bc a209 f2bc
00000290: fa86 eabc ee94 8bbd 8775 30bd 3047 853d
000002a0: f1f8 0fbc d5b4 cabc 2162 7fbd f07f 38bd
000002b0: c4e5 973c 285e f1bc d34b 57bd 9654 823d
000002c0: af55 36bd 5c86 fb3b 16a9 ea3b 54d7 97bd
000002d0: 905c 86bd e282 d83c 0ae9 1b3d 3a09 913b
000002e0: 278e 973d bc52 ca3c e59a 8f3d b587 3dbd
000002f0: 604e 3c3d fbe1 843d b4ba 0fbd c844 7cbd
00000300: 39c2 dabc 6c3f 58bd 867e df3b 94db b13d
00000310: 61d5 973b 70f1 8abd 6dbf 883d 1138 593d
00000320: 5f56 71ba 6efc e3bb fc50 133c 1459 5ebd
00000330: d78b 233c 56d4 86bd 5127 293d 30cb 91bd
00000340: 275f 2d3d 4e3a 00bd 460b a9ba d726 293d
00000350: 4813 023d 2ee6 bb3c cf21 49bd 6178 863c
00000360: c7c6 b53c dce8 b03d e633 403d a2bb 193a
00000370: 1758 aebc 0d08 083d 1a7d 553d a5b0 5fbd
00000380: 4290 80bd 6ee2 203d abe9 293b dea7 a83d
00000390: db41 893d 0726 4b3d c417 3f3d 948a 613c
000003a0: 609c 583d 516e c33b 30e2 bf3c 0004 a33b
000003b0: 3994 87bc 6306 85bc 9fea 62bd e2dd 243d
000003c0: 3dca 09bd e7db 1b3d 68cc 83bc 2a4f 0f3a
000003d0: 0b1c 793b 9011 ac3d 9a73 553d e241 75bd
000003e0: 8fac 67bc 9e67 c83c 5f57 ef3b afae b53d
000003f0: cca2 443c 7c94 4ebd aa7b 31bd a445 883d

main.14.weight f4 [45, 90]
-0.060114108 0.07854997 0.0830034 -0.081871904 0.017747365 0.038498808 0.067064844 -0.088624395
0.103839315 -0.04943566 0.11360004 0.0052306973 0.06763889 0.095388316 0.025560103 0.090617314
-0.009117538 -0.09114549 -0.0575552 0.048103962 -0.085001364 -0.032914687 0.050246514 -0.030562062
0.07890922 -0.024782242 0.007631625 -0.096564576 0.08707616 0.18741257 -0.08515345 -0.05781405
-0.114188135 -0.08633234 0.18434857 0.08283262 -0.14134583 0.061409477 0.056348387 -0.026115661
0.08861872 0.08462987 0.19302103 0.12656993 -0.0657105 0.031663787 -0.054637764 0.10373933
0.0428147 0.14263473 0.04557408 0.06352552 -0.11059333 -0.09531412 0.0536606 0.10602847
0.05934592 -0.11252056 0.08982178 0.0025577787 -0.0428804 -0.06316342 -0.010647657 -0.0417746
-0.13511866 0.027098998 0.09232415 0.014893292 0.007330029 0.11009591 -0.017036345 -0.102032766
0.016915932 0.12221801 0.17045988 -0.1058979 0.18503562 -0.09193891 -0.036386576 -0.06058351
0.08963566 -0.052790366 -0.06711505 0.02752801 -0.039678846 -0.087389305 -0.09684874 -0.060283884
0.11094951 0.11314594 0.020182347 0.10833115 0.07996516 0.10797427 -0.01401838 -0.057333767
0.0020520925 0.045550924 -0.08303873 0.029286284 0.0043043937 0.05223702 0.06526247 0.047915284
0.05995148 0.0048208246 0.10141119 -0.066953346 0.014904974 -0.10695394 0.045846757 -0.016574858
0.020318247 0.013142205 0.041666377 0.061349124 -0.04055987 -0.057081226 -0.039820816 0.016348757
-0.09155675 0.10910385 0.04254668 0.081048764 0.08385661 0.04912606 0.09469129 -0.07135901
0.17904294 0.055609785 0.0289393 0.04637852 0.12941058 0.17721084 0.06678017 0.107157126
-0.072550334 -0.0110752545 0.01870689 0.06590507 0.051060442 0.07500827 -0.062247436 0.057073716
-0.096747145 0.12775171 -0.050051592 0.07745947 0.062212516 0.07141088 -0.038505636 0.094155096
0.15239628 0.12647183 0.034085497 0.11087987 0.07801984 0.07592805 0.050422523 0.005763645
0.08606672 0.03834703 -0.07136061 0.057543952 0.09567187 0.014748317 0.036564857 0.04433344
-0.040370136 0.067007296 0.08977849 -0.05270585 -0.014699699 -0.05434388 0.102718115 -0.07058452
-0.050348025 0.06372064 0.047125954 0.1374058 0.08337756 0.08163408 -0.052592088 0.0057199546
-0.009950939 -0.08101265 0.028933922 0.066737145 -0.07288945 -0.01489898 0.058349222 0.07304291
0.064380735 -0.03041652 0.036380146 0.025230607 -0.01906953 0.06373958 0.036500443 -0.09098183
0.062288273 0.019941673 -0.09174367 0.07139318 -0.020156646 -0.0904663 0.09851292 0.092161305
0.07143002 -0.13962369 0.09591206 0.09186395 0.10012379 -0.10218575 -0.034636714 0.025588697
0.12505199 -0.086831525 -0.031148113 -0.00614339 0.00948528 -0.059472505 -0.15001626 -0.0898348
0.028056307 0.04931385 -0.06333888 -0.10332384 0.033414062 0.02792264 0.033467643 0.088502556
0.07705245 -0.067520015 -0.09527476 0.044689592 0.033696223 0.03968886 -0.07037773 -0.051347747
0.08026808 0.095321454 -0.014263565 -0.053050622 0.12126087 0.13429342 -0.026978815 -0.13816838
0.039668757 0.066773176 0.0006610838 -0.019290546 0.019693522 -0.037952956 -0.13632117 -0.042419214
00000000: 363a 76bd cfde a03d b0fd a93d 75ac a7bd
00000010: ec62 913c edb0 1d3d 4b59 893d b580 b5bd
00000020: b5a9 d43d 0c7d 4abd 23a7 e83d 4566 ab3b
00000030: 4286 8a3d f35a c33d 6c63 d13c 9295 b93d
00000040: ba61 15bc 7daa babd 00bf 6bbd a908 453d
00000050: 3215 aebd 8dd1 06bd 4acf 4d3d 4a5d fabc
00000060: 289b a13d 2104 cbbc b612 fa3b a6c3 c5bd
00000070: fc54 b23d 15e9 3f3e ef64 aebd 6dce 6cbd
00000080: 78db e9bd 03cf b0bd dfc5 3c3e 26a4 a93d
00000090: f6bc 10be 8188 7b3d 91cd 663d 83f0 d5bc
000000a0: bb7d b53d 6d52 ad3d 4ea7 453e 8c9b 013e
000000b0: 3a93 86bd e3b1 013d d9cb 5fbd 4975 d43d
000000c0: 785e 2f3d d70e 123e e3ab 3a3d ab19 823d
000000d0: c17e e2bd 0d34 c3bd 38cb 5b3d 7425 d93d
000000e0: b514 733d 2e71 e6bd 7bf4 b73d 68a0 273b
000000f0: 5ca3 2fbd d35b 81bd 8373 2ebc d81b 2bbd
00000100: 8c5c 0abe b8fe dd3c 7214 bd3d ff02 743c
00000110: bd30 f03b f779 e13d ce8f 8bbc 8ef6 d0bd
00000120: 4893 8a3c 704d fa3d 098d 2e3e 00e1 d8bd
00000130: fa79 3d3e 784a bcbd 170a 15bd 6a26 78bd
00000140: e792 b73d b63a 58bd 9e73 89bd 6c82 e13c
00000150: 4986 22bd 2af9 b2bd a258 c6bd 3cec 76bd
00000160: 7f39 e33d 0fb9 e73d 7355 a53c b9dc dd3d
00000170: c6c4 a33d 9d21 dd3d 59ad 65bc d0d6 6abd
00000180: 667c 063b 9b93 3a3d 3610 aabd cae9 ef3c
00000190: df0b 8d3b 7cf6 553d 54a8 853d d142 443d
000001a0: af8f 753d 02f8 9d3b acb0 cf3d d61e 89bd
000001b0: fe33 743c ab0a dbbd cfc9 3b3d ffc7 87bc
000001c0: 7472 a63c 6752 573c 5daa 2a3d 3849 7b3d
000001d0: 1b22 26bd 01ce 69bd 271b 23bd d4ed 853c
000001e0: 1b82 bbbd d771 df3d 6d45 2e3d e5fc a53d
000001f0: 04bd ab3d 6838 493d 82ed c13d ac24 92bd
00000200: 0857 373e 16c7 633d 1c12 ed3c 67f7 3d3d
00000210: 3584 043e c276 353e 0bc4 883d 3275 db3d
00000220: 4595 94bd fc74 35bc 313f 993c 3df9 863d
00000230: c124 513d f09d 993d 2bf7 7ebd 21c6 693d
00000240: 5e23 c6bd 58d1 023e e602 4dbd 12a3 9e3d
00000250: 8dd2 7e3d de3f 923d 16b8 1dbd 63d4 c03d
00000260: c50d 1c3e d581 013e 3c9d 0b3d fc14 e33d
00000270: dec8 9f3d 2a80 9b3d d987 4e3d f5dc bc3b
00000280: c043 b03d c611 1d3d 8325 92bd 35b3 6b3d
00000290: 9def c33d eda2 713c 08c5 153d fb96 353d
000002a0: 285b 25bd 1f3b 893d c9dd b73d 17e2 57bd
000002b0: 02d7 70bc b097 5ebd e05d d23d 9e8e 90bd
000002c0: bb39 4ebd f87f 823d 2507 413d 1bb4 0c3e
000002d0: dbc1 aa3d c52f a73d cd6a 57bd 756e bb3b
000002e0: 4309 23bc f6e9 a5bd d506 ed3c 7cad 883d
000002f0: 1047 95bd da1a 74bc 98ff 6e3d 8597 953d
00000300: 0cda 833d 112c f9bc 5903 153d 6bb0 ce3c
00000310: b437 9cbc e689 823d 7d81 153d af54 babd
00000320: fd21 7f3d b85c a33c 1be4 bbbd 9636 923d
00000330: 8d1f a5bc 6546 b9bd 24c1 c93d 11bf bc3d
00000340: e749 923d 83f9 0ebe 8b6d c43d 2b23 bc3d
00000350: b40d cd3d c346 d1bd 3adf 0dbd 639f d13c
00000360: a10d 003e bad4 b1bd 542a ffbc 7e4e c9bb
00000370: 2668 1b3c 7199 73bd dd9d 19be 4ffb b7bd
00000380: 57d6 e53c 52fd 493d d1b7 81bd 739b d3bd
00000390: 2fdd 083d 05be e43c 5e15 093d d440 b53d
000003a0: adcd 9d3d ef47 8abd 6a1f c3bd 6f0c 373d
000003b0: 0d05 0a3d c990 223d 3322 90bd 0452 52bd
000003c0: 9763 a43d e537 c33d bab1 69bc 9c4b 59bd
000003d0: 9e57 f83d 3784 093e ad02 ddbc 037c 0dbe
000003e0: b57b 223d 60c0 883d 954c 2d3a 3507 9ebc
000003f0: 4f54 a13c 8f74 1bbd c797 0bbe c5bf 2dbd

main.16.weight f4 [4, 45]
0.17510282 -0.2873849 -0.050216544 -0.193089 0.23435447 -0.124169305 -0.25003108 0.21497075
0.06456768 -0.26699138 0.09134697 0.10064341 0.13495249 -0.15899812 0.07586087 -0.007164705
-0.1633257 0.06615972 -0.050286926 0.012920712 -0.163008 -0.03707009 0.23560588 0.03429501
0.08050659 0.045316402 -0.15153766 0.051914886 0.11234534 -0.12891807 0.06561065 -0.39036635
0.025040213 -0.07026513 0.111013345 -0.17563507 -0.12415158 -0.054926474 0.1894575 -0.15656509
-0.017772421 0.054512363 -0.36651063 0.1349909 -0.09080752 -0.32667872 -0.293175 0.16040106
0.22279222 -0.2449226 0.13343069 0.037973914 -0.21823783 -0.03160561 -0.2525783 0.11728958
0.12446689 -0.02840665 0.05958406 0.18433635 -0.29102683 -0.16001712 0.028053865 0.2067935
0.09140036 0.14816268 0.011147021 -0.09999392 0.015186521 -0.009719391 0.1552386 -0.45150894
0.12791339 -0.07280275 -0.29340687 0.01330901 -0.13243273 -0.13732111 0.042529892 -0.08017845
-0.15326492 0.031828664 -0.025387483 0.1183599 0.48233014 0.44549334 -0.13048583 -0.45665124
-0.33673826 0.15164062 -0.3954054 -0.26589733 0.13561052 -0.27752808 -0.26141042 -0.035597008
0.18421255 0.039117265 -0.0012235157 0.4885952 0.015406838 0.044456933 0.11861228 -0.06494608
-0.0022548852 0.23366994 -0.24882257 -0.16105674 -0.15045853 0.14122505 -0.17845704 0.11711376
-0.08595696 0.11342349 -0.32744333 0.06251095 0.18218362 -0.14003739 -0.044220474 0.44923255
0.021472873 -0.008974709 0.11229262 0.1819731 0.008519225 0.22769485 0.22204478 0.05983964
-0.07832275 -0.4831675 -0.22158603 -0.011854306 0.05965987 -0.31944594 -0.040764067 0.11622153
0.093637556 -0.2809838 0.17696947 -0.31647205 -0.07485286 -0.36007267 -0.09113319 0.10032448
-0.5261026 0.07810464 0.14209181 -0.16071934 -0.0011362792 0.13921267 0.14379539 -0.2547668
0.16476141 0.052316945 0.07707526 -0.23450635 0.010973663 -0.2062707 0.09660523 -0.1878611
0.14146449 -0.21823455 -0.044818714 -0.004058264 -0.33998805 -0.07369385 0.2580905 -0.13103077
-0.31289053 -0.14689267 0.24501039 -0.2588365 0.03194988 -0.14023301 -0.07200884 -0.32516614
0.054961607 0.506671 0.039172504 -0.0341368
00000000: 274e 333e 1d24 93be ddaf 4dbd 1fb9 45be
00000010: 9efa 6f3e 7a4c febd 1304 80be 4b21 5c3e
00000020: 0f3c 843d 18b3 88be 1f14 bb3d 221e ce3d
00000030: fc30 0a3e 67d0 22be f25c 9b3d e7c5 eabb
00000040: da3e 27be bf7e 873d aaf9 4dbd 65b1 533c
00000050: 92eb 26be cfd6 17bd ab42 713e ed78 0c3d
00000060: a4e0 a43d b19d 393d b02c 1bbe b4a4 543d
00000070: 5015 e63d 1903 04be e05e 863d 19de c7be
00000080: 2221 cd3c 2ae7 8fbd f75a e33d aed9 33be
00000090: 2f43 febd 95fa 60bd 2601 423e 9952 20be
000000a0: 7897 91bc 5b48 5f3d 48a7 bbbe 0e3b 0a3e
000000b0: 4bf9 b9bd 6f42 a7be 091b 96be 2d40 243e
000000c0: a523 643e fdcc 7abe 0ea2 083e 898a 1b3d
000000d0: bd79 5fbe e274 01bd f151 81be 8535 f03d
000000e0: 7fe8 fe3d 10b5 e8bc 6a0e 743d abc2 3c3e
000000f0: 7801 95be 87db 23be 38d1 e53c adc1 533e
00000100: 1d30 bb3d f5b7 173e ffa1 363c 9dc9 ccbd
00000110: e3d0 783c 153e 1fbc def6 1e3e 2e2c e7be
00000120: bafb 023e 9c19 95bd 6d39 96be 090e 5a3c
00000130: 729c 07be e89d 0cbe d333 2e3d 9934 a4bd
00000140: 7bf1 1cbe c65e 023d 69f9 cfbc ad66 f23d
00000150: faf3 f63e b417 e43e 149e 05be 31ce e9be
00000160: f568 acbe ae47 1b3e 9472 cabe b223 88be
00000170: 7cdd 0a3e 2918 8ebe 96d7 85be 2bce 11bd
00000180: 37a2 3c3e 6d39 203d 605e a0ba 2629 fa3e
00000190: f66c 7c3c 7918 363d ffea f23d 7302 85bd
000001a0: b2c6 13bb 2c47 6f3e 58cb 7ebe 0fec 24be
000001b0: cd11 1abe 4d9d 103e 71bd 36be 57d9 ef3d
000001c0: 340a b0bd 934a e83d a7a6 a7be be05 803d
000001d0: 588e 3a3e f665 0fbe 8720 35bd cf01 e63e
000001e0: e1e7 af3c a80a 13bc acf9 e53d 2857 3a3e
000001f0: 3894 0b3c d728 693e b55f 633e 691a 753d
00000200: ae67 a0bd bb61 f7be 73e7 62be 9038 42bc
00000210: e85d 743d 6b8e a3be 39f8 26bd 8e05 ee3d
00000220: 0cc5 bf3d 1cdd 8fbe 7c37 353e a008 a2be
00000230: 754c 99bd 725b b8be 0aa4 babd ec76 cd3d
00000240: a9ae 06bf 53f5 9f3d 8480 113e 9c93 24be
00000250: 34ef 94ba c48d 0e3e 193f 133e cb70 82be
00000260: 37b7 283e 4b4a 563d a2d9 9d3d 6f22 70be
00000270: e1ca 333c a038 53be f6d8 c53d a95e 40be
00000280: 11dc 103e e178 5fbe d493 37bd 30fb 84bb
00000290: ea12 aebe cdec 96bd 7024 843e ee2c 06be
000002a0: 3033 a0be 086b 16be 01e4 7a3e 3886 84be
000002b0: e1dd 023d 3e99 0fbe 5f79 93bd 2d7c a6be
000002c0: 6c1f 613d 31b5 013f 5973 203d 07d3 0bbd
