src/models/penne1.pth (torch, 412914 bytes, 15 tensors)

main.0.weight f4 [10, 3, 4, 4]
00000000: 5eb7 2c3c b69e fa3d 46c5 1b3d 61ff 3ebd
00000010: 7d90 30be 709e 25be c5e7 03be 0457 143e
00000020: 2d5c 45bd 483d c4bd 502f efbc 7035 c2bd
00000030: eed2 f4bd 7b6b 2cbd b313 1b3d f31d b93d
00000040: 4f2c e13d 9ac7 eebb d5f3 05be c72b bc3d
00000050: b2a3 3a3d 8f03 043e 009c cabc 7069 093e
00000060: d56c d53c 0064 3e3d 2f80 06be 0510 89bd
00000070: dbab ba3c aa7b a6bc e87e b43d 7aaf 25bd
00000080: e63f 683d d13f 68bd bd8e f7bd fe9a e2bd
00000090: 4dde 62bb 1cbe 1dbc 74e8 eb3d cafd 01be
000000a0: 5bc3 a33d e4f4 0dbd c37a e63d 6f5c e4bd
000000b0: ccc4 ebbd f0f0 803d 95fa ccbd 5d9c c73d
000000c0: b957 e83c 672a fd3c 0f4c 163b b031 113e
000000d0: 3ac2 f3bd d3ab 2abd d9cd efbc ed07 ba3d
000000e0: b408 5ebd 6f98 b73d d0cb c43c f3db c63d
000000f0: c17b 39bd 0eb5 f3bd 6160 e83d 6a13 14be
00000100: 6d9b 0bbe a81b ea3b 44be 5ebd b5d0 dabd
00000110: 4ef2 e83c 2f51 dbbd afa5 fabd 971a 9c3d
00000120: 14be 9dbc 6b85 9c3d 9091 e1ba 6b43 713d
00000130: 6bcf 5e3d 35ca a1bd 4099 a4bd 9723 163d
00000140: 1d20 e9bd f1ef 053e 367b 6dbd c9c8 44bb
00000150: b664 bcbd dfb5 6fbd 2a50 9a3d 3aef 103d
00000160: 91d6 053e 83d7 bdbc d52e b13d c31e cdbd
00000170: 9f0d 26bd 8df3 c5bd 1bb5 78bd ed63 f13d
00000180: aaed dabd 4454 553d 576c a2bb 749b edbd
00000190: 6e83 f83d 9b91 b03d 40d4 01be db2f 0ebd
000001a0: 6ea1 3c3d b7cc 153d 5e98 63bd ebed 403d
000001b0: b656 07be 2813 eb3d 41af 0ebe 176f 76bb
000001c0: 8f58 3f3d a411 d33b 72cc e43d c8d3 3b3d
000001d0: 7888 46bd 54fc 0fbe f3ae a5bd 0aac b13d
000001e0: d10b 8d3d 5f1d ee3d fe22 0cbe fab5 fcbc
000001f0: a810 023d 7185 09be 6938 aabb 42cf b23d
00000200: 3ebe 19be e7ef b73d 2312 d43d 8bb8 4a3d
00000210: 6c70 033e 5988 833d 3f27 98bd fb2c ce3d
00000220: f0d3 9e3d c2e7 b8bd 7536 883d 7d30 dc3d
00000230: 256d 96bd ae22 e33d 54a5 ac3d 5daa 923d
00000240: b2f1 663a f17e 203d dec8 e0bc 9466 d9bd
00000250: d66d d9bd 8778 ee3c 6f21 0b3e 7f97 603d
00000260: 90ab 573d cbd3 81bd 36ad 753d eba5 a8bd
00000270: dc8c d3bb a8d8 da3c ce95 d23d 143c 1cbd
00000280: f22c 9f3d 0fd4 ffbd aca7 263d 993c bbbb
00000290: e7f9 963d 6b73 633d cf2a 313c ba5a 72bd
000002a0: efd2 043d a665 72bd 5f5c 90bd 1fc9 0f3d
000002b0: 18a1 3dbd 67f8 11be 3c00 7ebd ea1d debd
000002c0: 6552 56bc 392a 853d 3979 0e3e 5d05 6cbd
000002d0: 2f29 0fbe a3c9 df3d 16b6 96bd 6731 17bc
000002e0: c0c4 023e 99ad a1bd 0149 9ebc fb27 dfbc
000002f0: 165d a3bc c918 de3d 5276 f73d 84e7 0bbe
00000300: 5a8b 193d 27fa 023d e747 fcbc f85b 633d
00000310: 9187 3abd 94c3 a1bd 11b2 8f3d 5096 0a3e
00000320: 29d4 c2bc e162 c33d 7b64 e93d b2ee 103e
00000330: a408 60bc 0ada 8abc 72af 803d b5e9 d5bd
00000340: 8ce3 c1bc 8e9c 2b3e 9f52 1d3e 9914 cf3d
00000350: 01b4 86bb 892b 95bd 9c42 f33a 6621 1cbe
00000360: f40b d73d ea75 8e3d 31c9 103e 06ad 6e3d
00000370: f637 91bb 12f2 b03d 3e32 d73d a791 0ebe
00000380: 23fd d73b de5a 0f3e d2a8 58bc 6fef 04bc
00000390: ef82 14bc 8fbe 053e fc10 153d 8825 9cbd
000003a0: 538a 35bd c310 7d3d 1ba6 be3d d2e9 963d
000003b0: f6dc 1ebd 8d02 91bc cf49 6abb 6a69 b0bc
000003c0: 907c e93c def6 c33d 5af5 a3bd 5d09 e3bd
000003d0: bbd6 86bd 54a6 0fbe e545 91bd 34e3 17bc
000003e0: 2a94 9a3d 0a79 07be 0980 06be f161 acbc
000003f0: deac 973c 1da1 aa3d 6ae8 a4bd 52a3 bdbd
0.010541765 0.12237303 0.03802993 -0.046630267 -0.17242618 -0.1617372 -0.12881382 0.14486319
-0.04818361 -0.09582001 -0.029197365 -0.09482849 -0.11954294 -0.04209469 0.037860584 0.090389155
0.10994779 -0.007286978 -0.13081296 0.09188037 0.04556627 0.12891982 -0.02473259 0.13419127
0.026052872 0.046482086 -0.13134836 -0.066925086 0.022787025 -0.02032264 0.08813268 -0.04045055
0.056701563 -0.056701485 -0.12087772 -0.11064719 -0.0034617365 -0.009627845 0.11518946 -0.12694469
0.079962455 -0.034657374 0.11253884 -0.11150443 -0.115121454 0.06295955 -0.10008732 0.09746621
0.028362142 0.030904008 0.0022933518 0.1417911 -0.1190228 -0.04166777 -0.02927296 0.09083543
-0.05420752 0.08964621 0.024022967 0.09709921 -0.045284037 -0.11899768 0.11346508 -0.14460531
-0.13633509 0.00714441 -0.05438067 -0.10684339 0.028435852 -0.10708844 -0.12238633 0.07622259
-0.019255675 0.07642635 -0.0017209519 0.058902185 0.054397028 -0.07899896 -0.080370426 0.036655035
-0.11383078 0.13079812 -0.05797883 -0.0030026904 -0.091988966 -0.058523055 0.07534821 0.035384394
0.13070132 -0.023174053 0.086515106 -0.10015633 -0.040540334 -0.09665594 -0.06071959 0.117866375
-0.10689862 0.052082315 -0.004956763 -0.11601916 0.12134443 0.08621522 -0.12678623 -0.034713607
0.04605239 0.036572184 -0.05556523 0.047101896 -0.13216671 0.11478263 -0.13934042 -0.0037602836
0.046715315 0.006441312 0.11171807 0.045856267 -0.04846999 -0.140611 -0.080900095 0.08675392
0.068870194 0.11626696 -0.13685223 -0.030848492 0.031754166 -0.1342981 -0.005194713 0.087309375
-0.15013978 0.089813046 0.10355022 0.0494924 0.12835854 0.064224906 -0.074293606 0.10067173
0.077552676 -0.09028579 0.06651012 0.10751436 -0.073450364 0.11090599 0.08429971 0.071614005
0.0008809819 0.03918356 -0.027439531 -0.10615268 -0.10616653 0.029110206 0.13586973 0.054831978
0.05265385 -0.063392244 0.05997964 -0.08234771 -0.0064560007 0.026714638 0.10282479 -0.038143232
0.077722445 -0.12491619 0.040687248 -0.005714011 0.07371884 0.055529993 0.010813429 -0.059168555
0.032427724 -0.05917897 -0.070488684 0.035103913 -0.04629621 -0.14254914 -0.062011942 -0.108455494
-0.013081168 0.06502194 0.1391343 -0.057622302 -0.13980554 0.10927131 -0.07358949 -0.009228087
0.12770367 -0.07894439 -0.01932192 -0.027240744 -0.019941848 0.10844571 0.12083115 -0.13662535
0.03748641 0.031976845 -0.030796004 0.05550763 -0.045539442 -0.07898632 0.07016385 0.13533902
-0.023782806 0.09540344 0.11396118 0.14153555 -0.013673935 -0.016949672 0.062834635 -0.10444967
-0.023668073 0.1675894 0.15363549 0.101113506 -0.0041108136 -0.07283694 0.001855928 -0.15247115
0.10500327 0.06956084 0.14139248 0.058270477 -0.00443172 0.08639921 0.1050763 -0.1392275
0.0065914555 0.13999507 -0.013223844 -0.008113726 -0.00906442 0.13060974 0.03639315 -0.07624346
-0.04432137 0.061783563 0.09309026 0.073688164 -0.038784944 -0.017701412 -0.003574956 -0.02153464
0.028501779 0.095685706 -0.080057815 -0.1108577 -0.06583925 -0.14028293 -0.070934094 -0.009270478
0.07547791 -0.13229766 -0.13134779 -0.021042796 0.018515047 0.08331511 -0.08052142 -0.092596665

main.3.weight f4 [20, 10, 4, 4]
00000000: 85e2 3d3c 09a8 b7bb 9187 3a3b fe51 97bc
00000010: b859 853d 10a5 35bd e1f5 fabb 8515 8f3d
00000020: 43e5 053b 7d4e 93bc eb26 d7bc cb2b 823d
00000030: 7fbf d83c ff75 b3bc f3c3 e0bc 8255 7ebd
00000040: 0cd0 ef3c ca2b 0a3d 3261 39bd a931 2cbd
00000050: 21ae bfbc 8564 a23d 92b5 503d 952e 38bd
00000060: 3954 873d 5a98 41bd 8721 003b 1bd3 0fbd
00000070: 3924 82bd 81dc cfb9 5f4d 3e3d 5edb 18bd
00000080: 1e95 8e3d 8741 bc3b 81a6 733d 13f2 82bd
00000090: 904e 743c c1db 3ebd 99b7 71bd c9ea 81bd
000000a0: d357 acbc bd10 59bd 4fa3 02bd 2ac1 203d
000000b0: be15 6bbd d877 89bc b48e 63bd 260d 6c3c
000000c0: fd7a 0f3d 2367 01bd e10a 96bd c8f8 033d
000000d0: 2d70 423d fc37 a03c a35c e8ba 3884 6f3d
000000e0: 243c b2bb 1db4 46bd 8468 893d 4ddc ba3c
000000f0: 1e0c d6bb abe0 643d 2809 08bd a421 99bd
00000100: de25 e8bc 5c29 0b3d 76ba a03d 9ca6 f03a
00000110: a68b 273d e993 fb3c 7eba d3bc 4ee7 f43c
00000120: 3dcc c7bc 6e54 c23c f0e6 9f3c 7c62 ea3c
00000130: 8d09 46bd c578 5bbd 1076 9c3d cb2a 463d
00000140: 0f7d 90bd 1eb6 993d 6e6a fdbc e9f3 363d
00000150: 14cf 0cbd 782c 0f3d 6de6 7bbd 1525 90bd
00000160: 0c44 28bd 5f1c 643d 5642 e4bc 32fd 333b
00000170: 1f5e 81bc d11c a6bd 4efc e63c 9cd2 38bc
00000180: 16d6 82bd 9bc2 2bbc 5d89 ec3c acc8 0a3d
00000190: 34bc debc 7f1a 303d c05f 163d d88c bebc
000001a0: fe1c e43c 46c9 003d 5d54 8bbc 96b0 e6bb
000001b0: b150 6a3c ad02 5a3d 9399 14bc 50e9 c9bc
000001c0: 8cc5 743d a0a8 aabc 63fc 1cbd e268 81bd
000001d0: e239 9fbc 7d39 6bbd f6a8 dabc 1156 22bd
000001e0: df37 983d 03c7 ffbb 99b9 2bbd d68e ccbc
000001f0: 8759 c93c 8844 4ebd 70f2 063d 1521 283c
00000200: 02ac 90bd 8ae1 8a3d 138d 9cbd 1da2 cf3c
00000210: 8a85 863d f4fa 91bd 8fc2 9dbd 1f89 a7bd
00000220: a4fe 2e3d d0fe ad3d 68da 833d ea55 fd3c
00000230: ac04 943d c0b7 b43d d85c 9ebc 6301 e13c
00000240: 109c 88bc cd70 513d 2be4 8bbd 2f38 45bd
00000250: 5178 e7bb 06bf ffbc ba14 2c3d 0f52 0c3d
00000260: 33b2 27bc e0d4 1f3d 67a8 803b 1ab0 893d
00000270: 08eb 8d3d 7949 0ebd 7f0f 463d 402e d1bc
00000280: a100 9d3d da39 803c 36f0 673d b5f2 e23c
00000290: 1378 4d3d 7234 413d d24f 07bd ce69 b13b
000002a0: cc08 923c c103 603d eac4 763c 03d9 be3b
000002b0: 46ba 403c 4305 51bd 539b 81bd f5cc 323d
000002c0: aab4 413d 764b 9a3d 22b9 893d c8a2 813d
000002d0: 4c46 113c 0caa 0d3d c350 5d3d 3cdb e7bc
000002e0: 4f88 a0ba aaef 3abb e269 7dbc 6a53 a2bc
000002f0: 4a0a 053d c534 25bd c0ec e5bc 0a58 113d
00000300: a283 7c3c 507f 69bd aafe a83c fa52 8cbc
00000310: 67d8 8c3c 67ce 953d 2a86 97bd 7b67 643d
00000320: b615 29bd fad2 cd3c 250f 383d d388 d1ba
00000330: 0e92 59bd 1494 b7bc 1d17 88bd 7669 0fbc
00000340: f41b b73c ac2b c5ba 330c 93bd 04d5 433d
00000350: 5615 3d3d 32ed 883d ca42 a13c 44b7 b1bc
00000360: d1ed 233d df03 38bc df1b fe3c 6911 22bc
00000370: 5254 ffbc 6c01 403a 14bc adba c9dc 433d
00000380: 7ec1 49bd 196c 62bd f987 473d 0e6f 9cbc
00000390: d022 283d be60 3a3d d09a 813d 6204 6cbd
000003a0: b508 84bd 4ace 1f3d e1e6 043d 977d 45bd
000003b0: aed9 683d c0e8 5e39 16f1 6a3d 99b9 483d
000003c0: d3ce a8bd 29d2 acbc bc97 83ba 1a15 b83c
000003d0: 4c91 7fbd 118a 8e3d 4855 3c3d f6ff b03c
000003e0: 1819 e1bb 93fd 8b3d b8c2 89bd af7c 36bd
000003f0: 9560 83bc c061 7ebc 8bed 7abd dde0 39bd
0.011589651 -0.005604748 0.0028462152 -0.018471714 0.06511253 -0.04434687 -0.0076587056 0.069865264
0.002043084 -0.017981762 -0.026263675 0.06356009 0.0264585 -0.02190685 -0.027437186 -0.062093265
0.02927401 0.033733167 -0.04525871 -0.042039547 -0.02339846 0.07929329 0.05095441 -0.0449663
0.06607861 -0.047264434 0.0019551234 -0.035113435 -0.06354565 -0.00039646405 0.046460506 -0.03731858
0.069620356 0.005745116 0.059484962 -0.06393828 0.014911309 -0.046596292 -0.059012983 -0.0634361
-0.021037972 -0.05299448 -0.031894024 0.039246716 -0.05739378 -0.016780779 -0.055556014 0.014407432
0.0350294 -0.0315925 -0.07326294 0.03221968 0.04747026 0.019557945 -0.0017727803 0.058475703
-0.005439298 -0.048511613 0.06709388 0.022810126 -0.006532206 0.055878323 -0.033211857 -0.074771196
-0.028338369 0.03397499 0.078480646 0.00183602 0.040904664 0.030710177 -0.025845762 0.02989545
-0.02438938 0.0237219 0.0195193 0.028611414 -0.048348952 -0.05358197 0.07639706 0.048380654
-0.07055103 0.07505439 -0.030934539 0.044666205 -0.034377173 0.034954518 -0.061499048 -0.07038323
-0.04108052 0.05569112 -0.027863663 0.0027464149 -0.01579195 -0.08110965 0.02819648 -0.011280682
-0.0638849 -0.010483409 0.028874094 0.033882782 -0.027189352 0.04299402 0.036712408 -0.023260519
0.027845856 0.03144195 -0.017008001 -0.0070400937 0.014301465 0.053225208 -0.009069818 -0.024647385
0.059758708 -0.02083236 -0.038326632 -0.06318833 -0.01943678 -0.057427872 -0.026691895 -0.03963286
0.074325316 -0.0078057065 -0.041925047 -0.024970453 0.024578823 -0.050358325 0.03294605 0.010261794
-0.07064058 0.067812994 -0.07644095 0.025345856 0.06568439 -0.07127944 -0.07703125 -0.08180451
0.042723313 0.08495867 0.06438142 0.030924756 0.072274536 0.0882411 -0.01933138 0.027466482
-0.016675979 0.051132966 -0.06830629 -0.048149284 -0.0070639034 -0.031219017 0.042011954 0.034257945
-0.010235357 0.039021373 0.003926325 0.06723042 0.06929594 -0.034738038 0.048354622 -0.025534749
0.076661356 0.015652586 0.056625567 0.027703622 0.05016334 0.047169156 -0.033035107 0.005414224
0.01782646 0.05469108 0.015061596 0.0058242097 0.011763161 -0.05103041 -0.06328454 0.043652494
0.047291435 0.07533924 0.067247644 0.06329876 0.008866858 0.034585997 0.0540321 -0.028302781
-0.0012247654 -0.0028524199 -0.015467139 -0.019815166 0.032480516 -0.040333528 -0.028066993 0.03548435
0.015412243 -0.05700618 0.020629246 -0.01712941 0.017193032 0.07314759 -0.07398637 0.05576275
-0.04128047 0.025125016 0.044936318 -0.0015986211 -0.053117804 -0.022409476 -0.066450335 -0.008753171
0.022352196 -0.0015042922 -0.07180061 0.04781057 0.046162926 0.066858664 0.019685168 -0.021693833
0.04002172 -0.011231392 0.03101915 -0.009891846 -0.031168137 0.00073244306 -0.0013254904 0.04781798
-0.049256794 -0.05527887 0.048713658 -0.019095924 0.041048825 0.045502417 0.06328356 -0.057621367
-0.06446973 0.039015092 0.032446746 -0.048215475 0.05684822 0.00021258276 0.057358824 0.049005125
-0.082425736 -0.021096306 -0.0010039727 0.022471 -0.062394425 0.06959928 0.045979768 0.021606427
-0.0068694465 0.06835475 -0.06726593 -0.0445525 -0.016037265 -0.015526235 -0.061261695 -0.045380462

main.4.weight f4 [20]
00000000: 7f01 813f 7277 7f3f 5f0e 803f f21e 803f
00000010: 319a 813f c245 7f3f 5fbd 803f ef50 803f
00000020: b22b 803f 5b67 803f 6200 7f3f 5c3c 7e3f
00000030: 4776 7f3f b098 7f3f 5511 803f f31c 7e3f
00000040: 9081 7e3f f0bd 7f3f 2687 7f3f 5c0c 803f
1.0078582 0.99791634 1.0004386 1.0009444 1.012518 0.99715817 1.0057791 1.0024699
1.0013335 1.0031542 0.9960996 0.9931085 0.9978985 0.9984236 1.0005289 0.99262923
0.99416447 0.99899197 0.99815595 1.0003772

main.4.bias f4 [20]
00000000: d406 5c3a c921 6539 b787 f338 8066 333a
00000010: 2b84 933a f861 acba 0621 503a fa80 7f3b
00000020: 8fab ebba cbf4 0dbc a663 e5bb 5584 f03a
00000030: 6e27 4dba 64f0 94bb 2a87 893a b169 99b9
00000040: 629a 59bb c880 adba 4942 82bb 27d0 0cbc
0.00083933515 0.00021851728 0.00011612422 0.0006843582 0.0011254599 -0.0013151756 0.0007939491 0.0038986788
-0.0017980206 -0.00866432 -0.0070004044 0.0018349985 -0.0007826005 -0.0045452584 0.0010492553 -0.0002926118
-0.0033203592 -0.0013237232 -0.003975187 -0.008594549

main.4.running_mean f4 [20]
00000000: 7011 99c3 7ecb 1544 c4d6 19c5 b410 acc4
00000010: 306f 12c4 5257 9b43 bc0f f5c3 963e c943
00000020: 3329 80c4 05ad b0c2 c21c b6c4 0260 9e44
00000030: e97b 6fc4 b7f7 80c4 f8db cbc3 52c6 f644
00000040: 434c 3e45 61f3 81c5 e7a8 92c4 03ce bec3
-306.13623 599.17957 -2461.4229 -1376.522 -585.7373 310.6822 -490.12292 402.48895
-1025.2875 -88.33793 -1456.8987 1267.0002 -957.9361 -1031.7411 -407.7185 1974.1975
3044.7664 -4158.4224 -1173.2782 -381.60947

main.4.running_var f4 [20]
00000000: 312a ae49 7747 404b bc0b 694b 0baa 844a
00000010: 41e2 314a 2073 b34a fcd1 ba49 758d 384a
00000020: 4450 3b4a f857 084a 6b98 2a4b 5b52 b64a
00000030: 8053 ba4a c170 d44a 211a 634a 7660 6c4b
00000040: da8b 0e4c 4e5b d74b b806 3b4a ddf5 1d4a
1.4267581e+06 1.2601207e+07 1.5272892e+07 4.3471415e+06 2.9144482e+06 5.880208e+06 1.5304315e+06 3.0237092e+06
3.068945e+06 2.233854e+06 1.1180139e+07 5.9743175e+06 6.105536e+06 6.9612485e+06 3.7208402e+06 1.549119e+07
3.7367656e+07 2.8227228e+07 3.064238e+06 2.5880232e+06

main.6.weight f4 [40, 20, 4, 4]
00000000: 99fb c3bb 401c 5a3b 908e 81bc 9ab3 f4bb
00000010: b0bd a83c f33e a8bc 1aa6 9fbb f508 013d
00000020: 3fcb c8bc 8ab0 16bd 9111 a13a 36c5 243d
00000030: 58db 4b3d 45c0 ad3c 6030 a7bc 9c80 ba3c
00000040: 5a52 173d 211e 40bc 7a0b 5b3d 4834 a1bc
00000050: 51b2 403d 21a7 f6bc d405 2cbd a882 4f3c
00000060: 8a75 5ebd 39ae 2d3d 74ba 933c 2b38 f8bc
00000070: c337 73bb 52c4 a53c 2846 11bd 36ea 0dbd
00000080: 903a 4dbd bc9c e03c 1aff d13c a080 d8bc
00000090: 40c0 47bd 8920 7d3b 42e3 273d 96d2 463d
000000a0: d2ce 343d 56cb 52bd 7997 5fbd fbca ac3c
000000b0: 035e 22bd 542c 863c 5cf6 5f3d 54fd 9bbb
000000c0: b6f5 2dbd ee24 4cbd 28a4 233c 3476 173d
000000d0: 28b0 773c 3289 10bd a7a8 4d3d 70e5 383d
000000e0: f3f1 d03b 53ce 553d f5a6 2bbc 23d8 403d
000000f0: 422c 413d 9ef9 203c 53da 403c 4e56 0c3d
00000100: 318c 0c3c 6a45 aa3b 61f8 1a3d eb2d 003d
00000110: 9136 89ba ccfa 203d 8a3e c4bb 34aa 663d
00000120: 495f 5e3b 8b9f 203d 56b4 21bc abab 5f3d
00000130: 028a 4ebd 7824 3f3b 0cc9 cf3c 45c8 e43c
00000140: 5777 3dbd 2f1e 213c 98ca d73c 5b93 663d
00000150: 435c 2ebd 2d46 85bc a9a7 063d 0e6b cb3c
00000160: 8834 9d3c d5fd 503d 264c 623d 83fb 3f3d
00000170: 0566 02bd a68d 32bd 4615 09bc 701f 083d
00000180: dfdd 1fbd 7404 ee3c 3ba3 1d3d 15c2 11bd
00000190: ded3 d2bb adc5 22bd 2739 24ba 5bd7 263d
000001a0: 1455 273d c08d 4b3c 67ac 0b3d 8d65 4a3d
000001b0: 6388 19bd eca4 663d d626 783d f81e 63bc
000001c0: a0bc 343c 7d0c 21bd d222 e03c 6371 97bc
000001d0: 79d1 acbb ca2d 44b9 66b5 84bc 4f86 183d
000001e0: 674f e9bc 7289 433d 316d 563d caab bfbc
000001f0: 5edf f9bc 9e77 34bd 9c22 4a3d 2d17 1f3d
00000200: 21b9 183d 5fe0 be3c 6157 a1bc 525c 4abb
00000210: df96 273a 1b81 c23c 0d3a c03c 0b64 94bb
00000220: 6ea9 063d f28a b1bc 0772 053d e5a4 403d
00000230: e89e 99bc 9e1d 0abd 92d9 2ebd 5f74 af3c
00000240: 4bc1 fd3c 4b66 ba3c 6719 ec3b ee0a 543d
00000250: 2c40 2b3d 4a5c d43c b508 8fbc 4a01 e4ba
00000260: 0a95 b83c 5d64 22bb a6a4 343d c071 193d
00000270: 4b36 6b3d 235c 133d 7e08 a1bc cd3c 133d
00000280: 2ada cabc 5651 123d 7c0f 1abd e89b 2d3d
00000290: 568c 2d3c 6b90 1b3d b089 fa3c a6f1 9b3a
000002a0: 3ab0 a7bc b129 c03c 5707 10bd 4591 c8bb
000002b0: 5bf7 00bd 0d76 273d d207 883c 7e4a 373d
000002c0: d5dd 323d acce 093d c23b d63c 7887 493d
000002d0: 8727 523d a9e4 843b 7122 2b3c 76aa 0abd
000002e0: b8ad 9bbc 8f23 37bc 169f 17bc 2734 303a
000002f0: 0ee7 063d effd a7bc 98a8 4ebd 86f2 273d
00000300: eb86 ecbc 1f96 533c 971e 0cbd 762d 79bc
00000310: 1efb 2b3d 71ec 583d d22d 473d ba60 553d
00000320: 1540 053d 3d39 09bd c70d 3d3d b217 f93c
00000330: 740e 673d b0e0 c6bc 67fb a53c 1a96 2e3d
00000340: 239d 7b3c 6540 623d 56ca 09bd 2e1e e13b
00000350: 3c57 5a3d c7f4 4abc 3cec 9c3c 03c3 0a3c
00000360: d83a 1e3d db6e 58bd f925 f1bc f06c 14bd
00000370: 57e3 91bc cde1 663d a3a9 423d 5983 26bc
00000380: a7b8 caba 073b acbc db85 28bd 04b7 d9bc
00000390: aba2 4abd 65db 57bc e5fa 353d 47bc 4dbb
000003a0: bc28 903c c493 87bc af6c 59bd 22d2 78bc
000003b0: c80d 463c ce61 62bd f24e 183d 7766 29bd
000003c0: 6d1b dbbc 6851 49bc 1347 c13b 5e9f 15bd
000003d0: 540b cdbc 0df2 153d 80a3 293d 6714 a23b
000003e0: 33f4 103d 0d91 ef3c 7742 e7ba 4c4e 5d3c
000003f0: aeba d53c 500a 133d 615e 47bd e5dc e4bc
-0.0059809205 0.0033280998 -0.01581505 -0.0074676992 0.020598263 -0.020537829 -0.004872096 0.031502683
-0.024510978 -0.036789455 0.001228856 0.040227138 0.04976973 0.021209845 -0.02040881 0.022766404
0.03694377 -0.011725933 0.05347774 -0.01967825 0.047045056 -0.03010899 -0.041997746 0.012665428
-0.054311313 0.04240248 0.018033244 -0.03030022 -0.0037112094 0.020235214 -0.035467297 -0.03464719
-0.050104678 0.027418487 0.025634337 -0.02642852 -0.04876733 0.0038624129 0.040988214 0.048540674
0.04414255 -0.051463448 -0.054587815 0.021092882 -0.039640438 0.01637856 0.054678306 -0.0047604237
-0.042470656 -0.049839906 0.009987868 0.03697796 0.0151176825 -0.03528709 0.050209668 0.045140684
0.006376499 0.05219872 -0.010476817 0.047081124 0.04716135 0.009825138 0.011770803 0.034261994
0.008578346 0.005196263 0.03783453 0.03129379 -0.0010468533 0.03930168 -0.0059889005 0.056314662
0.0033931306 0.039214652 -0.009869656 0.054607075 -0.050424583 0.0029166024 0.025364421 0.027927527
-0.04625639 0.0098338565 0.026341721 0.056292873 -0.042568456 -0.016268814 0.032874737 0.024831321
0.019190088 0.051023323 0.055248402 0.04687072 -0.031835575 -0.043592118 -0.008366888 0.033233106
-0.039029952 0.029054858 0.038485747 -0.03558548 -0.006433948 -0.0397393 -0.000626462 0.040732723
0.04085262 0.012423933 0.034099963 0.049413253 -0.037483584 0.056309626 0.06058391 -0.013862364
0.0110313 -0.03931855 0.027360354 -0.018486684 -0.0052739945 -0.00018709074 -0.016199779 0.03723746
-0.028480245 0.0477385 0.052350227 -0.023397345 -0.030502018 -0.04405939 0.049349412 0.03884046
0.037285928 0.023300348 -0.019694986 -0.003087778 0.0006393026 0.023743203 0.02346518 -0.0045285276
0.032876424 -0.0216727 0.032579448 0.047032256 -0.01875253 -0.03371965 -0.04268796 0.021417795
0.030975958 0.022753855 0.0072051766 0.051768236 0.041809246 0.025922913 -0.017460207 -0.0017395404
0.022532005 -0.002477906 0.044102333 0.037461996 0.057424825 0.03597654 -0.01965737 0.035946656
-0.024762232 0.0357221 -0.037612423 0.042385012 0.010592541 0.037979525 0.030583233 0.0011897578
-0.020469774 0.02345738 -0.03516325 -0.006120833 -0.031485897 0.040884066 0.016605292 0.044748776
0.043668587 0.033644363 0.026151542 0.04920146 0.051307227 0.0040555787 0.010445223 -0.03385397
-0.019003734 -0.011177911 -0.009254238 0.00067216385 0.032935195 -0.020506827 -0.050453752 0.041002773
-0.028872928 0.01291421 -0.03420886 -0.015208593 0.04198753 0.052959863 0.048627682 0.0520942
0.032531817 -0.033501852 0.046155717 0.030406807 0.056410268 -0.024277061 0.02026148 0.042623617
0.0153572885 0.055237193 -0.03364023 0.006870053 0.05330585 -0.012387461 0.019155614 0.008469346
0.038630337 -0.052840095 -0.029437052 -0.036236703 -0.0178086 0.056367684 0.04752506 -0.010163152
-0.0015466408 -0.02102424 -0.04114328 -0.026576526 -0.04947154 -0.013174866 0.044428725 -0.003139274
0.017597549 -0.016549952 -0.053082164 -0.015186818 0.012088247 -0.055269055 0.037184663 -0.041357484
-0.026746476 -0.012287475 0.0058983653 -0.036528938 -0.025029816 0.03660779 0.04141569 0.00494628
0.035389137 0.02924397 -0.001764371 0.013507437 0.026089992 0.035898507 -0.04867399 -0.027937362

main.7.weight f4 [40]
00000000: 210d 833f ebd9 823f df4d 843f 40fb 823f
00000010: f170 863f c827 843f bb1c 843f ed1f 833f
00000020: 76ae 823f 63c5 833f ab73 843f ea75 883f
00000030: d3ab 833f be7c 863f bc70 843f b1ac 843f
00000040: 61b3 823f b6cb 813f b4f6 843f 7f7c 833f
00000050: 071b 853f 0531 823f 0a0d 823f 2b58 813f
00000060: e2cd 813f 19ae 823f 4647 823f f4f6 813f
00000070: d0e6 823f 671d 823f f782 853f 9594 813f
00000080: 0443 843f 3457 823f 19fa 823f 3d03 843f
00000090: 0bf1 823f 8a47 843f e6d9 853f 1367 853f
1.0238382 1.0222753 1.0336264 1.0232925 1.0503217 1.032464 1.0321268 1.0244118
1.0209491 1.0294613 1.0347799 1.0660985 1.0286812 1.0506818 1.0346904 1.0365201
1.0210992 1.0140293 1.0387788 1.0272368 1.0398873 1.017121 1.0160229 1.0105032
1.0140955 1.020938 1.0178001 1.0153489 1.0226688 1.0165223 1.0430592 1.0123469
1.0332952 1.0182862 1.0232574 1.0313488 1.022981 1.0334332 1.0457122 1.0422081

main.7.bias f4 [40]
00000000: 8227 083c 548f 273c 848d 2e3c 01bc 773c
00000010: e5ef 6c3c 582f b63c ed34 883c 16dc 413c
00000020: 145a 563c 786b 6b3c 7a68 2b3c 1923 f83c
00000030: 1704 7f3c 5020 aa3c facb 813c a95b 893c
00000040: b2d6 173c 02d3 763c a292 a13c eca2 563c
00000050: ef57 b03c 35ab 393c a970 183c 81f5 8b3b
00000060: 4553 f63b 018f 273c 6d11 4d3c bc9e a33b
00000070: d0de f23b a256 133c 789f 423c 1186 713b
00000080: b3e1 323c c8f6 273c 9e94 1e3c e3ef 803c
00000090: 409e 053c 2400 3d3c d977 ca3c 3b07 593c
0.008310201 0.010227043 0.010653857 0.015120507 0.014461492 0.022239372 0.0166268 0.011832258
0.013083 0.014368884 0.010461921 0.030290173 0.01556494 0.02076736 0.015844334 0.01676734
0.009267496 0.015064957 0.01972324 0.013100367 0.021526305 0.011332323 0.009304204 0.0042712097
0.0075172507 0.010226966 0.012516362 0.004993288 0.007411815 0.008992823 0.011878841 0.0036853591
0.010918069 0.010251708 0.009678988 0.015739387 0.0081554055 0.011535678 0.024715351 0.013246353

main.7.running_mean f4 [40]
00000000: f038 ea3e d0a6 83bd ca37 e83c e9e1 093d
00000010: 234e 183c df37 383e 0167 023d 86e3 253e
00000020: f285 de3d e656 553d d2fa 383d a2ed e83d
00000030: 664d 0a3e aecf 44be 4062 b9bc 3210 ba3d
00000040: 6f53 4dbd ec60 39be 60b1 25bd 1273 67bd
00000050: 2a3a cd3c 0393 15be 02b5 193e fa5e dfbd
00000060: f21a c93d 5ee3 533e e52b 153e b739 1e3e
00000070: 08b8 b2bc 1779 f7bc 4456 953d bfde cb3d
00000080: 23d1 b73d de54 2b3e a483 b5bd 406c 883d
00000090: 7d0f 783e 67d2 bcbd e031 063e d6f8 7d3d
0.45746565 -0.06428301 0.028346915 0.03366271 0.009295973 0.17990063 0.031836513 0.16200075
0.10865392 0.052084826 0.045161076 0.1137345 0.13506088 -0.19219849 -0.022629857 0.0908512
-0.050128397 -0.18103379 -0.04045236 -0.056506224 0.025052149 -0.14606862 0.15010455 -0.10906787
0.098195925 0.20692202 0.14567526 0.15451704 -0.021816269 -0.030209107 0.072918445 0.09954595
0.089754365 0.16731593 -0.08862999 0.06661272 0.24224658 -0.092198186 0.13104963 0.062004887

main.7.running_var f4 [40]
00000000: 2d62 1a3e 5808 d13d 6ac8 a33d 9476 a63d
00000010: 197f 033d 6286 a83c fc1f eb3c 80c5 503d
00000020: 097a d13d b7f9 3f3d 52e3 2c3d bebb 123d
00000030: 993f ed3d bab4 5d3c f75f 5a3d 8bc0 dd3c
00000040: 267d 863d e30d 003e 15cd 923c 4742 dd3c
00000050: 799f 8d3c 243c 203d 0b07 f33c a840 803d
00000060: 9e0e 313d 7e96 1b3d fa60 0e3d f552 fe3d
00000070: 4f63 803d 5c29 ab3d a509 063d 26b9 b43d
00000080: c9d1 673d 3879 753d 5e65 0e3d 241e 863d
00000090: 3bc7 a53d 6263 173d 1de3 913c 2118 c03c
0.15076514 0.102066696 0.0799721 0.08128086 0.03210363 0.020571891 0.028701775 0.0509696
0.102283545 0.046869006 0.042208977 0.035823576 0.11584396 0.013531858 0.053314175 0.02706935
0.06566839 0.12505297 0.017920056 0.027009143 0.017287957 0.039119855 0.029666444 0.06262332
0.04322683 0.037985317 0.034760453 0.124181665 0.062689416 0.08357498 0.03272404 0.08824377
0.05659655 0.059930056 0.03476464 0.065487176 0.08094641 0.036960013 0.017808491 0.023449006

main.10.weight f4 [180, 360]
00000000: ab32 84ba 0dc9 213d 1bb1 dbbc 6228 e23c
00000010: 6fb3 9e3a 66a4 dc3c bc4e 363c b75b 403d
00000020: 231f 023d 139c bd3c d4f1 803b 03ad 963c
00000030: 43a2 0e3d af3b d23c 8cad 2ebd c6d3 683c
00000040: 67ed 26bd 425d 34bd 47ff 163d 060e ccbc
00000050: f942 213d 4740 c6bc 3497 c53c 9adf 553d
00000060: 35f5 b5bc 2295 c03b 13a8 b3bb bc7b e1bc
00000070: c2ae ddbc 95d0 ebbb de32 d4bb d1ac b0bc
00000080: 939b 173d c542 253d c3fa 633d 4d3e 98bc
00000090: cc1e 1b3d 966c 5d3d c21d ebbb 45b4 b0bc
000000a0: 6a43 023c b154 b53b 60c1 38bc b214 c33c
000000b0: e91f e7bc 7dcb a73a 6f21 a6bc e09f ebbc
000000c0: 3a49 3bba c560 8f3a 4b07 15bc 1da5 563d
000000d0: 7891 7b3c e90a d5bc de56 313d c630 18bc
000000e0: 5849 293d b686 613d 5206 1b3d cb44 35bc
000000f0: af8a 3cbd 149e 313d 4b57 82bb 267b 923d
00000100: cc3e 0fbd 5d1c 22bd 43c9 2cbd 59fb b73c
00000110: 2296 203d 9a62 45bd 2723 583d bf29 43bd
00000120: efa5 523d 04f7 2fbd 8261 d4bc 33cc 1d3d
00000130: 2e49 5cbc 1bb4 16bd 9c53 263d 64bd 34bd
00000140: a16a 9f3c d0e4 233c b776 233d b14a c6bc
00000150: ce03 bd3c c544 f0bb c148 35bd 5e52 8ebc
00000160: ed1d 6d3d acd3 e03c 0320 713d 2cc3 203d
00000170: 6187 803c 8541 40bd 35f0 10bd b075 b63b
00000180: 581d 273d 2d91 05bd c9a3 5cbd 694d 393d
00000190: 122c 493d 75a8 423d d582 c03c 8058 71bc
000001a0: b186 16bd 38d3 173d b5e3 20bd 58aa 96bc
000001b0: fa04 253d 5033 613c 56e3 adbc 1c4c 40bd
000001c0: d8b2 f03c 57b5 e6bc ff35 d73c cf9d 07bd
000001d0: 8767 5dbd e1a7 5b3d 7ec4 3b3c c911 8d3c
000001e0: 0ab2 05bd 2c0a 3fbc 959d f7ba 73e0 053c
000001f0: 7f68 2ebd 80dd f8bc dabf 26bd 75ab a7bb
00000200: c440 59bc 15a0 833c 53be b43c d800 ca3c
00000210: b762 8d3b da4a 4dbd 7379 32bd 4495 79bb
00000220: 5206 fc3c db17 1d3c f1ac 583d 25d8 b63c
00000230: 1a61 3ebc 5081 213d d766 f8bc 5758 79bc
00000240: 0496 273d 686e cc3b 5805 3b3d 04e4 b83c
00000250: 45b9 ae3c 925e 19bb 21c7 c53c e325 383d
00000260: 5c51 94ba 3e99 5aba 83da 003d f744 e43b
00000270: 3cc7 a23b 44e9 133d 1b5e f6bb ece9 e9bc
00000280: 8f05 303d 9f3f 1b3c 173c 3c3d 6b7f c93c
00000290: e566 8f3b 74ea 3e3d 6aba c1bb 21ff 05bd
000002a0: 3f6e 1b3d b2ac cc3c ecdb 813d c7f0 003d
000002b0: e478 7cbc 23e5 a03c 33a4 993b 78a2 993d
000002c0: 0883 0b3d 492f fa3c b823 38bd 1223 333d
000002d0: fd35 15bc 5c21 643d b054 aa3b 7e85 36bd
000002e0: 300d aabb 5db8 e9bc a6b2 073b 218f 1fbd
000002f0: 03aa a3bb 21b2 afbb 8a97 17bd e56a 3dbb
00000300: ecbc 033d 9fee 3d3d 0793 543d 9ac8 1bbd
00000310: 14dd df3c 5228 603d fb4c a93c c5dd 813c
00000320: 263b a53b 9de3 bd3c 542f b0bb c957 a9bc
00000330: 6e2e 303d c8d6 31bd ec57 bd3b f9a3 1dbd
00000340: 4c02 703c f2e8 a63c c6e5 493d bfb8 ddbc
00000350: d641 063d f388 d83c 8264 55ba 5940 babb
00000360: cbd6 2a3c f6ac 293d 9c42 98bb ad31 4f3c
00000370: 45d5 203d ad4c 32bd 314c e7bb 209f ea3c
00000380: 7831 c53c c6b3 f138 62d2 81bc e853 39bc
00000390: 3548 d8bc c2a9 843c 6dab 913c 324a 8f3d
000003a0: 587e 233d 5ab0 b33c c17d 093d cd26 743c
000003b0: 7ea9 c8bc 98fb dabb d999 603c 944f 253d
000003c0: 25ea 8e3c 9612 503d f587 bc3b b6f2 b93c
000003d0: 58cb a9bc eea1 3fbd 65e5 8d3d a9b5 f7ba
000003e0: 5a6a 42bc 94e3 34bd ac7c 283d 8051 413d
000003f0: db08 eb3b 09e6 64bc 0b48 443d 1781 2abd
-0.0010085901 0.039498378 -0.026817849 0.027607147 0.0012107919 0.02693386 0.01112717 0.046962466
0.031767976 0.023145711 0.003935078 0.018393045 0.034822714 0.025663225 -0.042645976 0.014210647
-0.04075375 -0.04403425 0.036864545 -0.02490903 0.03937051 -0.024200572 0.02411995 0.052215196
-0.02221165 0.005877153 -0.0054826825 -0.027524821 -0.02706087 -0.007196496 -0.0064757904 -0.02156678
0.0370136 0.04034688 0.055659067 -0.018584395 0.037871167 0.054058634 -0.0071751783 -0.021570334
0.007950643 0.0055337776 -0.011276573 0.02381358 -0.028213458 0.0012801733 -0.020279614 -0.028762758
-0.00071443955 0.0010938874 -0.009095977 0.052403558 0.015354507 -0.026006179 0.043295734 -0.009288972
0.04132971 0.05506011 0.037847824 -0.011063765 -0.046030696 0.043363646 -0.0039776913 0.07152395
-0.034971997 -0.03957783 -0.042184126 0.02245872 0.039205678 -0.048189737 0.0527679 -0.047647234
0.051427778 -0.04296018 -0.025925402 0.038524818 -0.013445182 -0.036792856 0.04060708 -0.04412593
0.019460024 0.010003284 0.039908137 -0.024205538 0.023073103 -0.0073324167 -0.044258837 -0.01737326
0.057889868 0.027444683 0.05886842 0.03924863 0.015689554 -0.046937484 -0.03538533 0.0055682287
0.04079947 -0.032609154 -0.053867135 0.04523984 0.049114294 0.047523934 0.023499886 -0.014730573
-0.036749545 0.03706667 -0.03927966 -0.018391773 0.04028795 0.013745144 -0.021226566 -0.046947584
0.029382154 -0.028162641 0.026270865 -0.033109482 -0.05405381 0.0536269 0.011460422 0.017220395
-0.032640494 -0.01166014 -0.0018891568 0.008171189 -0.042580124 -0.030379057 -0.040710308 -0.005116875
-0.01326007 0.016067544 0.02206341 0.024658605 0.0043147462 -0.050120212 -0.043572854 -0.0038083354
0.030764733 0.009588207 0.052899305 0.022319863 -0.0116198305 0.039429963 -0.030322475 -0.015218816
0.04091455 0.0062387474 0.045659393 0.022569664 0.021328578 -0.0023402316 0.024142804 0.044958007
-0.0011315751 -0.0008338875 0.03145839 0.006966229 0.0049675982 0.03611113 -0.0075185425 -0.028553925
0.04297405 0.009475618 0.045955744 0.02459689 0.0043762797 0.04661031 -0.005912115 -0.032714013
0.037946936 0.024984691 0.06340775 0.031479623 -0.015409682 0.01964051 0.0046887635 0.075016916
0.034060508 0.030540125 -0.04495594 0.043734618 -0.00910711 0.055695876 0.005198084 -0.0445609
-0.0051895604 -0.028530294 0.0020705848 -0.038954858 -0.004994632 -0.005361811 -0.037009753 -0.0028902825
0.03216259 0.046370145 0.05189803 -0.038033105 0.027327098 0.054725952 0.02066659 0.015852818
0.0050424514 0.023179824 -0.0053767357 -0.020671742 0.04301303 -0.043417722 0.0057783034 -0.038486455
0.014648985 0.020374749 0.049291395 -0.027065633 0.03277763 0.02643249 -0.0008140282 -0.0056839404
0.010427187 0.041424714 -0.0046466123 0.012646121 0.03926589 -0.043530155 -0.0070586433 0.02864033
0.02407144 0.00011525261 -0.015847389 -0.011311509 -0.026401618 0.016194228 0.017781937 0.069965735
0.039915413 0.021934677 0.033567194 0.014901829 -0.024494883 -0.0066828243 0.013708555 0.040359095
0.017445633 0.050798975 0.005753512 0.022698741 -0.020726845 -0.046785288 0.06928519 -0.0018898743
-0.0118661765 -0.044162348 0.04113452 0.047196865 0.0071726865 -0.01397086 0.047920268 -0.041627016

main.12.weight f4 [90, 180]
00000000: f2cf 09bd 9299 433d e0ea 88bd cbff 82bd
00000010: b47c c33c 3a5e bf3d 1eec 99bd 59d4 bdbc
00000020: c0d3 213d 93a4 8a3d 8319 48bc 710f c5bc
00000030: 72c8 96bd 9f93 3a3c beb6 b33c 5f63 803d
00000040: d5cd 95bd e74f 99bc 03f1 3d3d 6fca e5bc
00000050: 1d9d c13c e666 cb3b 9062 803d d653 a4bc
00000060: 5414 1bbd b4c5 203c 77f4 93bd 101a 963d
00000070: c167 953b 9784 85bd 2bed 25bd e9e5 ab3d
00000080: 45e0 9d3c 9723 683d 214a 7e3d 7638 093c
00000090: fcc4 4c3c 5a6c 8cbc fd1b 8f3d 6d6a 873d
000000a0: d2a6 3a3d fa40 ea3c 295f cdbc 9121 24bc
000000b0: 5b70 153d 8bc2 ae3d 955d 403c 1167 343c
000000c0: a1cd 9b3d 51a1 8e3d 78c0 9a3d e915 633d
000000d0: 7e41 8c3d ac30 723d 25ff 6f3c 193f a4bb
000000e0: eca7 ff3c 0d7b cebc 18c6 413d 560d 403d
000000f0: 3cb2 903d 5a9d 8c3d 5c46 cdbc da2d 523d
00000100: 65cc b7b8 6551 393d ec09 3dbd cdf9 243d
00000110: e16f 26bd e067 99bc 746c 11bd e6f1 95bc
00000120: 9dc6 9ebb 8815 3abd 9cfe 9e3d dd53 22bc
00000130: b9c6 de3c 62cd bebc e789 f8b9 2b3a 37bd
00000140: d8d9 48bc 6af3 9dbd adfe 0fbc c8ac d3bc
00000150: a2ac 4ebc 87a4 d03c 0b27 7dbc 3967 a2bc
00000160: cde1 28bd 3539 23bc 6799 0abc 1a8f cc3c
00000170: 0973 8dbc 630c 94bc f94e abbd fba5 5d3a
00000180: 035e f2bc 5109 183d 12db 113c f82f 21bd
00000190: 8a0d 423d c9d3 8a3d 7b6b 9abd 5288 613d
000001a0: 57e5 abbc 4d26 48ba 52f5 b93d 1b03 5d3d
000001b0: c9bf 543d e759 3b3d 9bbf 383d d2a8 503c
000001c0: f43b 31bd 64ba 6cbd 80ef e4bc 7596 813d
000001d0: 88af 11bd 1a20 ecbb 9fd7 66bd e504 ed3c
000001e0: e032 8bbd db1b 0ebd b040 c93c d403 833c
000001f0: 7c34 01bd ef97 0d3d d007 713d 7af9 143d
00000200: c4ae 28bd e2fd edbc 7755 913c 6c75 6fbc
00000210: 9516 82bd fa45 6bbd 3e7a 2b3d 672d bc3c
00000220: 3d06 433d ae00 d1bc 27bd 873d 1c95 2fbd
00000230: 0d72 50bb 6d21 3e3d 3ce4 79bd e626 0ebd
00000240: 203c 1b3d 222a 003c dfeb 62bd b401 5f3d
00000250: dd27 703c 6b57 bc3d d95f dfbc 3e69 373d
00000260: 9e6b b43d 5df0 8dbd 4c5c cb3c 115f 463c
00000270: 96e6 4a3d 6a13 613d afbb ee3c c037 4cbd
00000280: fc2c 823c 76b2 093d 2e44 753d fe27 9d3d
00000290: 5d8e d6bc c576 edbc 3ec1 833d 1da5 133d
000002a0: 1cce cd3c eca2 5abd 990f 40bd 59b1 953d
000002b0: 0017 783d 2de7 973c d455 583d 6c8b 4c3c
000002c0: b06f 8abd 6024 8b3c 7b6d 873d ddaf 8ebd
000002d0: a75c d03d f4ad 28bd 9118 76bd ca48 ccbc
000002e0: 8e8f 1f3d 5e04 14bc 8dc5 883d 0328 7bbd
000002f0: bee9 e03d 69e8 11bd 3799 493c 5713 3fbd
00000300: 0cb0 e4bc 58db 543d 4fba 99bd 7058 3e3d
00000310: ce51 863d c1d7 f63c 4de9 86bb 5ff8 76bd
00000320: 4304 96bd 6382 543d f586 ee3d 7526 febc
00000330: 3b3c af3d 818f 07bd 367f 77bd 489f 14bd
00000340: 7004 343d ca42 f63d 2b58 fa3c 1dc9 00bd
00000350: 5ec8 5bbd 9dd2 723b 7641 4ebd 1749 91bd
00000360: 5fd8 873d e9d5 dcbc 4276 913c 774b dbb8
00000370: ad4b 793c c9de 593d 7799 73bd a249 78bd
00000380: d7c1 5b3c ad4e 66bd 35cd 283d dd7d 90bb
00000390: 2921 9f3d 9ff6 973d b3e9 033c 43f0 103d
000003a0: c74f 8ebd e253 723c e829 79ba ac5e 32bd
000003b0: 7368 6b3d 3518 44bb 238f afbc 5032 b6bd
000003c0: bddb 9c3d 31d9 44bc 118c c63d d469 89bc
000003d0: 1054 953d 5c0b 753d 766f 95bd b61e 84bd
000003e0: cd87 9bbc b9e8 85bc fddd 533c c2f3 aa3c
000003f0: bafe 673d 97a5 31bc a8ac 963b a4d0 5b3d
-0.033645578 0.047753878 -0.06685424 -0.06396445 0.023863174 0.09344144 -0.07515739 -0.023172544
0.03950858 0.06769671 -0.012213114 -0.024055215 -0.07362451 0.011387735 0.021937724 0.062689535
-0.0731465 -0.018714858 0.046372425 -0.02805063 0.023634488 0.006207335 0.06268799 -0.020059507
-0.037861183 0.009812761 -0.07224362 0.0732919 0.0045594876 -0.0651943 -0.040509384 0.08393461
0.01927198 0.056674566 0.062082414 0.008375278 0.012498137 -0.01714151 0.0698776 0.06612096
0.04556925 0.028595436 -0.02506979 -0.0100177685 0.036484104 0.085332 0.011741062 0.011010901
0.0760758 0.069643624 0.07556242 0.055440817 0.06848429 0.05912845 0.014648234 -0.0050124046
0.031208001 -0.02520516 0.047308058 0.04688772 0.070652455 0.0686595 -0.025057964 0.05131326
-8.7641914e-05 0.04524364 -0.04615204 0.04027729 -0.04063404 -0.01872629 -0.03550382 -0.018303823
-0.004845454 -0.04543069 0.07763407 -0.00990769 0.027194368 -0.023291294 -0.0004740499 -0.044733208
-0.012258969 -0.07712443 -0.008788747 -0.025839224 -0.012614401 0.025469078 -0.015451203 -0.019824611
-0.041230965 -0.00996237 -0.0084594255 0.02497058 -0.017266767 -0.018072313 -0.08364672 0.0008455214
-0.029585844 0.03711826 0.008902328 -0.039352387 0.047376193 0.06778676 -0.075400315 0.055061646
-0.020983381 -0.0007635102 0.09079994 0.05395804 0.051940713 0.045740034 0.045104604 0.012735562
-0.043270066 -0.057794943 -0.027946234 0.063275255 -0.03556779 -0.0072059752 -0.056357976 0.028932998
-0.06796813 -0.034694534 0.024566978 0.015993036 -0.031544194 0.034568723 0.05884534 0.036370732
-0.041182294 -0.029051725 0.017740948 -0.014615398 -0.063519634 -0.05743978 0.041864626 0.022970868
0.04761337 -0.02551302 0.06627875 -0.04286681 -0.003180626 0.046418596 -0.061008677 -0.034705065
0.037899137 0.007822545 -0.055400725 0.054444984 0.014657942 0.09196361 -0.027267383 0.0447781
0.08809589 -0.06930611 0.024824284 0.012107627 0.04953631 0.054950155 0.029142229 -0.049857855
0.01589059 0.03361746 0.059879474 0.076736435 -0.026190931 -0.028987298 0.064333424 0.036046136
0.025122695 -0.05337803 -0.046889875 0.07309217 0.06056881 0.01854285 0.052816227 0.012484413
-0.06759584 0.016985118 0.066126786 -0.06967137 0.10173922 -0.04118152 -0.060082022 -0.024937052
0.038955264 -0.009034244 0.06678305 -0.061317455 0.10982083 -0.035622034 0.012304596 -0.046649303
-0.027915977 0.051966995 -0.07506239 0.04647106 0.06558572 0.030132176 -0.004117167 -0.06029546
-0.073250316 0.05188216 0.11646835 -0.031024197 0.0855641 -0.03309584 -0.060424052 -0.036284715
0.043949544 0.12024458 0.03055962 -0.031441797 -0.053657882 0.0037051805 -0.050355397 -0.07094019
0.066330664 -0.026957469 0.017756585 -0.0001045679 0.015215796 0.05319098 -0.059472527 -0.060617097
0.013412914 -0.056227375 0.041211326 -0.0044095353 0.07769997 0.07420086 0.008051324 0.03538538
-0.0694881 0.014790507 -0.0009504841 -0.043547317 0.057472657 -0.0029921655 -0.021430558 -0.08896315
0.07659099 -0.012014673 0.09694684 -0.016774096 0.07291424 0.059825286 -0.0729665 -0.0645117
-0.018985653 -0.016346322 0.012931344 0.020868186 0.05663941 -0.010842702 0.004598219 0.053665772

main.14.weight f4 [45, 90]
00000000: 4a09 403c 56b6 8fbd 70ba bf3d 86d0 8cbc
00000010: 73d8 8e3c 3a23 b43d 4d5b ac3d 88c6 523d
00000020: 5e1a c0bd c0e0 c2bd 052f b0bd 0b7f 0d3d
00000030: 7994 a0bd f1df de3d 2b13 993d ac07 80bd
00000040: c415 7abd 0177 713d cbfc 0dbd 3b59 973d
00000050: 03d9 cc3d c3e8 863d fe25 a53d 08b2 c93c
00000060: c494 a43d 7163 d13c bd95 893b 2f49 6d3d
00000070: 8ff2 6a3d cbeb 13bc b3e6 ab3c 6c78 6cbd
00000080: c2f4 e4bd a8c3 dd3c abad a73d ed44 913d
00000090: 1aba 40bd c700 1dbb 3ed1 cdba 879c 61bc
000000a0: 5aa7 3b3d 8819 d1bc 5aba b5bd b0e4 babd
000000b0: 950e 36bd 5a6f 053d 645d 9abc 7b3c b03d
000000c0: e9ce d23d 6a43 5d3b 779e ccba 9260 9bbd
000000d0: 65a6 d6bd c43b 073d c16b 79bd 3dfa 4e3d
000000e0: 5bf3 93bd dd0d cfbd f723 f73d 4660 44bd
000000f0: 2e8f 89bd 48ad b6bd 1dc3 8f3d bf1d 75bc
00000100: 0b45 5b3d 8752 903c e773 e13d 6cd9 cb3d
00000110: 13c3 a8bd 2a5e acbd 0e49 353c 938d 76bd
00000120: 1e9d 143d c62d 933d fc2c 97bd e179 23bd
00000130: 95b8 07bd 9613 b5bc 866f ac3d 43db b43c
00000140: f278 9e3d 4f96 55bd d173 883d f8a0 54bd
00000150: 3f25 35bd 8276 983d 1413 7a3c a26f 903d
00000160: 8fa0 98bc f165 83bc 88c9 3abc 2bd4 0d3e
00000170: a5c1 74bd 09ab 54bd ff15 273d cd71 c23d
00000180: d4a9 623b 957a 143c ecb5 9c3d e21f 89bd
00000190: 4835 6ebd 2448 d33d b787 aebc 3b6d 14bc
000001a0: d7d8 27bb 40f5 0f3d a108 f0bc e2ac 833d
000001b0: 5a16 0e3d e756 c0bd 5c68 b0bc be10 233e
000001c0: 03db 753d 579a cf3d 79a4 99bd 8d23 733d
000001d0: d212 d6bd ede6 bf3c 9fa8 aabd 023f cebd
000001e0: 79a2 163d 2a85 fabc 0074 f7bd e891 0cbe
000001f0: 28de c4bd 61f1 8a3d 50cd 1ebd b1cf 913d
00000200: cc18 e7bd e98d 70bd 3976 d33b e484 313d
00000210: f218 113a fbd0 f63c bdd8 5fbd 7160 babc
00000220: 456e 113d 07ec babd e9c4 943d 5e3f e8bc
00000230: 4bf5 d2bd 9722 c73c 9afe 13bd eabf 193d
00000240: d4a0 a13d ffe2 383d e405 843d d160 7fbd
00000250: a1c1 153d dafe 42bd a9c0 0d3e 7faa a83c
00000260: b323 533d 5361 853c 2788 7abd 7cdf 133d
00000270: a6e4 a23d 762d 183c 0014 07bd ca0b c5bd
00000280: 4adf deb9 40bc 4b3d 0d63 953d 049d d7bd
00000290: 9476 893c 0d25 adbc eb25 12be 6b8c c13d
000002a0: bf05 c43d 615a dfbd 8d5e a33d 51c6 41ba
000002b0: 6e1e 5d3d f275 c93d 35b4 9d3c b8d0 dcbd
000002c0: 6640 fcbc 0e47 b63c 3967 94bd 8641 d33d
000002d0: 47b8 7abd 2f99 a6bc 644b e93c eff2 d83c
000002e0: 40cb 033e dd40 9abd 306b c8bc 7e30 b1bd
000002f0: 00e0 14bd 8dab 363d 1a67 8e3d 0cd3 543d
00000300: 7660 ccbd b916 cabd 4b47 b2bd 0284 c1bd
00000310: 3162 643d 97ba d8bd f60f d03c 80f8 da3c
00000320: 30a3 60bb e53b e3bc cd38 ce3d dafd a33c
00000330: eb72 9a3c 88f3 22bc 0377 303d 551e 203d
00000340: 294d a4bd 4ab7 143c 3114 f23d 6022 a23d
00000350: e387 e93d 55ad 573d 9f89 88bd 95b2 83bd
00000360: 811c d83c f46e 823d d041 7abd f6f3 cfbc
00000370: b33d 913d a8cf 43bc d415 793d 65dc 5fbd
00000380: 7d5c 97bc 348f 443c b046 b8bd 5416 b23d
00000390: fb76 553d 46f7 353d f6a3 97bd 8eb9 203c
000003a0: 8a28 513d ac96 e7bc 994a ca3d 0f41 e23d
000003b0: 786b debd 29b1 a1bd 168b c0bd ba84 c93d
000003c0: 4840 a23d cafe ccbc b26a f43b bfa4 1dbd
000003d0: d4df 50bd b855 aabc 40ef 8cbd b4c3 c33d
000003e0: a688 46bd 59ea 963b 59f2 a53d 84e3 fdbc
000003f0: 4ade c4bd af47 9abd 939b 8abd 54b5 863d
0.011720965 -0.070172 0.09361732 -0.017189275 0.017437195 0.087957814 0.08415852 0.051458865
-0.09380029 -0.09515524 -0.08602718 0.034544986 -0.07840819 0.10882557 0.07474359 -0.06251463
-0.061055914 0.05895138 -0.03466491 0.07390066 0.10002329 0.065873645 0.08063887 0.024621025
0.08036187 0.025560113 0.0041987584 0.05793112 0.05736023 -0.009028385 0.02098403 -0.05773203
-0.11179496 0.027070835 0.081874214 0.07093225 -0.04705248 -0.0023956762 -0.0015702618 -0.013770229
0.045813896 -0.02552487 -0.08873434 -0.0912565 -0.0444475 0.032576896 -0.01884336 0.08605286
0.10293371 0.0033762106 -0.0015611191 -0.07586779 -0.10480956 0.03301598 -0.060893778 0.050531615
-0.07224151 -0.10110066 0.120674066 -0.047943376 -0.067167625 -0.089197695 0.07019637 -0.014960705
0.05353264 0.017617477 0.11008435 0.09953579 -0.082403325 -0.08416398 0.011064781 -0.06019361
0.03628265 0.07186465 -0.07381627 -0.039911155 -0.033135016 -0.022104066 0.08419709 0.022077208
0.07737912 -0.0521453 0.06662715 -0.051911324 -0.044224974 0.074444786 0.015263338 0.07052542
-0.018631248 -0.01603982 -0.011400588 0.13850467 -0.059754986 -0.051920924 0.04079246 0.09494362
0.0034586089 0.009062429 0.07651886 -0.06695534 -0.05815628 0.10316494 -0.021304948 -0.009059246
-0.0025611424 0.035145998 -0.02930099 0.06429459 0.034689285 -0.09391575 -0.021534137 0.15924355
0.06002332 0.1013686 -0.07502074 0.059360076 -0.104528084 0.023425544 -0.08332943 -0.100706115
0.03677604 -0.030581076 -0.12082672 -0.13727534 -0.096126854 0.067843206 -0.03877002 0.07119692
-0.112840265 -0.058729086 0.006453302 0.043339625 0.0005535028 0.030128947 -0.054650057 -0.022751065
0.03550555 -0.0912705 0.0726412 -0.028350528 -0.10300692 0.024308486 -0.03613148 0.03753654
0.07892004 0.045138355 0.06446436 -0.06234819 0.036561612 -0.047606327 0.13843025 0.020589111
0.051547717 0.01628176 -0.061165 0.036101803 0.079537675 0.0092881825 -0.032978058 -0.09621389
-0.00042509503 0.049740076 0.07294283 -0.10527995 0.016780175 -0.021135831 -0.14272277 0.09450611
0.095714085 -0.1090591 0.079770185 -0.0007391917 0.053984098 0.098369494 0.019250968 -0.107819974
-0.030792426 0.022250678 -0.07246251 0.10315232 -0.061210897 -0.020336716 0.028478332 0.026483027
0.12870502 -0.07531903 -0.024465173 -0.08651827 -0.036346436 0.044597197 0.06953259 0.051959082
-0.09979336 -0.09867615 -0.08705004 -0.094490066 0.055757705 -0.10582464 0.025398236 0.026729822
-0.0034276955 -0.02773852 0.10069428 0.020018507 0.018853625 -0.009945758 0.04308225 0.039091427
-0.0802253 0.009076903 0.118202575 0.07916713 0.114028715 0.052655537 -0.06666874 -0.06430546
0.02638078 0.06368819 -0.06109792 -0.025384884 0.07091846 -0.011951365 0.060811833 -0.054653544
-0.018476719 0.011997033 -0.089978576 0.08695665 0.05211542 0.04442527 -0.0740432 0.009809865
0.05106405 -0.028270088 0.098775096 0.11047565 -0.10860342 -0.07895119 -0.094015285 0.09839769
0.07922417 -0.025023837 0.007459008 -0.038487192 -0.05099471 -0.020792827 -0.06881571 0.09558812
-0.04847016 0.004605573 0.08102865 -0.030992277 -0.09612711 -0.07533204 -0.06767955 0.06577554

main.16.weight f4 [4, 45]
00000000: cde4 b33d 9a48 7fbb 47b5 68be a120 cd3b
00000010: 4d13 2ebe acfa 5cbe c978 93bd d7fd 723d
00000020: ce8d 83bd d4ef bebc d94e 85bc 97da 643d
00000030: 65e7 b83b 6419 613d e29d 0cbc cfe6 5c3d
00000040: b74a 213e a4ac 173e e68a 8cbe 85cc 7abe
00000050: 0017 643e 2cfd 32bd db93 1fbe f403 483e
00000060: c63c 02be 945b 3dbc 1cc0 52be ae7f 27bd
00000070: 78a3 d0bd 8a09 8f3d f784 073e 653d ee3d
00000080: 7a27 3d3e ad92 06be 683a eb3d d80c 9ebe
00000090: b0d4 c2bb b7c1 0b3c 25e7 9e3d 6538 023e
000000a0: 67b1 29bd 393f 91bd bfd4 c5bc a731 65be
000000b0: b592 143e 497a ea3d 59c2 083e d7e4 dfbd
000000c0: 10fb 343e a4ab 003e 6489 873d ec2e 2b3e
000000d0: b7ba 60bd 9c14 ffbd 50c3 00be 29fa 80be
000000e0: 9a8b fcbd d039 d83d b5df c8bd 81f9 02be
000000f0: 1351 85bd aa39 bc3d 099b fabd 11ca dabd
00000100: e7bc 67be 89ef 243d 7e17 92be 69ac b93d
00000110: 0584 57bd a3aa 213e b4b5 67be 02fd 4bbe
00000120: 7a52 8f3c f7ec 0cbd 2b9e 97be 9c9a 50be
00000130: 9346 8abd 5097 c73d 263f 66be e911 45bd
00000140: 94f7 673e 66b5 f13c 273a 883d 06ab f33d
00000150: fa0a ccbd e266 ce3d cee4 7abd b48d 143e
00000160: e3e6 133d e912 a33d 5772 c13c 0b8a 6ebe
00000170: 84a4 9d3d 8749 78be 2844 853d c866 f4bd
00000180: d508 8fbe c430 453e ac1c 83be 5737 c53d
00000190: ce10 373e 87f1 61be 5555 0dbe b927 6bbe
000001a0: a11b 3fbe d90a 5e3d 8f83 903c a1bb 313a
000001b0: b698 66bc 5eee d13d 32a4 4bbe b7a4 393e
000001c0: d401 973d 9757 e03c b6ac 41be b6bb 8c3d
000001d0: 4b0b 423e 6095 013e 867b a83d de9b 933d
000001e0: d401 f93d 358a cb3d 58ec 9abe 94ce 00bc
000001f0: 37b9 673d dc07 83be 65b5 a3bd e448 c83d
00000200: d701 1d3e 3228 9e3c b4c9 103e 3d92 833d
00000210: e9a2 153d 0167 58be 7402 52bd 2772 b8bd
00000220: 48d3 75be fa17 9ebd 929c 813d d993 0e3d
00000230: b1ff 683e e4c1 09be ab3e 8ebd 662f f0bd
00000240: e68e cf3d 3f4b 1ebe 6788 a6bd 798f 153e
00000250: b0d7 aabe 1697 cf3d 0772 dd3b e017 d13d
00000260: 1c07 50be 0e83 ba3d 874d 473e 6349 d9bd
00000270: e100 92be 369d ef3d 3b85 3c3d 6f00 043d
00000280: fe31 d13d 61d3 5d3e 7029 dc3c 32db dd3d
00000290: 956e d53c e7d7 5abe 4a7a 05be b112 55be
000002a0: 99a8 6dbc 5e2a 053e 7318 bf3b 0e36 023e
000002b0: 267b 113e f28e 8e3d 0500 0c3e c1f5 9a3d
000002c0: 8007 0fbe b7b9 69bd c4fa 363e ca77 a7bc
0.08783875 -0.0038953186 -0.22725402 0.006259993 -0.1699955 -0.21579999 -0.07200772 0.05932411
-0.064235315 -0.023307718 -0.016272949 0.055872526 0.0056428188 0.054955855 -0.008582564 0.053931054
0.15751158 0.14811951 -0.2744972 -0.2449208 0.22274399 -0.043698475 -0.15583746 0.19532758
-0.12718496 -0.011557478 -0.20581096 -0.04089325 -0.10187429 0.06984241 0.13234316 0.11632804
0.1847209 -0.1314189 0.114857495 -0.30869174 -0.0059457645 0.008530072 0.07758931 0.12716825
-0.04142895 -0.07092137 -0.024149297 -0.22382222 0.1450909 0.11449105 0.13355388 -0.109323196
0.17673898 0.12565476 0.06618002 0.16717118 -0.054865565 -0.12455103 -0.12574506 -0.25190857
-0.123313144 0.10557902 -0.09808294 -0.1279049 -0.06509604 0.09190686 -0.12236602 -0.10683072
-0.22630654 0.0402675 -0.28533548 0.09066088 -0.052616138 0.15787749 -0.22627908 -0.19920734
0.017495383 -0.034405675 -0.2961286 -0.20371479 -0.06751742 0.097456574 -0.22485027 -0.048112784
0.22653037 0.029505443 0.06651717 0.118978545 -0.09963031 0.10078217 -0.06125336 0.1450718
0.036108863 0.07962591 0.023614092 -0.23294847 0.076973945 -0.24246798 0.065071404 -0.119336665
-0.27936426 0.19256884 -0.25607812 0.09629696 0.17877504 -0.22064792 -0.13802083 -0.22964372
-0.18662883 0.054209564 0.017640857 0.0006779973 -0.014074495 0.10250543 -0.19886854 0.1812924
0.073733956 0.027385516 -0.1891354 0.068717405 0.1894962 0.12654638 0.08226685 0.07207464
0.12158552 0.0993847 -0.3025844 -0.007861752 0.05657312 -0.25591934 -0.07993583 0.09779528
0.15332733 0.019306276 0.14139444 0.06424377 0.036532316 -0.21133043 -0.05127187 -0.09006148
-0.24006379 -0.07719417 0.063286915 0.034808967 0.22753789 -0.1345287 -0.06945547 -0.117277905
0.101346776 -0.15458392 -0.081314854 0.14605512 -0.33367682 0.10136239 0.006757978 0.10209632
-0.20315212 0.09107028 0.19463168 -0.106097005 -0.28516296 0.116999075 0.046025496 0.032226976
0.102146134 0.21662666 0.026875228 0.10832824 0.026053706 -0.21371423 -0.13034931 -0.20807911
-0.014505529 0.13004443 0.005831772 0.12715933 0.14207134 0.069608584 0.13671882 0.07566405
-0.13967705 -0.057061877 0.17869097 -0.020442862
