src/models/penne2.pth (torch, 412914 bytes, 15 tensors)

main.0.weight f4 [10, 3, 4, 4]
0.07307855 -0.10751565 -0.007770649 0.0023029072 0.035566825 -0.04550382 0.12474183 -0.05699522
0.1509685 -0.010156003 -0.028687254 0.123117335 0.13443004 0.020038478 0.14445044 -0.14581844
0.06766533 0.0041052354 -0.052586433 0.1260915 -0.12900855 -0.024692021 0.046908755 0.09333958
0.014764962 0.121488504 0.037312444 -0.08454447 0.0059262295 0.0018735089 -0.08100738 0.03761999
-0.095652334 -0.09290884 -0.1371623 0.12903583 0.08181728 -0.06442861 -0.050553728 -0.07211511
-0.07913975 -0.06751015 -0.0080080535 0.051953178 0.08094321 0.009810282 -0.1057045 0.0104014855
-0.059727486 0.15256675 0.013002776 -0.066885196 0.07555235 0.101794176 0.087031394 -0.0042914143
0.0740098 -0.014791077 0.019012507 0.017681496 -0.07195947 0.070000604 -0.014550562 -0.058897402
0.0781031 -0.067954175 0.16189113 0.0077387765 -0.12831852 -0.06650893 -0.026645808 -0.029639628
0.12517391 0.052843705 0.07476549 -0.07327502 -0.1488614 0.08760329 -0.013681585 -0.029839609
0.074372604 0.17795156 -0.0787843 -0.057873923 -0.06414838 -0.012112575 -0.005372404 -0.04009024
0.16813739 0.13030072 0.056393668 -0.045646526 -0.0005591737 0.11289302 -0.07900557 0.052893963
-0.041820742 0.020116968 -0.01622963 -0.043960035 -0.05302438 -0.008743577 0.14983222 0.061505657
0.06451683 -0.059561364 0.12503512 -0.11321069 0.13259222 0.092292994 -0.038366344 -0.14165822
-0.050789908 -0.079695806 0.12031986 0.02454763 -0.089323334 0.0013526728 -0.016423162 -0.047026593
0.13672607 -0.0052005677 -0.043409657 0.15991396 0.10161943 0.05885442 0.18339036 0.03466705
-0.058896776 0.11393038 -0.10250154 0.0721188 -0.05769602 -0.10127268 -0.09503366 0.066150494
-0.048631728 0.15330693 0.024471607 0.13525635 -0.07132589 -0.13698524 -0.112723336 0.056588393
0.12780234 -0.12447209 -0.11935563 0.0017241166 0.11842204 0.08229798 -0.1092548 0.07205332
-0.009397825 0.027018223 0.11657479 -0.04087789 0.026113758 0.12549078 0.15336862 -0.10640572
0.06822402 -0.03196788 -0.12292722 0.056976315 0.07398956 0.022075184 -0.12472125 -0.06672953
-0.015885424 -0.09895234 -0.14288372 0.08069055 0.0952591 -0.008754131 -0.07330614 -0.0018454033
-0.005304597 -0.12610006 -0.13364197 -0.13369125 -0.059519667 -0.092064984 0.025864081 0.013651356
0.012802708 -0.0022770646 -0.098736346 0.071299836 -0.1036438 0.003210177 -0.022714673 0.038518354
-0.053906906 0.07491652 0.015402308 0.050802924 -0.0012800723 0.06568604 -0.15174991 -0.0976457
0.11000363 -0.07935664 0.07501166 0.046908244 0.02125524 0.077326596 -0.108044825 0.045536917
0.06648273 0.08582086 -0.036499944 0.09994772 -0.09655978 0.09268471 -0.12768053 0.0062102173
0.14910081 0.11236998 -0.035255443 -0.097190045 0.10127131 -0.030975321 -0.07122926 -0.09777185
0.03692727 0.04854434 -0.033849176 0.0929579 0.09565637 0.09897709 0.10390294 0.117503375
-0.09200708 0.11569207 0.14364287 -0.07820465 0.08631638 0.07385919 -0.14949928 -0.13583826
0.10055044 0.069880925 -0.07100657 0.07384855 -0.14863087 0.1410954 0.07010586 -0.06986695
-0.14296125 0.0769705 -0.004483941 -0.12114847 0.12934951 -0.14607242 0.03332863 -0.029801706
00000000: 35aa 953d 2a31 dcbd eea0 febb 5fec 163b
00000010: 85ae 113d 3762 3abd a578 ff3d d273 69bd
00000020: 7d97 1a3e 5d65 26bc 8801 ebbc f124 fc3d
00000030: 07a8 093e bc27 a43c d1ea 133e 6e51 15be
00000040: 1f94 8a3d 3685 863b df64 57bd 211e 013e
00000050: d11a 04be ec46 cabc 6523 403d d228 bf3d
00000060: bde8 713c f7ce f83d efd4 183d a725 adbd
00000070: d130 c23b 8790 f53a 32e7 a5bd 6b17 1a3d
00000080: 5fe5 c3bd fd46 bebd 4674 0cbe f821 043e
00000090: d18f a73d 26f3 83bd 6d11 4fbd 16b1 93bd
000000a0: 0514 a2bd c342 8abd 3634 03bc dbcc 543d
000000b0: 8ec5 a53d 4ebb 203c 9a7b d8bd fe6a 2a3c
000000c0: cfa4 74bd 753a 1c3e 9809 553c 1bfb 88bd
000000d0: 31bb 9a3d 7779 d03d 843d b23d fe9e 8cbb
000000e0: 7392 973d 4656 72bc 1ec0 9b3c c9d8 903c
000000f0: 7d5f 93bd 7a5c 8f3d 7b65 6ebc 673e 71bd
00000100: 85f4 9f3d 8f2b 8bbd cac6 253e 9095 fd3b
00000110: ee65 03be d535 88bd 4f48 dabc cece f2bc
00000120: 972d 003e a472 583d a61e 993d 3711 96bd
00000130: 1f6f 18be 5b69 b33d ba28 60bc 3272 f4bc
00000140: aa50 983d ef38 363e aa59 a1bd 350d 6dbd
00000150: 3a60 83bd d273 46bc fe0a b0bb aa35 24bd
00000160: 352c 2c3e 8d6d 053e 0cfd 663d daf7 3abd
00000170: 8395 12ba 7534 e73d accd a1bd 57a7 583d
00000180: 3a4c 2bbd 57cc a43c 00f4 84bc 700f 34bd
00000190: 1830 59bd 3841 0fbc 9e6d 193e 5bed 7b3d
000001a0: 6621 843d 9ef6 73bd 3509 003e 02db e7bd
000001b0: 41c6 073e 1c04 bd3d 0726 1dbd da0e 11be
000001c0: 1409 50bd 8e37 a3bd 426a f63d 1d18 c93c
000001d0: 27ef b6bd 2b4c b13a de89 86bc f59e 40bd
000001e0: eb01 0c3e 8669 aabb 53ce 31bd 7cc0 233e
000001f0: d91d d03d 5511 713d afca 3b3e 09ff 0d3d
00000200: bf3d 71bd 5554 e93d 54ec d1bd 05b3 933d
00000210: a952 6cbd 0d68 cfbd 02a1 c2bd e979 873d
00000220: 1032 47bd 7efc 1c3e ae78 c83c a480 0a3e
00000230: 4f13 92bd dc45 0cbe 7edb e6bd 3bc9 673d
00000240: 9ede 023e 39eb febd b970 f4bd c1fb e13a
00000250: 4187 f23d d88b a83d fbc0 dfbd b190 933d
00000260: 56f9 19bc 5255 dd3c c3be ee3d 936f 27bd
00000270: 85ec d53c a880 003e aa0c 1d3e 3eeb d9bd
00000280: 09b9 8b3d c0f0 02bd 44c1 fbbd ff5f 693d
00000290: d787 973d 04d7 b43c db6d ffbd 7ea9 88bd
000002a0: 2622 82bc 86a7 cabd 1c50 12be 1641 a53d
000002b0: 3417 c33d 7d6d 0fbc 8821 96bd 76e1 f1ba
000002c0: 2fd2 adbb 6020 01be 71d9 08be 5ce6 08be
000002d0: e5ca 73bd 918c bcbd e9e0 d33c f0a9 5f3c
000002e0: 73c2 513c ce3a 15bb 4836 cabd a605 923d
000002f0: 3343 d4bd d561 523b 1f14 babc 6cc5 1d3d
00000300: 7dcd 5cbd d56d 993d f659 7c3c ba16 503d
00000310: 19c8 a7ba 6786 863d 5464 1bbe 78fa c7bd
00000320: 9549 e13d bc85 a2bd b79f 993d dc22 403d
00000330: 781f ae3c 685d 9e3d 9b46 ddbd eb84 3a3d
00000340: 1928 883d d9c2 af3d f780 15bd 64b1 cc3d
00000350: 22c1 c5bd 7bd1 bd3d afbe 02be 147f cb3b
00000360: e2ad 183e 3b22 e63d 0368 10bd 930b c7bd
00000370: 5567 cf3d f5bf fdbc a5e0 91bd 9c3c c8bd
00000380: 0d41 173d 6ed6 463d 6fa5 0abd b660 be3d
00000390: 7de7 c33d 80b4 ca3d 11cb d43d 9ca5 f03d
000003a0: 356e bcbd f7ef ec3d 1e17 133e c229 a0bd
000003b0: a4c6 b03d 7d43 973d 5716 19be 2f19 0bbe
000003c0: 64ed cd3d bb1d 8f3d e46b 91bd e93d 973d
000003d0: b132 18be 507b 103e a993 8f3d 6716 8fbd
000003e0: 6f64 12be b6a2 9d3d 06ee 92bb b01c f8bd
000003f0: 3374 043e 0294 15be 9a83 083d b522 f4bc

main.3.weight f4 [20, 10, 4, 4]
-0.018596591 0.008626487 -0.050545976 -0.046019 0.079783544 0.04917355 -0.020332908 -0.06502591
0.036322508 0.054393854 0.045034107 0.046765007 0.009870504 0.025287058 0.06612634 -0.06109038
-0.01622998 0.00018734529 0.06061399 0.056769565 0.042121615 -0.011731435 0.029200189 -0.009471268
0.009324879 0.0048640687 0.046547823 -0.0019195271 -0.046487015 0.034096446 -0.02007643 0.05705167
0.005809756 -0.07085944 0.047984466 -0.06269897 -0.07136466 0.061218582 -0.03001135 -0.04857504
0.038065784 -0.06899301 -0.047995735 0.04823237 -0.039900966 0.0019526419 -0.05858855 0.057677593
-0.05311717 0.010972731 -0.016961373 -0.00813532 -0.053962477 0.05813606 0.01647636 0.015207503
0.054275576 -0.054971382 0.07915553 0.07026896 -0.028479876 -0.06994118 -0.07520532 -0.046510763
0.060299937 -0.069601506 -0.059345476 0.05884037 -0.03096933 -0.013147909 0.01673713 -0.065518714
-0.0073783104 0.04786806 -0.06983293 0.0026332682 0.06175387 0.060266826 -0.063401744 -0.012849772
0.0026536505 0.020290457 0.04388433 -0.037863526 0.04255285 0.0037659702 0.042077016 0.017900039
0.03478736 -0.020159762 0.013074701 -0.042977013 0.03286375 0.019076707 0.067319214 0.0030032478
-0.0014048791 -0.015312152 0.05932051 0.02642941 -0.028312253 -0.05460459 0.0763266 -0.061195575
-0.008728627 -0.010573646 -0.069519706 0.058109384 -0.046094425 -0.019455958 -0.032596897 -0.044140335
-0.008538549 -0.020403339 0.01680261 0.059878398 0.008476463 0.0015576126 -0.022271281 0.0798011
0.022226112 0.021729322 -4.1070714e-05 0.03730893 -0.0026855923 0.027731925 -0.059818245 -0.03611621
0.04975295 -0.060848333 0.06102491 -0.061757725 0.042661272 -0.07730867 -0.07710724 -0.006549989
-0.031116217 0.023083176 -0.03808177 -0.0039630523 -0.013055294 -0.050878868 -0.06183231 -0.056515433
0.010667529 0.0014228408 -0.057562925 0.05664401 0.07506782 -0.053049967 -0.010122709 -0.010901226
-0.012682596 -0.049502023 -0.011462144 -0.042442366 0.03642715 -0.057672016 -0.023664821 0.010555512
-0.05333332 0.07993782 0.04295421 -0.0011907553 0.056036606 -0.011413281 0.08009225 -0.014777491
-0.049223777 -0.00944131 -0.013551754 0.025664419 0.058452003 -0.07807543 -0.005904446 -0.053903103
-0.013846324 0.040857267 -0.026663475 -0.10609457 -0.07742965 -0.1124123 -0.044161182 -0.06546215
0.0005170323 -0.108764246 -0.074963264 -0.09394479 -0.06008094 -0.11838437 -0.040221084 0.02120422
-0.041019477 -0.00072998647 -0.048533425 -0.077363834 -0.010110571 -0.04230366 -0.022577332 -0.023433527
-0.047402304 0.046490233 -0.073288776 -0.048639096 -0.0142597025 -0.014417647 0.022091193 0.03800347
0.008123116 -0.04607196 0.05057847 0.09725468 0.0728416 0.022957385 -0.047554836 0.03344687
-0.03264845 0.07212419 0.0803132 0.04879516 0.017742591 -0.01669623 0.085560404 0.012026899
-0.04471459 -0.00022667556 -0.02163845 -0.025091415 -0.079357006 -0.009074095 0.0031213984 -0.038405314
-0.07979252 -0.07188148 0.009586886 -0.023783712 0.017392358 0.017720506 0.015242624 -0.04637587
0.00471858 0.0314492 0.0019410258 0.0050597754 0.022444706 0.020396952 -0.033642348 -0.0629396
-0.020665763 -0.01299254 0.02576099 -0.030061083 0.012225074 0.060700975 0.015499076 0.0353727
00000000: e157 98bc 1c56 0d3c 4c09 4fbd 6b7e 3cbd
00000010: 8e65 a33d 346a 493d 3391 a6bc 4e2c 85bd
00000020: e9c6 143d 17cc 5e3d af75 383d aa8c 3f3d
00000030: e5b7 213c ce26 cf3c 3f6d 873d e839 7abd
00000040: bcf4 84bc 1e72 4439 6046 783d 3487 683d
00000050: b787 2c3d 3435 40bc 3c35 ef3c 612d 1bbc
00000060: 61c7 183c c462 9f3b eea8 3e3d a498 fbba
00000070: 2b69 3ebd b7a8 0b3d 5377 a4bc 03af 693d
00000080: c45f be3b c11e 91bd 5c8b 443d 5168 80bd
00000090: a327 92bd 56c0 7a3d 5dda f5bc 9ff6 46bd
000000a0: deea 1b3d 354c 8dbd 2d97 44bd 4e8f 453d
000000b0: 326f 23bd caef ff3a 8cfa 6fbd 573f 6c3d
000000c0: 6491 59bd f8c6 333c 94f2 8abc 014a 05bc
000000d0: c207 5dbd 1420 6e3d 6ef9 863c e428 793c
000000e0: 1150 5e3d ac29 61bd 4b1c a23d 2ce9 8f3d
000000f0: a14e e9bc 523d 8fbd 3f05 9abd 1282 3ebd
00000100: 11fd 763d 3c8b 8ebd 3e14 73bd 9a02 713d
00000110: 64b3 fdbc 546a 57bc 4e1c 893c ad2e 86bd
00000120: c1c5 f1bb 4d11 443d 9104 8fbd e992 2c3b
00000130: a0f1 7c3d 59da 763d c6d8 81bd da87 52bc
00000140: dee8 2d3b 2c38 a63c 0ec0 333d c916 1bbd
00000150: e64b 2e3d 7fce 763b f358 2c3d 1aa3 923c
00000160: 317d 0e3d 1626 a5bc 4537 563c aa08 30bd
00000170: 249c 063d c146 9c3c a8de 893d 23d2 443b
00000180: ec23 b8ba d2df 7abc 10fa 723d 7d82 d83c
00000190: 19ef e7bc 10a9 5fbd 1f51 9c3d 36a8 7abd
000001a0: 8402 0fbc 163d 2dbc 5960 8ebd 1b04 6e3d
000001b0: 82cd 3cbd 1a62 9fbc 5384 05bd 7fcc 34bd
000001c0: 45e5 0bbc e724 a7bc a1a5 893c 0d43 753d
000001d0: dde0 0a3c ce28 cc3a 4372 b6bc c26e a33d
000001e0: 8913 b63c b101 b23c 5843 2cb8 40d1 183d
000001f0: c300 30bb 102e e33c fa03 75bd 97ee 13bd
00000200: c0c9 4b3d 1a3c 79bd 42f5 793d abf5 7cbd
00000210: 96bd 2e3d 0254 9ebd 67ea 9dbd 4aa1 d6bb
00000220: 70e7 febc ee18 bd3c a1fb 1bbd 7edc 81bb
00000230: dfe5 55bc 5c66 50bd e043 7dbd ba7c 67bd
00000240: dcc6 2e3c 9d7e ba3a 1ac7 6bbd 8d03 683d
00000250: 28bd 993d ec4a 59bd b8d9 25bc 0e9b 32bc
00000260: aaca 4fbc a2c2 4abd b7cb 3bbc 0cd8 2dbd
00000270: a334 153d 7e39 6cbd badc c1bc 07f1 2c3c
00000280: 0a74 5abd 71b6 a33d c1f0 2f3d 1e13 9cba
00000290: a486 653d c5fe 3abc 6807 a43d 4a1d 72bc
000002a0: df9e 49bd b9af 1abc 2d08 5ebc 303e d23c
000002b0: 5e6b 6f3d 03e6 9fbd 157a c1bb 80c9 5cbd
000002c0: b1db 62bc f359 273d 5c6d dabc 1c48 d9bd
000002d0: 7093 9ebd 6c38 e6bd 5be2 34bd 0511 86bd
000002e0: 7389 073a cabf debd 5786 99bd 2066 c0bd
000002f0: 6f17 76bd 8173 f2bd ddbe 24bd 79b4 ad3c
00000300: 0a04 28bd 905c 3fba fcca 46bd ee70 9ebd
00000310: cfa6 25bc 9a46 2dbd 19f4 b8bc abf7 bfbc
00000320: eb28 42bd 8b6c 3e3d 6d18 96bd ca39 47bd
00000330: 87a1 69bc ff37 6cbc 97f8 b43c 87a9 1b3d
00000340: d116 053c f4b5 3cbd 5f2b 4f3d 762d c73d
00000350: fa2d 953d 2011 bc3c dcc8 42bd 96ff 083d
00000360: 62ba 05bd d9b5 933d 3f7b a43d 6fdd 473d
00000370: e958 913c 88c6 88bc 4b3a af3d 780c 453c
00000380: a526 37bd c2af 6db9 1e43 b1bc 838c cdbc
00000390: ed85 a2bd 83ab 14bc 6090 4c3b e44e 1dbd
000003a0: 436a a3bd 9936 93bd 5012 1d3c 0fd6 c2bc
000003b0: 6b7a 8e3c 982a 913c 33bc 793c a0f4 3dbd
000003c0: 519e 9a3b e0d0 003d 056a fe3a 79cc a53b
000003d0: f6dd b73c 8217 a73c 8fcc 09bd 7ae6 80bd
000003e0: 3f4b a9bc aade 54bc b608 d33c a942 f6bc
000003f0: ad4b 483c 96a1 783d d6ef 7d3c f7e2 103d

main.4.weight f4 [20]
0.99925256 1.012855 0.99763 0.9972216 0.99520314 0.98948383 1.0039357 1.0022284
1.0169365 1.0047727 0.992508 1.0011697 0.9986446 0.9997766 0.99639213 0.9957115
1.0046309 0.9942717 1.0022259 0.99453497
00000000: 04cf 7f3f 3ca5 813f ae64 7f3f ea49 7f3f
00000010: a2c5 7e3f d04e 7d3f f780 803f 0549 803f
00000020: fa2a 823f 649c 803f 0115 7e3f 5426 803f
00000030: 2ca7 7f3f 5cf1 7f3f 8e13 7f3f f3e6 7e3f
00000040: bf97 803f 9788 7e3f f048 803f d899 7e3f

main.4.bias f4 [20]
-0.0027055773 -0.026988337 -0.005332231 -0.0007011661 -0.0010713111 -0.005722354 -0.0015561467 -0.0013642302
-0.0040995176 -0.0071732863 -0.0022400785 -0.004818705 0.0030598233 0.0008382798 -0.0005271424 -0.0012623259
-0.00096839026 0.0013388358 0.008050196 -0.0072753592
00000000: 0e50 31bb a516 ddbc ffb9 aebb 76ce 37ba
00000010: 3c6b 8cba 9682 bbbb 9ef7 cbba f8cf b2ba
00000020: 3f55 86bb e30d ebbb 48ce 12bb 3ae6 9dbb
00000030: 5187 483b 01c0 5b3a ed2f 0aba a174 a5ba
00000040: 92db 7dba e07b af3a f8e4 033c 2366 eebb

main.4.running_mean f4 [20]
-0.4752523 -0.042445246 -0.7379125 0.1917167 0.80770195 0.23413764 -0.2659001 0.02528726
-0.0025908323 -0.26766714 -0.48242122 0.06679194 0.41544375 -0.7484034 -0.2767989 -0.6678471
0.084688514 -0.14458796 -0.19898377 -0.159107
00000000: 4554 f3be 11db 2dbd d5e7 3cbf 6251 443e
00000010: 8ec5 4e3f c7c1 6f3e 0f24 88be 3a27 cf3c
00000020: f4ca 29bb ab0b 89be eaff f6be 36ca 883d
00000030: 0bb5 d43e 5d97 3fbf 96b8 8dbe 07f8 2abf
00000040: 2c71 ad3d de0e 14be 67c2 4bbe f2ec 22be

main.4.running_var f4 [20]
0.8197862 0.17339216 1.1519728 0.26769626 1.6186799 1.5554388 0.17370635 0.7881699
0.05168736 0.2143392 1.1471076 0.83853036 0.52036035 1.3178195 1.4535475 1.322995
0.5109701 0.409937 0.59007335 0.9158206
00000000: 82dd 513f b78d 313e d873 933f 7c0f 893e
00000010: e730 cf3f 9e18 c73f 14e0 313e 81c5 493f
00000020: 20b6 533d bc7b 5b3e 6cd4 923f eda9 563f
00000030: 5636 053f 4fae a83f d80d ba3f e657 a93f
00000040: f0ce 023f 43e3 d13e 0c0f 173f 3873 6a3f

main.6.weight f4 [40, 20, 4, 4]
0.0061452575 0.053532794 -0.054244284 -0.05083943 0.00022704266 -0.019709827 0.0048870947 0.038311653
0.040836185 0.046931062 -0.03658147 0.05067779 -0.0141255185 0.010766256 0.033450942 0.053033225
-0.030769037 0.014735329 -0.0014043095 -0.016848318 0.0022183626 -0.025271583 0.009479619 0.01347375
0.00085726875 -0.005842503 0.020062914 0.03784612 0.020358594 0.055763565 -0.012191704 0.010974939
-0.022530003 -0.0025722918 -0.012491398 -0.03921269 0.0074675446 -0.01848062 0.03500872 0.042258915
0.009023746 -0.040084925 -0.03180169 0.041774858 0.057185177 -0.025492074 0.026153492 0.011383472
0.044459473 0.0239829 -0.013375572 0.01620123 0.038082585 -0.0068362346 -0.03835352 -0.0013518522
0.032083523 -0.025866736 0.019399276 -0.04836427 0.010887731 -0.0072605116 0.042344466 -0.0062295413
-0.0500522 0.032000437 -0.055050813 -0.014502915 0.045584895 0.04490543 0.017866045 0.024509002
0.027197275 -0.00026590851 0.010949184 0.02120757 -0.045450494 0.03448684 -0.0046913167 0.025516778
0.042341862 0.010264338 0.005828091 -0.02378764 -0.04849136 0.012468608 0.0319243 0.028374294
0.029306477 -0.020135023 0.02247119 -0.05445688 -0.022608023 0.013240145 -0.051728092 0.047335017
-0.016629055 -0.063184954 -0.024753237 0.002342996 -0.005880008 -0.009011921 0.0056096255 0.019991253
0.05179674 0.038867928 0.015183399 0.0320707 -0.0078041446 -0.021464735 0.023627108 0.03506505
0.051282138 0.007895494 0.038561773 0.018472621 0.032116298 0.022702875 0.033685874 0.023305519
-0.03410566 -0.055981252 0.05774977 -0.04554013 -0.04467374 -0.027531158 0.032289658 0.01937781
0.050275493 0.006239107 -0.023216607 0.040618986 0.05939246 0.022488063 -0.01642527 0.010346491
0.018912096 -0.043298017 0.049257416 -0.036899313 0.00069716235 0.039513726 0.059091788 0.031826932
0.0369389 0.03491579 -0.04359419 0.035049744 -0.026477974 0.0022985258 0.041239556 0.039866842
-0.0063515906 0.03789149 0.0035633035 -0.0059431465 0.007936712 -0.025395952 -0.01805941 -0.026633434
0.013978237 0.0032277054 0.029845938 -0.041473784 -0.0076157874 -0.036371473 -0.009632723 0.00026677054
-0.050958466 0.040941853 0.045265947 -0.015833909 -0.02098624 0.0040390627 0.010060485 -0.0116722835
0.031015623 -0.032628242 -0.038930736 -0.009709808 0.040417537 -0.036027174 -0.0025889806 -0.029208574
0.02792625 0.04479704 -0.010969912 0.05999498 0.00016194675 -0.015538789 0.034613647 0.028531203
-0.031162668 0.0038593109 0.037446447 -0.009985716 0.013953066 0.011731692 0.008355988 0.06144276
-0.042079467 -0.035846885 -0.039390493 0.0026519897 -0.029286606 -0.012749302 0.0037529874 -0.012624907
0.052840043 -0.047784947 -0.020914523 -0.004806571 -0.011115811 0.015616502 0.0059616338 0.038102865
-0.022159137 0.025801176 0.042111572 0.028924368 0.03261696 0.015374286 0.048287794 -0.04084005
-0.026694981 0.04313816 0.040680766 0.029214831 -0.050714687 -0.024486862 -0.04612394 0.03689472
-0.061030913 0.022255087 -0.018300666 -0.0033636137 0.0037441694 0.03400042 -0.022890838 0.027088912
-0.028313244 0.036212977 0.025978569 0.014619206 0.018522395 0.010729236 0.025581846 0.014676703
0.048321947 0.030742252 -0.031868067 -0.019417856 -0.041135103 0.013343314 0.019757997 -0.05290945
00000000: 285e c93b 3445 5b3d 412f 5ebd 023d 50bd
00000010: 4d12 6e39 8176 a1bc ec23 a03b aeec 1c3d
00000020: d843 273d c93a 403d 74d6 15bd 8493 4f3d
00000030: b86e 67bc f364 303c db03 093d 5e39 593d
00000040: 590f fcbc 736c 713c cf10 b8ba 7c05 8abc
00000050: f361 113b 5a06 cfbc 6750 1b3c 01c1 5c3c
00000060: 55ba 603a 7872 bfbb fb5a a43c 8804 1b3d
00000070: 11c7 a63c 5668 643d b6bf 47bc 3bd0 333c
00000080: d790 b8bc e593 28bb b8a8 4cbc 7c9d 20bd
00000090: 4eb2 f43b ab64 97bc 4e65 0f3d af17 2d3d
000000a0: 55d8 133c 1730 24bd 7d42 02bd 1d1c 2b3d
000000b0: 013b 6a3d c1d4 d0bc d93f d63c be81 3a3c
000000c0: 231b 363d c977 c43c 3725 5bbc 71b8 843c
000000d0: 7cfc 1b3d 7e02 e0bb 9518 1dbd a230 b1ba
000000e0: 036a 033d 7ae6 d3bc 3beb 9e3c 9d19 46bd
000000f0: 7462 323c 96e9 edbb 6471 2d3d 2e21 ccbb
00000100: 8903 4dbd e412 033d f67c 61bd a29d 6dbc
00000110: 3ab7 3a3d c2ee 373d d05b 923c 1ac7 c83c
00000120: d2cc de3c a369 8bb9 3564 333c 7fbb ad3c
00000130: 4c2a 3abd 1342 0d3d 9eb9 99bb 9008 d13c
00000140: a96e 2d3d c12b 283c 92f9 be3b 4cde c2bc
00000150: e09e 46bd 2249 4c3c 0ec3 023d 3571 e83c
00000160: 2314 f03c 34f2 a4bc 8015 b83c 2d0e 5fbd
00000170: 7634 b9bc 31ed 583c d6e0 53bd 5de2 413d
00000180: a839 88bc 1d67 81bd 4dc7 cabc f38c 193b
00000190: 15ad c0bb bca6 13bc f3d0 b73b b2c4 a33c
000001a0: d228 543d fa33 1f3d cbc3 783c 915c 033d
000001b0: e9b9 ffbb d0d6 afbc a38d c13c 5fa0 0f3d
000001c0: 380d 523d 1a5c 013c f3f2 1d3d e553 973c
000001d0: 618c 033d 61fb b93c 33fa 093d 37eb be3c
000001e0: 60b2 0bbd 994c 65bd 068b 6c3d 4a88 3abd
000001f0: d0fb 36bd 0689 e1bc 2942 043d 37be 9e3c
00000200: aded 4d3d 6c71 cc3b c130 bebc 1860 263d
00000210: 8245 733d e338 b83c 4a8e 86bc 5484 293c
00000220: 8aed 9a3c 4359 31bd 25c2 493d bc23 17bd
00000230: c6c1 363a 25d9 213d 3b0a 723d f55c 023d
00000240: 3e4d 173d dc03 0f3d d28f 32bd 5290 0f3d
00000250: 56e8 d8bc dda2 163b cfea 283d 6a4b 233d
00000260: 0121 d0bb 1b34 1b3d 5086 693b babe c2bb
00000270: fc08 023c 2c0b d0bc 54f1 93bc 5c2e dabc
00000280: fa04 653c e987 533b 787f f43c 6ae0 29bd
00000290: db8d f9bb 41fa 14bd 92d2 1dbc 56dd 8b39
000002a0: d3b9 50bd a5b2 273d c968 393d 1db6 81bc
000002b0: 56eb abbc 1d5a 843b bcd4 243c 1b3d 3fbc
000002c0: 7a14 fe3c 31a5 05bd d675 1fbd e315 1fbc
000002d0: dc8c 253d 3b91 13bd e3ab 29bb d246 efbc
000002e0: 97c5 e43c 1a7d 373d 25bb 33bc 4cbd 753d
000002f0: 40d0 2939 6896 7ebc 0ac7 0d3d 45ba e93c
00000300: da48 ffbc 7eec 7c3b 7261 193d 219b 23bc
00000310: 679b 643c 4836 403c 8ee7 083c 67ab 7b3d
00000320: 855b 2cbd 2fd4 12bd ed57 21bd 01cd 2d3b
00000330: 77ea efbc 73e2 50bc aef4 753b b3d8 4ebc
00000340: cd6e 583d 26ba 43bd ef54 abbc 7180 9dbb
00000350: 171f 36bc 5bdc 7f3c cf59 c33b c011 1c3d
00000360: 1487 b5bc fd5c d33c 2f7d 2c3d ccf2 ec3c
00000370: 5d99 053d 6ee4 7b3c 6cc9 453d e547 27bd
00000380: 6faf dabc a4b1 303d e0a0 263d f153 ef3c
00000390: 34ba 4fbd ac98 c8bc 75ec 3cbd eb1e 173d
000003a0: 8dfb 79bd 4d50 b63c 47eb 95bc 1370 5cbb
000003b0: bd60 753b 0644 0b3d 9185 bbbc 91e9 dd3c
000003c0: 2df1 e7bc 0f54 143d 02d1 d43c 6585 6f3c
000003d0: 47bc 973c adc9 2f3c 0591 d13c 8e76 703c
000003e0: 3ced 453d 2dd7 fb3c 1788 02bd 3212 9fbc
000003f0: 487d 28bd ea9d 5a3c 86db a13c 94b7 58bd

main.7.weight f4 [40]
1.0249738 1.03728 1.0356386 1.0281379 1.0151042 1.0365448 1.0197324 1.0587215
1.0230867 1.0208578 1.0425639 1.0183535 1.0169526 1.0203404 1.0255034 1.0418642
1.0233281 1.0263463 1.03038 1.0460488 1.0196154 1.0208489 1.0375453 1.0306921
1.0384315 1.0161767 1.022298 1.0148695 1.0246136 1.020422 1.0251008 1.0238968
1.0195774 1.0200068 1.0327688 1.0143899 1.0335717 1.047946 1.0623692 1.0141227
00000000: 5732 833f 97c5 843f ce8f 843f 069a 833f
00000010: efee 813f 80ad 843f 9786 823f 3084 873f
00000020: 81f4 823f 78ab 823f bc72 853f 6859 823f
00000030: 812b 823f 849a 823f b243 833f ce5b 853f
00000040: 6afc 823f 515f 833f 7ee3 833f ede4 853f
00000050: c282 823f 2dab 823f 49ce 843f b8ed 833f
00000060: 53eb 843f 1412 823f a9da 823f 3ee7 813f
00000070: 8a26 833f 309d 823f 8136 833f 0d0f 833f
00000080: 8381 823f 958f 823f c531 843f 87d7 813f
00000090: 144c 843f 1823 863f b7fb 873f c6ce 813f

main.7.bias f4 [40]
0.00895146 0.02188854 0.019758828 0.0171572 0.0115787685 0.014561257 0.007167687 0.023145027
0.009717194 0.011207749 0.019694822 0.009005631 0.010085387 0.010048483 0.012267076 0.0150460955
0.012215184 0.010863324 0.017118521 0.017598208 0.011676486 0.010342822 0.009058442 0.014084299
0.014192053 0.009037206 0.012637012 0.008227434 0.011241538 0.0130329635 0.013277337 0.01620547
0.010902107 0.012895018 0.020336278 0.010511034 0.012546846 0.019834885 0.022091098 0.012259549
00000000: 25a9 123c 984f b33c 44dd a13c 428d 8c3c
00000010: e0b4 3d3c 5792 6e3c ebde ea3b a49a bd3c
00000020: de34 1f3c b5a0 373c 0957 a13c 5b8c 133c
00000030: 2e3d 253c 64a2 243c d9fb 483c e683 763c
00000040: 3222 483c 15fc 313c 243c 8c3c 1e2a 903c
00000050: bb4e 3f3c f174 293c dc69 143c d5c1 663c
00000060: c985 683c ca10 143c 780b 4f3c 5ccc 063c
00000070: 6e2e 383c 3688 553c 3089 593c 55c1 843c
00000080: c09e 323c a045 533c 4498 a63c 7936 2c3c
00000090: 4991 4d3c c57c a23c 64f8 b43c 47dc 483c

main.7.running_mean f4 [40]
0.3617689 -0.01918584 -0.038366728 -0.08263748 0.17758948 0.14728954 0.147164 0.11261024
0.09529583 0.10734846 0.12311215 0.028227981 -0.0864961 -0.02589882 0.22923306 -0.10183514
0.19004036 0.060229104 0.056608934 0.08013355 -0.277085 0.104801305 -0.006185351 0.0657433
0.06603431 -0.018158138 0.18220101 0.15279214 0.04575016 0.28767762 0.0003288136 -0.03766646
-0.07665515 -0.3799672 0.06708626 0.1398439 0.24516228 -0.2036386 -0.00023061824 -0.2504715
00000000: c639 b93e 9f2b 9dbc 6e26 1dbd d73d a9bd
00000010: 04da 353e 12d3 163e 29b2 163e 33a0 e63d
00000020: 762a c33d 82d9 db3d 3922 fc3d 5e3e e73c
00000030: de24 b1bd c329 d4bc 12bc 6a3e f18e d0bd
00000040: f199 423e cbb2 763d c5de 673d 0f1d a43d
00000050: 16de 8dbe 11a2 d63d 7cae cabb 6ca4 863d
00000060: ff3c 873d 60c0 94bc e792 3a3e 8b75 1c3e
00000070: 8564 3b3d 7b4a 933e 9d64 ac39 2548 1abd
00000080: 60fd 9cbd 108b c2be 8564 893d 3d33 0f3e
00000090: d20b 7b3e a386 50be 1dd2 71b9 cd3d 80be

main.7.running_var f4 [40]
0.03441723 0.07157398 0.03068119 0.018096201 0.13120945 0.037828464 0.10113165 0.02232679
0.05243381 0.054110564 0.038296863 0.18166578 0.040046822 0.022828607 0.060782637 0.03545012
0.047553737 0.05410046 0.022697862 0.014403213 0.039574873 0.03946744 0.03708371 0.05422933
0.018268 0.03988324 0.045045413 0.14247303 0.032579258 0.052080408 0.04501295 0.057947733
0.03480337 0.022869285 0.026297912 0.120198876 0.049646255 0.030017214 0.03033328 0.04347586
00000000: 15f9 0c3d 6195 923d 1e57 fb3c 7c3e 943c
00000010: c55b 063e 05f2 1a3d 1c1e cf3d ace6 b63c
00000020: d6c4 563d 0aa3 5d3d 2cdd 1c3d 9806 3a3e
00000030: 2308 243d 0f03 bb3c 37f7 783d 2534 113d
00000040: b5c7 423d 7298 5d3d def0 b93c 74fb 6b3c
00000050: 4319 223d 9ca8 213d 17e5 173d 931f 5e3d
00000060: c6a6 953c 9c5c 233d 8a81 383d 73e4 113e
00000070: d471 053d 4452 553d 805f 383d 9a5a 6d3d
00000080: fa8d 0e3d 5e58 bb3c b86e d73c d42a f63d
00000090: df59 4b3d a9e6 f53c 807d f83c be13 323d

main.10.weight f4 [180, 360]
-0.040821996 -0.03981988 0.03180165 -0.025385333 -0.04716216 -0.036421888 -0.008533383 -0.01277127
0.006291889 0.031313315 0.044353403 0.0045322524 -0.047339514 -0.027393375 0.0349147 0.0061827702
0.010661722 0.032475345 -0.033805355 0.008677855 0.03973276 0.047141183 -0.03242153 -0.0070795417
-0.015737312 -0.046610586 -0.00069524115 -0.020900873 0.036941554 -0.032354366 -0.020060424 -0.010170924
-0.036968417 0.0403325 0.012635977 0.014791873 0.040528733 -0.0051202653 -0.028307691 0.041473858
-0.047865365 -0.049636 -0.041711006 -0.04674028 0.028580558 -0.026011677 0.044634633 0.011127787
0.0017072287 -0.025079237 0.049822044 0.031097146 0.039392617 -0.021853795 -0.043950833 0.02543786
-0.022917813 0.032558896 -0.05394745 0.015668085 -0.014769132 -0.0018298167 -0.00548152 -0.0014042498
-0.0047253845 -0.015762685 0.026457328 0.011141432 0.010927057 0.02298603 0.004948611 -0.023998354
0.03082568 0.03790241 -0.0023579868 -0.014517804 0.039303802 -0.0242923 -0.016268672 -0.046460427
-0.049999353 0.01152285 0.039307144 -0.002021304 0.01532362 -0.04188498 -0.0075233825 0.020167347
-0.013983571 0.030612404 0.033808958 0.01913429 -0.041405454 0.048280157 -0.04346728 -0.051579475
-0.017970994 -0.032358132 0.038027234 0.047138803 -0.026139975 -0.043770563 0.0325993 0.006826764
0.042014536 0.012822945 -0.010940855 0.014711423 -0.007492591 0.046560235 -0.009170854 0.02953032
-0.049419984 -0.02017767 -0.011978508 -0.022750432 0.036279716 -0.017859437 -0.004830429 0.044511598
0.04588764 0.025902694 0.00341114 0.0064389426 -0.004291119 0.035619367 0.049791977 -0.011543146
-0.012337696 0.021528676 -0.009031404 -0.045113657 0.042686947 -0.05153091 -0.022998583 -0.006552774
0.0020655927 0.0073867217 -0.044508338 -0.030601293 0.02776315 0.025306975 -0.043499958 -0.027640369
0.008255944 0.0003018453 -0.04356773 -0.042708788 0.025391988 -0.037248455 0.044614732 0.051834993
0.009711516 -0.0470133 -0.052776035 -0.040669344 -0.00289058 0.009433714 -0.048723925 0.04349629
0.0052196016 -0.04270533 -0.0016239128 0.007317097 -0.031571478 -0.038829073 0.04250043 0.039418053
-0.016354544 -0.0514678 0.0010444062 -0.021838829 0.014410027 -0.049768377 -0.00465877 0.012994501
-0.019249555 -0.016263248 -0.029547561 0.021867916 0.0087404465 0.04463295 0.036863033 -0.016250415
0.039925758 0.029605126 0.015722964 0.052252825 -0.0017448715 0.018364582 0.005090473 -0.02456092
-0.034756016 0.043234304 0.045235272 -0.0070785484 0.045209102 0.021408224 -0.05179523 -0.03495498
0.023030596 -0.051941384 0.0058265985 0.011916566 0.031962622 -0.008760268 0.017912015 -0.005951502
0.036044873 -0.041833706 -0.01580255 -0.029637102 0.03826171 -0.047196377 -0.0076546036 0.04833791
0.03012526 0.019899663 0.009407627 0.011914153 0.020304166 -0.0263905 0.0021589033 0.007271863
0.04473691 -0.025605304 -0.004849768 -0.0030124919 -0.0038416272 -0.010914581 0.0050098225 -0.006735662
-0.010833273 0.018255193 0.008314168 -0.00623796 0.026315399 0.04853071 0.010931734 0.030421166
-0.036999788 0.007383479 -0.041591965 0.0049279793 -0.02096676 0.01991282 0.034445934 0.010392516
0.020159451 -0.048264127 -0.0096836435 0.04747356 0.035286807 -0.032122124 -0.0128634265 0.04712977
00000000: f734 27bd 2c1a 23bd 7242 023d e7f4 cfbc
00000010: 1c2d 41bd 1e2f 15bd 9acf 0bbc 973e 51bc
00000020: 312c ce3b 6442 003d eaab 353d 4a83 943b
00000030: 14e7 41bd 1268 e0bc b702 0f3d d698 ca3b
00000040: 81ae 2e3c de04 053d 7c77 0abd 902d 0e3c
00000050: d2be 223d 1d17 413d 70cc 04bd 80fb e7bb
00000060: 89eb 80bc beea 3ebd d840 36ba 4f38 abbc
00000070: 0750 173d 0386 04bd c255 a4bc f2a3 26bc
00000080: 326c 17bd b133 253d 2107 4f3c 9d59 723c
00000090: 7501 263d e6c7 a7bb 88e5 e7bc 7ee0 293d
000000a0: 790e 44bd 1e4f 4bbd 29d9 2abd bc72 3fbd
000000b0: c621 ea3c 7116 d5bc ced2 363d 5251 363c
000000c0: 17c5 df3a f972 cdbc 3312 4c3d 71bf fe3c
000000d0: 275a 213d bb06 b3bc ca05 34bd 0f63 d03c
000000e0: 23be bbbc 7a5c 053d 00f8 5cbd 5b5a 803c
000000f0: 3bfa 71bc 76d6 efba 539e b3bb ce0e b8ba
00000100: 66d7 9abb bf20 81bc 0abd d83c 8e8a 363c
00000110: 6607 333c 334d bc3c f527 a23b 3298 c4bc
00000120: 2386 fc3c 8f3f 1b3d 7488 1abb 15dc 6dbc
00000130: 06fd 203d a500 c7bc e145 85bc 4a4d 3ebd
00000140: 1fcc 4cbd 56ca 3c3c 8700 213d db77 04bb
00000150: ec0f 7b3c 968f 2bbd b586 f6bb fe35 a53c
00000160: 591b 65bc ddc6 fa3c 437b 0a3d 84bf 9c3c
00000170: c498 29bd 6ac1 453d bf0a 32bd 0045 53bd
00000180: e837 93bc f689 04bd 72c2 1b3d 9e14 413d
00000190: 8023 d6bc c348 33bd d886 053d 0cb3 df3b
000001a0: 6f17 2c3d 5417 523c 4641 33bc 2e08 713c
000001b0: 6984 f5bb f2b5 3e3d 5a41 16bc 92e9 f13c
000001c0: 9c6c 4abd a44b a5bc 8141 44bc 1d5f babc
000001d0: 0a9a 143d f44d 92bc 9348 9ebb cb51 363d
000001e0: aef4 3b3d e331 d43c 6f8d 5f3b c4fd d23b
000001f0: 849c 8cbb 9de5 113d acf2 4b3d 771f 3dbc
00000200: 0c24 4abc e85c b03c 74f8 13bc 19c9 38bd
00000210: 82d8 2e3d 1312 53bd 8667 bcbc a7b8 d6bb
00000220: e55e 073b 500c f23b 604e 36bd 90af fabc
00000230: 8c6f e33c 9350 cf3c 032d 32bd 0e6e e2bc
00000240: f043 073c fe40 9e39 1374 32bd 69ef 2ebd
00000250: dc02 d03c d691 18bd f0bd 363d ee50 543d
00000260: 0d1d 1f3c 0591 40bd af2b 58bd e694 26bd
00000270: e36f 3dbb dd8f 1a3c bd92 47bd 2a29 323d
00000280: 3109 ab3b c9eb 2ebd 79d9 d4ba 42c4 ef3b
00000290: 1851 01bd 3c0b 1fbd ee14 2e3d d374 213d
000002a0: f7f9 85bc e6cf 52bd 75e4 883a 58e7 b2bc
000002b0: 0918 6c3c edd9 4bbd 98a8 98bb e3e6 543c
000002c0: 3eb1 9dbc 813a 85bc ba0d f2bc 5824 b33c
000002d0: 1734 0f3c 0ad1 363d b1fd 163d 971f 85bc
000002e0: 3189 233d 7386 f23c 72cd 803c 0f07 563d
000002f0: 2cb4 e4ba 5271 963c fccd a63b fc33 c9bc
00000300: 535c 0ebd 7416 313d 9f48 393d 2bf3 e7bb
00000310: 2e2d 393d 4d60 af3c 3c27 54bd f42c 0fbd
00000320: a9aa bc3c 7dc0 54bd 0ded be3b b33d 433c
00000330: 3deb 023d 3a87 0fbc 38bc 923c d104 c3bb
00000340: caa3 133d d259 2bbd 5974 81bc 82c9 f2bc
00000350: 50b8 1c3d fd50 41bd 78d3 fabb f9fd 453d
00000360: 40c9 f63c 9e04 a33c 7322 1a3c 9433 433c
00000370: ec54 a63c e430 d8bc 637c 0d3b cf48 ee3b
00000380: 0d3e 373d 37c2 d1bc cdea 9ebb 3a6d 45bb
00000390: cfc3 7bbb 12d3 32bc 7029 a43b d4b6 dcbb
000003a0: 0a7e 31bc ea8b 953c 2638 083c cd67 ccbb
000003b0: 6493 d73c 23c8 463d 041b 333c cf35 f93c
000003c0: 178d 17bd 1cf1 f13b 565c 2abd e37a a13b
000003d0: 7cc2 abbc 3620 a33c 2e17 0d3d 5f45 2a3c
000003e0: 6f25 a53c 9bb0 45bd 25a8 1ebc a373 423d
000003f0: e688 103d 7d92 03bd 1fc1 52bc 250b 413d

main.12.weight f4 [90, 180]
-0.0330169 0.03073268 0.0787623 -0.042330947 -0.063526094 0.08763477 -0.023499705 -0.018035674
-0.06222829 -0.016570259 -0.031734403 0.06090435 0.010913842 0.074750654 0.036151305 -0.062908925
0.038479846 0.011816599 0.06012945 -0.053073857 -0.0015776567 -0.024739694 -0.043985333 0.03235605
0.023684103 0.033147074 -0.035754435 0.013247308 0.08054648 0.0020665945 -0.00034063123 0.024204716
0.073873684 -0.08162906 0.031344835 0.031351667 0.0055884975 0.066887826 0.060557377 -0.057798456
-0.039175324 0.071797594 0.083337046 0.032724693 0.047188263 -0.0055139223 -0.015118288 0.07021023
-0.0715789 -0.00060364447 0.0016293976 0.060558032 0.072394855 0.022455176 -0.034531694 -0.07153331
0.06890078 -0.02591896 -0.013146909 0.049802445 -0.037642565 -0.059696652 -0.037913207 -0.0005113274
0.02204342 -0.04693038 -0.008982463 -0.015357014 -0.040086396 0.049358405 -0.006424186 0.009704827
-0.034718364 0.07072623 0.08994804 0.02168609 0.044962432 0.061700854 -0.023627583 0.07967449
0.018004164 -0.053021166 0.0011069924 -0.052434668 0.009123748 0.038213182 -0.032504503 -0.004821353
0.08039673 -0.042548876 -0.07200932 0.09457498 0.03141277 -0.06595634 0.0032433167 -0.01988037
0.056693584 0.043943495 -0.049378633 0.040225442 -0.07597527 -0.0059112203 -0.057098996 0.08726449
0.037870504 0.06025294 -0.048791192 0.0015231452 0.06358405 -0.022263225 -0.072947994 -0.03953038
0.046738856 0.0019731182 0.0736572 0.0052689062 -0.0652003 -0.055076465 -0.029035946 -0.011718821
0.0040251845 -0.060416173 -0.028855992 0.0051318286 -0.04772953 -0.048847366 0.11347528 0.016719403
0.038530238 0.05163024 -0.048692387 -0.036085222 -0.07013734 0.05544689 -0.037359264 -0.008937736
-0.020829955 0.104537874 0.071216375 -0.051289804 0.0318441 -0.06467613 0.07256353 -0.0021305808
0.075451195 0.03094542 -0.054843843 -0.04645219 -0.06191917 0.015831335 -0.028168254 0.013125541
0.02780677 0.06685328 -0.0039347103 0.08560738 0.020157564 -0.020072743 -0.0128863845 0.038346108
-0.008450409 0.009567487 0.056470204 0.059808366 -0.066994876 0.07933392 -0.0011963615 0.087077856
0.044555653 0.016580062 0.0067046625 -0.026719904 0.009441328 0.017141696 -0.04965498 0.061341338
-0.004556553 -0.06358762 -0.0040423325 -0.05059799 -0.021818114 -0.052801438 0.03218015 -0.0015531363
-0.015677346 0.049187616 -0.073639184 -0.04404065 0.036952734 0.050497476 0.06357413 -0.053326644
-0.038575437 -0.0428118 -0.067359045 0.061690018 -0.008823178 -0.04114602 -0.013189346 -0.013083612
-0.06715981 -0.011259417 -0.06332018 -0.0056021158 0.019717377 0.03370045 0.01594401 -0.01096762
0.024907326 -0.06401669 -0.041659288 0.04902542 -0.04475792 -0.05310909 -0.0043068556 0.058522712
0.059953023 -0.044276297 -0.011993339 -0.04793339 0.050929487 0.029733611 -0.059644222 -0.036794726
0.065166555 -0.03421543 -0.011318862 -0.019687101 0.055762645 0.028155528 -0.070516445 0.064606436
-0.06244376 -0.03066286 0.047886554 -0.031999882 0.054313347 -0.0036710629 -0.0018914946 0.038840514
0.030045819 0.074100085 0.066509604 -0.024024762 0.007905019 0.02634617 0.06588015 0.019158404
0.058006372 -0.06526008 0.026614167 0.0056964285 0.027696075 -0.051790293 0.05006951 -0.07161236
00000000: bb3c 07bd 1ac3 fb3c 214e a13d 3763 2dbd
00000010: f819 82bd dc79 b33d 7482 c0bc 8dbf 93bc
00000020: 17e3 7ebd 5abe 87bc effb 01bd d776 793d
00000030: f9cf 323c df16 993d 6413 143d 65d6 80bd
00000040: 0b9d 1d3d 699a 413c 4c4a 763d f963 59bd
00000050: 60c9 ceba e6aa cabc f729 34bd c787 043d
00000060: 2a05 c23c 3ac5 073d 3e73 12bd 3d0b 593c
00000070: 8ef5 a43d b46f 073b c096 b2b9 f848 c63c
00000080: 164b 973d 232d a7bd 7163 003d 9b6a 003d
00000090: b71f b73b 7cfc 883d 030b 783d 13be 6cbd
000000a0: 4e76 20bd 9e0a 933d 9dac aa3d 540a 063d
000000b0: 7b48 413d 22ae b4bb b2b2 77bc 62ca 8f3d
000000c0: f597 92bd e53d 1eba 8391 d53a b30b 783d
000000d0: c143 943d ebf3 b73c 1b71 0dbd 0e80 92bd
000000e0: da1b 8d3d 0054 d4bc 2266 57bc a6fd 4b3d
000000f0: 172f 1abd 7a84 74bd e14a 1bbd 9a0a 06ba
00000100: 6794 b43c 123a 40bd 2e2b 13bc fc9b 7bbc
00000110: a231 24bd 0a2c 4a3d fa81 d2bb ff00 1f3c
00000120: d834 0ebd ead8 903d ae36 b83d 07a7 b13c
00000130: 872a 383d 09ba 7c3d a28e c1bc 612c a33d
00000140: 787d 933c b92c 59bd 8018 913a bcc5 56bd
00000150: c67b 153c 6d85 1c3d 7123 05bd 71fc 9dbb
00000160: 0aa7 a43d bb47 2ebd 9f79 93bd 87b0 c13d
00000170: adaa 003d 1e14 87bd d38d 543b 28dc a2bc
00000180: 8837 683d 18fe 333d 4041 4abd 6fc3 243d
00000190: ec98 9bbd e9b2 c1bb a3e0 69bd bab7 b23d
000001a0: 1a1e 1b3d c9cb 763d 46d9 47bd 46a4 c73a
000001b0: 5b38 823d 5e61 b6bc c265 95bd 9cea 21bd
000001c0: 3e71 3f3d 6e4f 013b 96d9 963d caa6 ac3b
000001d0: bc87 85bd dc97 61bd cbdc edbc 4c00 40bc
000001e0: b2e5 833b f376 77bd 6763 ecbc e628 a83b
000001f0: 0a80 43bd 2d14 48bd ba65 e83d 21f7 883c
00000200: e2d1 1d3d 3b7a 533d ab71 47bd 19ce 13bd
00000210: 2aa4 8fbd 471c 633d 0706 19bd 956f 12bc
00000220: 95a3 aabc f417 d63d e4d9 913d 4215 52bd
00000230: f66e 023d eb74 84bd 309c 943d 37a1 0bbb
00000240: 2886 9a3d 4081 fd3c f0a3 60bd a744 3ebd
00000250: f59e 7dbd b7b0 813c 1cc1 e6bc 820c 573c
00000260: 06cb e33c 5fea 883d beee 80bb ec52 af3d
00000270: 7a21 a53c 986f a4bc 6a21 53bc cf10 1d3d
00000280: 9673 0abc f3c0 1c3c 4d4d 673d 9ef9 743d
00000290: 9c34 89bd d279 a23d 3bcf 9cba e055 b23d
000002a0: fd7f 363d e9d2 873c c9b2 db3b b3e3 dabc
000002b0: cdaf 1a3c be6c 8c3c 0563 4bbd 0e41 7b3d
000002c0: 234f 95bb 3a3a 82bd 8b75 84bb d73f 4fbd
000002d0: e7bb b2bc 5246 58bd 55cf 033d 9b92 cbba
000002e0: c76d 80bc f478 493d 24d0 96bd f863 34bd
000002f0: c05b 173d 71d6 4e3d 2733 823d 0a6d 5abd
00000300: 4701 1ebd 6d5b 2fbd 8af3 89bd acae 7c3d
00000310: 178f 10bc bb88 28bd 2018 58bc a55c 56bc
00000320: 158b 89bd 6b79 38bc 03ae 81bd f491 b7bb
00000330: 5686 a13c 7c09 0a3d 039d 823c 88b1 33bc
00000340: 730a cc3c 2f1b 83bd eea2 2abd e1ce 483d
00000350: 1554 37bd eb88 59bd 8620 8dbb 83b5 6f3d
00000360: 4d91 753d 105b 35bd b67f 44bc cd55 44bd
00000370: 709b 503d e793 f33c 804d 74bd 11b6 16bd
00000380: 0b76 853d 7b25 0cbd c072 39bc d846 a1bc
00000390: 5f67 643d 6ca6 e63c ed6a 90bd 6150 843d
000003a0: 07c5 7fbd ae30 fbbc b124 443d 4f12 03bd
000003b0: ac77 5e3d 3796 70bb 07ec f7ba 3b17 1f3d
000003c0: a622 f63c c9c1 973d 3036 883d 94cf c4bc
000003d0: 0e84 013c ecd3 d73c 2cec 863d 16f2 9c3c
000003e0: 1798 6d3d 14a7 85bd f405 da3c 1ba9 ba3b
000003f0: e1e2 e23c 0f22 54bd b015 4d3d 80a9 92bd

main.14.weight f4 [45, 90]
0.034299564 0.047581404 -0.05589385 -0.035643235 0.11484365 -0.06585108 0.04946814 -0.018257068
-0.09996909 0.09374773 0.09028065 -0.11284122 -0.023883834 0.08298427 -0.101367354 0.00967657
-0.07877108 -0.009450557 -0.032413337 0.0701074 -0.048639115 -0.03961427 0.036013655 -0.041248392
0.025368227 -0.08836509 -0.05537362 -0.07023052 -0.10841954 0.055495065 -0.044782523 0.06319902
-0.03943999 -0.101401664 0.16169992 -0.06862783 -0.073969014 0.043416522 0.043763068 0.0295498
-0.07622889 0.12774216 -0.035349995 0.103752896 0.07314456 0.054976776 0.05156688 -0.03586518
0.00684426 -0.012257935 0.076572694 -0.10697791 0.024204407 0.10528377 0.06464386 -0.0745763
-0.029644355 0.008198244 -0.020360159 0.035016507 -0.05546354 0.027674358 0.06527238 0.103610665
-0.012953653 0.037963588 0.10187383 0.06233719 -0.00088455755 0.055311427 0.03875165 -0.012017883
-0.07572426 -0.033903833 -0.1111881 0.09492276 0.107552774 0.13325538 0.10063193 0.108286306
-0.09636933 -0.058499373 0.08356037 0.08787006 0.11280946 -0.08590017 0.016689627 -0.083477296
-0.108452894 -0.049023498 0.036161795 -0.031694625 0.037272077 -0.007451977 -0.08570434 -0.03375725
-0.0017253999 -0.07132107 0.069654204 -0.064335026 -0.10491745 -0.05650544 0.03057167 0.018375117
0.044605557 0.09859589 0.022951864 0.05837636 -0.026920144 -0.05721907 -0.034127057 0.014896984
-0.10897082 -0.071548976 -0.11119546 -0.06790155 -0.050818887 -0.057651307 -0.060603034 -0.07954156
-0.022326235 0.012395539 -0.05238695 0.039029676 -0.09453459 -0.01014393 -0.009956704 0.104655586
-0.056428675 -0.019386007 0.09081736 0.047688093 -0.056111846 -0.03717308 -0.02715879 -0.0788087
-0.08316663 -0.008686131 0.044573635 -0.06876268 -0.070780456 0.00936718 -0.024085373 0.054748666
0.08786418 0.060055148 0.04951707 0.0428859 0.047212463 -0.06135276 0.02619883 0.06068925
0.06966158 -0.06353915 0.036781624 -0.018782465 -0.031645756 -0.06720762 -0.09942275 -0.096111014
-0.047272757 0.09090943 0.03137796 0.079511814 -0.06354788 -0.059349217 0.009298186 0.07273738
-0.102741465 0.043785628 -0.00873648 0.025414294 -0.07408083 0.09685736 0.018760188 0.08848296
0.09380515 0.06688806 -0.044916213 -0.0065426 0.04241143 -0.10779632 0.044973806 0.14196442
0.13952667 -0.023656156 -0.01142691 0.02602758 -0.08659135 -0.0065820673 -0.011597371 -0.045347545
-0.03262198 0.04733533 0.079138406 0.0915989 -0.052404635 0.0047433795 -0.059142366 0.078412294
0.018056046 0.0616042 -0.026813382 -0.053376436 0.0689773 0.07341612 0.011713791 0.088893175
-0.14067747 0.092094526 0.061913505 0.04187534 0.11696945 -0.033545844 0.014863226 -0.1039925
0.016177341 0.107969895 -0.004176958 0.0051587485 -0.029282315 0.08380897 0.03706561 0.069012724
-0.07101445 0.020785822 0.037956707 0.07662742 0.015428031 -0.009130778 0.08656482 0.014192137
0.017446054 0.077475466 0.023271237 -0.022038892 0.09503752 0.033674087 0.12198395 0.076686755
-0.09684743 -0.07686949 0.075206965 -0.027086426 0.08706179 -0.004553072 0.07224453 0.10090106
0.04515849 0.121064596 -0.029377852 0.038802102 -0.0004982723 -0.07182466 -0.08940512 0.06189436
00000000: b37d 0c3d b8e4 423d f3f0 64bd a4fe 11bd
00000010: 2633 eb3d eedc 86bd 1b9f 4a3d d98f 95bc
00000020: 98bc ccbd cffe bf3d 10e5 b83d 4c19 e7bd
00000030: 08a8 c3bc a8f3 a93d b099 cfbd 7a8a 1e3c
00000040: bb52 a1bd 82d6 1abc d9c3 04bd 7894 8f3d
00000050: cf39 47bd 9342 22bd 0e83 133d 13f4 28bd
00000060: 07d1 cf3c c2f8 b4bd 73cf 62bd 05d5 8fbd
00000070: 100b debd cb4e 633d e16d 37bd 7d6e 813d
00000080: d48b 21bd adab cfbd aa94 253e bf8c 8cbd
00000090: 117d 97bd 86d5 313d e740 333d 6c12 f23c
000000a0: e41d 9cbd d7ce 023e 28cb 10bd 667c d43d
000000b0: d1cc 953d 542f 613d cb37 533d 5ee7 12bd
000000c0: d045 e03b 81d5 48bc 25d2 9c3d 3c17 dbbd
000000d0: 5248 c63c 049f d73d 0064 843d 76bb 98bd
000000e0: b8d8 f2bc ed51 063c 59ca a6bc 786d 0f3d
000000f0: bd2d 63bd 56b5 e23c 87ad 853d d431 d43d
00000100: 8f3b 54bc b57f 1b3d 3aa3 d03d 4855 7f3d
00000110: a7e1 67ba 3c8e 623d 0dba 1e3d a8e6 44bc
00000120: 5215 9bbd bfde 0abd 96b6 e3bd dd66 c23d
00000130: a144 dc3d 1974 083e 1d18 ce3d 36c5 dd3d
00000140: 495d c5bd 0a9d 6fbd b321 ab3d 38f5 b33d
00000150: a508 e73d 6eec afbd afb8 883c 25f6 aabd
00000160: 8d1c debd ddcc 48bd 641e 143d 39d2 01bd
00000170: 9baa 183d b72f f4bb c285 afbd 0b45 0abd
00000180: d026 e2ba c810 92bd dda6 8e3d 15c2 83bd
00000190: f6de d6bd 4072 67bd 7071 fa3c 6a87 963c
000001a0: 51b4 363d a4ec c93d 8c05 bc3c 0d1c 6f3d
000001b0: a287 dcbc 8b5e 6abd d0c8 0bbd 7b12 743c
000001c0: 182c dfbd 4588 92bd 72ba e3bd f80f 8bbd
000001d0: 7727 50bd c723 6cbd e33a 78bd afe6 a2bd
000001e0: 82e5 b6bc a916 4b3c b393 56bd 95dd 1f3d
000001f0: 5a9b c1bd ba32 26bc 7221 23bc ab55 d63d
00000200: c121 67bd 67cf 9ebc 74fe b93d 9754 433d
00000210: 89d5 65bd cd42 18bd 1c7c debc 7566 a1bd
00000220: 4453 aabd 4650 0ebc d892 363d 73d3 8cbd
00000230: 58f5 90bd cd78 193c b04e c5bc 2340 603d
00000240: 23f2 b33d 63fc 753d 69d2 4a3d 20a9 2f3d
00000250: db61 413d 084d 7bbd ee9e d63c 4a95 783d
00000260: bbaa 8e3d d020 82bd 54a8 163d afdd 99bc
00000270: fb9e 01bd 26a4 89bd 289e cbbd dad5 c4bd
00000280: 14a1 41bd b92e ba3d 2d86 003d 17d7 a23d
00000290: 6425 82bd 2a18 73bd 6b57 183c 56f7 943d
000002a0: 1e6a d2bd 8f58 333d 7423 0fbc a331 d03c
000002b0: b1b7 97bd 275d c63d f7ae 993c 8e36 b53d
000002c0: ea1c c03d 9bfc 883d 10fa 37bd 4f63 d6bb
000002d0: 9cb7 2d3d 51c4 dcbd 7436 383d 1f5f 113e
000002e0: 14e0 0e3e 8eca c1bc ef37 3bbc cb37 d53c
000002f0: ce56 b1bd 62ae d7bb e602 3ebc 59be 39bd
00000300: a09e 05bd b1e2 413d 5113 a23d 3498 bb3d
00000310: 3ea6 56bd 5a6e 9b3b 443f 72bd a096 a03d
00000320: 46ea 933c b054 7c3d bda7 dbbc 40a1 5abd
00000330: f843 8d3d 315b 963d 33eb 3f3c a00d b63d
00000340: c10d 10be 0e9c bc3d 0499 7d3d 7a85 2b3d
00000350: ae8d ef3d 5e67 09bd e384 733c 05fa d4bd
00000360: 5886 843c 521f dd3d ddde 88bb b80a a93b
00000370: 77e1 efbc 0aa4 ab3d 1cd2 173d 8b56 8d3d
00000380: 0670 91bd 0747 aa3c 7e78 1b3d d6ee 9c3d
00000390: dac5 7c3c 4299 15bc e548 b13d 2386 683c
000003a0: 07eb 8e3c 75ab 9e3d 52a3 be3c e88a b4bc
000003b0: 08a3 c23d d7ed 093d b9d2 f93d f20d 9d3d
000003c0: f257 c6bd c06d 9dbd 1c06 9a3d 5ae4 ddbc
000003d0: 744d b23d f031 95bb f1f4 933d 37a5 ce3d
000003e0: 1cf8 383d b7f0 f73d d2a9 f0bc f4ee 1e3d
000003f0: 7d9e 02ba cf18 93bd 081a b7bd f184 7d3d

main.16.weight f4 [4, 45]
-0.357609 0.10121628 -0.25134507 0.031657938 0.05328745 -0.05743212 0.08485951 -0.12242429
-0.02622514 0.1897713 -0.21129356 -0.12734456 0.16548394 0.2522685 -0.008400916 0.15035698
-0.03965152 -0.057882763 -0.021117007 0.24297735 -0.1571364 -0.119324386 -0.07956003 -0.06467194
0.045689072 -0.25660577 -0.21156481 -0.13599686 -0.12701446 -0.09625591 -0.19874018 0.0040303143
0.09545519 -0.25002664 -0.015119033 -0.12500519 0.07582338 0.13960108 0.13933302 -0.10253144
0.08360329 0.051312216 -0.12720706 -0.11242503 0.112947874 -0.012620232 0.063659646 -0.20307934
0.11773236 -0.11600616 0.102330595 0.14467996 -0.12974909 0.12280589 0.07354387 0.079347655
-0.13641004 -0.2451216 -0.27734652 -0.15677613 0.096530564 -0.0922775 0.22910598 0.12681067
-0.20395613 0.18319349 0.18194574 -0.035572447 -0.13649835 -0.13823482 -0.03756811 0.099748224
0.068995275 -0.2126938 -0.1343545 -0.26682636 0.1576566 0.13367337 -0.22444974 -0.19349694
0.23668471 -0.14422917 -0.0015037789 -0.20632745 0.17093681 0.06964978 -0.016544782 0.08479738
0.14280798 -0.016934603 0.14492166 0.10073417 0.19767159 0.08281774 -0.12415734 0.13186692
0.052370317 0.11799875 -0.14581677 0.081755206 -0.0015662101 -0.039400563 -0.25338393 -0.12476627
0.1267334 0.045252997 0.055725724 -0.14991482 0.03510637 -0.3956469 -0.18365917 -0.11188505
0.19214699 0.060701106 0.12695837 -0.19206919 -0.2161604 0.12824693 0.12056716 0.13854665
0.18367669 0.147667 -0.0864131 0.08183667 0.28575256 -0.1883561 -0.09702781 -0.29202434
-0.13128673 -0.20867753 -0.06975703 0.03443911 0.11934752 -0.08840005 0.15324903 -0.097067274
-0.053455155 -0.10877978 0.17810324 0.10394554 -0.08430035 -0.04552929 0.14001405 -0.073974274
-0.040891323 -0.26100913 0.25369117 -0.13052543 -0.053428918 -0.032379035 -0.01717958 -0.020399207
0.08028428 0.111365534 -0.02972702 0.1730191 -0.29838124 -0.09553185 0.0004968865 0.11095042
0.32597336 -0.093642175 0.09513966 -0.21446712 0.14791074 0.13644926 -0.18768017 0.0027464172
-0.007833027 -0.018033365 -0.02056389 -0.20043859 -0.14351046 0.147185 0.07125121 -0.09361089
-0.10611853 0.08806077 -0.033040464 0.1392822
00000000: 8718 b7be 7b4a cf3d 4db0 80be c1ab 013d
00000010: f143 5a3d f13d 6bbd d3ca ad3d 96b9 fabd
00000020: 1bd6 d6bc 6853 423e 575d 58be 9d66 02be
00000030: 9f74 293e 5629 813e ffa3 09bc 2ef7 193e
00000040: a269 22bd 7a16 6dbd 93fd acbc 0ecf 783e
00000050: 5de8 20be 5860 f4bd 5ef0 a2bd b972 84bd
00000060: 7724 3b3d d561 83be 72a4 58be c342 0bbe
00000070: 1410 02be d221 c5bd 8c82 4bbe ba10 843b
00000080: 037e c33d 7e03 80be d2b5 77bc 5c01 00be
00000090: 4a49 9b3d 96f3 0e3e 51ad 0e3e 01fc d1bd
000000a0: 3438 ab3d c22c 523d 9142 02be 183f e6bd
000000b0: 3751 e73d 17c5 4ebc fd5f 823d 08f4 4fbe
000000c0: aa1d f13d a394 edbd b492 d13d fc26 143e
000000d0: f2dc 04be a881 fb3d 2b9e 963d 0681 a23d
000000e0: 13af 0bbe 2801 7bbe 5d00 8ebe ec89 20be
000000f0: d1b1 c53d fcfb bcbd c29a 6a3e a8da 013e
00000100: e0d9 50be 1397 3b3e fc4f 3a3e 6ab4 11bd
00000110: 39c6 0bbe 6e8d 0dbe 05e1 19bd cc48 cc3d
00000120: 654d 8d3d 67cc 59be 3a94 09be 779d 88be
00000130: bb70 213e ace1 083e 27d6 65be 1024 46be
00000140: 7a5d 723e d0b0 13be 721a c5ba 8147 53be
00000150: 0f0a 2f3e 8ba4 8e3d ec88 87bc 40aa ad3d
00000160: 413c 123e 70ba 8abc 5866 143e b74d ce3d
00000170: 6c6a 4a3e 599c a93d 3446 febd 1f08 073e
00000180: 4282 563d 54a9 f13d fe50 15be 466f a73d
00000190: 4a49 cdba 7c62 21bd 8abb 81be 7585 ffbd
000001a0: 67c6 013e 355b 393d a840 643d 4583 19be
000001b0: b2cb 0f3d 3b92 cabe 2611 3cbe fd23 e5bd
000001c0: 2ec2 443e b9a1 783d 6001 023e c9ad 44be
000001d0: 2759 5dbe 2a53 033e eaeb f63d 2cdf 0d3e
000001e0: be15 3c3e 0536 173e 5af9 b0bd fc99 a73d
000001f0: 294e 923e 6ce0 40be 84b6 c6bd 3784 95be
00000200: 0770 06be 90af 55be c6dc 8ebd 0610 0d3d
00000210: 796c f43d 160b b5bd 50ed 1c3e 35cb c6bd
00000220: cbf3 5abd efc7 debd b260 363e 66e1 d43d
00000230: a9a5 acbd ec7c 3abd d85f 0f3e d37f 97bd
00000240: a97d 27bd fda2 85be cfe3 813e 75a8 05be
00000250: 48d8 5abd e19f 04bd 31bc 8cbc 3d1c a7bc
00000260: 166c a43d 9d13 e43d 1486 f3bc eb2b 313e
00000270: 6dc5 98be 34a6 c3bd 7d41 023a f939 e33d
00000280: fbe5 a63e 78c7 bfbd 95d8 c23d 459d 5bbe
00000290: ea75 173e 5bb9 0b3e 3b2f 40be 3cfd 333b
000002a0: 1956 00bc b5ba 93bc 9a75 a8bc c63f 4dbe
000002b0: 68f4 12be aab7 163e 28ec 913d 11b7 bfbd
000002c0: ac54 d9bd 3459 b43d 7055 07bd fe9f 0e3e
