src/models/penneAlPesto6.pth (torch, 413042 bytes, 15 tensors)

main.0.weight f4 [10, 3, 4, 4]
-0.1500193 -0.030464895 -0.024999132 0.018321365 -0.029355718 -0.09704487 0.036273126 -0.001338629
-0.18356755 -0.082319476 -0.062440135 0.07818514 -0.1445551 -0.14774936 0.041209534 -0.09993276
-0.05987 -0.01340047 -0.029258799 0.10479806 -0.06943658 -0.042087268 -0.050764907 0.095510304
-0.022868766 -0.07013498 -0.05628683 0.11778499 0.026829273 -0.15143904 0.027327772 -0.1850634
0.057724487 0.12296476 -0.014379186 -0.04441322 -0.0075090732 -0.042179123 0.12256788 0.08640933
-0.040534355 0.00063235953 -0.031513523 0.013661882 0.04623398 -0.1897935 -0.16644992 -0.12630434
0.024527058 -0.057056174 0.11129426 0.14957373 -0.02138693 -0.13439436 0.080493845 -0.022764383
-0.087826125 0.113990836 0.07917512 0.14631186 -0.016246311 0.041264478 0.053412758 -0.07030816
0.05589545 -0.011842522 0.0016064462 0.15437232 0.10896569 -0.026224513 -0.06952835 -0.1245094
0.08358965 -0.18591605 0.05454982 -0.12866285 0.115348235 -0.083868876 0.00636216 0.08682996
-0.00965058 0.030214852 -0.018380137 -0.14573674 -0.12112006 0.121781625 -0.19656691 0.08800491
-0.12175708 0.024127765 -0.029280515 -0.095187806 -0.029607587 0.03325021 0.002389291 -0.025274279
-0.0026760534 0.0087578185 0.08378421 -0.0074534393 -0.14259759 0.080997646 -0.06252625 0.13945253
0.029322095 0.050796755 -0.13929015 -0.11159332 0.026445279 -0.12612508 -0.015200031 0.15705466
-0.07538536 0.1407573 0.038945317 -0.0927725 0.022513742 0.06675451 0.11498426 -0.054048996
0.12758896 0.088783145 0.01995549 0.066714644 0.032367162 -0.01370405 -0.08078305 0.1737506
0.14034039 -0.13252023 -0.051408354 0.006870898 0.008934323 -0.008715225 -0.108023256 -0.023221152
-0.14240932 -0.13100529 0.14910965 0.093999304 -0.034596644 0.0796535 -0.028413536 0.02199543
-0.031656623 -0.043979008 0.1346644 0.096611686 -0.05738621 0.048036538 -0.03167631 0.05201222
-0.056990217 0.13320817 0.017814834 -0.01103276 -0.11030696 0.23313133 0.045903288 -0.023643995
-0.0037525245 0.12686265 0.054952037 0.048141368 -0.028971778 -0.043020844 -0.09654397 -0.066735744
-0.10988863 -0.1049421 -0.078494824 0.03680168 0.005359187 0.05551876 -0.1011735 0.08042729
0.09549436 -0.10673577 -0.0899971 0.013523914 0.04332931 0.06191598 0.080617726 -0.1344164
0.09389998 -0.12961848 -0.009134767 0.09553098 0.08843698 -0.04791856 -0.018974643 0.039517663
-0.011546465 0.108059146 0.14476521 0.21245305 0.10497795 0.08155807 0.14613765 0.19507256
0.17122255 -0.020477558 -0.10555354 0.10895426 -0.050395127 -0.07838256 0.13290551 0.07356501
0.12862115 -0.09621797 -0.15229663 -0.101157896 -0.0073291557 -0.029587151 -0.14520553 0.0252435
-0.037683047 0.05663363 0.082792096 0.026091652 0.050239246 -0.03859172 0.023741772 0.0006425918
-0.107345596 -0.12961291 0.14329463 -0.04306233 0.10796658 -0.012402494 0.14450091 -0.1327747
-0.054240666 0.007829155 -0.08117894 -0.023674635 0.1141907 0.10341503 0.06535671 0.050689463
0.079223126 0.16832682 -0.0762065 0.1056289 0.24041326 0.11462622 -0.04164723 0.09105661
0.08297213 0.038907666 0.12470061 0.03505628 -0.009400891 0.17415498 0.06922318 0.004918404
00000000: a99e 19be 8491 f9bc fbca ccbc b016 963c
00000010: 677b f0bc 76bf c6bd 2193 143d f074 afba
00000020: 22f9 3bbe 1d97 a8bd 3ac1 7fbd 881f a03d
00000030: 4106 14be 9c4b 17be 54cb 283d 8ca9 ccbd
00000040: 3f3a 75bd a58d 5bbc 26b0 efbc 5ea0 d63d
00000050: c434 8ebd b363 2cbd ddee 4fbd e89a c33d
00000060: 4757 bbbc eea2 8fbd 058d 66bd 4239 f13d
00000070: 10c9 db3c d612 1bbe 7ede df3c 4381 3dbe
00000080: 8370 6c3d f3d4 fb3d ad96 6bbc a3ea 35bd
00000090: ac0e f6bb 04c4 2cbd de04 fb3d 60f7 b03d
000000a0: 5a07 26bd eec4 253a 5314 01bd 16d6 5f3c
000000b0: d85f 3d3d 3a59 42be d971 2abe ed55 01be
000000c0: f8ec c83c bcb3 69bd 3fee e33d db29 193e
000000d0: a533 afbc ad9e 09be f5d9 a43d 5f7c babc
000000e0: 2fde b3bd 0774 e93d 9126 a23d c7d2 153e
000000f0: fc16 85bc f104 293d 56c7 5a3d b9fd 8fbd
00000100: a1f2 643d 2307 42bc 648f d23a c713 1e3e
00000110: 6729 df3d cad4 d6bc e164 8ebd c9fe febd
00000120: 0d31 ab3d c760 3ebe a26f 5f3d 32c0 03be
00000130: b23b ec3d 72c3 abbd ab79 d03b e8d3 b13d
00000140: 771d 1ebc 2385 f73c f191 96bc 033c 15be
00000150: cb0d f8bd a568 f93d d648 49be eb3b b43d
00000160: c75b f9bd 97a7 c53c b1dd efbc d3f1 c2bd
00000170: 9c8b f2bc 5f31 083d a795 1c3b 010c cfbc
00000180: ba60 2fbb f47c 0f3c 0e97 ab3d fb3b f4bb
00000190: 1a05 12be 18e2 a53d c30d 80bd a5cc 0e3e
000001a0: e434 f03c 4210 503d 14a2 0ebe 0a8b e4bd
000001b0: c5a3 d83c ef26 01be 8d09 79bc f0d2 203e
000001c0: a463 9abd af22 103e 2085 1f3d 82ff bdbd
000001d0: bd6e b83c 97b6 883d de7c eb3d 7b62 5dbd
000001e0: aea6 023e f0d3 b53d b279 a33c b0a1 883d
000001f0: 6e93 043d f486 60bc 9571 a5bd adeb 313e
00000200: 64b5 0f3e 62b3 07be 9191 52bd 4525 e13b
00000210: 4461 123c 4eca 0ebc 4c3b ddbd 493a bebc
00000220: c0d3 11be 4026 06be 33b0 183e b582 c03d
00000230: 36b5 0dbd 6021 a33d 81c3 e8bc c32f b43c
00000240: 60aa 01bd 5523 34bd 77e5 093e 59dc c53d
00000250: cd0d 6bbd f6c1 443d 05bf 01bd c40a 553d
00000260: 936e 69bd b967 083e 6af0 913c c0c2 34bc
00000270: 9ee8 e1bd fbb9 6e3e 1605 3c3d 0db1 c1bc
00000280: eaec 75bb 48e8 013e 6315 613d e22f 453d
00000290: 3956 edbc a036 30bd d8b8 c5bd c0ac 88bd
000002a0: 4a0d e1bd e2eb d6bd e5c1 a0bd 5cbd 163d
000002b0: 1e9c af3b a467 633d 0d34 cfbd 10b7 a43d
000002c0: 8c92 c33d 4998 dabd 6650 b8bd 6893 5d3c
000002d0: 137a 313d 9c9b 7d3d e81a a53d 74a4 09be
000002e0: a24e c03d b5ba 04be fda9 15bc bfa5 c33d
000002f0: 731e b53d 4146 44bd b670 9bbc 46dd 213d
00000300: 622d 3dbc 1d4e dd3d 553d 143e 4b8d 593e
00000310: aefe d63d eb07 a73d 1ca5 153e 1ac1 473e
00000320: f754 2f3e 8dc0 a7bc 742c d8bd 6923 df3d
00000330: 1f6b 4ebd 0987 a0bd 6218 083e 41a9 963d
00000340: 43b5 033e ed0d c5bd a6f3 1bbe df2b cfbd
00000350: 6a29 f0bb c160 f2bc c2b0 14be 75cb ce3c
00000360: 8a59 1abd aaf8 673d e78e a93d 29be d53c
00000370: abc7 4d3d 5a12 1ebd 1b7e c23c 9b73 283a
00000380: 02d8 dbbd 3fb9 04be d4bb 123e 2062 30bd
00000390: 951d dd3d d533 4bbc 0cf8 133e 17f6 07be
000003a0: 762b 5ebd db45 003c 2541 a6bd 4ff1 c1bc
000003b0: d0dc e93d 42cb d33d bdd9 853d c19f 4f3d
000003c0: bc3f a23d de5d 2c3e 2712 9cbd f753 d83d
000003d0: e52e 763e 27c1 ea3d 4996 2abd e37b ba3d
000003e0: 4bed a93d a55d 1f3d 0963 ff3d 2d97 0f3d
000003f0: 3206 1abc af55 323e e2c4 8d3d 902a a13b

main.3.weight f4 [20, 10, 4, 4]
0.09427946 0.09789075 0.07031025 0.010222885 -0.10520919 -0.077655636 0.006993755 -0.010243673
0.025683865 0.031578086 -0.012798062 -0.0007423977 -0.016483912 0.033593718 -0.02931473 -0.09939602
0.08846459 0.03625788 -0.0975246 -0.038032092 0.05638677 -0.049773548 -0.11120548 0.04571987
-0.017287148 -0.048014604 -0.07240488 -0.05910518 -0.082437545 0.021446476 0.048881523 0.03261739
-0.016534666 -0.014407364 -0.12133301 -0.08420011 -0.034973994 0.06294776 0.06998421 -0.01665073
-0.053359684 -0.024037052 0.046126448 0.062291447 -0.04234778 0.015604045 0.065310866 0.021048985
0.046805713 -0.044466622 -0.16132075 -0.12113961 -0.029903091 -0.096302986 -0.018532764 0.045214497
-0.04036556 -0.05300104 -0.0034470113 0.00961005 0.0691824 0.0011105553 0.06737216 -0.017658222
0.008479876 -0.00147752 -0.047754046 -0.16339408 0.08661028 0.040544678 -0.06048576 0.065968946
-0.03969932 -0.08186828 0.036176506 -0.033496216 0.032151066 0.07422124 0.036639072 0.024514602
-0.02966018 -0.022514706 -0.110300936 -0.15713863 0.042395618 0.004971443 -0.08682115 -0.07230463
0.03295717 0.030719718 -0.042793434 0.024073163 -0.04540718 0.030021267 -0.05614645 -0.020274797
0.03364412 -0.01949714 -0.11394209 -0.09383585 0.02166647 0.050844017 -0.042729113 -0.013362144
0.04845173 -0.016761651 -0.035254188 0.029098464 -0.014489709 -0.05551085 0.011063066 0.040257685
0.03310256 -0.05878289 -0.1692674 -0.031007122 -0.03270988 0.006328114 -0.01985327 -0.08173725
0.06505136 0.016926678 -0.032869108 0.051841065 0.04896985 -0.031155203 -0.046555936 -0.03246537
-0.0092077665 -0.13371328 -0.17190637 -0.10673078 -0.0063612396 -0.1489086 0.026270691 -0.07881093
-0.042205606 -0.006354721 0.01214606 0.10369702 0.016965544 -0.02274706 -0.021808447 0.108293705
0.008101505 -0.023420667 0.04410847 -0.008761907 0.0073878593 0.0050781504 0.09844528 0.056682162
-0.01462579 -0.029415004 0.010400982 0.07931378 -0.040391292 0.0122662345 -0.012175449 0.08960365
0.008870149 0.07227892 0.08885113 0.089972295 0.05490969 0.035834637 0.065027826 0.009659696
0.0063993735 0.037373323 0.13548288 0.08194704 -0.05126953 0.0075542796 0.032033246 0.0069226907
0.026729025 0.019412614 0.037897084 -0.02865267 0.047142185 -0.046466347 -0.11704505 -0.042946994
-0.096699096 0.05232902 -0.08279169 -0.025175815 -0.036054693 0.017131524 -0.03341806 -0.033829976
-0.03153311 0.03818009 -0.0047798264 -0.05532592 -0.066641964 0.013595537 -0.0938456 -0.1278522
-0.108550906 -0.007555006 -0.043128688 -0.13200532 -0.031531245 -0.0058999863 0.027908484 -0.08331422
-0.01519541 -0.030901331 0.048188463 -0.013890589 -0.050006166 0.039689668 -0.025655972 -0.008966035
-0.07309326 -0.029114755 -0.04051839 -0.1392247 -0.06531185 -0.06622378 0.01703326 -0.07759226
0.007842036 0.060774066 -0.0049203443 -0.065786764 0.055754486 -0.033111483 -0.117246196 -0.17697346
-0.13686948 -0.09544851 -0.16358551 -0.11341486 -0.003329046 0.057025846 0.015526617 -0.037056755
0.007300888 0.023839476 -0.009330756 -0.10951485 0.037606414 0.032561984 -0.0295803 -0.05637765
-0.13097204 -0.018188179 -0.101754226 -0.14372139 0.04313246 -0.040273946 -0.065602034 0.020810131
00000000: 9715 c13d f27a c83d d2fe 8f3d e37d 273c
00000010: ea77 d7bd eb09 9fbd df2b e53b 14d5 27bc
00000020: f866 d23c 0658 013d f6ae 51bc 779d 42ba
00000030: 4509 87bc 9199 093d 7225 f0bc 2490 cbbd
00000040: ec2c b53d 2583 143d faba c7bd 8ac7 1bbd
00000050: d0f5 663d 59df 4bbd b3bf e3bd c244 3b3d
00000060: c79d 8dbc f6aa 44bd 0249 94bd 4618 72bd
00000070: 04d5 a8bd 85b0 af3c fe37 483d d099 053d
00000080: b573 87bc dd0c 6cbc 717d f8bd 1b71 acbd
00000090: e440 0fbd c1ea 803d e253 8f3d 1d67 88bc
000000a0: af8f 5abd 5ae9 c4bc 16ef 3c3d 5125 7f3d
000000b0: de74 2dbd 1ca8 7f3c b4c1 853d ec6e ac3c
000000c0: 59b7 3f3d a222 36bd 4431 25be 0b18 f8bd
000000d0: 54f7 f4bc 803a c5bd 06d2 97bc d632 393d
000000e0: 5c56 25bd 9e17 59bd 41e7 61bb 7973 1d3c
000000f0: 81af 8d3d 0d90 913a 6afa 893d faa7 90bc
00000100: 2eef 0a3c 58a9 c1ba bf99 43bd c750 27be
00000110: bb60 b13d 2d12 263d ebbf 77bd ba1a 873d
00000120: c19b 22bd 8faa a7bd d12d 143d 5433 09bd
00000130: d6b0 033d 4e01 983d da12 163d d9d2 c83c
00000140: e8f9 f2bc c370 b8bc 75e5 e1bd f3e8 20be
00000150: 07a7 2d3d 7de7 a23b 49cf b1bd 7314 94bd
00000160: 19fe 063d eba7 fb3c 2b48 2fbd 1535 c53c
00000170: e1fc 39bd 29ef f53c d2f9 65bd 5517 a6bc
00000180: 6bce 093d 77b8 9fbc 785a e9bd 032d c0bd
00000190: e27d b13c d141 503d b904 2fbd e5ec 5abc
000001a0: 5275 463d bb4f 89bc b266 10bd e75f ee3c
000001b0: 3f66 6dbc 585f 63bd dd41 353c 3ee5 243d
000001c0: 8d96 073d 54c6 70bd 6f54 2dbe a602 febc
000001d0: ccfa 05bd 115c cf3b 53a3 a2bc dc65 a7bd
000001e0: a639 853d d1a9 8a3c c2a1 06bd 4c57 543d
000001f0: 9c94 483d 3239 ffbc 70b1 3ebd 68fa 04bd
00000200: 2cdc 16bc 22ec 08be 3908 30be ab95 dabd
00000210: f271 d0bb 7f7b 18be a235 d73c a067 a1bd
00000220: c9df 2cbd 433b d0bb 4500 473c 1a5f d43d
00000230: 53fb 8a3c 0b58 babc a1a7 b2bc 17c9 dd3d
00000240: 2dbc 043c b3dc bfbc 15ab 343d 1a8e 0fbc
00000250: db15 f23b 9d66 a63b ae9d c93d 8e2b 683d
00000260: 02a1 6fbc bcf7 f0bc e168 2a3c 436f a23d
00000270: 5771 25bd 51f8 483c 897b 47bc 1e82 b73d
00000280: 1a54 113c f806 943d 95f7 b53d 6543 b83d
00000290: fce8 603d 57c7 123d 4f2d 853d b443 1e3c
000002a0: d6b1 d13b c514 193d 06bc 0a3e dad3 a73d
000002b0: 0000 52bd e489 f73b 4b35 033d bdd7 e23b
000002c0: d4f6 da3c 3407 9f3c f939 1b3d 01b9 eabc
000002d0: 2a18 413d 7f53 3ebd 51b5 efbd 30e9 2fbd
000002e0: 2d0a c6bd f456 563d b18e a9bd 833d cebc
000002f0: 16ae 13bd 6957 8c3c 60e1 08bd 4d91 0abd
00000300: dd28 01bd ba62 1c3d 17a0 9cbb 6f9d 62bd
00000310: 957b 88bd d1bf 5e3c 1f32 c0bd b0eb 02be
00000320: f04f debd fc8f f7bb b5a7 30bd 672c 07be
00000330: e826 01bd ac54 c1bb 55a0 e43c a5a0 aabd
00000340: 2bf6 78bc ca24 fdbc 4461 453d 5a95 63bc
00000350: 44d3 4cbd a291 223d 792c d2bc 47e6 12bc
00000360: ebb1 95bd 1182 eebc 9cf6 25bd eb90 0ebe
00000370: 38c2 85bd 55a0 87bd 5689 8b3c b1e8 9ebd
00000380: e27b 003c 3aee 783d d73a a1bb 36bb 86bd
00000390: d15e 643d e89f 07bd c61e f0bd 8838 35be
000003a0: 8327 0cbe 827a c3bd f682 27be 0d46 e8bd
000003b0: 202c 5abb ef93 693d 5a63 7e3c d3c8 17bd
000003c0: 4a3c ef3b 014b c33c 07e0 18bc 5249 e0bd
000003d0: 2f09 1a3d b75f 053d 6352 f2bc 40ec 66bd
000003e0: 891d 06be 60ff 94bc 8564 d0bd b32b 13be
000003f0: aaab 303d 4bf6 24bd 5c5a 86bd 027a aa3c

main.4.weight f4 [20]
0.97178024 1.0262953 1.0132223 1.0042564 0.9819343 0.9897472 0.97246385 0.9846676
0.9973831 0.99513704 1.014815 0.9617208 0.9638618 1.0354241 0.9951361 1.0024328
0.96566325 0.97132957 0.97690815 1.0070405
00000000: 97c6 783f a55d 833f 45b1 813f 798b 803f
00000010: 0c60 7b3f 1360 7d3f 64f3 783f 2d13 7c3f
00000020: 8054 7f3f 4dc1 7e3f 75e5 813f 5633 763f
00000030: a6bf 763f c788 843f 3dc1 7e3f b84f 803f
00000040: b535 773f 0ea9 783f a716 7a3f b4e6 803f

main.4.bias f4 [20]
-0.1308346 -0.14191063 -0.12561063 -0.1653062 0.039288417 -0.17560291 -0.19725905 0.043705955
0.029425219 -0.060780194 -0.15882862 -0.08136004 -0.102868065 0.08194311 -0.124249116 -0.08299601
-0.054360975 0.05380458 -0.026220381 -0.1353734
00000000: 81f9 05be 0551 11be 13a0 00be 0746 29be
00000010: e4ec 203d 40d1 33be 47fe 49be 0405 333d
00000020: 280d f13c a7f4 78bd f8a3 22be 18a0 a6bd
00000030: 7eac d2bd cad1 a73d 5276 febd d0f9 a9bd
00000040: 9da9 5ebd 3162 5c3d 20cc d6bc 539f 0abe

main.4.running_mean f4 [20]
-0.005482807 -0.01270613 -0.0064567695 -0.012157639 0.015533548 -0.006806129 -0.0079469895 0.0019199752
-0.00447457 -0.0048482916 -0.011340601 -0.007164866 -0.010584102 0.0035471087 -0.008785543 -0.0102855
-0.003915895 0.003658664 -0.0064676725 -0.011847232
00000000: 1ea9 b3bb 5f2d 50bc 4f93 d3bb d530 47bc
00000010: 6c80 7e3c f305 dfbb 1734 02bc ada7 fb3a
00000020: 6a9f 92bb 6bde 9ebb eecd 39bc 41c7 eabb
00000030: f168 2dbc 9c76 683b 3df1 0fbc 8484 28bc
00000040: e850 80bb 32c6 6f3b c5ee d3bb e41a 42bc

main.4.running_var f4 [20]
0.00011514027 0.0002679673 8.3650346e-05 0.0002194963 0.0003950616 0.0001085498 0.000156953 6.103093e-05
0.000105389096 8.026553e-05 0.00018039109 0.00021150504 0.00017577814 9.031907e-05 0.00013248232 0.00020440533
8.055329e-05 0.0001288068 8.819427e-05 0.00024383642
00000000: 7677 f138 f67d 8c39 706d af38 9728 6639
00000010: 4520 cf39 3ba5 e338 c093 2439 76fb 7f38
00000020: 5704 dd38 3a54 a838 5d27 3d39 74c7 5d39
00000030: 1651 3839 ae69 bd38 f4ea 0a39 a355 5639
00000040: b8ee a838 5010 0739 f0f4 b838 57ae 7f39

main.6.weight f4 [40, 20, 4, 4]
-0.069387674 0.024174763 0.03272093 0.006162506 -0.018382916 -0.009325546 0.03136803 0.106577076
-0.0114969695 -0.024710461 -0.0045724586 0.0075467937 0.025698176 0.017850159 -0.061291598 0.037588548
-0.022378085 0.07607495 -0.011681522 -0.043569308 -0.021945674 -0.005905862 -0.08263313 -0.013057967
0.032584477 0.09388736 -0.05786256 -0.045889482 0.034608833 0.059767358 0.017906262 0.052389022
-0.026792467 0.021336375 0.0018593075 -0.06992736 -0.05176813 -0.027752947 -0.025225587 -0.05231308
-0.013671931 0.036577374 -0.0122192325 0.0002246032 -0.031590853 0.07289237 0.06557673 0.052037343
0.013853025 -0.037836052 -0.0021439167 0.0025391364 -0.028601289 0.043656103 -0.010085896 -0.05186127
0.058275092 0.056747418 -0.045858797 -0.023788752 -0.07045322 0.09753178 0.043909088 -0.02021568
-0.027450413 -0.04711831 0.06973077 0.05212786 0.0644616 -0.045265436 0.0301631 0.054373596
-0.016526066 0.022133924 -0.008370229 0.05346875 -0.041002475 -0.051635034 0.055655986 0.0730887
-0.01006514 0.021470403 -0.025310215 0.025926052 -0.07257245 -0.047123965 -0.03894531 0.024373498
0.005223471 -0.04440374 -0.048651867 -0.023026245 0.06663834 0.013683178 -0.03711083 -0.014131147
-0.060805324 0.03449078 -0.0072031436 -0.032915007 0.03535483 0.027912274 -0.11347321 0.022269426
0.024456536 -0.019930717 0.0022818642 0.05581187 0.024332432 0.02584033 -0.025406424 0.06535981
-0.024385678 0.005659876 0.06983236 0.03317962 0.004705116 -0.02284659 0.058185466 0.0055097095
0.018800633 -0.010227489 0.05650824 0.051686242 -0.012457139 0.010199576 0.11690277 -0.03860739
-0.08336144 -0.014943809 0.017344793 0.028606847 -0.0012904655 0.04998801 0.050053865 -0.044839125
-0.10488112 0.08532923 0.027956096 -0.023489524 -0.114549264 0.03318782 0.0030293304 -0.08334578
-0.026790364 -0.013096765 -0.0058849417 0.05481685 0.00292545 0.004152122 -0.038372613 -0.03275863
-0.05310449 0.021696102 0.0015026218 0.060807113 -0.04082087 0.006730723 0.013753995 0.044491846
-0.0040975064 0.06621376 0.021058371 -0.034110412 -0.029616693 0.108195364 0.025951546 6.4221545e-05
0.0026720508 0.07315834 -0.051573317 0.031932108 -0.045113094 0.04208664 0.03331734 0.030923871
-0.0020854452 0.07876425 0.03439516 -0.037963152 -0.080920234 0.03159188 -0.019984378 0.08684831
0.0059485463 -0.001780286 0.056342103 0.028845701 -0.048012204 0.030978326 -0.022388864 0.041396454
-0.067357585 0.04108179 -0.050952088 0.04569801 -0.092961036 0.008130993 0.0075433757 0.062088806
0.049322557 0.0029500986 -0.014238657 0.056454964 -0.0017376096 0.03811711 -0.009784749 -0.00115763
0.028174961 -0.039217826 0.085025765 -0.015791021 -0.01701299 0.04860196 0.112923175 0.0005915655
0.026820572 -0.021655206 0.124616 -0.009640132 0.061318927 -0.024107903 0.123010755 -0.040419903
-0.0494019 -0.008256327 0.02567043 0.019119563 0.0037711987 0.05284044 -0.035677746 -0.0630635
-0.05455683 -0.0063979873 -0.037427716 0.040434543 -0.057047714 0.05914026 0.068510965 0.023902401
-0.012037044 0.054124545 0.007955624 0.004987508 0.0034645628 0.11825289 0.022082662 0.033766028
0.009662602 0.056036983 0.039375763 0.023111703 -0.08005449 0.039886154 0.04645844 -0.06465485
00000000: 201b 8ebd 270a c63c 6206 063d d9ee c93b
00000010: c597 96bc 2dca 18bc c37b 003d 1545 da3d
00000020: c95d 3cbc 986d cabc 90d4 95bb 184b f73b
00000030: fb84 d23c 7f3a 923c e60c 7bbd 73f6 193d
00000040: 3f52 b7bc 2fcd 9b3d db63 3fbc bb75 32bd
00000050: 6ac7 b3bc f685 c1bb 8f3b a9bd 15f1 55bc
00000060: 4d77 053d 0448 c03d 4b01 6dbd 9cf6 3bbd
00000070: fec1 0d3d 9ece 743d 27b0 923c df95 563d
00000080: e07b dbbc 9fc9 ae3c 02b4 f33a 1336 8fbd
00000090: d20a 54bd 265a e3bc e4a5 cebc 3d46 56bd
000000a0: 3c00 60bc 28d2 153d 2d33 48bc 7683 6b39
000000b0: 6965 01bd 9848 953d 184d 863d 1c25 553d
000000c0: ccf7 623c faf9 1abd f480 0cbb a467 263b
000000d0: 404d eabc bed0 323d 503f 25bc 7c6c 54bd
000000e0: ddb1 6e3d fb6f 683d 6fd6 3bbd a1e0 c2bc
000000f0: c749 90bd bebe c73d 04da 333d 5b9b a5bc
00000100: b0df e0bc 21ff 40bd 02cf 8e3d 0684 553d
00000110: 7104 843d 4068 39bd 9b18 f73c d9b6 5e3d
00000120: ac61 87bc 3452 b53c 4923 09bc 0c02 5b3d
00000130: 36f2 27bd 427f 53bd 88f7 633d 87af 953d
00000140: 42e8 24bc b3e2 af3c 5e57 cfbc df62 d43c
00000150: dda0 94bd 0f05 41bd 1e85 1fbd eeaa c73c
00000160: a729 ab3b b2e0 35bd 2e47 47bd 89a1 bcbc
00000170: af79 883d 692f 603c 8701 18bd 5486 67bc
00000180: 010f 79bd 3446 0d3d 5908 ecbb e3d1 06bd
00000190: 3ad0 103d 48a8 e43c a464 e8bd 5f6e b63c
000001a0: 1359 c83c be45 a3bc 548b 153b fd9a 643d
000001b0: cf54 c73c 1aaf d33c 2221 d0bc 5ddb 853d
000001c0: 79c4 c7bc 7b76 b93b 4504 8f3d 5ae7 073d
000001d0: 602d 9a3b c628 bbbc e253 6e3d cb8a b43b
000001e0: c903 9a3c 3391 27bc 2f75 673d f4b4 533d
000001f0: 0719 4cbc 1f1c 273c b86a ef3d c822 1ebd
00000200: 67b9 aabd e1d6 74bc ab16 8e3c e858 ea3c
00000210: d624 a9ba 3ac0 4c3d 4805 4d3d 3ba9 37bd
00000220: eacb d6bd 17c1 ae3d 2f04 e53c 1a6d c0bc
00000230: ce98 eabd f4ef 073d bb87 463b 31b1 aabd
00000240: 7777 dbbc d093 56bc 78d6 c0bb a287 603d
00000250: e8b8 3f3b 860e 883b 9a2c 1dbd ea2d 06bd
00000260: 1884 59bd 06bc b13c 9ff3 c43a e110 793d
00000270: c933 27bd 668d dc3b 7058 613c 153d 363d
00000280: 6044 86bb 149b 873d 9b82 ac3c 5cb7 0bbd
00000290: b59e f2bc 8895 dd3d 5698 d43c aeae 8638
000002a0: 931d 2f3b 0ad4 953d 8b3e 53bd 3ecb 023d
000002b0: 82c8 38bd 0a63 2c3d c377 083d 0f54 fd3c
000002c0: f7ab 08bb 274f a13d f0e1 0c3d 407f 1bbd
000002d0: 82b9 a5bd 7d66 013d 47b6 a3bc 87dd b13d
000002e0: 06ec c23b 7c58 e9ba fac6 663d d24d ec3c
000002f0: 72a8 44bd 42c6 fd3c da68 b7bc 548f 293d
00000300: c6f2 89bd 6145 283d 23b3 50bd d62d 3b3d
00000310: 5b62 bebd db37 053c 6c2e f73b d550 7e3d
00000320: 7306 4a3d 7156 413b 4249 69bc 523d 673d
00000330: 81c0 e3ba b020 1c3d 3650 20bc 9ebb 97ba
00000340: 2dcf e63c dfa2 20bd fd21 ae3d 2c5c 81bc
00000350: d35e 8bbc d912 473d 4444 e73d 4a13 1b3a
00000360: d1b6 db3c 4266 b1bc ac36 ff3d a5f1 1dbc
00000370: 8e29 7b3d f07d c5bc 10ed fb3d 578f 25bd
00000380: a659 4abd 8c45 07bc cb4a d23c a1a0 9c3c
00000390: 3726 773b 386f 583d d422 12bd 7027 81bd
000003a0: fc76 5fbd 35a6 d1bb ce4d 19bd b19e 253d
000003b0: ddaa 69bd 0f3d 723d 7a4f 8c3d f8ce c33c
000003c0: 0637 45bc b3b1 5d3d 4e58 023c 406e a33b
000003d0: b80d 633b 922e f23d b3e6 b43c 3f4e 0a3d
000003e0: e44f 1e3c 0987 653d 7b48 213d c154 bd3c
000003f0: 9cf3 a3bd aa5f 233d 354b 3e3d c369 84bd

main.7.weight f4 [40]
1.0572144 1.0233155 1.0653017 1.0560741 1.0297033 0.9958439 1.0136144 1.066162
1.0359111 1.0526148 1.0451849 1.0109682 1.0639895 1.0404434 1.0494455 1.032343
1.0455668 1.0734843 1.0350976 1.0533473 1.0278227 1.0232893 1.0270834 1.0632135
1.0069051 1.0025696 1.0163094 1.0527946 1.0466629 1.0502913 1.0337586 1.0860283
1.0610173 1.0573403 1.0869951 1.0780894 1.0478919 1.0219069 0.9918357 1.0221835
00000000: cd52 873f 01fc 823f ce5b 883f 702d 873f
00000010: 51cd 833f a0ef 7e3f 1ebe 813f ff77 883f
00000020: bc98 843f 15bc 863f 9ec8 853f 6867 813f
00000030: cf30 883f 402d 853f 3b54 863f d123 843f
00000040: 22d5 853f ef67 893f 147e 843f 16d4 863f
00000050: b28f 833f 25fb 823f 7877 833f 6117 883f
00000060: 44e2 803f 3354 803f 6d16 823f f9c1 863f
00000070: 0df9 853f f26f 863f 3452 843f fa02 8b3f
00000080: 6acf 873f ed56 873f a822 8b3f d5fe 893f
00000090: 5221 863f d8cd 823f f2e8 7d3f e9d6 823f

main.7.bias f4 [40]
0.022560455 0.034617126 -0.0047169607 -0.0013882456 0.02588306 0.030691033 0.037371613 -0.015615173
-0.024432516 -0.009376477 -0.024311317 0.038385354 0.046096984 -0.0016682994 0.006639878 -0.01009164
-0.023574041 0.03993788 0.033855453 -0.010165602 0.031518206 0.009361337 0.029433133 0.04465774
0.028191105 0.015378428 -0.024538595 0.03369774 0.038160797 0.02337678 0.00465409 0.044692893
-0.017216338 0.019589609 0.03959774 -0.0005874302 0.0322975 0.029981826 0.02064893 0.037577655
00000000: b4d0 b83c b0ca 0d3d bc90 9abb cbf5 b5ba
00000010: b608 d43c c36b fb3c fa12 193d c8d6 7fbc
00000020: b326 c8bc cc9f 19bc 8728 c7bc f639 1d3d
00000030: 31d0 3c3d d7aa daba 5593 d93b 6857 25bc
00000040: 591e c1bc e795 233d 04ac 0a3d a08d 26bc
00000050: 3c19 013d 4b60 193c c11d f13c 09eb 363d
00000060: 08f1 e63c cdf5 7b3c 2a05 c9bc a406 0a3d
00000070: 7f4e 1c3d a980 bf3c 5681 983b e50f 373d
00000080: 4709 8dbc 637a a03c 3d31 223d c6fd 19ba
00000090: 624a 043d 729c f53c f227 a93c 07eb 193d

main.7.running_mean f4 [40]
0.3236694 -0.77192813 0.9318552 0.7904991 -0.96788603 -0.25242442 -0.76496136 0.8746143
0.8672105 0.90417963 0.8681932 -0.45506734 -0.798789 0.47419178 0.2080575 0.7549812
0.7721493 -0.5011104 -0.13963287 0.85885596 0.36917338 0.29597285 -0.44005802 -0.50600886
-0.53264433 -0.57900673 0.53652316 -0.61533374 -0.8135392 -0.409708 -0.24721234 -0.5036319
0.9789529 -0.9035907 -0.29320002 0.21143629 -0.67208654 -0.8925427 -0.39163747 -0.7481724
00000000: ffb7 a53e 159d 45bf 108e 6e3f 265e 4a3f
00000010: 61c7 77bf c63d 81be 82d4 43bf b9e6 5f3f
00000020: 8201 5e3f 5178 673f e941 5e3f 96fe e8be
00000030: 707d 4cbf 44c9 f23e 060d 553e 7346 413f
00000040: 94ab 453f c548 00bf ebfb 0ebe fcdd 5b3f
00000050: 4b04 bd3e c189 973e 494f e1be cc89 01bf
00000060: 615b 08bf c939 14bf 9559 093f 8386 1dbf
00000070: 1b44 50bf 3fc5 d1be 3b25 7dbe 05ee 00bf
00000080: a89c 7a3f b851 67bf 501e 96be c182 583e
00000090: dd0d 2cbf ae7d 64bf b584 c8be 3a88 3fbf

main.7.running_var f4 [40]
0.27078024 0.44908997 0.18320999 0.20555454 0.38766345 0.59229887 0.55675226 0.14336629
0.18255165 0.210746 0.15268973 0.30656537 0.21101189 0.17843969 0.2142284 0.25611174
0.3258965 0.24742748 0.29216647 0.20273608 0.39731157 0.29203779 0.29209805 0.18591772
0.8560449 0.6517477 0.25921106 0.26567838 0.24642998 0.1559647 0.20012459 0.16917525
0.2427234 0.27485892 0.20853263 0.11086248 0.55963594 0.52331245 0.5080143 0.39822334
00000000: b5a3 8a3e 1fef e53e 669b 3b3e e47c 523e
00000010: d37b c63e e6a0 173f 5187 0e3f 9dce 123e
00000020: d2ee 3a3e cdcd 573e b25a 1c3e 23f6 9c3e
00000030: 8013 583e e5b8 363e b15e 5b3e 1421 833e
00000040: e8db a63e a15d 7d3e d896 953e 0c9a 4f3e
00000050: 6c6c cb3e fa85 953e e08d 953e 3761 3e3e
00000060: c225 5b3f f0d8 263f 50b7 843e ff06 883e
00000070: 2458 7c3e 36b5 1f3e 76ed 4c3e 473c 2d3e
00000080: 7c8c 783e 4fba 8c3e 9489 553e de0b e33d
00000090: 4d44 0f3f cef7 053f 3a0d 023f eee3 cb3e

main.10.weight f4 [180, 360]
-0.032395925 0.0015550662 0.04412881 -0.008316027 0.0347215 0.03994539 0.055214733 -0.0048562773
0.08263599 -0.02097931 -0.017591594 -0.07276198 -0.027648604 -0.019443167 -0.0031381485 0.05837036
-0.050447118 0.0050409827 0.02273749 0.021034636 0.13299723 0.061541073 0.04947362 0.024754826
0.036996022 0.08266408 0.059757818 0.0698008 0.007907583 0.07160787 0.016837621 0.10001897
0.01652819 0.06349672 0.01198115 0.13596344 0.044976093 0.02564995 -0.07947833 -0.04499937
-0.004516165 -0.07736623 -0.03918213 -0.046060015 -0.0033478893 -0.02293634 -0.022362757 0.0068590227
-0.03970711 -0.030738004 -0.04887049 0.014246929 0.01420293 -0.03289389 -0.045595545 -0.0076558893
-0.049656093 -0.007148339 0.014273979 -0.012707657 0.029371094 -0.107434094 -0.04156513 0.078807265
0.01694325 0.12013115 0.018135808 0.058574613 0.12495741 0.089114115 0.13041972 0.075439945
0.025875863 0.12036918 0.11644908 0.052886683 -0.019309498 0.045430172 0.022540737 0.027385548
0.06642741 0.068949655 0.018530263 0.015980667 -0.0038890403 -0.020738874 0.048887983 0.04638797
0.07277442 0.048491463 0.023731124 0.11887085 0.086483866 0.011040187 0.055306405 0.11494326
0.025699511 0.11303574 -0.037862033 0.00917837 -0.068646714 -0.010675859 0.03482001 0.04517309
-0.057471015 -0.056815542 0.009833098 0.03954269 -0.09722422 0.0025566956 -0.07729679 0.0011877863
-0.04047803 -0.116430655 -0.01676864 -0.07316296 -0.09171168 0.039025884 -0.024734749 0.021941528
0.058887973 0.063882254 0.066630654 0.045834452 0.03768946 0.00665881 0.00857806 0.054341126
-0.020097401 -0.01001763 0.03246615 0.024178835 0.052462723 0.042006608 0.021202993 -0.014745912
0.031059707 0.09523996 0.051316455 0.13291365 0.025531214 0.025639182 0.0186115 0.062343054
-0.0006788577 0.0867792 0.063839495 0.045409903 0.01577783 0.006952423 0.070176266 0.1142453
0.034318533 -0.040453814 -0.07914783 -0.038971607 -0.015651502 -0.059130188 -0.017772127 -0.07629605
-0.1523716 -0.053314086 -0.014853681 0.02849956 -0.0047355145 -0.036347166 0.03982495 -0.005653777
-0.055273116 -0.007531761 -0.026435677 0.03568691 0.11883715 0.00738862 0.003420798 -0.0042663035
0.045180187 0.06728664 0.117746785 0.08042416 -0.08163549 -0.031011181 -0.014715461 0.008906918
0.024977725 -0.022007037 -0.027319008 0.015018361 0.05324367 -0.017011639 0.008021691 -0.02527008
-0.07799727 -0.047957145 -0.013598979 -0.056469183 0.039154872 0.049080428 -0.007829777 0.011465245
-0.0707461 0.023609495 -0.081197426 -0.056819566 -0.008003273 -0.035640083 0.021823144 -0.09979051
-0.07992508 -0.089241855 -0.011209377 -0.091104105 -0.012790174 -0.11844711 -0.04648892 -0.126807
-0.015060813 -0.06180582 0.022537764 0.041364048 -0.0070380257 -0.07203652 -0.017811768 -0.08692655
0.012006712 -0.03034103 -0.03132561 -0.006527172 0.0055678445 0.0021471507 -0.019049855 -0.02187164
-0.10700397 -0.022826327 -0.004947062 -0.019361593 -0.0036684456 -0.018917529 0.022851733 -0.010101065
0.0001504808 -0.01035532 0.106303744 -0.016698703 -0.06233064 -0.006869524 -0.05783202 0.004132705
-0.028160311 -0.02950776 -0.022170424 -0.073985785 0.07583302 0.035109583 -0.07007444 -0.0039409185
00000000: 97b1 04bd 5dd3 cb3a 69c0 343d f23f 08bc
00000010: 2238 0e3d c79d 233d d828 623d 6821 9fbb
00000020: 0f3d a93d cddc abbc 3f1c 90bc 3c04 95bd
00000030: 537f e2bc 4747 9fbc 65a9 4dbb c215 6f3d
00000040: a3a1 4ebd d42e a53b f943 ba3c d450 ac3c
00000050: 6d30 083e 7e12 7c3d daa4 4a3d a2ca ca3c
00000060: 2489 173d c94b a93d 9dc4 743d b9f3 8e3d
00000070: cf8e 013c 26a7 923d 0def 893c bfd6 cc3d
00000080: 2066 873c 910a 823d 964c 443c 003a 0b3e
00000090: da38 383d d81f d23c 89c5 a2bd 4251 38bd
000000a0: 56fc 93bb 3072 9ebd 717d 20bd 6da9 3cbd
000000b0: 4368 5bbb fee4 bbbc 1a32 b7bc a7c1 e03b
000000c0: eca3 22bd 44ce fbbc 6c2c 48bd f46b 693c
000000d0: 68b3 683c bebb 06bd 65c2 3abd 41de fabb
000000e0: 3064 4bbd 9d3c eabb 68dd 693c c733 50bc
000000f0: a69b f03c 6806 dcbd 3340 2abd b465 a13d
00000100: 92cc 8a3c 5207 f63d 8c91 943c efeb 6f3d
00000110: ace9 ff3d 7681 b63d bf8c 053e 4280 9a3d
00000120: 9ef9 d33c 1e84 f63d db7c ee3d b59f 583d
00000130: f42e 9ebc fd14 3a3d 5aa7 b83c a857 e03c
00000140: 180b 883d 7a35 8d3d c7cc 973c e3e9 823c
00000150: 45df 7ebb 92e4 a9bc c43e 483d 5001 3e3d
00000160: c10a 953d fc9e 463d c667 c23c 8f72 f33d
00000170: 741e b13d e7e1 343c f888 623d 5f67 eb3d
00000180: c887 d23c 487f e73d 3815 1bbd e060 163c
00000190: a696 8cbd cce9 2ebc 6d9f 0e3d 6b07 393d
000001a0: ba66 6bbd 6ab7 68bd 011b 213c 84f7 213d
000001b0: 7e1d c7bd 3c8e 273b c84d 9ebd 7faf 9b3a
000001c0: 4acc 25bd 3273 eebd 635e 89bc 76d6 95bd
000001d0: 55d3 bbbd 9bd9 1f3d 87a0 cabc b8be b33c
000001e0: 8434 713d b3d4 823d a775 883d e8bc 3b3d
000001f0: 4360 1a3d 2632 da3b fe8a 0c3c cd94 5e3d
00000200: 4ea3 a4bc fc20 24bc 3afb 043d b112 c63c
00000210: 27e3 563d 1f0f 2c3d e6b1 ad3c d698 71bc
00000220: ed70 fe3c 2b0d c33d 3431 523d 841a 083e
00000230: d626 d13c 4309 d23c 2577 983c 6e5b 7f3d
00000240: 5ef5 31ba 4bb9 b13d 48be 823d bcff 393d
00000250: 8240 813c 27d1 e33b 93b8 8f3d 71f9 e93d
00000260: 9791 0c3d e6b2 25bd 4218 a2bd b1a0 1fbd
00000270: 9437 80bc 7f32 72bd da96 91bc 1a41 9cbd
00000280: 4d07 1cbe df5f 5abd db5c 73bc e977 e93c
00000290: 602c 9bbb c4e0 14bd 7d1f 233d 5243 b9bb
000002a0: 1066 62bd fecc f6bb a28f d8bc 702c 123d
000002b0: e460 f33d 3d1c f23b 782f 603b 59cc 8bbb
000002c0: dc0e 393d 94cd 893d 3a25 f13d 6cb5 a43d
000002d0: 8230 a7bd 290b febc 1e19 71bc 52ee 113c
000002e0: 169e cc3c 1a48 b4bc 1dcc dfbc 920f 763c
000002f0: 0916 5a3d fe5b 8bbc 696d 033c 3303 cfbc
00000300: 08bd 9fbd b66e 44bd 41ce 5ebc 3b4c 67bd
00000310: dc60 203d 8f08 493d 7748 00bc b9d8 3b3c
00000320: 55e3 90bd b368 c13c d64a a6bd a2bb 68bd
00000330: 2920 03bc 56fb 11bd 73c6 b23c f85e ccbd
00000340: c3af a3bd 6fc4 b6bd 89a7 37bc ca94 babd
00000350: e18d 51bc 6694 f2bd 2a6b 3ebd b2d9 01be
00000360: a1c1 76bc 1928 7dbd 1ea1 b83c 596d 293d
00000370: 3d9f e6bb e287 93bd fce9 91bc 8c06 b2bd
00000380: cdb7 443c c08d f8bc 484f 00bd e3e1 d5bb
00000390: 7772 b63b 36b7 0c3b 710e 9cbc 272c b3bc
000003a0: e624 dbbd 47fe babc f71a a2bb 349c 9ebc
000003b0: 4e6a 70bb eff8 9abc 8f33 bb3c f07e 25bc
000003c0: 62ca 1d39 5ca9 29bc c7b5 d93d b8cb 88bc
000003d0: 6a4e 7fbd be19 e1bb 45e1 6cbd a46b 873b
000003e0: 74b0 e6bc 42ba f1bc c09e b5bc dc85 97bd
000003f0: 584e 9b3d 11cf 0f3d 3083 8fbd d222 81bb

main.12.weight f4 [90, 180]
-0.0950962 0.041621976 0.012955424 0.008237708 0.10385165 -0.03163407 0.103977755 0.07215369
-0.024986826 0.08550928 -0.001843769 0.11048125 -0.007815482 0.032503866 0.027719388 -0.080506764
0.04309005 0.07771932 -0.06474744 -0.046811845 -0.054484397 -0.15270858 -0.022949673 -0.106155664
-0.023265751 0.084129505 0.046589065 -0.01925826 -0.026181974 0.08407811 -0.037088178 -0.02209705
0.07136306 0.036488082 0.07909866 0.060769293 -0.013891687 0.053528294 0.019546185 0.06861565
0.086963594 -0.020169262 0.051320687 -0.10546646 0.03452888 -0.06046052 -0.06127866 -0.12192163
0.018024275 -0.007457908 -0.08543663 0.009550158 -0.107263304 0.07681652 -0.080983 -0.0042811437
0.14677083 -0.041148547 -0.05000321 0.004028322 0.06504658 0.08421451 0.048283152 0.040670548
-0.060278095 -0.031814843 0.010153244 -0.033818185 0.055120043 0.030152142 0.032183032 0.06866439
0.079687 -0.0041713426 0.04910508 0.023376726 -0.03288163 -0.11947322 0.064466454 0.004299923
-0.0243359 0.08780505 -0.0023881472 0.07669844 0.07451112 -0.046805568 0.061088428 0.0428562
0.023357714 -0.0109802475 0.029043855 -0.08684801 -0.04629888 -0.03165837 -0.0550267 0.079867914
0.05703418 -0.08953436 0.008950179 -0.013203519 -0.04429525 -0.010542136 0.043686982 -0.039468646
-0.02501511 0.017376652 -0.054789804 -0.10950501 0.08039002 -0.0002101666 0.022424245 -0.057445727
-0.056798916 -0.040162984 0.049056474 0.019127157 -0.006309283 0.015332836 0.008761997 -0.06365614
-0.10984154 0.039014492 0.046431407 0.019067015 0.042483713 -0.13827944 0.023282638 -0.014571521
-0.051028647 -0.059240025 -0.005612966 0.042378135 -0.10030675 -0.07180557 -0.07749797 -0.115177825
-0.09604856 -0.018064028 0.109041706 0.0030099258 -0.08381773 0.06044315 0.053748444 -0.07160565
-0.029323786 0.035087716 -0.06464353 0.0031290778 -0.10513868 0.025604725 0.03238702 -0.028039105
-0.04158213 0.07214714 -0.024220595 0.066836394 0.045512073 0.058757734 0.12196952 0.04520077
0.07532315 0.057347078 -0.024248807 -0.06878126 0.08607396 0.02685316 -0.047644217 0.070913754
0.08706115 -0.036266297 0.019706279 -0.11936766 0.051274795 0.088035695 0.1803254 0.03570889
-0.019968301 0.06581877 -0.17308408 0.0106024835 -0.11288657 -0.023278574 0.016104586 -0.07296447
-0.014253956 0.0050622234 0.01346604 0.018775098 0.10067751 0.02113425 0.063977934 -0.046400905
-0.023342244 -0.020586913 0.053806253 0.064008586 -0.015145323 0.050646745 0.009483358 0.038252667
-0.06541225 -0.09219397 -0.12181997 -0.10287525 -0.03691577 -0.051215053 -0.028234258 0.066190615
0.066955216 -0.085529946 -0.014965626 -0.008334844 0.056883514 0.02857963 0.050468095 0.04873729
-0.031339936 0.062683746 0.057780236 -0.0072041634 0.029408902 -0.092861615 0.030388465 -0.011444021
-0.04307487 -0.059410743 -0.07446788 -0.030670164 0.046077754 -0.10289939 0.010897848 -0.029273909
-0.063369 0.025312323 0.03752838 0.031176018 -0.082440436 0.031543992 0.007801565 -0.027917791
0.016297821 0.04104994 0.0012009618 0.0384908 -0.012810217 -0.016792672 -0.003974571 -0.008598344
-0.013901395 -0.010426386 0.023970455 -0.086763546 -0.049145974 0.00048131324 -0.0073621324 0.08938703
00000000: ccc1 c2bd ce7b 2a3d fd42 543c 74f7 063c
00000010: 2db0 d43d ba92 01bd 4af2 d43d 50c5 933d
00000020: 2cb1 ccbc 7d1f af3d 9faa f1ba fe43 e23d
00000030: 820c 00bc c622 053d c513 e33c bbe0 a4bd
00000040: 317f 303d 4f2b 9f3d 4e9a 84bd c7bd 3fbd
00000050: 082b 5fbd a35f 1cbe f400 bcbc 2468 d9bd
00000060: d197 bebc 174c ac3d 2dd4 3e3d 80c3 9dbc
00000070: 947b d6bc 2531 ac3d c6e9 17bd df04 b5bc
00000080: cc26 923d 8774 153d 7afe a13d 39e9 783d
00000090: f599 63bc 7c40 5b3d 521f a03c 5d86 8c3d
000000a0: f819 b23d 023a a5bc a435 523d cdfe d7bd
000000b0: 286e 0d3d 73a5 77bd 55ff 7abd 0cb2 f9bd
000000c0: a5a7 933c 7761 f4bb 66f9 aebd 4478 1c3c
000000d0: ddac dbbd fb51 9d3d 6ada a5bd d648 8cbb
000000e0: 184b 163e 618b 28bd 2ad0 4cbd 0400 843b
000000f0: 2437 853d a878 ac3d 8ec4 453d 2996 263d
00000100: 2ae6 76bd 4850 02bd cb59 263c f084 0abd
00000110: 8ec5 613d a001 f73c 5bd2 033d ea9f 8c3d
00000120: f032 a33d c2af 88bb 6922 493d 8c80 bf3c
00000130: e3ae 06bd 60ae f4bd fd06 843d 5ee6 8c3b
00000140: 155c c7bc 22d3 b33d 7682 1cbb 1214 9d3d
00000150: 4999 983d 32b7 3fbd dc37 7a3d fc89 2f3d
00000160: ad58 bf3c 7fe6 33bc 61ed ed3c 5fdd b1bd
00000170: e5a3 3dbd 35ac 01bd ad63 61bd ca91 a33d
00000180: ac9c 693d ca5d b7bd c6a3 123c 9353 58bc
00000190: f06e 35bd ecb8 2cbc 1ff1 323d e0a9 21bd
000001a0: 7dec ccbc 7b59 8e3c 466b 60bd 2a44 e0bd
000001b0: 86a3 a43d 2b60 5cb9 0db3 b73c 364c 6bbd
000001c0: fba5 68bd f181 24bd 71ef 483d 8eb0 9c3c
000001d0: 1abe cebb 9336 7b3c 7b8e 0f3c 265e 82bd
000001e0: 9af4 e0bd a9cd 1f3d dc2e 3e3d 6e32 9c3c
000001f0: 6703 2e3d 2099 0dbe 3bbb be3c 64bd 6ebc
00000200: 6a03 51bd aba5 72bd f9ec b7bb b294 2d3d
00000210: a06d cdbd cc0e 93bd 41b7 9ebd 5ae2 ebbd
00000220: 1cb5 c4bd 03fb 93bc 4251 df3d 2d42 453b
00000230: a1a8 abbd 3d93 773d 5427 5c3d fca5 92bd
00000240: 7038 f0bc 23b8 0f3d d463 84bd 3711 4d3b
00000250: f352 d7bd 00c1 d13c 40a8 043d 44b2 e5bc
00000260: 0652 2abd e1c1 933d 456a c6bc 85e1 883d
00000270: de6a 3a3d f3ab 703d 28cb f93d 7124 393d
00000280: 0643 9a3d c5e4 6a3d 6fa5 c6bc 30dd 8cbd
00000290: 8b47 b03d 28fb db3c 9526 43bd 3b3b 913d
000002a0: 1e4d b23d f88b 14bd 106f a13c 0877 f4bd
000002b0: 8505 523d 0f4c b43d 39a7 383e 7c43 123d
000002c0: 9094 a3bc fecb 863d f43c 31be 0ab6 2d3c
000002d0: 1331 e7bd b5b2 bebc c4ed 833c 656e 95bd
000002e0: 6d89 69bc 02e1 a53b aaa0 5c3c 3cce 993c
000002f0: 0330 ce3d bc21 ad3c dd06 833d e00e 3ebd
00000300: 3c38 bfbc e3a5 a8bc f263 5c3d ef16 833d
00000310: 1724 78bc f672 4f3d 1660 1b3c d4ae 1c3d
00000320: dcf6 85bd 31d0 bcbd c07c f9bd 42b0 d2bd
00000330: fe34 17bd e0c6 51bd 884b e7bc f28e 873d
00000340: d11f 893d 532a afbd 6332 75bc df8e 08bc
00000350: b0fe 683d d41f ea3c a2b7 4e3d c1a0 473d
00000360: 4e5e 00bd 5660 803d f8aa 6c3d e710 ecbb
00000370: f0ea f03c 3b2e bebd 3bf1 f83c b47f 3bbc
00000380: 466f 30bd ae58 73bd 9e82 98bd ff3f fbbc
00000390: 07bc 3c3d eabc d2bd e38c 323c d6cf efbc
000003a0: 9bc7 81bd ca5b cf3c 5cb7 193d d964 ff3c
000003b0: 88d6 a8bd 4634 013d 45a4 ff3b dab3 e4bc
000003c0: 0283 853c fb23 283d 9769 9d3a 87a8 1d3d
000003d0: f2e1 51bc c990 89bc 1e3d 82bb 12e0 0cbc
000003e0: adc2 63bc 6fd3 2abc b05d c43c 16b1 b1bd
000003f0: 4a4d 49bd c558 fc39 0b3e f1bb 8c10 b73d

main.14.weight f4 [45, 90]
0.14450079 0.031114275 -0.027363865 -0.07430065 -0.06531965 0.07717738 -0.03168693 0.10931171
0.028296985 0.019551514 0.027628003 0.106681205 -0.08980365 -0.13248755 0.1120379 -0.025812598
-0.042065945 0.034912 -0.0528179 -0.102004975 0.11434665 0.0841738 0.06489585 -0.014726578
-0.0205242 -0.016227053 0.07084118 -0.029070523 0.053524334 -0.039742358 -0.047101714 0.08459771
-0.005251153 0.061769802 -0.16677196 0.018793583 0.056783754 0.11597744 0.11534237 -0.13082854
0.003404375 0.024754249 -0.04507106 0.083741814 0.029254526 0.006263143 0.019277725 0.020274537
-0.16119938 0.018352017 -0.013149268 -0.0037824356 0.05775237 -0.03147709 0.14425288 -0.15869154
-0.11728266 0.04310712 0.0347604 -0.032274824 -0.088133596 0.12389258 -0.01459419 -0.039362393
-0.0769997 -0.010119439 -0.07324087 -0.07586016 0.00519224 0.10583674 0.031089002 -0.016943125
0.02094362 -0.13440825 -0.13173468 -0.073375635 0.0017724674 -0.042478845 0.15970072 0.049727656
0.01613686 0.062191144 0.016960304 -0.037385244 -0.0033318386 0.05889528 0.13729736 -0.05275654
0.10544307 -0.10693082 0.04177569 0.11609471 -0.0128375115 -0.077405676 0.06462421 0.053134896
0.0055078305 0.14208604 0.07836362 0.11613743 -0.00126463 0.044100933 -0.09170226 0.10439042
0.12929246 0.028161135 -0.044449557 0.06301268 -0.08046253 -0.022659563 0.06611655 -0.07384858
-0.01806371 0.038686372 0.019707827 -0.1233769 -0.08263921 0.036510613 -0.11380395 0.15272325
0.09630054 -0.008390908 -0.0023792407 -0.09658817 -0.0846791 0.06746725 -0.041271843 -0.08023894
0.15587749 -0.11328197 0.12500218 0.0835546 -0.0759442 0.093128376 0.12694068 0.081514925
-0.15720272 -0.014237033 -0.029341348 0.100620225 0.03115793 0.13720973 0.09729557 0.022569194
0.053656828 0.017232824 0.050794587 -0.010856045 -0.09330924 0.12533839 -0.06891065 0.013396361
-0.0070529296 -0.08521602 -0.018642565 0.008096399 0.009593417 -0.05587201 0.0067861215 0.14095268
-0.006150496 0.030244177 0.1149516 0.08354814 -0.059891213 0.014578831 -0.059074596 0.052075084
0.08714568 0.049699966 0.0015091192 -0.027005395 -0.089478895 -0.07031589 0.019710256 -0.06975798
-0.028616 0.17315301 -0.04057267 -0.06930462 -0.1439338 -0.072909296 0.1272641 -0.025574157
-0.09655037 0.01110387 -0.027567875 0.0061693094 -0.12529342 0.18148293 0.030184038 0.050391395
0.08580055 0.11281965 0.014522609 -0.05132881 0.045534432 -0.09430828 0.11649949 -0.064328186
0.04538389 -0.00038851693 -0.0017663515 0.014066928 -0.1774173 -0.021572672 -0.07882703 -0.025030194
0.16357379 -0.12649702 0.010796703 -0.049008597 0.04087796 0.13960646 0.18382055 -0.16854592
0.18406262 0.047856703 -0.047513466 0.19552983 0.0013286221 -0.09194414 0.19841598 0.07881655
0.019118626 0.0054994244 0.09121123 0.010373361 0.053722158 0.10504211 0.12480267 0.008748601
-0.00026208663 -0.019620547 -0.13145208 -0.060572565 -0.10938565 -0.036756597 -0.04965103 -0.013644569
0.09462805 0.09580558 0.12587525 -0.0068055145 -0.0533828 0.013233359 0.11132074 0.09034558
0.1035731 0.02928837 -0.0609286 0.017620806 -0.051418662 -0.16618069 0.05859098 0.1266992
00000000: 04f8 133e 5de3 fe3c 2f2a e0bc f02a 98bd
00000010: 4fc6 85bd 2d0f 9e3d 28ca 01bd d1de df3d
00000020: 14cf e73c 7f2a a03c 1f54 e23c ad7b da3d
00000030: faea b7bd d1aa 07be 2074 e53d f174 d3bc
00000040: 574d 2cbd e3ff 0e3d 9557 58bd fce7 d0bd
00000050: 942e ea3d 5063 ac3d 1ee8 843d bf47 71bc
00000060: 5e22 a8bc 99ee 84bc 2e15 913d 4e25 eebc
00000070: 553c 5b3d e2c8 22bd baed 40bd 9041 ad3d
00000080: dd11 acbb 5502 7d3d 45c6 2abe 00f5 993c
00000090: 1596 683d 9485 ed3d 9f38 ec3d ebf7 05be
000000a0: ef1b 5f3b 6cc9 ca3c 6f9c 38bd d480 ab3d
000000b0: 30a7 ef3c 0d3b cd3b 52ec 9d3c c916 a63c
000000c0: 7311 25be f856 963c 0770 57bc bde2 77bb
000000d0: c08d 6c3d 1fee 00bd 07b7 133e 0980 22be
000000e0: e431 f0bd 1791 303d ec60 0e3d 9b32 04bd
000000f0: 637f b4bd 65bb fd3d 781c 6fbc 763a 21bd
00000100: 05b2 9dbd 01cc 25bc 4fff 95bd 925c 9bbd
00000110: aa23 aa3b efc0 d83d 5dae fe3c 4fcc 8abc
00000120: f491 ab3c 51a2 09be 75e5 06be f745 96bd
00000130: 2352 e83a 4cfe 2dbd 9688 233e 3aaf 4b3d
00000140: 7331 843c 24bc 7e3d 56f0 8a3c 4521 19bd
00000150: fa5a 5abb 2d3c 713d ae97 0c3e 3e17 58bd
00000160: 89f2 d73d 8cfe dabd fc1c 2b3d 10c3 ed3d
00000170: 6d54 52bc de86 9ebd b359 843d faa3 593d
00000180: 087b b43b 017f 113e 1b7d a03d 76d9 ed3d
00000190: f1c1 a5ba 2ea3 343d 65ce bbbd a5ca d53d
000001a0: 3e65 043e 2eb2 e63c bd10 36bd cb0c 813d
000001b0: 8ac9 a4bd 8ca0 b9bc 1d68 873d ed3d 97bd
000001c0: 58fa 93bc 9a75 1e3d 4f72 a13c 07ad fcbd
000001d0: bf3e a9bd 278c 153d 0c12 e9bd 7c63 1c3e
000001e0: 3839 c53d 057a 09bc 09ed 1bbb 05d0 c5bd
000001f0: 3c6c adbd 452c 8a3d aa0c 29bd 5054 a4bd
00000200: 599e 1f3e 6100 e8bd 9200 003e ad1e ab3d
00000210: a288 9bbd 17ba be3d bdfc 013e 4cf1 a63d
00000220: c0f9 20be 7242 69bc 445d f0bc fa11 ce3d
00000230: ea3e ff3c b580 0c3e e642 c73d 08e3 b83c
00000240: 43c7 5b3d da2b 8d3c fc0d 503d 8edd 31bc
00000250: ea18 bfbd b558 003e 0721 8dbd 697c 5b3c
00000260: 431c e7bb bd85 aebd 4bb8 98bc c2a6 043c
00000270: b52d 1d3c 0cda 64bd 1d5e de3b e655 103e
00000280: 1a8a c9bb a3c2 f73c bf6b eb3d 4a1b ab3d
00000290: 7d50 75bd 0ddc 6e3c 34f8 71bd af4c 553d
000002a0: 6f79 b23d 3192 4b3d a3cd c53a 6b3a ddbc
000002b0: b640 b7bd c701 90bd 6777 a13c 46dd 8ebd
000002c0: 1a6c eabc 064f 313e 872f 26bd 95ef 8dbd
000002d0: 6263 13be 7851 95bd 8551 023e e580 d1bc
000002e0: 33bc c5bd 02ed 353c 06d6 e1bc eb27 ca3b
000002f0: eb4c 00be a9d6 393e 8444 f73c 3567 4e3d
00000300: 33b8 af3d fd0d e73d 3df0 6d3c 293e 52bd
00000310: 5082 3a3d b324 c1bd 4997 ee3d 7fbe 83bd
00000320: 75e4 393d dcb1 cbb9 ec84 e7ba f978 663c
00000330: e1ac 35be 2cb9 b0bc 1170 a1bd 1f0c cdbc
00000340: e37f 273e 6f88 01be a8e4 303c 3dbd 48bd
00000350: a66f 273d fff4 0e3e 743b 3c3e 4d97 2cbe
00000360: e97a 3c3e 6405 443d 7b9d 42bd f938 483e
00000370: 2925 ae3a 364d bcbd 8f2d 4b3e 926a a13d
00000380: aa9e 9c3c 8434 b43b f4cc ba3d 08f5 293c
00000390: c40b 5c3d 5120 d73d 8b98 ff3d 4b56 0f3c
000003a0: ac68 89b9 45bb a0bc 609b 06be f01a 78bd
000003b0: 9505 e0bd 168e 16bd e15e 4bbd 788d 5fbc
000003c0: 5acc c13d b735 c43d 71e5 003e cb00 dfbb
000003d0: eca7 5abd bbd0 583c 21fc e33d 1a07 b93d
000003e0: 221e d43d 2aee ef3c 4590 79bd 8259 903c
000003f0: 609c 52bd 452b 2abe 18fd 6f3d 6fbd 013e

main.16.weight f4 [4, 45]
-0.05351137 -0.033803876 -0.14422876 -0.111409046 3.9584764e-05 -0.16394731 0.12588777 0.12275536
-0.08559406 -0.09377189 -0.016294876 0.13802013 0.018762805 0.082032226 -0.06211928 -0.17251627
0.12606129 0.1486233 0.071770325 0.17484689 -0.15943293 -0.16327792 0.17601416 -0.13131313
-0.20389497 -0.17249711 0.11412826 -0.13231045 -0.27975273 -0.042704497 -0.12861544 -0.00089660846
-0.1793379 -0.007831706 -0.08715146 0.13540564 0.15394987 -0.116957106 0.15508218 -0.017590078
-0.0091125285 -0.18657798 -0.12332389 -0.1720097 -0.123130485 -0.09619015 -0.11102234 -0.1388547
-0.012978826 -0.045959096 0.016423099 -0.078430556 -0.09270112 -0.05621367 0.06397827 -0.019616526
-0.062754676 -0.17917128 -0.13829789 -0.25898835 -0.06880863 -0.090249136 0.13297458 -0.1490214
0.02852851 0.198094 0.2321718 -0.006913345 -0.17917317 0.14763495 -0.17270921 -0.095119864
-0.17582278 0.008248787 0.12413072 0.08709358 0.04921087 0.053669628 0.022072496 0.20259082
0.050827567 0.11102675 0.10151792 -0.123105794 0.10465191 0.16756909 -0.059593692 -0.0060647847
-0.0642516 0.08695065 -0.021113502 -0.22622415 0.068017416 -0.15236524 -0.11960063 0.1052342
0.0010792881 0.11725926 0.043642804 0.14425655 -0.12274383 -0.082167484 0.16260098 0.082108185
-0.031285226 -0.09751209 -0.13081919 0.10053296 -0.20513642 -0.17018561 -0.09186462 -0.13449372
0.057189792 0.09858947 -0.06901299 0.055440996 -0.13486554 0.14179075 -0.00978205 0.049547132
0.14397158 -0.16637084 -0.10870633 0.07466935 -0.2474877 -0.082526326 0.0161526 -0.13132815
-0.15206723 0.055607215 0.029510317 -0.13535938 -0.11503509 0.091417 0.12081723 0.21210393
-0.00566211 -0.096885026 -0.21033426 0.05409508 -0.04286152 -0.108270474 -0.0974362 0.07986616
-0.18958926 0.14136975 -0.103896014 0.1448264 0.07115384 -0.1919758 0.10854946 0.07403526
0.042285122 -0.045554563 0.113427915 0.031313717 -0.059247974 0.15830857 -0.0076629105 0.11394059
0.14270954 -0.14379981 -0.07253204 -0.07323593 0.13682364 -0.120478734 -0.13780949 0.0049944194
-0.1107999 -0.14371073 -0.11966627 -0.045714546 0.20764555 -0.009771756 0.017954404 0.17074671
0.14571263 0.08931032 0.14949146 0.1028307
00000000: bd2e 5bbd ef75 0abd b4b0 13be 6d2a e4bd
00000010: d107 2638 cee1 27be b9e8 003e 2a67 fb3d
00000020: f04b afbd 7a0b c0bd d57c 85bc 2655 0d3e
00000030: 74b4 993c 8300 a83d c970 7ebd 1ba8 30be
00000040: 3616 013e b530 183e 52fc 923d 100b 333e
00000050: 6342 23be 5432 27be 0e3d 343e f376 06be
00000060: d8c9 50be 15a3 30be 14bc e93d 647c 07be
00000070: c03b 8fbe e9ea 2ebd c4b3 03be 600a 6bba
00000080: 5ba4 37be 8e50 00bc 777c b2bd c7a7 0a3e
00000090: 09a5 1d3e 3587 efbd ddcd 1e3e 1119 90bc
000000a0: b74c 15bc 4c0e 3fbe 3c91 fcbd 5023 30be
000000b0: d62b fcbd 57ff c4bd ae5f e3bd ed2f 0ebe
000000c0: 24a5 54bc 9b3f 3cbd bc89 863c 33a0 a0bd
000000d0: 16da bdbd 4e40 66bd 0a07 833d d6b2 a0bc
000000e0: 8685 80bd ad78 37be f69d 0dbe 1f9a 84be
000000f0: 8aeb 8cbd 8ad4 b8bd 7d2a 083e 1199 18be
00000100: 9fb4 e93c 27d9 4a3e 72be 6d3e 5789 e2bb
00000110: 2c79 37be 9e2d 173e afda 30be 34ce c2bd
00000120: e30a 34be ec25 073c 3f38 fe3d 1e5e b23d
00000130: 5691 493d afd4 5b3d 61d1 b43c f873 4f3e
00000140: 9130 503d fe61 e33d a1e8 cf3d e41e fcbd
00000150: be53 d63d 3b97 2b3e 8418 74bd 1abb c6bb
00000160: 5896 83bd 2f13 b23d 39f6 acbc 4ea7 67be
00000170: b74c 8b3d a205 1cbe 2df1 f4bd 0785 d73d
00000180: e676 8d3a 9f25 f03d ccc2 323d fdb7 133e
00000190: 1e61 fbbd 6d47 a8bd df80 263e 5628 a83d
000001a0: f024 00bd 6bb4 c7bd 77f5 05be 39e4 cd3d
000001b0: 480f 52be 2345 2ebe 8523 bcbd b9b8 09be
000001c0: d83f 6a3d 47e9 c93d af56 8dbd 1916 633d
000001d0: 311a 0abe 9831 113e e444 20bc eff1 4a3d
000001e0: 496d 133e 1e5d 2abe 6da1 debd 3fec 983d
000001f0: 6a6d 7dbe 9003 a9bd 7552 843c e37a 06be
00000200: 83b7 1bbe 64c4 633d 9fbf f13c a69b 0abe
00000210: 8497 ebbd d638 bb3d 066f f73d c631 593e
00000220: 3989 b9bb a86b c6bd dd61 57be cd92 5d3d
00000230: 908f 2fbd e9bc ddbd a18c c7bd df90 a33d
00000240: b023 42be 3bc3 103e 6fc7 d4bd 5f4d 143e
00000250: 1bb9 913d 4e95 44be 2e4f de3d cc9f 973d
00000260: 2a33 2d3d 6c97 3abd e54c e83d d042 003d
00000270: 01ae 72bd a41b 223e 2719 fbbb af59 e93d
00000280: 7322 123e 4240 13be ae8b 94bd b8fc 95bd
00000290: 7f1b 0c3e 8ebd f6bd ee1d 0dbe 3aa8 a33b
000002a0: 0feb e2bd e828 13be 9713 f5bd 2d3f 3bbd
000002b0: 09a1 543e b719 20bc 1d15 933c 3ad8 2e3e
000002c0: b135 153e 54e8 b63d 4a14 193e e798 d23d
