src/models/penneAlPesto4.pth (torch, 412914 bytes, 15 tensors)

main.0.weight f4 [10, 3, 4, 4]
000000 90 5d 21 3d 8c 82 0b bc 82 17 ab 3d 91 6c 93 3d
       0.03939587 -0.0085150115 0.08354093 0.07198442
000010 47 f4 52 bd 29 cf 10 bd 04 9b 14 3e 7a 42 31 3c
       -0.051502492 -0.035353813 0.14512259 0.010819072
000020 1e 37 0c 3e 8b d7 f3 bc 8a 08 e0 bd c5 38 bd bd
       0.136929 -0.029765865 -0.10939129 -0.092393436
000030 e8 0a f5 3d af e8 2f 3c 6b 8d 1a 3e 5e f7 dd bd
       0.11964971 0.010736628 0.15093009 -0.10838197
000040 49 28 f0 3d 9e 78 4a bd ec c9 7b bc aa 37 ab 3b
       0.11726434 -0.049431436 -0.015367966 0.0052251415
000050 8c 2d 74 3d 7f f9 40 3d 19 d7 6f bd 45 21 08 be
       0.05961375 0.047112938 -0.058554742 -0.13293941
000060 d3 9e 97 bd cc fb 56 bd 67 23 0f 3e 4c 6c 52 3d
       -0.0740334 -0.052486226 0.13978349 0.05137281
000070 e9 60 be 3e ab a7 68 be 53 50 d9 3c 1a fb 0f be
       0.37183312 -0.2272021 0.02652756 -0.14060631
000080 e8 ca 10 3b 1b 1d 21 bd de e0 1a bd 96 4e 8c bd
       0.0022093598 -0.039334398 -0.037812106 -0.068509266
000090 c4 f9 e6 bb c2 54 d7 3c d2 e8 99 bd 32 07 1c be
       -0.0070488174 0.026285533 -0.0751511 -0.1523712
0000a0 69 ab 3a 3d 72 68 fb 3b 56 8c b0 bd bc 1b 0c be
       0.045573626 0.007672363 -0.08620517 -0.13682455
0000b0 cb aa 7f 3d dc 3b b0 bd 49 37 e6 3d e6 f9 6b be
       0.06241874 -0.08605167 0.112410136 -0.23044547
0000c0 8d b4 9f 3c 63 bd 10 3e 06 d8 f0 3d c4 35 ac bb
       0.019495273 0.14134745 0.11759953 -0.005255433
0000d0 3e 61 85 3d c0 b0 08 3e 20 d1 33 be 79 e3 d6 bc
       0.06512688 0.13348675 -0.17560244 -0.026231514
0000e0 e2 56 ec 3c 77 36 03 3c 8d df c1 3d ca fb e8 3c
       0.028850023 0.008008591 0.09466467 0.028440375
0000f0 66 6b eb 3c c4 2d d9 bd 0d 8d 16 3d 00 5f c1 bd
       0.028737735 -0.10604432 0.03675561 -0.09441948
000100 bb dc 13 be f8 ff f3 bd 74 a9 6d 3c f3 ac ff 3d
       -0.1443967 -0.119140565 0.014505733 0.12484159
000110 25 63 44 be 40 11 95 3b 6a 05 45 be f6 79 1d 3e
       -0.19178446 0.0045491755 -0.19240347 0.15378556
000120 1d 74 92 bd 44 97 25 3e 89 4a 72 bd 4f 18 c2 bd
       -0.07151053 0.16170985 -0.059153114 -0.09477293
000130 d0 1f 30 bd 53 3c b3 3d 5a d3 f1 bb 2f 89 bb 3d
       -0.04299909 0.0875174 -0.0073799314 0.09157025
000140 e1 8c 1e be 9a 45 b6 bd f3 be 4e bd 4d d3 a7 bd
       -0.15483429 -0.08899994 -0.050475072 -0.08194599
000150 65 f9 5f bd e2 bc b0 3e df 65 34 be 39 42 3b be
       -0.0546812 0.34519106 -0.17616986 -0.1828698
000160 e9 07 08 3d b9 f3 ba bc 8a 9b 12 3e 05 67 ab bc
       0.03321067 -0.022821294 0.14317146 -0.020923147
000170 2a 21 c0 39 9e db f8 bd 8d 5d 1f 3d 80 c9 e0 bd
       0.00036645803 -0.12151264 0.038907576 -0.10975933
000180 fc f3 96 3c 19 98 2f be 7a ce 15 bd c6 3f 94 bd
       0.018426888 -0.17147864 -0.036573865 -0.07238726
000190 c4 fe c5 3c 9b 47 10 be e6 1d 91 3d 6b b1 f0 3c
       0.024169333 -0.14089815 0.07085781 0.029381474
0001a0 d4 7a fb bd d2 24 3c 3d 04 48 16 be 12 f3 ac 3b
       -0.12279287 0.045933552 -0.1467591 0.0052779997
0001b0 60 26 1a be a3 5b 65 3d 38 69 8d 3d c4 87 15 be
       -0.15053701 0.055995595 0.069048345 -0.14602572
0001c0 84 89 37 bd 90 d2 0c bd ad 43 08 be f9 2b 87 3d
       -0.04480888 -0.034380496 -0.13307066 0.06600184
0001d0 44 f9 ae 3d 3c 54 73 bd 35 3d dd bd 41 4b ea bd
       0.085436374 -0.059406504 -0.1080269 -0.11440135
0001e0 25 d3 e7 bb 13 d5 98 bc 4c 5c 83 3c 62 bb 02 be
       -0.007074731 -0.01865629 0.016035222 -0.12766793
0001f0 72 e2 a1 bc 85 9c 98 3b 0f f7 c4 bd 88 50 0b be
       -0.019761298 0.0046573305 -0.09617435 -0.13604939
000200 96 9a 76 3d a9 1c 9e bd 68 10 cf bd 8f 9c 5a bd
       0.06020602 -0.0772031 -0.10110551 -0.053371962
000210 96 04 bf 3d d1 e4 4c be 6d c4 80 3e 93 44 f3 bd
       0.093270466 -0.20009162 0.2514986 -0.11878314
000220 c3 57 9f bd 04 1e b0 bd 9e 8a f4 3c 7e 63 e9 bd
       -0.07780411 -0.08599475 0.029851254 -0.1139593
000230 73 2c b9 bd 39 cb 9a bd 02 fa 0e be 6f 75 0a be
       -0.09041681 -0.07558293 -0.13962558 -0.1352136
000240 ce 66 15 be d9 8b a4 3a 93 40 cd bd f6 9d cf 3b
       -0.14589998 0.0012553885 -0.10022082 0.006335969
000250 33 41 d4 bd e4 1d e3 3c ff 2e b1 3d 54 90 7d 3b
       -0.10363998 0.027724214 0.08651542 0.0038690763
000260 6c fc 89 bd 0c c5 1d 3d d6 30 0d be 1f 23 0b bd
       -0.06737599 0.038517997 -0.1378816 -0.03396904
000270 05 79 02 bd 81 13 70 3c 24 c6 33 3d c3 98 61 bc
       -0.031853694 0.014653088 0.043890134 -0.013769331
000280 6f 02 f8 3d e4 79 97 bd 51 b7 9a bd b1 50 20 be
       0.12109839 -0.07396296 -0.07554496 -0.15655781
000290 50 6e 2a be 6a e2 e2 3d 77 c2 b4 bd a4 4b 04 be
       -0.16643643 0.11078341 -0.08826154 -0.1291948
0002a0 58 32 9d 3d 1b c6 8b bd 0d 78 9b bc 5f 06 f5 bd
       0.07675618 -0.06824895 -0.018978143 -0.11964106
0002b0 8c af 02 be 5d 1a e2 bd f2 5a 08 be 96 74 14 3e
       -0.12762278 -0.11040185 -0.13315943 0.14497599
0002c0 46 5f ba bd 46 8b fd bd 4c 0c 3b 3d e2 2f f0 3d
       -0.09100203 -0.1238008 0.045666024 0.11727883
0002d0 f4 9a 89 3d 38 b8 c9 3d 09 f1 bc 3d f1 a4 be bd
       0.06719008 0.0984959 0.09225661 -0.09308804
0002e0 0f 0f 3a bd 72 ca 0b 3d c7 1a fd 3b fa 86 b8 bd
       -0.045424517 0.034128614 0.0077241394 -0.0901012
0002f0 0a c0 4c 3e da a9 0e be 1a 86 00 3d df d7 db 3d
       0.19995132 -0.1393198 0.03137789 0.107345335
000300 43 dc 34 be 81 3e 8f bd 49 b1 04 bd ee 91 55 be
       -0.17662148 -0.069943435 -0.032395635 -0.20856449
000310 23 57 3e be 8a a4 ba be 77 9c 3a be c3 d5 05 be
       -0.18587928 -0.36453658 -0.18223749 -0.13069825
000320 f6 fb 78 be 3d ba 1f be ff 53 ec bc d8 c1 eb bd
       -0.24314865 -0.15598388 -0.028848646 -0.11511582
000330 7a 6f 3d bd 98 f9 12 be 00 14 24 be bf 4b f4 bd
       -0.04624889 -0.14353025 -0.16023254 -0.1192851
000340 94 01 8e 3c a5 3a 76 be 3a 6e ec bd 10 a8 a0 3c
       0.017334737 -0.24045809 -0.115444615 0.019611388
000350 2a 65 81 3d 24 dd 9d 3e 49 59 9c 3d e8 16 46 3e
       0.06318124 0.3083278 0.07634217 0.19344676
000360 6e 08 dd bd c1 dd f6 bc e3 98 4a be 05 59 3b be
       -0.107926235 -0.030135037 -0.19784884 -0.18295677
000370 77 4b bf bc 73 cb 12 3d 99 ce 52 bd 59 b0 a0 bc
       -0.023351414 0.035838556 -0.051466558 -0.01961534
000380 82 60 51 be 87 01 39 be 48 c3 c2 3b 38 4a 2c be
       -0.20446971 -0.18066989 0.0059436895 -0.16825187
000390 7d aa 4e 3d 55 3c b1 3d f4 ef 09 3e 1e ab 59 3d
       0.05045556 0.086540855 0.13470441 0.053141706
0003a0 f0 32 39 be 60 d2 62 be 20 72 d7 bd 4b 4f 1c be
       -0.18085837 -0.22150564 -0.105198145 -0.15264623
0003b0 66 59 3f 3e ce e6 2f 3e ba de a9 3c 6a 0c db bd
       0.18686447 0.17177889 0.020736087 -0.10695727
0003c0 3c 2f b4 bd ef d8 b6 3d d7 70 34 3d 95 e0 83 3d
       -0.08798072 0.089280955 0.044052925 0.0643932
0003d0 c8 75 ba be d0 03 80 3d 1e b0 b7 be 04 22 ca bd
       -0.36417985 0.06250727 -0.35876554 -0.09869769
0003e0 cc 7c 38 be 50 52 83 3d 17 72 39 be e0 bc e9 bd
       -0.18016356 0.06412184 -0.18109928 -0.11412978
0003f0 d8 37 17 bc 4a 79 30 3e d0 e0 b8 3d 61 26 fd 3c
       -0.009229623 0.17233768 0.090272546 0.03090209

main.3.weight f4 [20, 10, 4, 4]
000000 8f 82 1d 3d f7 cb 24 3d 05 da b3 3d 31 52 45 bc
       0.03845459 0.04023358 0.08781818 -0.012043522
000010 b2 f2 f2 bc 4a c7 1c bd 26 5b da 3c 76 02 42 3b
       -0.029656742 -0.038275994 0.026654791 0.0029603518
000020 a4 53 39 3d d7 fd 5a bc fa 61 a1 3d 03 e1 85 3d
       0.04524578 -0.013366184 0.07880016 0.06537058
000030 70 15 b1 3c d6 ec 79 bd 96 71 5a bd 4d 57 90 3d
       0.021616668 -0.06101688 -0.05333098 0.07047901
000040 97 46 19 3d aa c0 62 3b e1 2d 22 3d a8 92 69 bd
       0.037420835 0.00345997 0.039594535 -0.057024628
000050 06 5e 23 3c 86 53 1d bd 52 b6 79 3d b6 a1 75 bd
       0.009971147 -0.038409732 0.06096489 -0.059968673
000060 da b9 99 3d c8 9b b6 3b ad 48 ad bc 0e 2a 04 bd
       0.075061515 0.00557277 -0.021152819 -0.03226667
000070 df 85 80 bd a9 df 0a 3c 23 5b 94 bc 6b db 82 bc
       -0.06275534 0.008476176 -0.018109864 -0.015973767
000080 9a 8b 7b 3c c2 68 1f bd 46 4e b3 3d 6b 62 7f 3d
       0.015353108 -0.038918264 0.08755164 0.062349718
000090 de c6 ee bc 4f 99 3d 3d 28 e0 84 3d 5d bf 4a 3d
       -0.029147562 0.046288785 0.06488067 0.049498904
0000a0 07 16 9f 3d 91 64 8a bd 1b 0c 6a bd c2 35 8c bc
       0.07767873 -0.06757463 -0.05714045 -0.017115477
0000b0 85 08 a2 3c 33 0f 7c bd bc b4 cf bc c6 ca 1a 3d
       0.019779453 -0.061537933 -0.025354736 0.037791036
0000c0 dc 03 af bc 15 71 90 bd 7a 81 88 bd f2 f1 65 bd
       -0.021364145 -0.07052819 -0.06665321 -0.05613894
0000d0 ce c1 08 3d d9 a7 e3 bc 6d 18 0a bd 85 51 9d bb
       0.03338795 -0.027789997 -0.0337147 -0.0048009777
0000e0 4e dc 75 3d 4c cc f0 3c fc 68 77 bd 97 7f 27 3d
       0.060024552 0.029394291 -0.060402855 0.040893164
0000f0 cc 6c 71 3d 66 f3 97 bc b3 33 5b 3d 5a 68 57 bd
       0.058941647 -0.018548679 0.0535161 -0.05258975
000100 91 88 6f bd a2 d9 4e bd fb f3 25 bd 5f 7f 4b 3c
       -0.05847985 -0.05050052 -0.04051588 0.012420504
000110 4b fc 00 ba d8 5c 60 bd 18 13 f1 3b f9 22 95 b9
       -0.0004920407 -0.054776043 0.0073570125 -0.0002844555
000120 ad 84 7a bd af 07 4d 3d 15 bc a0 bc 08 22 13 3d
       -0.061161686 0.050056156 -0.019620935 0.035921127
000130 00 af de bd 41 3c 1f bc e3 b4 ac bc 2a bf 47 3d
       -0.10873222 -0.0097189555 -0.021082347 0.048766293
000140 97 ef 37 bb 99 e0 91 bd 36 dc 3e 3d a9 ca cc 3d
       -0.002806639 -0.07122917 0.04659673 0.09999592
000150 b2 48 32 bd b8 17 48 bd 35 7a e1 3c 7f fc dc bc
       -0.04352636 -0.048850745 0.027524093 -0.026975868
000160 61 39 8c bd ab a5 2e 3d fd ec 86 3d fe da b0 3c
       -0.06846882 0.042638462 0.06588171 0.021588799
000170 87 cb 06 bd 55 ce 7a bd 15 93 95 bd 7f 32 97 3d
       -0.032908943 -0.06123193 -0.07303444 0.07382678
000180 87 fb 62 3d 3d dc 90 bd a4 09 26 bc 29 3e 81 bd
       0.055415656 -0.07073257 -0.010134134 -0.06310684
000190 48 f4 1f bd 58 b1 3b 3d a7 d5 5c bd 9d d2 0d 3d
       -0.039051324 0.045823425 -0.053914692 0.034624685
0001a0 7e b9 6f bd 59 bd 9b bd ba 8c 05 3d ef e9 45 bd
       -0.05852651 -0.076044746 0.03260491 -0.0483188
0001b0 7c c0 4c bd 56 86 5a 3c b1 37 07 3c b9 d3 fd 3c
       -0.049988255 0.013337692 0.008253024 0.030984746
0001c0 b7 ab 9e bd 80 93 ae 3b e4 2e 9e bc c5 e1 6a bd
       -0.07747596 0.005327642 -0.019309469 -0.057344217
0001d0 25 fd 5d 3c d7 26 b5 3c 3f 51 f1 3b a2 c1 bd bc
       0.013549124 0.022113247 0.0073644216 -0.02316362
0001e0 ac dc 2d 3d 1e 18 c8 3c 95 75 96 3d ae 38 b0 3d
       0.042446777 0.024425562 0.07346646 0.08604561
0001f0 17 a5 62 bb e1 f7 ea bd 9c 49 df bd 0f f9 a0 3c
       -0.0034583264 -0.114730604 -0.10902712 0.01965001
000200 5d 7e af 3c 61 7c 8f bd 8b 6b 00 bc b6 1d 40 bd
       0.02142256 -0.07006145 -0.00783814 -0.046903335
000210 30 30 9e 3b d4 53 5b bb e6 6a c0 3c 3d b0 62 bc
       0.0048275217 -0.0033466714 0.023488473 -0.013835964
000220 09 98 13 bd 5e 44 85 3b fa 83 eb b9 58 42 df 3c
       -0.036033664 0.004066988 -0.00044921023 0.027253315
000230 94 bc de 3c 50 f2 9d bd 5a f8 0a bd d8 c6 97 bd
       0.02718953 -0.07712233 -0.033928253 -0.07410973
000240 a9 16 18 bc c3 d6 f9 3b 46 78 a0 bc f1 0c 7d bd
       -0.009282746 0.0076244785 -0.0195886 -0.06177992
000250 71 2e ef 3c 31 34 0b 3c 23 5e 83 bd 35 03 0b bd
       0.02919695 0.00849633 -0.064144395 -0.033938605
000260 b8 d1 68 3d 77 44 49 bb b7 af 44 3d 91 29 26 bd
       0.05684063 -0.0030710974 0.048019137 -0.040566985
000270 cf 0f 30 3c 0f 06 62 3c 09 f6 b8 3c 97 45 07 bd
       0.010745957 0.01379539 0.022578256 -0.03302535
000280 83 93 86 3d 96 20 ec 3b f5 05 8c 3d 78 60 d1 bc
       0.065711044 0.007206033 0.06837074 -0.025558695
000290 ee 00 6a 3d 4d 33 f0 ba 8b a7 0f 3c 45 ff 52 bd
       0.057129793 -0.0018325836 0.008767973 -0.051512975
0002a0 de 09 48 3d 74 47 1a bd 2b 5f 46 bd 5f 1b d0 bd
       0.048837535 -0.0376658 -0.048430603 -0.101614706
0002b0 bf 2c 34 bd bd 44 c7 bc c9 df 7e 3d 3c df b4 bd
       -0.043987986 -0.02432477 0.062225137 -0.08831641
0002c0 94 dd ed bd 33 cc 77 bd fe 68 94 bd 43 f2 b9 3c
       -0.11614528 -0.060497474 -0.07246588 0.022698527
0002d0 98 da 60 3c b0 ab be bc 99 73 c5 bd 91 d3 3c bd
       0.013723992 -0.023275226 -0.09641189 -0.046100203
0002e0 c6 ad 9b bd 5e 17 96 bd db 9b 6c bd c1 af 46 bd
       -0.07601504 -0.07328676 -0.057765823 -0.048507456
0002f0 d9 68 37 bd 9b 81 d4 3b c0 0f 2f bd 44 1a bf bb
       -0.044777725 0.0064851767 -0.04273963 -0.0058319885
000300 21 36 b1 bb 57 1a 96 bd 59 7c 6c 3d cb 7a 7d bb
       -0.005408064 -0.07329243 0.057735775 -0.0038677927
000310 2b e0 af 3c a0 5b 71 3d 81 6d 48 bd 22 a7 88 bd
       0.021469196 0.05892527 -0.048932556 -0.06672503
000320 4f 91 f1 bc 4e 9b df 3c 9f 65 12 3d 86 8e 03 bb
       -0.029488234 0.027295735 0.035741445 -0.0020073964
000330 ed 4a 03 3d 42 27 8c 3c e5 de 17 3d 95 88 13 bc
       0.032053877 0.017108563 0.037077803 -0.009004732
000340 1b 95 8c 3d da 78 d1 3c 92 ce 67 3d 49 82 e5 3a
       0.06864377 0.025570322 0.056593485 0.0017510141
000350 d3 c9 3c bd 3e 23 46 3d 83 fc 02 bd d5 af 91 bc
       -0.046090912 0.048373453 -0.031979095 -0.017784039
000360 40 b8 2a bd f1 c9 c6 3d af 28 c5 3d 7c 13 e7 3a
       -0.04167962 0.09706486 0.096269004 0.0017629708
000370 41 4d 81 3b 63 48 ed 3c 15 b2 bb bc bc d0 4d 3d
       0.003945977 0.02896518 -0.022912065 0.050247893
000380 99 19 9e bb 95 f4 5a bd 9b 16 72 3d 99 b1 6c 3c
       -0.004824829 -0.053455908 0.05910359 0.014446639
000390 62 d2 07 bd 1e f2 2e 3d cc 47 b6 3d d5 5b c1 3d
       -0.03315962 0.04271137 0.08900413 0.09441344
0003a0 fc 07 12 3c ae 7c c2 3c da 88 47 3d 7f a4 a4 3d
       0.008913036 0.023741093 0.048714496 0.08039188
0003b0 56 96 72 3c 58 90 88 bc 99 23 54 3d 55 ac e0 bc
       0.014806351 -0.016670391 0.05179176 -0.027425924
0003c0 6f 30 aa 3d 7d 02 97 bd 6a 80 11 bd ab da 4f 3c
       0.08310019 -0.073735215 -0.035522856 0.012686412
0003d0 b8 d7 06 3c 6d db 37 3c f1 8f a0 b9 56 3c 9e 3c
       0.008230142 0.011221749 -0.00030624823 0.01931588
0003e0 6b b3 d0 3d 50 77 a5 3d 95 66 f4 3c 3c b4 1c bc
       0.10190471 0.08079398 0.029834071 -0.009564456
0003f0 ea 8f a1 bc b6 8b 13 bd 44 eb 0c 3d 4c ce 0c 3e
       -0.019721944 -0.03602191 0.034404054 0.13750571

main.4.weight f4 [20]
000000 9d 4c 79 3f 6f cc 8b 3f 07 72 7e 3f df 3d 6b 3f
       0.9738253 1.0921763 0.9939274 0.9189128
000010 a5 82 89 3f d6 4a 7c 3f 70 c2 82 3f 0f 7a 88 3f
       1.0742995 0.9855169 1.0215588 1.0662249
000020 8c 0d 88 3f 06 ac 81 3f 00 3d 66 3f 4a 26 81 3f
       1.0629134 1.0130622 0.8993683 1.008981
000030 d1 92 89 3f 9b 81 68 3f 26 cd 83 3f 82 c3 68 3f
       1.074793 0.9082276 1.0296981 0.9092332
000040 7c 91 80 3f 79 00 76 3f 67 47 81 3f 05 6f 77 3f
       1.0044398 0.9609447 1.0099915 0.9665378

main.4.bias f4 [20]
000000 17 76 18 bc 08 f2 4e bd ee dd 0c bd 2a 68 06 bd
       -0.009305499 -0.050523788 -0.034391336 -0.032814182
000010 ce 3b 12 bd ad b1 c3 3d c9 f0 94 bd 20 17 ce bc
       -0.035701565 0.09555373 -0.072724886 -0.025157511
000020 f2 bd 32 bd b1 48 04 3c cc 66 4f bd 8a bb 07 bd
       -0.043638177 0.008073972 -0.050635144 -0.033137836
000030 c8 07 71 bd 12 3b 7b bc 06 6f 4a bc e8 69 f2 bc
       -0.05884531 -0.015333908 -0.012355572 -0.029591516
000040 1f 93 95 3d ad b1 40 bd 6a c1 97 3c ab 16 f0 bc
       0.07303452 -0.047044445 0.018524844 -0.029307684

main.4.running_mean f4 [20]
000000 42 57 1e bc a2 2f ef bc f9 3f a3 bc c2 8a 6c 3c
       -0.009664359 -0.029197518 -0.019927965 0.014437379
000010 d7 a0 c5 bc ae 80 10 3c 6e 83 b1 bc 59 d2 e3 ba
       -0.024124546 0.008819742 -0.021669116 -0.0017381414
000020 0a 01 86 bc 43 c0 50 bb f8 2b 27 3c 84 46 43 bc
       -0.016357917 -0.0031852878 0.010203354 -0.011918668
000030 fe da 9d bc c5 d9 4b 3b fb a8 85 bc 90 68 83 3b
       -0.019269463 0.0031105143 -0.016315928 0.0040102676
000040 b9 1e 25 bc 51 61 ac bc 3b ce 08 bb 5f 7a 9b bc
       -0.010078126 -0.021042498 -0.0020874876 -0.01897925

main.4.running_var f4 [20]
000000 bd 3c 02 39 48 f0 4f 3b 04 ad 07 3a 9d b6 5a 39
       0.00012420393 0.0031728912 0.00051756226 0.00020858129
000010 3f 26 ed 3a f8 1c 1e 3a e1 9f ad 3a ba e6 ab 39
       0.0018093063 0.00060315384 0.00132465 0.00032787566
000020 7e 82 43 3a fe ec 9f 38 57 f4 0c 3a cc 56 15 3a
       0.00074581045 7.625854e-05 0.00053769856 0.00056968327
000030 3c d7 77 3a 31 b8 d2 38 63 7e 3e 3a 53 2c e6 38
       0.00094543747 0.00010047889 0.0007266758 0.00010975511
000040 46 37 ec 39 fa f9 1e 3a 8c ce ba 38 52 bd 5c 3a
       0.0004505461 0.0006064471 8.9076435e-05 0.0008420545

main.6.weight f4 [40, 20, 4, 4]
000000 73 20 5e 3d ef 95 9f 3c d4 2f 0f 3d f8 24 1d 3c
       0.054230165 0.019480674 0.03495772 0.009591334
000010 2f 36 74 bb aa e0 ee bc 2a 80 82 3c 59 23 ff 3c
       -0.0037263741 -0.029159863 0.015930254 0.031144785
000020 b1 ec 5c bd 18 dd 09 bd cc e2 15 3d e9 58 21 bd
       -0.053936664 -0.033658117 0.036593243 -0.039391432
000030 c7 38 f4 bb 80 ce 6b 3d 51 6f 82 3a 31 b7 23 3d
       -0.0074530574 0.05756998 0.0009951388 0.039969627
000040 d0 0e 9d bb 7e 14 27 bd 9c 74 be 3c 23 8c d6 bc
       -0.0047930256 -0.040791027 0.023248963 -0.02618987
000050 79 19 86 3c 14 39 80 bb 0b 94 87 ba ac a6 24 3c
       0.016369568 -0.0039130542 -0.0010343803 0.010049503
000060 f2 2f 9e 3c 1d 73 26 3d ca 1b 1d bd a2 e9 07 bd
       0.019309971 0.040637124 -0.03835658 -0.033181794
000070 74 38 8a 3c b2 07 3d 3d 3d e8 a3 bc 19 d5 9d 3d
       0.016872622 0.046149917 -0.0200082 0.07706661
000080 5f aa 00 bd 9c 30 07 3d d7 ac 38 bb 99 9d 2d bd
       -0.03141248 0.033005342 -0.0028179192 -0.042386625
000090 91 77 5e bd 27 6f ba bb a5 a4 03 bd 53 9a d9 3b
       -0.054313246 -0.00568952 -0.03213944 0.0066407113
0000a0 b9 99 97 bd 07 86 7e 3d 12 1a c5 3c 10 bf 2e bb
       -0.07402367 0.062139537 0.024060283 -0.0026664175
0000b0 e6 be 11 3d 0b b6 0a 3d 80 a2 83 3d f1 08 0f bd
       0.035582446 0.033865016 0.06427479 -0.034920637
0000c0 b6 0a f4 bc 04 a8 2f bd e0 1a 9d 3c 07 b0 86 ba
       -0.029790264 -0.04288484 0.019177854 -0.0010275849
0000d0 1d 54 df 3c 4b 94 d3 3c ae 4e 02 3c 61 84 2c 3d
       0.027261788 0.025827548 0.007953329 0.042118434
0000e0 5c c5 17 bd df c4 6f bd a1 6d 6a 3c 6d 61 37 bc
       -0.03705345 -0.05853736 0.014308364 -0.011192662
0000f0 07 28 fe 3c db c8 18 bd 9f 1d 5b bd 9a 16 f7 bb
       0.031024946 -0.037300926 -0.053495046 -0.007540536
000100 d8 91 55 3c 91 ec b3 3b 1b 95 5c bc f0 13 fb 3c
       0.01303526 0.0054908474 -0.013463284 0.030649155
000110 b9 46 f4 bc ca de 34 3d 18 c0 8f bc 28 6a 1e 3d
       -0.02981888 0.04415778 -0.017547652 0.038675457
000120 c9 8c f0 3c 9c a2 85 3c 0e 0e 96 bb d6 95 ae 3c
       0.029364007 0.01631289 -0.004579312 0.021311682
000130 49 01 83 bc f5 a7 99 bc 20 28 ab 3a 32 cf a2 bc
       -0.015991824 -0.018756846 0.0013058223 -0.019874189
000140 00 84 37 3d cb 6d 03 bd 27 27 3d 3c fb b9 7c bd
       0.04480362 -0.03208713 0.011544979 -0.061700802
000150 99 56 04 3d 15 ce 8d 3c 12 c5 d9 bc 07 5b a3 bd
       0.03230915 0.017310182 -0.026583228 -0.079763465
000160 00 69 83 bc fb 47 24 3d 78 df 42 bc d2 83 32 bd
       -0.016041279 0.04010771 -0.011894099 -0.043582745
000170 8f 3f 36 3c 10 81 6c 3d 5b fa 99 3d 02 b1 a7 bd
       0.011123552 0.05774027 0.07518455 -0.081880584
000180 e8 35 21 bd 33 e7 6d 3b 9e 4e 3e 3c 66 ed 26 3d
       -0.03935805 0.0036301136 0.0116154235 0.040753745
000190 35 1b 55 3b 67 c7 7d bc cd b3 6c bd 75 5f 10 3d
       0.0032517437 -0.015489436 -0.05778866 0.035247285
0001a0 c7 a6 b5 3d 1e ff 90 bc ac c6 5a bd 0b 95 72 bd
       0.08869701 -0.017699774 -0.053412125 -0.05922417
0001b0 ab cc 4c 3b a7 3e 5f bc 5c 00 29 bd af 40 81 3d
       0.0031249921 -0.013625777 -0.04126011 0.063111655
0001c0 8c 23 9e 3c 1c 8c 21 bd 28 e9 61 bd ec 51 55 bd
       0.01930406 -0.03944026 -0.055153996 -0.05208008
0001d0 71 a8 39 bd bb f1 0b 3b 92 5d e7 3b 29 25 12 bd
       -0.045326654 0.00213538 0.007060715 -0.03567997
0001e0 44 51 41 3c f7 cd 9f 3d 49 e6 1e 3c 70 73 0b 3d
       0.01179916 0.078029566 0.009698459 0.034045637
0001f0 c3 b2 7d 3c c4 e9 6b 3d f8 a1 85 bd fb d5 a5 3c
       0.015484515 0.057595983 -0.06525034 0.020243635
000200 f9 c7 39 bd fd 0c a8 bc 2f 0f c8 bc 45 5a 08 3d
       -0.045356724 -0.020514006 -0.024421303 0.033289213
000210 38 ed d2 bc 65 6e 9b 3d f3 19 03 bd 5f b9 38 3c
       -0.02574788 0.075894155 -0.03200717 0.011274665
000220 a4 f9 24 bc fd 3a b7 bc 1f e1 d9 bc 85 54 da bc
       -0.010069285 -0.022366995 -0.026596604 -0.02665163
000230 3f eb 63 bd 1c 0b c2 bc 60 54 89 3d b3 db 57 3d
       -0.05564427 -0.023686938 0.067055464 0.052699756
000240 a4 29 46 3d ee 6e 47 3d 29 ab a8 bc ab 60 07 3d
       0.048379555 0.048689775 -0.020589428 0.033051174
000250 78 3a 66 bd 6e 1d 51 bd d5 ce 6a 3b 4c f1 7c 3d
       -0.056208104 -0.051053457 0.0035828848 0.061753556
000260 fb c8 11 3d d8 84 96 bd ee d7 03 39 8e 69 ab 3c
       0.03559206 -0.07349557 0.00012573574 0.020924356
000270 03 ec 67 3d 46 e3 6b 3c ed 8e 92 bb ba 3b 76 3d
       0.056621563 0.014397448 -0.0044726045 0.060115553
000280 2f 02 fe bc 99 1c 0e bc 61 04 ac 3c 12 b1 74 3d
       -0.0310069 -0.00867381 0.020998182 0.05973918
000290 0c 5c 16 bd a1 07 84 bd 00 24 36 bd 17 38 1d 3d
       -0.036708876 -0.064467676 -0.044467926 0.03838357
0002a0 09 24 83 3d 26 ae fe bc 30 8c 6b bd 92 c4 05 3d
       0.064033575 -0.0310889 -0.05750674 0.032658167
0002b0 c5 14 2f 3a 2d 1e 02 3d e5 bc d7 3c d6 98 30 3c
       0.0006678815 0.03176706 0.02633519 0.010778626
0002c0 e0 b8 43 3b 14 35 8e bc fb de f8 bc 60 ad 30 3d
       0.0029864833 -0.017359294 -0.030379763 0.043134093
0002d0 d9 53 8e bd ea a4 34 3c 53 7e e0 bc 41 45 53 bc
       -0.069495864 0.011025647 -0.027403986 -0.012894929
0002e0 ba cf 40 bd 39 06 cf bc 3d 5d f1 bc 66 fc 4d bd
       -0.047073103 -0.025271522 -0.029463405 -0.050289534
0002f0 a1 ec 51 3d d1 65 8a bc 6d 97 d6 bc dd 1c 92 bc
       0.051251058 -0.016894253 -0.026195252 -0.017836029
000300 ad e2 35 bd 9b b0 68 3d 20 70 72 bc 2d 74 3d bd
       -0.044405628 0.05680905 -0.0147972405 -0.046253372
000310 76 a0 46 ba 2b 56 ad 3c 88 2c e0 3b 62 7c 5b bc
       -0.0007577011 0.021159252 0.006841246 -0.013396354
000320 10 f3 2b bd 22 fd b8 3d c3 a8 a8 3c 42 0a 76 3d
       -0.04197985 0.09032656 0.020588284 0.060068376
000330 0c 06 72 bd 47 0b 00 3d 0d 8b 20 3d 0e 29 51 3d
       -0.059087798 0.031260755 0.03919511 0.051064543
000340 0e 80 25 bd 60 51 22 bc fb e7 70 bd 58 4f 21 bd
       -0.040405326 -0.009907097 -0.058814984 -0.03938231
000350 38 31 13 3d 5d 5c d8 3b b7 8f 16 bd ee 37 29 bd
       0.03593561 0.0066028074 -0.03675815 -0.041313104
000360 26 60 c7 bc 0b 3e 8d bc 02 f6 5f bd 87 8d 47 bc
       -0.02433784 -0.017241498 -0.05467797 -0.012179739
000370 03 57 46 3d 76 e2 6b bd de f9 81 3c 3f f9 12 3d
       0.048422825 -0.057589017 0.015866216 0.03588223
000380 a9 63 b8 bc ce bb 16 3d db 1b ad 3c f4 12 fd 3c
       -0.02250846 0.0368002 0.021131447 0.030892827
000390 ae be ef bb 3c 81 77 3c b8 ac 94 3b d2 66 e8 3c
       -0.007316432 0.0151064955 0.0045371912 0.028369341
0003a0 fe 67 81 bd 31 0d 02 bd 8a 7d fa 3c ee 84 c0 3d
       -0.06318663 -0.03175086 0.03057744 0.09400354
0003b0 87 25 7c 3c 55 b2 cc bc d8 7b 38 3d e4 d4 57 3d
       0.015389807 -0.02498738 0.04503998 0.052693263
0003c0 97 67 09 3d 1c 7b b8 bc 2a e1 c6 bc 3c 28 fc 38
       0.033546057 -0.02251964 -0.024277288 0.000120237906
0003d0 a7 73 91 bc 8b b6 d8 bb c9 34 85 3a 84 a1 97 3c
       -0.017755343 -0.0066135577 0.0010162826 0.018509634
0003e0 b8 c4 0a bc 21 e8 8f bc 3f 17 12 bd cf 8a 40 3c
       -0.008469753 -0.017566742 -0.0356667 0.011751845
0003f0 78 17 27 bc 1a ee cf 3c 8e 9e 9d bd 6a 03 1e 3c
       -0.0101984665 0.02538209 -0.076962575 0.009644369

main.7.weight f4 [40]
000000 95 da 89 3f 66 07 8c 3f 8e 0c 8a 3f a4 c1 89 3f
       1.0769831 1.0939758 1.0785081 1.076222
000010 51 1d 87 3f b5 f6 86 3f 0c 9b 84 3f a0 e7 87 3f
       1.0555822 1.0544039 1.0359817 1.0617561
000020 df c6 8f 3f 71 bc 86 3f 1d 95 84 3f db 25 89 3f
       1.1232566 1.0526258 1.0358006 1.0714678
000030 ab ff 8d 3f 13 cd 89 3f 90 87 8d 3f a7 36 8b 3f
       1.1093649 1.0765709 1.1056995 1.0876054
000040 02 30 8b 3f 80 4a 8f 3f cc 81 8e 3f 0d fb 90 3f
       1.0874026 1.119461 1.1133361 1.1326615
000050 36 4f 88 3f 95 8b 89 3f 15 c7 89 3f 8c 24 88 3f
       1.0649173 1.0745722 1.076388 1.0636153
000060 4e 1a 86 3f d0 11 87 3f f9 75 8a 3f 2c 7f 89 3f
       1.0476778 1.0552311 1.0817252 1.0741935
000070 64 91 8e 3f ae 89 8a 3f e6 37 85 3f bc a5 8c 3f
       1.113812 1.0823267 1.0407684 1.0988078
000080 0f 2d 8c 3f 95 2a 87 3f 3f 3e 8b 3f 8c 1c 8e 3f
       1.0951251 1.055987 1.0878371 1.1102462
000090 4f cb 89 3f d2 68 8a 3f 38 b1 87 3f e6 6c 88 3f
       1.076517 1.0813239 1.0600958 1.0658233

main.7.bias f4 [40]
000000 a6 32 37 3d 3c 17 0d 3d a6 1a b3 3c ea 06 d9 3c
       0.044726036 0.034445986 0.021863293 0.026492555
000010 ad 12 bd 3c 3d 16 9d 3c f2 5f 4d 3c b2 b7 a8 3c
       0.023080194 0.019175643 0.012535082 0.020595405
000020 5a 8f 34 3d b5 33 b3 3c 1f 51 eb 3c 8b 15 0f 3d
       0.044082023 0.021875242 0.028725205 0.034932654
000030 2d d9 25 3d 07 ae d2 3c 61 a4 30 3d ff f8 a0 3c
       0.040490318 0.025717748 0.043125514 0.01964998
000040 de c6 dc 3c e7 5e d7 3c 98 69 4a 3d 18 9d 6c 3d
       0.026950296 0.02629037 0.04941711 0.057767004
000050 7f c7 c5 3c a2 ac 78 3c fa 37 40 3d ff 20 f5 3c
       0.024142979 0.015177878 0.046928383 0.02992296
000060 16 80 50 3c b5 5a c2 3c 09 f1 ec 3c e6 f5 8b 3c
       0.012725851 0.023724893 0.028923528 0.017085027
000070 9c 7e 50 3d f0 dc e8 3c 33 58 82 3c 36 ee 1d 3d
       0.050901994 0.028425664 0.015911197 0.038557254
000080 21 a9 0e 3d 8e 42 e7 3c a7 81 34 3d 78 8a c5 3c
       0.034829263 0.028229978 0.04406896 0.024113879
000090 5f b6 2a 3d c7 5f 11 3d 54 00 1a 3d b6 01 90 3c
       0.04167783 0.03549173 0.03759797 0.01757894

main.7.running_mean f4 [40]
000000 4a 20 c6 bd 92 f2 69 be 95 78 00 be 1a ca cf 3d
       -0.096741274 -0.2284644 -0.12545998 0.1014597
000010 b1 ac 4d be 51 94 1c bd f1 25 15 3e 0a 77 b7 bc
       -0.20085408 -0.038227383 0.14565255 -0.02239563
000020 5b cb bf 3c ab 8a ba bd 72 3e 0d be 69 71 89 bd
       0.023412397 -0.0910848 -0.13793352 -0.067110844
000030 e6 77 d2 be 74 0a 71 be 97 4f a0 be cc ad d3 bd
       -0.411071 -0.23539144 -0.31310722 -0.103358835
000040 00 81 09 bb ec 22 03 3d da 7d b7 3d 0f 92 23 3d
       -0.002098143 0.032015726 0.08959551 0.039934214
000050 1e 57 c4 3d df 08 4a 3e 81 83 04 bf 7a 91 e4 bd
       0.09586929 0.19729947 -0.5176316 -0.1116056
000060 a7 ff 44 be 6b 60 f3 bd d1 4c 04 3d 65 0c c0 3d
       -0.19238149 -0.11883625 0.03229982 0.09377364
000070 da f2 ee bd 2e 22 49 be 52 ec 28 3e f2 23 ea be
       -0.11667414 -0.19641945 0.16496399 -0.4573055
000080 f4 a5 ce 3e 8b ec 5b 3a b8 56 6a be 73 59 9b 3e
       0.40360987 0.00083894347 -0.22884643 0.30341682
000090 e7 bf 18 3e a7 ae 0a be e7 72 f8 bd f3 29 f3 3c
       0.14916955 -0.13543187 -0.12131291 0.029683089

main.7.running_var f4 [40]
000000 ca 26 7e 3d 49 e7 97 3d f3 03 23 3e 30 ad 43 3e
       0.06204871 0.07417161 0.15919475 0.19109035
000010 a0 89 7c 3d 70 80 6f 3d da ef 86 3d 3e 1d 94 3d
       0.061654687 0.058472097 0.06588717 0.0723214
000020 a1 3d 20 3e 11 0d b4 3d 9b 58 06 3e d4 7e b3 3d
       0.1564851 0.08791555 0.13119738 0.08764425
000030 5b 99 0f 3e 82 67 ad 3d 54 e8 24 3e 7d 59 13 3e
       0.14023344 0.08467008 0.16104251 0.14389606
000040 ad 5e 1d 3e e0 0f 86 3e e5 72 32 3e b1 dc fa 3d
       0.15368147 0.26183987 0.17426641 0.12249125
000050 ce 1f 6d 3d fb 7e f1 3d 58 d7 ca 3d 58 0c df 3d
       0.05789166 0.11791798 0.09904355 0.10891026
000060 ef 1d 89 3d 43 8d 54 3d 48 5b 64 3d 8f 98 19 3e
       0.066951625 0.05189253 0.055751115 0.14999603
000070 e0 96 2c 3d 15 9f d9 3d 7a e1 b7 3d 1b d4 61 3d
       0.042136073 0.106260456 0.08978553 0.05513392
000080 db 5f 14 3e 49 63 73 3d 04 a0 1f 3e b7 9c 16 3e
       0.14489691 0.059420858 0.15588385 0.1470822
000090 c8 32 00 3e 63 36 07 3e 94 7f 6e 3d 7e 9b 75 3d
       0.12519372 0.1320434 0.058227137 0.059962742

main.10.weight f4 [180, 360]
000000 43 4d f2 3c c0 13 1e 3d 50 fa b2 3c 47 fb b0 3c
       0.029577857 0.038593054 0.021847874 0.021604193
000010 d0 f4 5b 3c d1 28 af 3b 0f 3b 86 3b 85 2c 17 bd
       0.013425067 0.005345442 0.004096396 -0.03690769
000020 2c ee 0c bd 7b 9b 36 3d e0 fb 02 ba 6e b9 72 3a
       -0.034406826 0.04458187 -0.0004996639 0.00092591986
000030 18 01 35 bd 6f c4 19 3d 99 8a dd bc 2d e4 c1 3c
       -0.044190496 0.03754085 -0.027043628 0.023668373
000040 05 81 0b 3d 5d e6 01 bc 2a 82 0a bd ea 75 06 bd
       0.03405859 -0.007928458 -0.03381554 -0.032827295
000050 de 93 40 bd 67 8f 26 3d a5 0b 9b 3a 07 09 48 bd
       -0.047016017 0.040664103 0.0011829032 -0.048836734
000060 57 41 96 bc 5f 4b 60 bc 0c 14 04 bd 0d d3 6a bd
       -0.018341703 -0.013689845 -0.03224568 -0.05733018
000070 85 01 4f 3c 2f 8c 13 bd f4 9c 14 3d a5 bb 00 3b
       0.01263464 -0.03602236 0.036282495 0.0019643095
000080 6f 88 0e bd 82 06 84 bb c4 f8 ac bc 81 f5 0a 3d
       -0.034798082 -0.004029096 -0.021114714 0.033925537
000090 92 7b bd 3c d2 9b 4c bb 97 7a 37 bd 7c 57 28 bc
       0.023130212 -0.0031220806 -0.044794645 -0.010274764
0000a0 be 46 5b 3d e8 59 35 bd 0a d4 3b 3d 33 e4 18 3d
       0.053534262 -0.044275194 0.045856513 0.037327003
0000b0 b9 12 95 bc d3 15 6e bb e6 94 4b bd 3f 4c f6 bb
       -0.018197404 -0.0036328926 -0.049702547 -0.0075164135
0000c0 af 8e b7 3b e9 c9 45 bc c4 7d e4 3c f8 9a fd bb
       0.005601726 -0.012072065 0.027892001 -0.007739421
0000d0 ad c9 f5 3b 67 cb de bc 37 57 d2 3c 6c f2 ac 3b
       0.0075008483 -0.0271966 0.025676353 0.0052779224
0000e0 4b 47 02 bd 89 60 44 bd 79 1a 3c 3c b3 9f 3d 3d
       -0.03180627 -0.047943626 0.011480921 0.04629488
0000f0 6a e6 85 3c 9a cf c4 bc 0d 3d f6 3b 5a dd 4b bd
       0.016345222 -0.024024773 0.007514602 -0.049771644
000100 67 6b 2f 3d f7 03 43 3d 43 a4 42 bd 37 70 90 bc
       0.042827036 0.047611203 -0.047519933 -0.017631633
000110 7d ed 5c bc f1 c4 57 bc 72 09 79 bb 01 e1 48 bd
       -0.013484356 -0.013169513 -0.0038000015 -0.049042705
000120 1b 26 52 bd c2 f6 1d bd 4f f4 96 3c 6f 31 45 bc
       -0.05130587 -0.038565405 0.018427042 -0.012035712
000130 80 7f b3 bc 0d 54 b1 3c 0c 32 99 3c 09 72 67 bb
       -0.021911383 0.021646524 0.018700622 -0.0035315773
000140 6a d0 fb bc 74 4e 0a bd 47 65 8d 3c c5 b9 9b 3b
       -0.030739028 -0.033766225 0.017260207 0.00475237
000150 77 41 12 3d b4 a5 d7 bc d1 42 1a bd 88 28 12 3d
       0.035706963 -0.02632413 -0.037661377 0.035683185
000160 4e 5b 2b 3d 53 8f 7e 3c dc 35 2e 3d ae 34 ba 3b
       0.04183512 0.015537101 0.042531833 0.0056825494
000170 fb 24 b8 bb c3 31 4a 3d 5e 20 aa 3c b8 69 5a bd
       -0.005619643 0.049363863 0.020767387 -0.053323478
000180 be 2b 4f 3d 84 68 51 bc 60 f6 c9 3c b2 98 23 3d
       0.050578825 -0.012781266 0.024653614 0.039940543
000190 a8 31 37 bc f3 82 50 3d 08 47 4d bb 9f e1 df 3c
       -0.011181273 0.050906133 -0.0031322856 0.027329264
0001a0 42 51 13 3d 29 a9 cf bc 65 58 38 3d 19 78 50 bd
       0.035966165 -0.025349217 0.045006175 -0.050895784
0001b0 c2 a9 98 bc cb 3e 4d bc 15 0c 0e bd 8c 03 35 bd
       -0.018635634 -0.012527178 -0.03467949 -0.044192836
0001c0 b2 c3 c9 bc 13 23 ba 3b 32 2e 10 3d b2 f3 0c 3d
       -0.024629448 0.0056804507 0.035200305 0.034412093
0001d0 eb d1 6b bc c8 5f aa 3c 6d 39 86 3c 05 bf 1f 3d
       -0.01439331 0.020797625 0.016384805 0.03900053
0001e0 9e 95 d3 3c 83 04 09 bd 59 e8 da bc 2d a8 55 bd
       0.025828179 -0.03345157 -0.02672212 -0.052162338
0001f0 c9 77 b1 bb 0e d1 4f 3d 46 5d 79 bc d7 62 43 3d
       -0.005415891 0.05073648 -0.015219992 0.047701683
000200 ba f5 58 bb cc 2d 99 3c a1 75 71 3b 6e 2f e7 bc
       -0.0033105449 0.018698595 0.0036843794 -0.028220858
000210 ee 80 f0 3b 6b b5 52 3d f0 75 26 bd bd d3 57 bc
       0.0073395884 0.051442545 -0.040639818 -0.013173041
000220 3f 7e e5 3c 7e 3d 15 bd 96 29 4e bd 7f e9 44 bd
       0.0280143 -0.036435597 -0.05033263 -0.04807424
000230 20 7b db 3c a1 14 f2 bc d0 3f 8d bc 61 21 fc 3c
       0.026792109 -0.029550852 -0.017242342 0.030777635
000240 de e2 d0 3c 94 15 0b 3d 4b 35 07 bd 4e 3d 23 bc
       0.025498804 0.033956125 -0.03300981 -0.009963347
000250 3a 7b 0f 3d 6b 6f e0 bc 42 4b 3d bd d5 35 da bc
       0.035029627 -0.027396878 -0.04621435 -0.026636997
000260 0a 43 c3 bc 2f f2 bd 3c a3 e4 f1 3c 53 16 4d bd
       -0.023835678 0.023186771 0.029527968 -0.05007012
000270 af 42 9d bb d9 41 0c 3d f4 f2 48 bd 3a 9b 13 bd
       -0.004799209 0.034242485 -0.049059823 -0.036036707
000280 dd 51 da 3c 0c d8 b6 3c 46 1f 2b 3c a5 96 a4 3c
       0.026650364 0.022319816 0.010444468 0.020091364
000290 cf 62 b8 bc 72 e9 2f 3d c4 f3 31 3d 08 ab 86 bc
       -0.022508053 0.04294724 0.043445364 -0.016438976
0002a0 b7 83 24 3c e6 b9 93 bc 85 68 9f bb ed fb 57 3c
       0.010041169 -0.01803298 -0.0048647546 0.013182622
0002b0 76 91 1b 3c f0 8a 3c bd 9e 01 51 bc 05 22 64 bd
       0.00949513 -0.04603094 -0.012756733 -0.055696506
0002c0 6f ae 3d 3b d0 7f af bb e8 b2 33 3d c6 00 89 3c
       0.0028943082 -0.0053558126 0.04387179 0.016724002
0002d0 3d 27 96 bb d8 4f 48 3d c7 74 3d 3d 54 2e c6 bc
       -0.0045823143 0.04890427 0.046253946 -0.024192013
0002e0 d2 70 68 bd 18 04 1d 3d fe 05 fd bc d5 ae fc bc
       -0.05674822 0.038333982 -0.030886646 -0.030845085
0002f0 a6 91 1c 3d db 9b 09 bd 77 a8 7b bc e5 59 3b bc
       0.03822484 -0.0335959 -0.015359989 -0.011435007
000300 10 e8 c6 3c ba 7a d1 3c 5d e0 e4 bc ff 7c 43 3c
       0.024280578 0.025571216 -0.027939016 0.011931657
000310 2d 32 2a bb fc fc 4b bd 37 0b 46 3d 16 6c f7 bc
       -0.0025969849 -0.04980181 0.04835054 -0.030202907
000320 c7 fa 45 bd 7c 3a b7 bc c5 f3 8c 3c 7e cb 18 bd
       -0.048334863 -0.022366755 0.017206082 -0.03730344
000330 9e 32 70 bc 8d d6 30 3d 73 14 3a 3c f6 91 52 bd
       -0.014660506 0.04317336 0.011357415 -0.05140873
000340 03 94 bf bc 2c ce a9 bc d9 48 2f bd b3 01 29 bc
       -0.023386007 -0.020728193 -0.042794082 -0.0103153465
000350 1a cd 20 3d da df a2 bc 41 3c 8c 3b 36 59 43 bd
       0.0392581 -0.019882131 0.0042796438 -0.0476925
000360 26 ef 34 3d 90 82 1c bd be 65 38 3d b0 39 a1 bc
       0.044173382 -0.03821045 0.045018904 -0.019680828
000370 3f e2 07 bd 7f 4a dc 3c d6 26 23 3d d0 a7 b4 bc
       -0.03317475 0.026890991 0.03983196 -0.022052675
000380 ee 5b 9b bc 76 1c 33 bd e4 ce 3f 3d cf 98 30 bc
       -0.018964734 -0.043728314 0.046828166 -0.01077862
000390 a6 a8 30 3d a5 0f a4 bc b9 3d 9d bc 3a 86 d4 3c
       0.043129586 -0.020026991 -0.01919447 0.02594291
0003a0 36 29 0d 3d 5c 5d 3e bd d6 a1 23 bd 2c 73 a4 3c
       0.03446313 -0.046475753 -0.03994926 0.02007445
0003b0 52 b4 b8 bb 77 18 37 3c db 51 08 3d a7 77 ef bc
       -0.00563673 0.0111752665 0.03328119 -0.02923186
0003c0 da 85 91 3c 7d e9 26 bd d5 5d bc bc 01 ad f8 3c
       0.01776402 -0.040750016 -0.022993961 0.030355932
0003d0 ed 21 87 bc cc fa 07 bd 33 ed ee bc b4 be 11 3c
       -0.01649567 -0.033198163 -0.02916584 0.008895565
0003e0 0b 1d 38 3d 3a fa a0 bc 10 b5 79 bc 60 76 ba bc
       0.044949573 -0.019650567 -0.015240923 -0.022761524
0003f0 15 cb 02 bd e5 ec 68 bc d4 a3 ef bc 52 7d bc bc
       -0.031931955 -0.014216636 -0.029252924 -0.023008976

main.12.weight f4 [90, 180]
000000 7d fe 71 bd 44 0e e8 bc 86 6a 9b 3d 9a ca 06 bd
       -0.05908059 -0.028327115 0.07588677 -0.03290806
000010 ec 83 f9 bc 02 a8 8f 3c 98 46 ee bb 62 6e 16 bd
       -0.030458413 0.017536167 -0.007271599 -0.036726363
000020 78 17 62 3b 3c ee 9a bd 4e a6 83 3d 26 47 62 3d
       0.0034498852 -0.07564971 0.064282045 0.055243634
000030 65 1e 23 bd b3 5b 40 bd b5 bd 39 3d 75 22 a7 3b
       -0.03982391 -0.04696245 0.045346934 0.005100543
000040 b5 06 2e 3d f4 34 12 3d 62 04 d8 bc 24 02 77 bc
       0.042486865 0.03569503 -0.026369277 -0.015076194
000050 3b f1 66 3c 27 a0 e3 bc ef bf 6a 3c 39 00 4c 3d
       0.0140956 -0.027786328 0.014327987 0.0498049
000060 15 1c 21 bd 99 d4 66 3c 94 d2 3d bd d1 63 89 bd
       -0.03933342 0.014088773 -0.0463434 -0.067084916
000070 f0 82 2e bd 5b af d8 bc 98 d9 f7 3c 54 ca cb bc
       -0.04260534 -0.026450804 0.030255124 -0.024876751
000080 98 48 f7 3c e1 9f 80 bd 2d 5f 8c bd 09 b2 bf 3c
       0.030185983 -0.062804945 -0.06854091 0.023400323
000090 8a f6 9d 3c 51 96 b6 3c 69 be 81 3d 93 17 70 bc
       0.019282598 0.022288473 0.06335146 -0.014654058
0000a0 99 27 03 bd 08 eb 84 3d 47 c1 9d 3c c6 20 26 3d
       -0.032020185 0.06490141 0.0192572 0.0405586
0000b0 6a e1 8e 3d e9 8b 47 bd c8 2d 21 3d 2c 7f 1b 3d
       0.06976588 -0.048717413 0.0393503 0.037963077
0000c0 c2 92 bf 3a f9 06 76 3d c7 25 f9 bc d2 9a 8f 3d
       0.0014615881 0.060065243 -0.030413521 0.070119515
0000d0 a4 cf 5f bd c2 b3 97 3d 74 69 08 3d 64 36 8a 3d
       -0.05464138 0.07407333 0.033303693 0.067486554
0000e0 55 96 95 bc 64 7e 01 3d 98 31 2b bd ac 71 91 3d
       -0.01826016 0.031614676 -0.041795343 0.07101759
0000f0 31 8b 7c 3d 1d e6 46 bd bd 5a 2f 3d 2e 9f a3 3d
       0.06165618 -0.048559297 0.042811144 0.079893455
000100 2f 67 89 3d 83 26 cf bb 2d ab 40 bd 0d ce 0c bc
       0.06709134 -0.0063217296 -0.047038246 -0.008594048
000110 a1 25 82 bd c9 46 32 bc dd 83 fb 3c c4 25 83 3d
       -0.063548334 -0.010881134 0.030702526 0.064036876
000120 41 b3 93 3d a2 80 63 bd ef 64 5d bd 7f 55 ab 3a
       0.07211924 -0.055542596 -0.054051336 0.0013071744
000130 64 ce 8e bd 57 93 9c bd 85 e4 31 3d 5c 78 48 3b
       -0.0697296 -0.0764529 0.043430824 0.0030589318
000140 17 3a 58 3d b5 d9 47 3c f1 12 1e bd 89 b9 50 bd
       0.052789774 0.0121979015 -0.038592283 -0.05095819
000150 e0 da 7a 3d da 81 4b bd 60 fe 99 bc 78 13 81 3c
       0.06124389 -0.049684383 -0.018798053 0.015756354
000160 90 bb 66 bd b9 e8 5b bd d4 e7 7a bd 4c ff 5d bc
       -0.056331217 -0.05368874 -0.061256245 -0.013549637
000170 b6 30 8f bd be ae b2 3b 76 bf 93 bd bf c4 01 3c
       -0.06991713 0.00545296 -0.07214253 0.007920443
000180 a8 d2 5c bc 9b e1 9d 3d 10 96 f1 bc 6c 45 f0 bc
       -0.013477959 0.077090465 -0.0294905 -0.029329978
000190 3d 1c 5f 3d 5c b4 d0 bb 9a 42 6e 3d 18 8d 0d bd
       0.05447029 -0.0063691568 0.058168985 -0.034558386
0001a0 ec e3 80 3c d0 ce 96 bd 55 5a 98 bc ba c5 bc bc
       0.015733682 -0.07363665 -0.018597761 -0.023043502
0001b0 c9 cf ab 3c 57 c4 d9 3c 06 64 2f 3d 9b f5 41 bc
       0.020973103 0.02658288 0.04282 -0.011838342
0001c0 de 8f 5a 3d 5a a5 58 3d c0 85 72 3d 7f 17 db 3c
       0.05335986 0.052892067 0.059209585 0.026744602
0001d0 66 45 ff bc 33 3a c2 bc 2d c6 9b 3c c2 a4 b0 3c
       -0.031161021 -0.023709392 0.019015396 0.021562938
0001e0 88 5d bf bc e6 1e 82 bd b2 f3 3a 3d f0 e7 93 bd
       -0.023360029 -0.0635355 0.045642562 -0.07221973
0001f0 45 fc 99 3b 4e 58 09 bc 29 a7 19 3d b2 92 0f 3c
       0.0046992623 -0.00838287 0.037512932 0.008763002
000200 19 9e a8 3c 5c eb b9 bc 31 4f 45 3d de 3c b6 bc
       0.0205832 -0.022695236 0.048171226 -0.02224582
000210 4d 72 61 3d c9 df 27 3d d9 08 91 3d a4 58 62 bd
       0.055040646 0.040984903 0.07081766 -0.055260316
000220 b5 28 06 3d 17 95 44 bd 05 2d 15 bd 5c 16 85 3d
       0.032753665 -0.047993746 -0.036419887 0.06498405
000230 8c 66 4a 3d cd ed 81 3d 58 8f a0 3c 26 50 84 3d
       0.049414203 0.06344185 0.019599602 0.064605996
000240 2e 9d d2 bc a6 17 99 3d 39 dd 80 bb fd 74 62 3d
       -0.025709715 0.07475214 -0.003932622 0.05528735
000250 ee f3 33 3c 46 fe 07 ba ff bc 2c bd f3 c9 7e bd
       0.01098345 -0.0005187731 -0.04217243 -0.062204313
000260 cf 8b 7b bd 46 7e 80 3d 0e 51 2a bd 23 e1 77 bd
       -0.06141263 0.06274085 -0.041581206 -0.06051744
000270 dc 3f 8d 3d 43 f3 d6 bc 7c 54 62 3c 64 c4 25 bd
       0.06896946 -0.026239043 0.013814088 -0.040470496
000280 63 f6 77 3d de 72 8a bc 53 60 80 3d 85 61 f9 3b
       0.060537707 -0.016900476 0.062683724 0.007610502
000290 91 9e a9 3c cf a9 7b 3d 2f 2e 65 bd 65 14 a7 3c
       0.020705493 0.06144124 -0.055952247 0.020395467
0002a0 8d 53 72 3d 13 61 76 bd 7d 34 35 3b b4 ee fa 3c
       0.05916171 -0.06015117 0.0027649694 0.0306314
0002b0 13 79 29 3d b6 4f 07 3d b1 cf 7c bd 76 b2 0f bd
       0.04137523 0.033035003 -0.061721507 -0.035082303
0002c0 86 9a 35 3a 78 8b c3 3c 6f e2 2e bd ba 00 51 bd
       0.0006927628 0.023870215 -0.042696413 -0.051026084
0002d0 70 8f 7e 3b 5e 3b 11 3d af 56 c5 bc 29 50 85 bd
       0.003884282 0.035457008 -0.024089186 -0.0650943
0002e0 a6 df 6a bc 55 18 d8 bc 8e a0 97 3d ed 6d 87 3d
       -0.0143355485 -0.02637879 0.0740367 0.066127636
0002f0 df 2d 4d bc 8f e3 91 bd 09 5d 59 bd e6 1c 06 3d
       -0.012523144 -0.071234815 -0.05306724 0.032742403
000300 8e 2a 11 3d f3 91 3f bd e7 fb 16 bd 76 fe a2 3d
       0.035440974 -0.046770047 -0.036861327 0.07958691
000310 00 90 01 bb 46 8d 86 3c 5f 4a 76 3c af 03 5c 3d
       -0.0019769669 0.016424786 0.01503238 0.05371445
000320 65 4d dd 3a 89 0d 0a 3d db fc 26 3a c2 dd 4e 3a
       0.0016884027 0.033704314 0.0006370076 0.0007891321
000330 01 e1 aa 3c d1 2b b2 3d bd 8b 0f 3d 3d b7 8d bc
       0.020859243 0.086997636 0.035045374 -0.017299289
000340 40 3f 89 3c d7 11 5c 3d 7f d1 a6 bb 1d 7b 88 bb
       0.016753793 0.05372795 -0.005090892 -0.004165067
000350 41 31 5a bd 27 d3 39 3d 1b 08 86 3d 13 a2 93 3d
       -0.05326963 0.045367386 0.06544515 0.072086476
000360 74 f2 0d 3d 54 77 a3 bb 8e c1 e0 3c 26 c2 21 3d
       0.03465505 -0.0049885903 0.027436044 0.039491795
000370 e3 7b 98 bd c2 8e 58 3c 42 21 87 bd 7f 1f 52 3d
       -0.074455045 0.01321763 -0.0659814 0.05129957
000380 17 e1 82 3d e2 21 3d bd 51 a1 44 3d 3d 36 b5 3d
       0.06390589 -0.04617489 0.048005406 0.08848236
000390 ce e3 b3 3d 7b 84 aa bc 4f e1 b8 bc e7 4c 88 bd
       0.08783685 -0.020815125 -0.022568373 -0.06655293
0003a0 7b 69 ca bc 84 e7 16 3a 51 76 70 3d 1f 0d 3e 3d
       -0.0247085 0.00057565444 0.058706585 0.046399232
0003b0 e8 10 a2 3d 20 11 6c 3c 1f e8 87 bd f0 db ad bb
       0.07913381 0.01440838 -0.066360705 -0.0053057596
0003c0 d4 b3 69 bd 1a 47 83 ba 2c ee 16 3d 61 0b 37 3d
       -0.057056263 -0.0010015697 0.036848232 0.044688586
0003d0 04 93 7d 3c b6 b8 a0 3d 78 9c 21 3d 57 47 5e 3d
       0.015476946 0.07847731 0.03945586 0.054267254
0003e0 6c 0c 8f 3d e6 eb 90 bd 2f 9f 8a bd 39 5f 03 bd
       0.06984791 -0.07076244 -0.06768643 -0.032073233
0003f0 26 51 5d 3c 2a 2b 15 bc 00 b4 b7 bc 4c 4f a8 3c
       0.013508117 -0.009104529 -0.022424698 0.020545624

main.14.weight f4 [45, 90]
000000 e1 8f 15 bd 4c 8a e5 3c 6c aa 5f 3d 5f db b1 bd
       -0.036514167 0.028020047 0.054605886 -0.0868442
000010 df 91 6a bd 17 e1 38 3d 22 46 26 bd 0f 80 36 3d
       -0.05726802 0.045136537 -0.040594228 0.04455572
000020 da 0f d1 ba cc 69 d9 bd 47 ab 9a b9 d3 cc 98 3d
       -0.0015950159 -0.10615882 -0.0002950078 0.07460942
000030 cb f4 9b 3c fe 71 8b bd a9 5b 08 bd ee 4c 53 bc
       0.019037625 -0.06808852 -0.03329054 -0.012896759
000040 9d 0d 8c 3d f8 7f 2d bc cb 05 cd bd ef 95 bc 3d
       0.06838534 -0.010589592 -0.100108705 0.09208285
000050 28 d0 95 bd 85 ba 36 3d 12 c1 73 3c 0c 6f bd bd
       -0.07315093 0.044611473 0.0148775745 -0.09249696
000060 af ec 67 bd 28 df ce 3d 59 07 66 3d d6 73 eb bc
       -0.056622203 0.101011574 0.05615935 -0.028741758
000070 f4 1d 54 3d d8 85 a6 bd 06 20 06 bd cb 90 15 bd
       0.051786378 -0.081309974 -0.032745384 -0.03651504
000080 ea 36 a3 3d 77 ab a5 3d 5d 88 aa bd 38 f8 b2 3d
       0.079694584 0.08089345 -0.083267905 0.0873875
000090 5f fe 5a 3d 4e 1c a2 3c b0 6c 1d bc 45 4a 08 3c
       0.053465243 0.019788887 -0.009608433 0.0083184885
0000a0 2a 96 c0 3d 5e 80 c5 bd 87 44 a4 bc df 92 96 bd
       0.094036415 -0.09643625 -0.020052208 -0.07352232
0000b0 3e 80 77 bd e7 4b b6 3d 36 5e 5a bc 6b 5d 46 bd
       -0.060425036 0.08901196 -0.013328126 -0.048428934
0000c0 2c 39 97 bc 87 a8 21 bd ad b8 af bd 27 35 d9 3c
       -0.018459879 -0.03946736 -0.08580146 0.026514603
0000d0 1c 1e 8a bc 21 1c dc bd 08 d2 7f 3d bc c4 7e 3d
       -0.01686006 -0.10747553 0.06245616 0.06219934
0000e0 3e 81 59 bc dc f2 d5 3d 20 b5 cf bd 3c 66 c8 3d
       -0.013275443 0.104467124 -0.10141969 0.09785125
0000f0 03 36 aa 3d f0 af 1b 3d ba 65 ec bd 94 cf 64 bc
       0.08311083 0.038009584 -0.1154284 -0.013965506
000100 3a 60 17 bd 6b b7 89 bd 49 eb 84 3d dd 38 3b 3d
       -0.036957003 -0.06724437 0.064901896 0.045708526
000110 67 40 a0 bd ab 9f 5e bd 8d 36 5e bd 00 76 1e 3d
       -0.07824784 -0.05435149 -0.054251242 0.038686752
000120 11 ff 84 bd 9c 03 82 3c 7f 7f a0 3d 9d b5 29 3d
       -0.064939626 0.015870862 0.07836818 0.041432966
000130 e5 0d 00 3e 84 8d e6 3c 50 8a a0 3d 78 e6 2f 3d
       0.125053 0.028143652 0.07838881 0.0429444
000140 30 69 1b bc 70 62 43 bd 00 41 b2 bb 6c ac 58 39
       -0.009485528 -0.0477013 -0.0054398775 0.00020663597
000150 06 6d b3 bc f2 b4 92 3d fa 54 88 bb 23 be a8 bd
       -0.021902572 0.07163419 -0.0041605206 -0.08239391
000160 55 dd da 3b a6 f5 88 3d ff 1d b0 3d 5a f6 5e 3d
       0.006679217 0.06687479 0.08599471 0.054434158
000170 ae 94 7a bd 50 29 71 bd 75 3c a8 3d 4a 3f ee bd
       -0.06117695 -0.05887729 0.08214656 -0.11633165
000180 96 2e 66 3c c7 80 b5 3d b4 ee ef bd 06 bd 21 bc
       0.014049193 0.08862453 -0.11715451 -0.009871727
000190 e7 3a f2 bd ee 5e 23 3c 23 f9 04 3e d3 7a a5 bd
       -0.11827641 0.0099713635 0.12985663 -0.080800675
0001a0 37 78 2d 3d 1b 5a 17 bd 90 94 75 3d d1 19 0b 3e
       0.042350974 -0.036951166 0.059956133 0.13584067
0001b0 be 52 20 bd ec c6 1d 3d 0a 90 b9 bd 2e 44 02 be
       -0.03914141 0.038519785 -0.090606764 -0.12721321
0001c0 f1 14 22 be 37 f5 8b 3d 38 e1 76 bb d4 61 cd bd
       -0.15828301 0.068338804 -0.0037670862 -0.10028425
0001d0 ea 5b 3f bd d8 e7 fb 3b 89 3a 43 3c 2b 10 f1 3d
       -0.046718515 0.00768755 0.011915811 0.11770662
0001e0 72 24 d7 bd b6 0c b9 3c 88 f2 9b bc a4 e0 16 bc
       -0.10504998 0.022589069 -0.019036546 -0.009208832
0001f0 2a a7 74 bb bf 8a 19 be f6 5b a9 3d 6b cb ab bd
       -0.0037331083 -0.14994334 0.08269493 -0.08388408
000200 3f e0 9d 3d c1 5e 93 3c 9e c8 97 3d 5f 11 b0 3d
       0.07708787 0.017989518 0.074113116 0.08597063
000210 a9 a1 05 be 1a e6 00 bd c9 9c 44 3c c9 3b 92 bc
       -0.1304995 -0.031469442 0.012000271 -0.017850773
000220 34 af 49 3d dc ff 82 3d 8a 67 3e 3e 6a 64 10 3d
       0.049239352 0.063964576 0.18594185 0.035252012
000230 21 e1 a0 bc 14 43 18 3e 5a eb b7 bd 43 42 9c bd
       -0.0196386 0.14869338 -0.089804366 -0.07629826
000240 da 63 92 3d fc ab 08 3d db 10 02 3e c0 c3 2d 3e
       0.071479514 0.033367142 0.12701742 0.16969204
000250 f8 bc 47 3e 90 ee 85 bd 9a 05 1b 3d 42 9c b8 bc
       0.1950568 -0.06539643 0.03784714 -0.022535447
000260 d6 09 93 3d d5 30 51 bd 40 17 e1 3c 88 6f a5 3b
       0.071796104 -0.05107196 0.027476907 0.005048696
000270 46 83 a7 bd 97 0d 13 3d 5d a5 95 3d 8a e1 9c 3d
       -0.08179335 0.035901632 0.07306931 0.07660206
000280 5f de be 3d 80 09 a5 bd 20 21 ed 3d f5 fa d6 bc
       0.09319758 -0.080584526 0.11578584 -0.026242713
000290 86 b9 57 bd a6 45 90 3b 5f 8e 62 bd 9d cf ad 3d
       -0.052667163 0.004402834 -0.055311557 0.08486865
0002a0 00 e9 99 bd 82 0c a6 bd 36 e1 ea bc e3 2e 94 bd
       -0.07515144 -0.081078544 -0.028671842 -0.072355054
0002b0 f2 03 2e 3d 02 5f 3a 3e 45 c7 b9 bd 14 c5 b3 bd
       0.04248423 0.18200305 -0.09071211 -0.08777824
0002c0 1c 73 fc bc 45 76 93 bc fc 02 55 3d 7e 99 19 3d
       -0.030816607 -0.018000731 0.0520048 0.037499897
0002d0 76 da ae 3d 34 7e 4f 3c 3c 88 cb bd 2a 8f ea 3c
       0.08537762 0.0126643665 -0.09938094 0.02863272
0002e0 8a 74 c2 3b e2 28 d9 bd 78 7e a6 3d 5f 45 33 bd
       0.0059343027 -0.10603501 0.08129591 -0.04376733
0002f0 81 7c 94 3d ab 1c 79 bd 9e 44 17 bd c1 0c 7c 3d
       0.0725031 -0.060818356 -0.036930673 0.0615356
000300 2f 6b 13 bd 34 cf 5d 3d 78 43 af bd 57 ce fe 3b
       -0.03599089 0.054152682 -0.085577905 0.0077760625
000310 7a f5 f5 bc 25 0a 8f 3d 48 3c b1 3d ec af da bd
       -0.030024279 0.06984357 0.08654076 -0.10678086
000320 d8 f0 b7 3d f8 bf bd 3d 71 cb 9e 3d 56 9a 16 bd
       0.08981484 0.09265131 0.07753647 -0.03676828
000330 dc de 29 3c 7d 39 e5 bd 42 ec b1 bc c8 d6 54 3c
       0.010368075 -0.11192606 -0.021719102 0.012990661
000340 3a 37 89 bc fe 29 ec bc 67 c7 9c bd 96 7e 5c 3d
       -0.016749967 -0.028828617 -0.076552205 0.05383166
000350 41 41 8b 3d 11 08 81 bd dd 7c af bc 6e d9 2f be
       0.067995556 -0.06300367 -0.021421844 -0.17172787
000360 68 ae 8e bb 79 90 94 bd ba 88 c4 bd cf e6 12 3c
       -0.004354287 -0.072541185 -0.09596391 0.008966162
000370 6b 95 7e 3d b2 7c cd bd 31 5c a4 3d 7f 52 0a bd
       0.062154215 -0.10033549 0.080253966 -0.03377008
000380 1f 7b c3 bd 2e 03 93 3d 4c ba 8d bd 77 07 e1 3d
       -0.09544968 0.07178341 -0.06920299 0.10987752
000390 93 46 97 3d fc 29 bc 3d 2c 53 0f 3d 0e 8d 81 3c
       0.07386508 0.091876954 0.03499143 0.01581433
0003a0 98 00 eb bd 47 70 b0 bd 9f a4 a7 3d 27 fc cc bd
       -0.114747226 -0.08615165 0.08185696 -0.10009032
0003b0 e1 5b 08 3e 4c db 6f bd 8a 28 1d 3e d9 0f 68 bd
       0.13316299 -0.058558747 0.15347496 -0.05665574
0003c0 18 53 96 3b fc 2d 60 bd 42 23 11 3c 50 e6 5c 3d
       0.0045875423 -0.054731354 0.008858504 0.05393058
0003d0 59 69 93 3b 99 fd 3a 3c 42 d3 4a bd 18 cc bb 3c
       0.0044986424 0.011413001 -0.049517877 0.022924468
0003e0 0b 35 a6 3d f1 7e a2 bc 2b e8 96 3d 50 84 d4 bd
       0.08115586 -0.019835921 0.07368501 -0.10376799
0003f0 83 dc 41 bd d6 08 99 3d 72 e1 da bc 17 36 be bd
       -0.047329437 0.074723884 -0.026718829 -0.092876606
