src/models/spaghettiAlPestoETonno.pth (torch, 902149 bytes, 28 tensors)

main.1.weight f4 [8, 3, 5, 5]
0	0x3dafd137	0.085848264
1	0x3d8814b3	0.06644573
2	0x3dc0aa6e	0.09407507
3	0xbcbaaaab	-0.022786459
4	0xbda535d3	-0.08066907
5	0x3c891723	0.016734665
6	0xbc9b51ac	-0.018959843
7	0x3dd299b3	0.10283222
8	0x3dd009d1	0.10158122
9	0xbe00bca2	-0.12571958
10	0xbdd9f6c2	-0.106427684
11	0xbd1a3d92	-0.037656374
12	0x3dd6a19a	0.10480042
13	0x3d1fb444	0.038990274
14	0xbe2e0789	-0.16995062
15	0xbd6df422	-0.05809415
16	0x3d9be2c6	0.07611613
17	0x3de604fe	0.11231421
18	0x3dc87140	0.09787226
19	0x3db180dd	0.08667157
20	0x3d1ad902	0.03780461
21	0x3c9b39e3	0.018948501
22	0x3e3d1fa2	0.18469098
23	0x3df8a44b	0.121407114
24	0x3d31df61	0.04342592
25	0xbda46606	-0.08027272
26	0xbcaace86	-0.020850431
27	0x3e0a8940	0.13528919
28	0x3ddf9de5	0.10918788
29	0x3bdcde7a	0.0067403885
30	0x3d0ebf0d	0.03485017
31	0xbd788009	-0.06066898
32	0x3db097dd	0.086227156
33	0x3c518da9	0.012790122
34	0x3de6b94a	0.1126581
35	0xbdda25d9	-0.1065175
36	0x3d90fb87	0.07079225
37	0x3e299663	0.16561274
38	0x3d7a84af	0.061161693
39	0x3a2ef363	0.00066738407
40	0x3da541ba	0.08069177
41	0x3d8dd01b	0.069244586
42	0x3cad4cf0	0.02115485
43	0x3d2682c8	0.040652066
44	0xbdc68e68	-0.096951306
45	0xbdee97b1	-0.116500266
46	0x3cf58d09	0.029974477
47	0xbc422a03	-0.011850837
48	0xbd34b009	-0.044113193
49	0xbd2f1bcc	-0.04275112
50	0xbd16ea74	-0.036844686
51	0xbda7797a	-0.08177467
52	0xbd204e88	-0.039137393
53	0xb9fa594d	-0.0004775025
54	0x3cf99bdc	0.030469827
55	0xbd2a0cf7	-0.04151627
56	0xbd82ee1f	-0.06393074
57	0xbe092b8a	-0.13395515
58	0xbc65c50c	-0.01402403
59	0xbcc2a6a0	-0.023761094
60	0x3cd14b2a	0.025548536
61	0x3dfa2024	0.122131616
62	0x3e05f963	0.13083415
63	0x3e06853a	0.1313676
64	0x3d029b1a	0.031886198
65	0xbb834f52	-0.0040072585
66	0x3de1b6a0	0.11021161
67	0x3dc246c5	0.094861545
68	0xbb11f2e5	-0.002227002
69	0xbd1a2997	-0.03763732
70	0x3defcb4d	0.117086984
71	0xbca88f38	-0.020576105
72	0xbc844edd	-0.016150886
73	0x3de6cc7b	0.1126947
74	0xbd240952	-0.04004795
75	0x3dd90ee1	0.10598541
76	0x3dce608c	0.100770086
77	0xbd4ecb82	-0.05048705
78	0x3e0100d5	0.12597974
79	0x3df60d8b	0.12014302
80	0xbd1e7ac2	-0.03869129
81	0x3dd39a06	0.10332112
82	0x3deadfa7	0.114684395
83	0x3e3ed131	0.18634488
84	0x3e4dcd63	0.2009788
85	0x3d8de5df	0.0692861
86	0x3dd5488d	0.104142286
87	0x3d65ec6d	0.056133676
88	0x3de90139	0.11377186
89	0x3e19869f	0.1499276
90	0xbd76d2ef	-0.060259756
91	0x3d8b600e	0.0680543
92	0x3cabb323	0.020959442
93	0x3a441184	0.00074794167
94	0x3d95db87	0.07317262
95	0xbdb8a183	-0.09015181
96	0x3be5a4cb	0.0070081702
97	0x3e589e82	0.21154216
98	0x3da0abb9	0.078452535
99	0x3e4cd493	0.20002966
100	0xbd938822	-0.072037
101	0x3d7466ab	0.059668224
102	0x3d59b7e0	0.053153872
103	0x3da0811c	0.07837126
104	0x3cdace8b	0.026709815
105	0x3d8b6a34	0.06807366
106	0xbdce24db	-0.100656234
107	0xbd2aae5b	-0.041670185
108	0x3b998df9	0.004686114
109	0x3d45f5a8	0.04832998
110	0x3d8db0d6	0.069184944
111	0xbd91a3d1	-0.071113236
112	0x3d53e823	0.051735055
113	0x3cca4421	0.02469069
114	0x3d0c93ab	0.034320515
115	0x3d9ffdd6	0.07812087
116	0xbd4ef0d9	-0.05052266
117	0xbcd61061	-0.026130857
118	0x3d78402f	0.060608085
119	0x3d24d251	0.040239636
120	0xbc8360e1	-0.016037406
121	0x3d9f651f	0.07782959
122	0x3d6f5d14	0.058438376
123	0x3d985187	0.07437425
124	0x3e2818a6	0.16415653
125	0x3df35949	0.11882264
126	0xbd8ba917	-0.06819361
127	0x3d59190f	0.053002413
128	0xbad6e086	-0.0016393817
129	0xbcbf780a	-0.023372669
130	0xbd5f753c	-0.054555163
131	0x3de111ea	0.10989745
132	0x3d221ae9	0.039576445
133	0x3c66c6a8	0.014085449
134	0x3e2c1421	0.16804554
135	0x3cf4ab62	0.029866878
136	0x3d67a8f4	0.05655761
137	0x3e0ee7d4	0.13955623
138	0x3e08ed70	0.13371825
139	0x3e3c7d76	0.18407235
140	0xbdbc8188	-0.092043936
141	0xbda25cb8	-0.07927841
142	0x3dfae2ce	0.12250291
143	0x3e0ebbae	0.13938782
144	0x3db0a9eb	0.08626159
145	0x3e0b4aba	0.13602725
146	0x3d5eb46b	0.05437128
147	0x3dfa07e3	0.122085355
148	0xbddcdb3b	-0.107840024
149	0x3d79d048	0.060989648
150	0xbe0b8360	-0.13624334
151	0xbd96b3d4	-0.07358518
152	0xbdc10076	-0.09423916
153	0xbd2242e9	-0.03961459
154	0xbd1da8bd	-0.038491
155	0xbaea0b5f	-0.0017856172
156	0x3daa15de	0.08304952
157	0x3cba3098	0.02272825
158	0xbc4a92f9	-0.012364143
159	0xbdf53ff5	-0.119750895
160	0xbdb3dd33	-0.08782425
161	0xbdcd4db6	-0.10024588
162	0x3dda292a	0.10652383
163	0xbd6728e8	-0.056435496
164	0xbdf37403	-0.11887362
165	0xbdade5d0	-0.08491099
166	0x3c800d51	0.01563135
167	0xbd58e4aa	-0.052952446
168	0xbe29000e	-0.16503927
169	0x3d4b6abb	0.049662333
170	0x3bb89d47	0.0056339833
171	0xbe0718ee	-0.13193104
172	0xbd627f96	-0.055297457
173	0x3d5726c1	0.052527193
174	0x3dae2793	0.08503642
175	0x3dbedc0b	0.093193136
176	0xbd9a03cb	-0.07520255
177	0x3d798a51	0.060922924
178	0xbd660712	-0.056159087
179	0xbdb53eeb	-0.08849891
180	0x3df402ba	0.119145826
181	0x3c64b4e6	0.013959145
182	0x3cb9eb1b	0.022695115
183	0x3c552708	0.013009794
184	0xbddb1417	-0.10697191
185	0xbcc30e9d	-0.02381068
186	0x3dde43c7	0.10852771
187	0x3e081280	0.13288307
188	0xbdbc2944	-0.09187558
189	0x3d091b37	0.03347322
190	0x3bd4626e	0.0064814603
191	0xbdd73f3f	-0.1051011
192	0xbd18cd14	-0.037304953
193	0xbdb65778	-0.08903402
194	0xbe1fe9af	-0.15616487
195	0xbd500699	-0.050787542
196	0xbaf15704	-0.0018412773
197	0xbc7307cd	-0.014833403
198	0xbdb173e8	-0.086646855
199	0xbdc5710d	-0.09640703
200	0xbd70529e	-0.05867254
201	0x3c09d312	0.0084121395
202	0x3b51b812	0.0032000584
203	0x3c3b934f	0.011448695
204	0x3b9b01d4	0.0047304425
205	0x3d0d688b	0.034523528
206	0xbc1eb502	-0.00968671
207	0x3d42801e	0.047485463
208	0xbce61eb3	-0.02809081
209	0x3b4aa5f9	0.0030921681
210	0x3d4dd2d6	0.050249897
211	0x3d9df21c	0.07712194
212	0xbd0d3d27	-0.034482148
213	0x3ca3cdd7	0.019995613
214	0x3df1b169	0.118014164
215	0x3e2682d6	0.16260847
216	0x3d1bba3f	0.038019415
217	0x3d3ad68d	0.045614768
218	0xbd5241e7	-0.05133238
219	0x3d0a3caf	0.03374928
220	0xbce84220	-0.028351843
221	0x3d6b9049	0.057510648
222	0xbde27a31	-0.110584624
223	0x3d42c33a	0.047549464
224	0x3db2cf77	0.08730977
225	0x39f371bc	0.0004643331
226	0xbd52c9b6	-0.051461898
227	0x3c2c2a7d	0.010508177
228	0x3d186894	0.03720911
229	0xbda4fe22	-0.080562845
230	0xbc1c0ad2	-0.009524064
231	0x3de1dbeb	0.11028274
232	0x3c4ee9b4	0.012628961
233	0xbdc53381	-0.09628964
234	0x3c6d4821	0.014482529
235	0x3d6d48f6	0.05793091
236	0x3d4934c8	0.0491226
237	0xbd90baa0	-0.07066846
238	0x3d1cf5f7	0.038320508
239	0x3c0af568	0.008481361
240	0xbdf717b5	-0.12065069
241	0xbdc43a43	-0.09581425
242	0xbe22a778	-0.15884197
243	0x3c831e7e	0.01600575
244	0x3b2fa72e	0.0026802528
245	0xbcd6b100	-0.026207447
246	0xbd186864	-0.03720893
247	0xbcb008ed	-0.021488631
248	0xbcda4163	-0.026642507
249	0xbc15ef3a	-0.009151274
250	0xbe1326ed	-0.14370318
251	0xbd919c2a	-0.07109864
252	0xbda858e2	-0.08220078
253	0x3930023a	0.00016785497
254	0x3cbc6378	0.02299665
255	0xbe085aee	-0.13315937

main.3.weight f4 [16, 8, 3, 3]
0	0x3d98d19a	0.07461853
1	0x3c84af05	0.016196737
2	0xbd8d86d1	-0.0691048
3	0xbde855e7	-0.113445096
4	0xbd8a99b4	-0.06767598
5	0xbd5482cc	-0.05188255
6	0x3b352173	0.0027638345
7	0xbe053922	-0.13010076
8	0xbd869eb5	-0.0657324
9	0x3bbccd8f	0.005761809
10	0xbd4dda07	-0.050256755
11	0x3dbb1939	0.0913567
12	0xbd489c7b	-0.048977356
13	0xbe15b650	-0.14620328
14	0xbb6693e9	-0.0035183376
15	0xbe39f6f2	-0.18160608
16	0xbe354def	-0.1770551
17	0xbe39e5ba	-0.1815404
18	0x3d6f4c95	0.058422644
19	0xbe0caf68	-0.13738787
20	0xbd602f30	-0.0547325
21	0xbd9123fa	-0.0708694
22	0x3d7662e1	0.060152892
23	0x3adfa022	0.0017061273
24	0xbd48d673	-0.04903264
25	0x3d1eaeca	0.03874091
26	0xbd61fd0e	-0.055172972
27	0x3d8d7b79	0.06908316
28	0x3cd38615	0.025820771
29	0x3ce5b5fb	0.028040877
30	0xbd54ced0	-0.051955044
31	0x3bf61843	0.0075102164
32	0x3d7bc753	0.061469387
33	0x3d731854	0.059349373
34	0x3dd1d5aa	0.10245831
35	0x3d2f9e9f	0.042875882
36	0xbd433291	-0.047655646
37	0x3d7b2c1e	0.06132137
38	0xbd9a43df	-0.07532477
39	0xbda1fe94	-0.07909885
40	0x3db5e761	0.08882023
41	0xbd3cf296	-0.046129785
42	0xbe1d0048	-0.15332139
43	0x3e15ddea	0.14635435
44	0x3cda5fc6	0.026656996
45	0x3c933839	0.017971145
46	0x3dc22e59	0.09481496
47	0x3d2bc6fd	0.041937817
48	0x3c11e465	0.008904551
49	0x3b3e4d2d	0.00290377
50	0xbe0e48ae	-0.13894913
51	0x3dd7ae19	0.10531253
52	0x3d8b7068	0.06808549
53	0x3e076827	0.13223325
54	0x3c7be5ab	0.015374581
55	0x3df6bdae	0.12047897
56	0x3cfbce13	0.030737912
57	0xbd4c18ba	-0.04982827
58	0x3b946340	0.004528433
59	0x3d818aad	0.063252784
60	0xbd10b975	-0.035333116
61	0x3dc30ab5	0.095235266
62	0x3d172a54	0.0369056
63	0x3dc88c24	0.09792355
64	0x3e2914f8	0.16511905
65	0x3c93ae80	0.018027544
66	0x3e3d0836	0.18460163
67	0x3d99ea64	0.075154096
68	0x3dfdd9db	0.12395068
69	0xbb81c7a4	-0.0039605666
70	0x3c3b62f8	0.01143717
71	0x3d2f8f8e	0.042861514
72	0xbd529702	-0.051413544
73	0x3db45f68	0.0880726
74	0xbd58a51b	-0.05289183
75	0xbdcd2c3e	-0.10018204
76	0xbe000568	-0.12502062
77	0x3d04e59b	0.03244553
78	0xbd89c550	-0.067270875
79	0x3d9a511b	0.07535001
80	0x3d3822f9	0.044955228
81	0x3dc3f9af	0.09569108
82	0xbd3966be	-0.045264
83	0xbd045c29	-0.032314453
84	0xbe195ab3	-0.14976005
85	0xbdfebc1e	-0.12438224
86	0x3dbd0c80	0.092309
87	0xbde8311d	-0.113374926
88	0xbd31e785	-0.043433685
89	0x3dc9c07d	0.09851167
90	0xbdf1af11	-0.118009694
91	0xbdd589bf	-0.104266636
92	0xbd4c422f	-0.049867805
93	0xbdbb6076	-0.09149258
94	0x3e0bdd4a	0.13658634
95	0x3d986372	0.07440843
96	0xbda8e33c	-0.082464665
97	0xbce25f0e	-0.027633216
98	0x3d9fac48	0.07796532
99	0x3d084a06	0.03327372
100	0x3d088175	0.033326585
101	0xbd89b7b4	-0.06724492
102	0x3d90f827	0.07078581
103	0xbd5784ac	-0.05261676
104	0xbbbff95e	-0.0058585843
105	0x3e201059	0.15631236
106	0xbae0cd26	-0.0017150983
107	0xbe13c286	-0.14429674
108	0xbd60441b	-0.05475245
109	0x3ce0e6e5	0.02745385
110	0xbd65382f	-0.055961784
111	0xbda113e8	-0.07865125
112	0xbc916430	-0.017747968
113	0x3db96ae6	0.090535924
114	0xbdd90caf	-0.10598122
115	0x3bdb6291	0.0066950996
116	0x3e088538	0.13332069
117	0xbce36174	-0.02775643
118	0xbe21ea09	-0.15811934
119	0xbda7e6c6	-0.081983134
120	0xbd85d85a	-0.065354064
121	0xbd37628a	-0.04477171
122	0xbd128882	-0.035774715
123	0x3dcfc3d8	0.10144776
124	0x3df47ce3	0.11937883
125	0x3d29b712	0.041434355
126	0x3ce84c0b	0.028356573
127	0xbd606077	-0.054779496
128	0x3dc1df9f	0.094664805
129	0xbd5f1b2e	-0.05446928
130	0x3dccdb5e	0.100027785
131	0x3d8276d7	0.06370323
132	0x3d632d7b	0.055463295
133	0xbd83912f	-0.06424176
134	0x3c5e8164	0.013580654
135	0x3dab8e4e	0.08376752
136	0x3d9491e3	0.07254388
137	0xbc356aba	-0.011072809
138	0x3dda4ee5	0.10659579
139	0xbdea839d	-0.114508845
140	0x3d5b7280	0.053575993
141	0x3e0ac253	0.13550691
142	0x3ce689d5	0.028141895
143	0xbded4645	-0.115856685
144	0xbc4b1259	-0.012394511
145	0xbde7bc30	-0.11315191
146	0x3e069200	0.13141632
147	0x3dac1a68	0.08403474
148	0xbe25fb5a	-0.16209164
149	0xbe07fa69	-0.13279118
150	0xbd0ca1d3	-0.034334015
151	0xbe1e67ac	-0.15469235
152	0x3c8df044	0.017326482
153	0x3a1203ee	0.00055700436
154	0xbd16a4bd	-0.0367782
155	0x3dabd5f8	0.08390421
156	0xbde0719d	-0.1095917
157	0xbe242b9e	-0.16032264
158	0x3bc667e0	0.0060548633
159	0xbd3436ef	-0.0439977
160	0x3dcfbfc0	0.10143995
161	0x3d7e7036	0.06211873
162	0x3d37abfb	0.044841748
163	0x3baeadf1	0.005330794
164	0x3c0dcd9d	0.008654979
165	0x3d75a0f2	0.059967943
166	0x3ce4e0aa	0.02793916
167	0x3d323f0e	0.043517165
168	0x3ce4b0e3	0.027916377
169	0x3a9a1b08	0.0011757324
170	0xbdc1f674	-0.09470835
171	0xbd7f4f4b	-0.06233148
172	0x3e03d8df	0.12875699
173	0x3d3f7d69	0.04675046
174	0xbd0e9023	-0.03480543
175	0x3d1a7771	0.037711564
176	0x3c45eb6b	0.012080054
177	0xbd97e30a	-0.07416351
178	0x3dc3cb42	0.09560253
179	0xbda8c32b	-0.0824035
180	0xbd7bf957	-0.061517086
181	0xbd8b263c	-0.06794402
182	0x3d04801e	0.032348745
183	0xbd56fbff	-0.052486416
184	0xbd6fdde8	-0.058561236
185	0xbdb380d2	-0.08764805
186	0xbd99fd47	-0.07519012
187	0xbd3153f4	-0.043292955
188	0xbda51652	-0.08060898
189	0x3ded0825	0.11573819
190	0xbdfacc08	-0.12245947
191	0x3d1421df	0.036165114
192	0xbab4660c	-0.0013763322
193	0x3c6615d4	0.01404329
194	0xbde3d461	-0.111244924
195	0x3df1c4de	0.118051276
196	0xbcdc051a	-0.026857901
197	0xbdd2e084	-0.10296729
198	0x3dedaf69	0.116057225
199	0x3d12d761	0.035849933
200	0x3dad2895	0.08455006
201	0x3d84520c	0.06460962
202	0x3d6ef39f	0.058337804
203	0xbdc1d2df	-0.094640486
204	0x3cc739bc	0.024319522
205	0x3c658051	0.014007644
206	0xbdb01cc8	-0.085992396
207	0x3e0ee936	0.1395615
208	0xbe0e7162	-0.1391044
209	0xbe32dc97	-0.17466961
210	0x3db451fd	0.088047005
211	0xbad0da5d	-0.0015934218
212	0xbe19d6b1	-0.15023305
213	0x3dac312c	0.08407816
214	0xbc28d68f	-0.010305061
215	0xbdf35849	-0.118820734
216	0x3d86e28c	0.06586179
217	0x3dda1641	0.10648776
218	0x3d83c45f	0.06433939
219	0x3d0ba612	0.034093924
220	0xbd6e7e2c	-0.058225796
221	0xbb61ae22	-0.0034436067
222	0xbd56d8c7	-0.05245283
223	0x3d089f4d	0.033355046
224	0x3af13bd2	0.0018404669
225	0x3c82783d	0.015926475
226	0x3d72804f	0.059204396
227	0x3dcf5fb8	0.10125679
228	0x3d0832f6	0.033251725
229	0x3e026cbd	0.12736793
230	0x3e001fef	0.12512182
231	0x3db0e191	0.086367734
232	0x3ab121b4	0.0013514073
233	0x3dd73674	0.10508433
234	0xbdf91f20	-0.1216414
235	0xbd8bd45f	-0.06827616
236	0xbd5768cf	-0.052590188
237	0xbc8d022c	-0.01721295
238	0x3d5a09a4	0.05323185
239	0xbe6fd40a	-0.2342073
240	0x3da13e36	0.07873194
241	0xbd15a096	-0.0365301
242	0x3da6293f	0.08113336
243	0x3d7bddcc	0.06149082
244	0x3da251fa	0.07925792
245	0xbdb2b68b	-0.087262236
246	0x3db3af77	0.08773702
247	0xbdcc4155	-0.099733986
248	0xbcefff22	-0.029296461
249	0xbcc246da	-0.023715425
250	0xbded0c56	-0.115746185
251	0xbdd64c0e	-0.10463725
252	0xbd01c643	-0.031683218
253	0xbde5fd5a	-0.112299636
254	0xbdf11879	-0.11772246
255	0x3d17cfd0	0.03706342

main.4.weight f4 [16]
0	0x3f8b55d7	1.0885571
1	0x3f8a5393	1.0806755
2	0x3f944acb	1.1585325
3	0x3f561c32	0.8363677
4	0x3f5c9b40	0.8617439
5	0x3f5775fd	0.8416441
6	0x3f8f3aff	1.1189879
7	0x3f8a8517	1.0821866
8	0x3f6db203	0.9284975
9	0x3f889957	1.0671796
10	0x3f8a4012	1.0800803
11	0x3f83bc42	1.0291827
12	0x3f67dfb9	0.9057575
13	0x3f68c6c2	0.9092828
14	0x3f8e4676	1.1115253
15	0x3f87f957	1.0622967

main.4.bias f4 [16]
0	0x3c83ca05	0.016087541
1	0x3d74ddd2	0.059781857
2	0x3d340c42	0.043957002
3	0x3dc9ba63	0.098500036
4	0x3d719dac	0.05898826
5	0x3b10f047	0.0022115873
6	0x3ca9c872	0.020725463
7	0x3d279177	0.04091021
8	0x3d753bfa	0.05987165
9	0x3c6a2b5f	0.014292567
10	0x3d526fb0	0.051376045
11	0xbd1ce5f1	-0.038305227
12	0x3cd1d7e2	0.025615636
13	0x3e2956a8	0.16536963
14	0x3d6c1283	0.05763484
15	0xbcbb2364	-0.022844024

main.4.running_mean f4 [16]
0	0xbc34f3f4	-0.011044491
1	0xbb792939	-0.0038018955
2	0xbb9906d3	-0.004670003
3	0x3c15978c	0.00913037
4	0x3bd0ff24	0.0063780714
5	0x3bbe2dd4	0.005803803
6	0xbbd6cf72	-0.006555491
7	0xbbcc3530	-0.0062319264
8	0x3c079361	0.008274884
9	0xbae97880	-0.0017812401
10	0xbbed07e0	-0.007233605
11	0xbb5d3068	-0.0033750776
12	0x3abbd67d	0.001433089
13	0x3b7ad38e	0.003827307
14	0xbc168400	-0.009186745
15	0xbb92033b	-0.0044559515

main.4.running_var f4 [16]
0	0x3a2cbe42	0.000658963
1	0x38f73f77	0.00011789699
2	0x39322101	0.00016987698
3	0x39e54544	0.0004372989
4	0x3988573f	0.00026004945
5	0x39323504	0.00016995153
6	0x3986ead9	0.00025733447
7	0x395f1c75	0.00021277538
8	0x39d8608f	0.00041270672
9	0x38762160	5.8682053e-05
10	0x398a3d03	0.00026366868
11	0x39236e74	0.00015586038
12	0x382b893c	4.0897386e-05
13	0x390fda63	0.00013718898
14	0x39d0b77f	0.00039809567
15	0x3906e1b9	0.00012863324

main.6.weight f4 [32, 16, 3, 3]
0	0xbdb05904	-0.086107284
1	0xbbf2a761	-0.007405207
2	0x3e04f799	0.12985076
3	0x3db65c5e	0.089043364
4	0xbc4fbe55	-0.012679656
5	0x3e3310b0	0.17486835
6	0xbb69e18c	-0.0035687415
7	0xbd810d2b	-0.0630134
8	0x3bd5b868	0.006522227
9	0xbdb4bcd7	-0.08825081
10	0xbe0f71f1	-0.14008309
11	0x3b854dde	0.0040681204
12	0xbc9513f9	-0.018198
13	0xbd974d6d	-0.07387815
14	0x3dbc88b9	0.09205765
15	0xbcac340a	-0.021020908
16	0xbc6010fa	-0.0136759225
17	0x3c66712e	0.01406507
18	0xbcb9e328	-0.022691324
19	0xbd4e8ce8	-0.050427347
20	0xba1863ce	-0.0005813212
21	0x3c7dfe55	0.015502532
22	0xbe191873	-0.14950733
23	0x3e1a3f12	0.15063122
24	0x3d132cfa	0.035931565
25	0x3d27d004	0.040969864
26	0x3c83e36f	0.01609966
27	0x3d10bdba	0.035337187
28	0x3cbe49bd	0.02322852
29	0x3c5a5c6c	0.013327699
30	0x3c577eaf	0.013152762
31	0x3d60de92	0.05489976
32	0xbab7a029	-0.0014009523
33	0x3b679a86	0.0035339906
34	0x3d949fd6	0.07257049
35	0x3d828dc2	0.063746944
36	0xbdcf839a	-0.10132523
37	0x3d528626	0.051397465
38	0x3de6fa5f	0.11278223
39	0xbd459935	-0.048241813
40	0xbcdebc6a	-0.027189452
41	0x3cab77a0	0.020931065
42	0xbd55a650	-0.05216056
43	0x3d059959	0.032616947
44	0x3d41f109	0.04734901
45	0x3ca36842	0.019947175
46	0x3c3958e0	0.011312693
47	0xbc4ce39c	-0.012505438
48	0x3d2aa585	0.041661758
49	0xbc7d68c9	-0.015466877
50	0x3d666abf	0.056254145
51	0x3d8be37e	0.068305
52	0xbb9258a6	-0.004466134
53	0x3ddf6c96	0.10909383
54	0xbb1c1553	-0.002381642
55	0x3bb709d6	0.0055858893
56	0x3d6f3eb9	0.058409426
57	0xbc4eaa91	-0.012613908
58	0xbde27111	-0.11056722
59	0x3e101e07	0.14073955
60	0x3d228f98	0.039687723
61	0x3d7dd754	0.06197293
62	0x3e31b4c1	0.17354108
63	0xbd882a3a	-0.06648679
64	0xbd6c9c64	-0.057766333
65	0x3d8996fe	0.067182526
66	0x3ca64418	0.020296142
67	0xbd429b76	-0.04751154
68	0x3e2e46b6	0.17019162
69	0x3d104aef	0.035227712
70	0xbc9bd5fd	-0.019022936
71	0x3de58d46	0.112085864
72	0xbd24003b	-0.040039282
73	0xbcc0ed30	-0.0235506
74	0x3d2076aa	0.039175667
75	0x3d383fb4	0.044982627
76	0xbd4c142c	-0.049823925
77	0x3c61658d	0.013757122
78	0xbd1267e1	-0.035743598
79	0x3d6017d7	0.054710235
80	0xbba5d3d9	-0.0050606546
81	0xbd2cd74f	-0.04219752
82	0x3e0c5e23	0.13707785
83	0x3cfe8980	0.031071424
84	0xbc9441cc	-0.01809778
85	0xbddb79f1	-0.10716618
86	0x3d1b2a2a	0.037882008
87	0xbd1f6071	-0.038910333
88	0xbd5234c7	-0.051319864
89	0x3d126483	0.035740387
90	0x3b626ab6	0.0034548468
91	0xbd3a0f3e	-0.045424692
92	0x3d3382e6	0.043826006
93	0xbde44b51	-0.11147178
94	0xbd570707	-0.052496936
95	0x3b67a708	0.003534736
96	0xbd15898a	-0.03650812
97	0x3d2aa4e7	0.04166117
98	0x3db2271e	0.08698867
99	0x3d1c5e4b	0.038175862
100	0xbc80272f	-0.015643684
101	0x3de1ac33	0.110191725
102	0x3d432059	0.04763827
103	0x3d4f202d	0.050567795
104	0xbd703802	-0.058647163
105	0x3d3a6b32	0.045512386
106	0x3d1b9696	0.037985407
107	0x3c22ec1c	0.009943988
108	0xb88e4a33	-6.784908e-05
109	0x3db13744	0.08653119
110	0xbcf73a5d	-0.030179197
111	0x3d126ac6	0.03574636
112	0x3dea6486	0.114449546
113	0x3cc70398	0.024293706
114	0xbc0e3864	-0.008680437
115	0x3d19fd59	0.037595127
116	0x3d2fb7bf	0.042899843
117	0xbbfa94db	-0.0076471395
118	0x3dd39265	0.10330657
119	0x3df2cf13	0.118559025
120	0x3c787c90	0.015166417
121	0x3d6c60d9	0.05770955
122	0xbd677638	-0.056509227
123	0xbcd2d192	-0.025734697
124	0x3db44242	0.088017
125	0x3d13ede8	0.036115557
126	0xbda98098	-0.082764804
127	0xbc61eb42	-0.013789
128	0xbd157d60	-0.03649652
129	0xbcc7bb22	-0.024381224
130	0x3dcd2e0d	0.10018549
131	0x3df37cf4	0.11889067
132	0x398292e7	0.00024904983
133	0xbd60f823	-0.05492414
134	0x3c5eb792	0.013593571
135	0x3a9dc286	0.0012036122
136	0x3d2b30ac	0.041794464
137	0x3c307b31	0.010771559
138	0x3cd3f133	0.025871849
139	0x3d7c8476	0.061649762
140	0x3dbb3256	0.0914046
141	0xbca43e59	-0.02004926
142	0x3d322170	0.04348892
143	0x3d99364b	0.07481059
144	0x3d432904	0.047646537
145	0x3b05b868	0.0020404104
146	0x3c88da6d	0.016705716
147	0xbd8c8da5	-0.06862954
148	0xbc8a7f01	-0.016906263
149	0xbcfae06f	-0.030624596
150	0x3db692b4	0.089147
151	0xbdad1e8b	-0.08453091
152	0xbdc3ad26	-0.0955451
153	0xbc0966f5	-0.008386363
154	0x3d5f6010	0.05453497
155	0x3dfe6514	0.12421623
156	0x3d956e2b	0.072964035
157	0xbc25cb6f	-0.010119303
158	0x3dbb9b59	0.091604896
159	0xbdc9a086	-0.098450705
160	0x3d9d9b1b	0.076956
161	0xbdb09037	-0.08621257
162	0x3dd586bd	0.1042609
163	0x3dfe3163	0.124117635
164	0x3d68e6c4	0.0568607
165	0xbd8412ac	-0.06448874
166	0x3db91d20	0.09038758
167	0xbad4325e	-0.0016189327
168	0x3b053852	0.002032776
169	0x3d8f79ac	0.07005629
170	0x3c0a5556	0.008443197
171	0x3b3c9ec1	0.0028781148
172	0xbd3660f3	-0.04452605
173	0xbdc5e69d	-0.096631266
174	0x3d95e1d0	0.07318461
175	0xbb2f1979	-0.0026718064
176	0xbd5c1a76	-0.053736173
177	0x3d35a0f1	0.04434294
178	0xb91a1d5d	-0.00014697523
179	0x3d0e1de7	0.034696486
180	0xbd1a736f	-0.037707742
181	0xbdc81b69	-0.09770853
182	0x3d972298	0.07379645
183	0xbd3107b6	-0.043220244
184	0xbca9dac9	-0.020734208
185	0x3d1f632f	0.03891295
186	0x3cb16454	0.021654285
187	0x3d489fa1	0.04898036
188	0x3d9637c3	0.073348545
189	0xbdd9cdec	-0.106349796
190	0xbdc97aeb	-0.09837898
191	0x3d07f683	0.033194076
192	0x3c623565	0.013806676
193	0x3aede91c	0.0018151137
194	0x3da097e4	0.07841471
195	0x3d2f7852	0.042839356
196	0x3dbaa3b2	0.09113254
197	0x3e020896	0.12698588
198	0xbd0ef0eb	-0.034897726
199	0x3e355198	0.17706907
200	0xbbfc1160	-0.007692501
201	0x3d181077	0.037125077
202	0x3dd65481	0.104653366
203	0xbc2e512d	-0.010639471
204	0x3d0f9bc8	0.035060674
205	0xbdb984d5	-0.09058539
206	0xbde86607	-0.11347585
207	0x3c768267	0.015045739
208	0x3df030d6	0.11728065
209	0x3d46c0a4	0.04852356
210	0xbd74c961	-0.059762362
211	0x3cf3bfa3	0.029754465
212	0xbcaedf83	-0.021346813
213	0xbd5607e9	-0.052253637
214	0x3d1a7610	0.03771025
215	0x3ca67b47	0.020322455
216	0xbddd12e1	-0.107946165
217	0x3d0500f9	0.03247163
218	0xbd75aa63	-0.059976947
219	0x3d8700ff	0.06591987
220	0xbdc872ff	-0.09787559
221	0xbd39fdfc	-0.045408234
222	0x3cc7bd8a	0.024382371
223	0x3d13192c	0.035912678
224	0x3c725ac7	0.014792151
225	0x3d822581	0.063548096
226	0xbd570289	-0.052492652
227	0xbd2bc626	-0.041937016
228	0xbd405772	-0.046958394
229	0x3d96cc7e	0.073632225
230	0xbb3a3f9e	-0.0028419266
231	0xbd8376a2	-0.06419112
232	0x3d0df289	0.034655128
233	0xbc869bb5	-0.016431669
234	0x3cb9af06	0.022666465
235	0x3e01b9a4	0.12668473
236	0x3d5a6b96	0.05332526
237	0xbc9d91a3	-0.019234484
238	0xbd5a53ba	-0.053302504
239	0xbdc32f51	-0.09530509
240	0xbd9397c8	-0.07206684
241	0xbdf70aed	-0.12062631
242	0xbe2995d3	-0.1656106
243	0xbb132aa3	-0.0022455833
244	0x3cdabcef	0.026701419
245	0xbbc2a776	-0.005940373
246	0xbd90b02f	-0.07064854
247	0xbc996004	-0.018722542
248	0xbbbba067	-0.0057259086
249	0x3d286da0	0.04112017
250	0xbd61ee2b	-0.055158775
251	0xbd592c40	-0.053020716
252	0x3c97c4ac	0.018526398
253	0x3c687f80	0.014190555
254	0xbd0a093b	-0.03370021
255	0x3d329ff6	0.043609582

main.7.weight f4 [32]
0	0x3f6a82e9	0.91606003
1	0x3f83107f	1.0239409
2	0x3f8bac0a	1.0911877
3	0x3f7b1c37	0.9808993
4	0x3f8033d7	1.001582
5	0x3f8e5fb4	1.1122956
6	0x3f76d263	0.96414775
7	0x3f8ca482	1.0987704
8	0x3f82063c	1.0158153
9	0x3f7fee47	0.9997296
10	0x3f85a0e5	1.0439726
11	0x3f7536c1	0.9578667
12	0x3f708c91	0.9396449
13	0x3f755e58	0.9584708
14	0x3f5dc2d0	0.86625385
15	0x3f80a86a	1.0051396
16	0x3f65985f	0.89685625
17	0x3f89eee1	1.0776025
18	0x3f8f376d	1.118879
19	0x3f73768e	0.95102775
20	0x3f74b295	0.95584995
21	0x3f803120	1.0014992
22	0x3f6b0b9c	0.9181459
23	0x3f76576a	0.96227133
24	0x3f826e05	1.0189825
25	0x3f7f9b94	0.9984677
26	0x3f72ccbd	0.94843656
27	0x3f83430b	1.0254835
28	0x3f8484b5	1.0352999
29	0x3f7c9d6e	0.9867772
30	0x3f85ac1e	1.0443151
31	0x3f7a1258	0.9768424

main.7.bias f4 [32]
0	0xbbc4b9c6	-0.006003591
1	0xbd836943	-0.064165615
2	0xbbfa2033	-0.007633233
3	0xbc22c828	-0.009935416
4	0xba92f87d	-0.0011212971
5	0x3cb7ef3c	0.022452943
6	0xbcb3c618	-0.021945044
7	0x3cb2cbfb	0.021825781
8	0x3c185e36	0.009299805
9	0xbc882c34	-0.01662264
10	0x3cab54f2	0.020914529
11	0x3c013e05	0.007888322
12	0xbafe5744	-0.0019404669
13	0xbd321679	-0.043478463
14	0xbcac672a	-0.021045286
15	0x3d0d3a27	0.034479287
16	0xbbac13db	-0.0052513904
17	0xbd60d957	-0.05489477
18	0xbc570790	-0.013124362
19	0xbce83c06	-0.028348934
20	0x3d048892	0.032356806
21	0x3c53f978	0.012937896
22	0xbcbcb239	-0.023034202
23	0xbd892114	-0.06695762
24	0xbd126651	-0.035742108
25	0x3bc57d90	0.006026931
26	0x3acb1296	0.001549321
27	0x3cb09e8c	0.021559976
28	0xbb81511d	-0.003946437
29	0x3c3fc0fc	0.011703726
30	0x3cda1e67	0.026625825
31	0x3c397c50	0.011321142

main.7.running_mean f4 [32]
0	0x3f0bfd1b	0.54683083
1	0x3d883889	0.06651408
2	0x3f1aefda	0.60522234
3	0x3e8308f3	0.25592765
4	0x3f125159	0.57155377
5	0x3f0570a8	0.52125025
6	0xbeb8d55b	-0.36100277
7	0xbe587129	-0.21136917
8	0x3f19d900	0.6009674
9	0xbf435f01	-0.7631684
10	0x3e08648e	0.13319609
11	0xbf08dfa0	-0.53466225
12	0xbf10a834	-0.5650666
13	0x3f070b49	0.52751595
14	0xbf24bb90	-0.643487
15	0xbf429cd1	-0.7602053
16	0xbf022be2	-0.5084821
17	0x3f847fc1	1.0351487
18	0x3f296371	0.6616736
19	0xbe7e09a8	-0.24808371
20	0xbf610f70	-0.8791418
21	0xbf19e414	-0.60113645
22	0xbf11b7d4	-0.56921124
23	0xbdda532d	-0.10660396
24	0x3f62639a	0.8843323
25	0xbfa23f7a	-1.2675622
26	0xbdb722ff	-0.08942222
27	0xbeaa868b	-0.33305773
28	0x3f5473f0	0.82989407
29	0xbf5f44e1	-0.87214476
30	0xbf2eed44	-0.6833079
31	0xbe284fbd	-0.16436668

main.7.running_var f4 [32]
0	0x3e93a1ff	0.2883453
1	0x3ef7f7b6	0.48431176
2	0x3ee963cd	0.45583954
3	0x3e94be9c	0.29051673
4	0x3e27644b	0.16346852
5	0x3e6b8d8b	0.23003213
6	0x3f3e2eac	0.74289966
7	0x3d956e23	0.072963975
8	0x3de903c4	0.11377671
9	0x3ede9884	0.43475735
10	0x3fa7ec79	1.3119041
11	0x3f43bcbe	0.7645987
12	0x3fea76f2	1.8317549
13	0x3e9f335e	0.31093878
14	0x3f90c4e0	1.1310081
15	0x3e97d513	0.2965475
16	0x3fe1cf1a	1.7641327
17	0x3e8efb21	0.2792597
18	0x3e44fa74	0.19236165
19	0x3f84eca8	1.0384722
20	0x401a9593	2.4153793
21	0x3e55f3ff	0.20893858
22	0x4018e82c	2.3891706
23	0x3efacee7	0.4898598
24	0x3f0b803e	0.5449256
25	0x3fa3720e	1.2769182
26	0x3ebe3385	0.3714868
27	0x3f03cc69	0.5148378
28	0x3f0424e9	0.5161882
29	0x3eca0928	0.3946011
30	0x3eef372b	0.46721777
31	0x3e7ed6b6	0.24886593

main.9.weight f4 [64, 32, 2, 2]
0	0xbd470da6	-0.048597
1	0x3cf52048	0.02992262
2	0xbd95f07b	-0.07321259
3	0xbdfb3184	-0.12265304
4	0xbdd1079c	-0.102065295
5	0xbdf1495c	-0.1178157
6	0xbcd8671c	-0.026416354
7	0x3a9ae29a	0.00118168
8	0x3c9815bd	0.018565053
9	0xb8ca5a8b	-9.6489755e-05
10	0xbc143467	-0.009045697
11	0xbbb42993	-0.00549812
12	0x3d9ee231	0.07757986
13	0x3d146c80	0.036236286
14	0x3df57d12	0.11986746
15	0xbd0eef91	-0.034896437
16	0xbe05be36	-0.13060841
17	0xbd1a6460	-0.03769338
18	0xbd0e4b3a	-0.03473971
19	0xbdb25713	-0.08708014
20	0x3c977f14	0.018493213
21	0xbdc7c7f5	-0.09754936
22	0xbdd5fdb0	-0.10448778
23	0x3d86ee86	0.065884635
24	0xbc2d2e77	-0.01057016
25	0xba53044f	-0.0008049653
26	0xbd468866	-0.048469923
27	0xbc763538	-0.015027337
28	0xbccbdb6d	-0.024884904
29	0xbca7d33f	-0.020486472
30	0x3cd127dd	0.025531704
31	0x3e05fedb	0.13085501
32	0xbc236899	-0.0099736685
33	0x3d2990d7	0.041397896
34	0x3cc66dee	0.02422234
35	0xbde83fc6	-0.11340289
36	0xbd94e641	-0.0727048
37	0x3c4ef374	0.012631286
38	0x3d8e5ca5	0.06951264
39	0xbc5ddec0	-0.013541877
40	0x3d9c91a6	0.07644968
41	0xbca766e6	-0.020434808
42	0x3cd7cfe5	0.026344249
43	0xbcbfa468	-0.023393825
44	0xbc0bb236	-0.0085263755
45	0x3ce71843	0.028209811
46	0x3db4cbe9	0.08827955
47	0x3d1babbe	0.038005583
48	0x3b460666	0.0030216216
49	0xbc3bc32c	-0.011460107
50	0xbd3226a6	-0.04349389
51	0xbd68c77b	-0.056830864
52	0xbdf74066	-0.1207283
53	0x3ca5a9dd	0.020222599
54	0x3d1f3782	0.038871296
55	0xbca46ac4	-0.020070441
56	0xbe2525df	-0.16127728
57	0xbdc65862	-0.096848264
58	0x3d903fc2	0.07043411
59	0xbd5cadb7	-0.053876605
60	0x3c25cd94	0.010119814
61	0xbcb91e7e	-0.022597548
62	0x3ded2b4a	0.11580522
63	0x3d816d64	0.06319693
64	0x3d15cec6	0.036574148
65	0xbdbe4110	-0.092897534
66	0xbce6e9b9	-0.02818762
67	0xbdd9a941	-0.10627986
68	0xbb869d4a	-0.004108106
69	0xbd7210a0	-0.059097886
70	0xbd992155	-0.07477061
71	0xbde4a773	-0.11164751
72	0xbbd66c38	-0.0065436624
73	0xbe04f794	-0.12985069
74	0xbc835c63	-0.016035264
75	0x3d02fc47	0.03197887
76	0xbca6d286	-0.020364057
77	0x3d3e32dc	0.046435222
78	0x3db96302	0.09052087
79	0x3d8ed796	0.069747135
80	0xbd25211e	-0.040314786
81	0xbdc9f2a0	-0.0986073
82	0xbd4a2505	-0.04935171
83	0x3ce8717d	0.028374428
84	0xbbff8035	-0.007797266
85	0xbdda7faa	-0.10668881
86	0x3bd37a90	0.0064538196
87	0xbb22c7a1	-0.0024838226
88	0xbd1cfd5c	-0.03832756
89	0xbc6ede45	-0.01457936
90	0xbd1cbea3	-0.038267743
91	0xbd8eb8a5	-0.06968812
92	0xbc19cd73	-0.009387362
93	0x3cb41d1d	0.021986539
94	0x3d64522a	0.05574242
95	0xbd851c78	-0.064995706
96	0xbe0faee0	-0.14031553
97	0x3d38e1f8	0.045137376
98	0xbddc925e	-0.10770105
99	0xbdd03c4a	-0.10167749
100	0xbd5d6a29	-0.05405632
101	0xbd2a4745	-0.041571874
102	0xbd1db529	-0.038502846
103	0xbd7b7b28	-0.061396748
104	0x3dc1b496	0.09458272
105	0xbdc50452	-0.09619965
106	0xbce7e9cf	-0.02830973
107	0xbd53d622	-0.051717885
108	0xbc8f3440	-0.01748097
109	0xbc775320	-0.015095502
110	0xbb5c70ae	-0.0033636498
111	0x3d613a35	0.05498715
112	0xbd826915	-0.06367699
113	0xba066337	-0.00051264785
114	0xbb258252	-0.002525468
115	0x3cb31b66	0.02186365
116	0xbcc303b0	-0.02380547
117	0xbd6ba1b5	-0.057527263
118	0xbb3245bf	-0.0027202216
119	0x3dd510e0	0.10403609
120	0xbd11d1a7	-0.03560033
121	0xbb80ce8b	-0.003930872
122	0xbcaf6822	-0.02141196
123	0xbb9622b0	-0.004581772
124	0x3c9f723e	0.019463655
125	0x3d234906	0.039864562
126	0xbd8a3eae	-0.067502365
127	0xbdd30b69	-0.10304911
128	0xbbea1dc5	-0.007144662
129	0xbd7d450e	-0.061833434
130	0xbdb83150	-0.089937806
131	0xbc4fb2ab	-0.012676875
132	0xbd12a94d	-0.03580599
133	0x3dbb6b7b	0.0915136
134	0xbde71ae6	-0.11284427
135	0xbbecbb4d	-0.0072244764
136	0x3cc18f8d	0.02362802
137	0x3e1f9ed4	0.15587932
138	0x3bd46739	0.0064820317
139	0xbe110db9	-0.14165391
140	0xbd9c6e3e	-0.076382145
141	0x3a5e5a2e	0.0008482066
142	0x3cab4a09	0.020909326
143	0x3cb96433	0.022630787
144	0x3d518cdb	0.05115972
145	0xbd385c57	-0.045009937
146	0x3d913b36	0.07091372
147	0x3d3d874f	0.04627162
148	0x3d00c480	0.031437397
149	0x3e024518	0.1272167
150	0x3d3dc7d4	0.04633315
151	0xbe265bcb	-0.16245954
152	0xbde4366c	-0.11143193
153	0x3d8d8dc7	0.069118075
154	0x3c30d3cc	0.010792684
155	0xbc2ab53e	-0.010419188
156	0x3c8ada69	0.01694985
157	0x3d90ed18	0.07076472
158	0x3d52a316	0.051425062
159	0xbe55f706	-0.20895013
160	0xbd1044f2	-0.035222
161	0xbb82507c	-0.0039768796
162	0xbd931dd4	-0.07183424
163	0x3e0dbc4a	0.13841358
164	0xbdd4bb61	-0.10387302
165	0x39d990b0	0.00041497266
166	0x3dbd18b6	0.09233229
167	0xbda5d66f	-0.080975406
168	0xbdc8cabf	-0.09804296
169	0x3dfa486b	0.12220844
170	0x3d318365	0.0433382
171	0x3d74c2c4	0.059756055
172	0x3d6b7be7	0.05749121
173	0xbd2e7756	-0.042594276
174	0xbd1eef39	-0.03880236
175	0x3dac4b26	0.08412771
176	0xbda9a16f	-0.08282744
177	0xbcb4146d	-0.021982396
178	0x3da5147d	0.080605485
179	0xbd9c966e	-0.0764588
180	0xbd07d8be	-0.033165686
181	0x3cecfbe8	0.028928712
182	0x3cb33850	0.021877438
183	0xbd03a3b9	-0.03213856
184	0x3d341065	0.043960948
185	0x3d91d56e	0.071207866
186	0x3daf57d4	0.08561674
187	0xbd3c4c60	-0.045971274
188	0xbd4b65c1	-0.049657587
189	0x3d43db06	0.0478163
190	0xbd2742eb	-0.040835302
191	0x3d768d2b	0.060193222
192	0xbdc92794	-0.09822002
193	0xbde59408	-0.11209875
194	0x3dc320eb	0.09527763
195	0x3d4e17bf	0.050315615
196	0x3d67eaa5	0.05662026
197	0x3de819d6	0.11333053
198	0xbca552be	-0.020181056
199	0x3e27bccd	0.16380616
200	0xbd7af761	-0.061271075
201	0x3dbf44fb	0.09339329
202	0xbd8d876f	-0.069105975
203	0xbdccdd72	-0.10003175
204	0xbd88790f	-0.06663715
205	0x3d98be13	0.07458129
206	0xbc5c979d	-0.013463882
207	0xbcce9e16	-0.025221866
208	0x3d003824	0.03130354
209	0x3d23f916	0.04003247
210	0x3dc779a4	0.09739998
211	0xbc8c40d5	-0.017120758
212	0xbd841fcf	-0.064513795
213	0x3c8a11fa	0.016854275
214	0x3d558c74	0.0521359
215	0x3db1079f	0.08644032
216	0xbdaff7d2	-0.0859219
217	0xbd628180	-0.055299282
218	0x3d6a18ee	0.05715268
219	0x3d998ea4	0.0749791
220	0xbdd359f5	-0.10319892
221	0xbc814a4e	-0.015782502
222	0x3dac3700	0.08408928
223	0xbb9d5186	-0.004800978
224	0xbca0febb	-0.019652715
225	0xbcecd48c	-0.028909944
226	0x3d80d2a0	0.062901735
227	0xbc8caceb	-0.017172297
228	0xbb3a5abb	-0.0028435427
229	0xbd00465a	-0.031317092
230	0x3e09e500	0.13466263
231	0x3c24e091	0.010063306
232	0xbd3c8abd	-0.04603075
233	0x3d8c8671	0.0686158
234	0x3bbab73e	0.0056981137
235	0x3d950137	0.07275622
236	0xbdd613e5	-0.10453013
237	0x3d43dc88	0.047817737
238	0x3c128875	0.008943667
239	0xbdbd52d5	-0.092443146
240	0x3ca0f92b	0.019650063
241	0xbc0f6dbf	-0.008754193
242	0xbd27b872	-0.040947385
243	0x3d53685d	0.0516132
244	0xbd738ecc	-0.059462354
245	0xbafa3b89	-0.0019091229
246	0x3ccccc23	0.024999684
247	0xbc93b915	-0.01803259
248	0x3d826a1e	0.063678965
249	0xbde75600	-0.112957
250	0xbb37abfe	-0.00280261
251	0x3d253d81	0.040341858
252	0xbdc909bd	-0.098163106
253	0xbd5cb3a5	-0.05388226
254	0x3d5a480c	0.053291366
255	0xbdbc6aa9	-0.09200031

main.10.weight f4 [64]
0	0x3f7cfa90	0.9881983
1	0x3f833b7f	1.0252532
2	0x3f7c053d	0.98445493
3	0x3f815957	1.0105389
4	0x3f7a5f26	0.97801435
5	0x3f78ab01	0.9713593
6	0x3f7c487a	0.9854809
7	0x3f82650d	1.0187088
8	0x3f80457f	1.0021209
9	0x3f6eb6b8	0.93247557
10	0x3f859009	1.0434581
11	0x3f8b47af	1.0881251
12	0x3f80b69c	1.0055728
13	0x3f87b966	1.0603454
14	0x3f81cc17	1.0140408
15	0x3f8355a4	1.026051
16	0x3f84e5f6	1.0382679
17	0x3f89e9be	1.0774457
18	0x3f820c48	1.0159998
19	0x3f6ade64	0.9174559
20	0x3f7bdeb0	0.9838667
21	0x3f80f0aa	1.0073445
22	0x3f82d75d	1.0221974
23	0x3f7b583c	0.9818151
24	0x3f812684	1.0089879
25	0x3f575167	0.84108585
26	0x3f82a184	1.0205541
27	0x3f7d8f26	0.9904655
28	0x3f7cb518	0.9871383
29	0x3f7b687e	0.9820632
30	0x3f811cec	1.0086951
31	0x3f748f6d	0.9553135
32	0x3f72db49	0.9486585
33	0x3f80f0ed	1.0073525
34	0x3f7bc0ce	0.9834107
35	0x3f776ae9	0.96647507
36	0x3f7dface	0.9921082
37	0x3f7df6ba	0.992046
38	0x3f847e2d	1.0351006
39	0x3f8775a9	1.0582782
40	0x3f823d8b	1.0175031
41	0x3f7dd976	0.99159944
42	0x3f6bf7bb	0.9217488
43	0x3f851740	1.039772
44	0x3f680fa5	0.9064887
45	0x3f7b0678	0.98056746
46	0x3f76f712	0.9647075
47	0x3f81dc9c	1.014545
48	0x3f788023	0.9707052
49	0x3f748aa6	0.9552406
50	0x3f75b054	0.9597218
51	0x3f8468a7	1.0344437
52	0x3f80fed3	1.0077766
53	0x3f8154d8	1.0104017
54	0x3f815267	1.0103272
55	0x3f64ca8f	0.8937158
56	0x3f7286e3	0.9473707
57	0x3f811b87	1.0086526
58	0x3f6fec75	0.9372018
59	0x3f6a1604	0.91439843
60	0x3f8ac162	1.0840266
61	0x3f85122f	1.0396174
62	0x3f755e1f	0.9584674
63	0x3f696166	0.91164243

main.10.bias f4 [64]
0	0x3c9915f1	0.01868722
1	0xbcc12395	-0.023576537
2	0xbce49ec8	-0.027907744
3	0x3bb74c5c	0.0055938195
4	0xbd1cf31e	-0.038317792
5	0xbd14d31a	-0.036334135
6	0xbc851623	-0.016245907
7	0x3c89eff6	0.016838055
8	0x3d8bffa4	0.06835869
9	0x3cc9cc13	0.024633443
10	0xbca6afea	-0.020347554
11	0xbce03864	-0.02737064
12	0xbc7ee5bd	-0.015557704
13	0xbcc9d807	-0.024639143
14	0x3cf7a845	0.030231604
15	0x3d5c1b4f	0.05373698
16	0x3d5ee04d	0.05441313
17	0xbbe2cdac	-0.0069214907
18	0x3c76a9a4	0.015055094
19	0xbc734723	-0.014848503
20	0xbd73e141	-0.05954099
21	0xbd332bd2	-0.043742962
22	0x3d78d6a3	0.06075157
23	0xbd3c2a49	-0.045938764
24	0xbda3c600	-0.0799675
25	0xbde3ee9a	-0.11129494
26	0xbce42787	-0.02785088
27	0xbd419801	-0.047264103
28	0xbd2f0556	-0.042729698
29	0xbd170b32	-0.03687591
30	0x3c939002	0.018013004
31	0xbdf5a099	-0.11993522
32	0xbb069edf	-0.0020541472
33	0x3c130904	0.008974317
34	0x39e1a255	0.0004303629
35	0xbd6b4835	-0.05744191
36	0x3d4bb707	0.049735095
37	0x3bd8be49	0.0066144806
38	0x3ce61b6d	0.02808925
39	0x3aaab819	0.0013024836
40	0x3ca4bdf9	0.020110117
41	0x3cb5b7d6	0.022182386
42	0xbd5f4064	-0.054504767
43	0x3d9bb7a7	0.07603388
44	0xbd9dac26	-0.0769885
45	0x3babdcf7	0.005244847
46	0xbd83e5ac	-0.06440291
47	0x3d553f01	0.05206204
48	0xbb878140	-0.004135281
49	0xbd4ca454	-0.049961403
50	0xbde55960	-0.111986876
51	0xba032a0d	-0.00050035195
52	0x3d04497b	0.03229664
53	0x3c259a74	0.010107625
54	0xbd302fef	-0.043014463
55	0xbd9bcd8a	-0.07607563
56	0xbd0e23e3	-0.034702193
57	0xbc828672	-0.01593325
58	0x3cde37eb	0.027126273
59	0xbdd0bcfd	-0.10192297
60	0x3d69d61c	0.057088956
61	0x3d683476	0.056690656
62	0xbc0f980b	-0.008764277
63	0xbd428294	-0.04748781

main.10.running_mean f4 [64]
0	0xbe9efff7	-0.3105466
1	0x3bbdff6f	0.0057982723
2	0x3de13db5	0.10998098
3	0xbe86f882	-0.2636147
4	0x3d3a4ec5	0.045485277
5	0xbe2b8a79	-0.16752042
6	0xbdcc08a6	-0.09962587
7	0xbea519b7	-0.3224618
8	0xbeb855d3	-0.3600298
9	0xbe19e402	-0.15028384
10	0xbe45b5c9	-0.19307627
11	0x3cc21deb	0.023695907
12	0xbe20e4db	-0.15712301
13	0xbdf330c5	-0.118745364
14	0xbda8aa12	-0.08235563
15	0xbe80ae8c	-0.2513317
16	0xbe7ca9e4	-0.24674183
17	0xbd05a4aa	-0.03262774
18	0xbe79ce43	-0.24395089
19	0xbe106e25	-0.14104517
20	0x3e238bf3	0.15971355
21	0xbe358d3a	-0.17729655
22	0xbe9a597d	-0.301464
23	0x3da70400	0.0815506
24	0xbe58cf82	-0.21172908
25	0x3dc9240d	0.09821329
26	0xbe459a4f	-0.19297145
27	0xbe097702	-0.13424304
28	0x3e541a11	0.20713069
29	0x3d8c117d	0.06839273
30	0xbe79b5d9	-0.24385776
31	0xbe2b3734	-0.16720277
32	0xbdbba6dd	-0.09162686
33	0xbe649d9b	-0.22325747
34	0x3e5ba4fa	0.21449652
35	0xbd1d52c5	-0.038409013
36	0xbea40f03	-0.32042703
37	0x3d24680e	0.040138297
38	0xbe7592f4	-0.2398184
39	0xbd84da8e	-0.064869985
40	0xbe9dca57	-0.30818436
41	0xbe6dd06c	-0.23224038
42	0xbd0fe91b	-0.035134416
43	0xbeb3348c	-0.35001028
44	0x3e2b6fc5	0.16741855
45	0xbe691dee	-0.22765324
46	0xbe63bdbc	-0.22240347
47	0xbe2ae76a	-0.1668984
48	0xbe740c44	-0.23832804
49	0x3d9b9b22	0.075979486
50	0xbe43ac5a	-0.19108716
51	0xbe6a8237	-0.22901236
52	0xbeecd4ac	-0.46256006
53	0xbcacb77e	-0.02108359
54	0x3dbcdcc6	0.09221797
55	0xbd6a537e	-0.05720853
56	0xbc39117d	-0.011295673
57	0x3aa436de	0.0012528559
58	0xbe5c7b56	-0.21531424
59	0x3cc4fd2f	0.024046509
60	0xbe55f322	-0.20893529
61	0xbed395a9	-0.4132512
62	0xbc6da409	-0.014504441
63	0xbdc55c1c	-0.09636709

main.10.running_var f4 [64]
0	0x3ebc7a7c	0.36812198
1	0x3e19bc51	0.15013243
2	0x3e4f2499	0.20228805
3	0x3e30c3ab	0.17262141
4	0x3e43f4d0	0.19136357
5	0x3e26b1cb	0.1627876
6	0x3ed4c609	0.4155734
7	0x3e208503	0.1567574
8	0x3ef75fdb	0.4831532
9	0x3ea55821	0.322938
10	0x3e3738a1	0.17892696
11	0x3e672d84	0.22575957
12	0x3e931eaf	0.28734347
13	0x3e6b4cc6	0.22978505
14	0x3e274b61	0.16337349
15	0x3e4a5f7b	0.19762985
16	0x3e706d71	0.23479249
17	0x3e50201a	0.20324746
18	0x3e3100bd	0.17285438
19	0x3e8caa6f	0.2747378
20	0x3e400bb9	0.18754472
21	0x3eb6be9c	0.35692298
22	0x3e480af4	0.19535428
23	0x3e473fed	0.1945798
24	0x3e6fcf2f	0.23418878
25	0x3e5a574f	0.21322368
26	0x3e498340	0.19678974
27	0x3e2c1c15	0.16807587
28	0x3e90b9de	0.28266805
29	0x3e2797f4	0.1636656
30	0x3e793b3f	0.24339007
31	0x3e4d4d15	0.20048936
32	0x3e755873	0.23959522
33	0x3e3c43a5	0.1838518
34	0x3e482dd5	0.19548734
35	0x3e50b0ec	0.2037999
36	0x3e3998d4	0.18124706
37	0x3eabe11d	0.33570185
38	0x3e1b1965	0.15146406
39	0x3e199313	0.1499751
40	0x3e9c111b	0.304818
41	0x3e160f02	0.14654163
42	0x3ebbdd15	0.3669211
43	0x3ee1ac9b	0.44077
44	0x3ea0d8e2	0.31415468
45	0x3e1621d1	0.14661337
46	0x3e82496b	0.25446638
47	0x3e0ac35d	0.13551088
48	0x3e89c8d7	0.2691104
49	0x3ea255e3	0.3170615
50	0x3eac78c0	0.33685875
51	0x3e0350df	0.12823819
52	0x3e54d276	0.2078341
53	0x3e915539	0.28385332
54	0x3e38333b	0.17988293
55	0x3e8fb522	0.2806788
56	0x3e8940b8	0.2680719
57	0x3e5afffe	0.21386716
58	0x3e8d9c94	0.27658522
59	0x3e5a567b	0.21322052
60	0x3ea8f194	0.3299681
61	0x3e76d416	0.24104342
62	0x3e627df6	0.22118363
63	0x3e2b4924	0.1672712

main.12.weight f4 [128, 64, 2, 2]
0	0x3c80205e	0.015640434
1	0x3c5dc257	0.013535104
2	0xbd0a0178	-0.033692807
3	0x3bfa49ef	0.007638208
4	0x3c9cb28d	0.019128108
5	0x3d1d5768	0.038413435
6	0xbdc1b417	-0.094581775
7	0xbd915f02	-0.070981994
8	0x3d57362f	0.052541908
9	0x3dacaa15	0.08430878
10	0xbbb4ead8	-0.0055211596
11	0xbd97a01e	-0.07403587
12	0xbc378a4f	-0.011202409
13	0xbc29251a	-0.010323787
14	0xbc0b915f	-0.008518546
15	0x3c856c82	0.016287092
16	0xbd90b11a	-0.070650294
17	0x3b6910bb	0.003556295
18	0xbdb3acef	-0.08773219
19	0xbda682e7	-0.081304364
20	0x3d329ca0	0.0436064
21	0xbc9ff670	-0.01952669
22	0x3762eb5d	1.35254495e-05
23	0x3d1ba67c	0.03800057
24	0xbdc7d30b	-0.0975705
25	0xbc84be07	-0.016203893
26	0xbc418830	-0.011812255
27	0xbb860c6e	-0.004090837
28	0xbd32d1ca	-0.0436571
29	0x3d485594	0.04890974
30	0x3c930130	0.017944902
31	0x3ca92e44	0.020651944
32	0xb9ea8a36	-0.00044734933
33	0x3ba7c99d	0.0051204697
34	0xbc31fd13	-0.01086356
35	0x3d671759	0.05641875
36	0x3d08c63b	0.033392172
37	0x3d897b8d	0.067130186
38	0x3d655f96	0.05599936
39	0x3db48a10	0.08815396
40	0xbd9b6fb6	-0.075896665
41	0x3d022edd	0.031782974
42	0xbc5e2146	-0.013557738
43	0xbdd5e319	-0.10443706
44	0xbd8459b8	-0.06462425
45	0xbd33acf6	-0.04386612
46	0xbe5cc6bf	-0.2156019
47	0xbd87f3b9	-0.06638283
48	0xbd8352b3	-0.06412258
49	0xbdaf4a2a	-0.085590675
50	0xbd0e9100	-0.03480625
51	0x3d45cbe1	0.048290137
52	0xbc1ced14	-0.009578008
53	0xbbdef75a	-0.006804389
54	0x3d0fb8c9	0.035088334
55	0xbc9b51d7	-0.018959923
56	0xbc7752d3	-0.01509543
57	0x3d5ea5e2	0.054357417
58	0xbc7e60b1	-0.015525983
59	0x3d9153e5	0.0709608
60	0xbd751d06	-0.059842132
61	0xbd4fa2f6	-0.05069252
62	0xbd6c377f	-0.057670113
63	0xbc2ddf85	-0.010612373
64	0xbce54efe	-0.027991768
65	0xbdc74735	-0.097303785
66	0x3dcbdb28	0.0995391
67	0x3d42d20e	0.047563605
68	0xbcfff83b	-0.031246295
69	0xbd9b1a5c	-0.07573387
70	0xbdfc9f9b	-0.1233513
71	0xbd6c602e	-0.05770891
72	0x3b2b0849	0.0026097468
73	0x3d265faf	0.040618595
74	0x3cbc8f78	0.02301763
75	0x3d8e1f42	0.06939556
76	0x3d7c9cd0	0.061672986
77	0xbc12ff3b	-0.0089719845
78	0x3cf17c43	0.029478198
79	0x3dcd3d0c	0.100214094
80	0xbd6adc95	-0.05733927
81	0xbd364024	-0.044494763
82	0xbe2222f8	-0.15833652
83	0xbc708763	-0.014680716
84	0xbc02b6a3	-0.007978114
85	0x3d434c9a	0.047680475
86	0xbd21e267	-0.039522555
87	0xbc9a387a	-0.018825758
88	0xbe054cd0	-0.13017583
89	0xbcd7a211	-0.026322396
90	0xbd9d7b5f	-0.07689547
91	0xbc6f2c90	-0.014598027
92	0x3dbc110b	0.09182938
93	0x3c51837b	0.012787695
94	0x3db1f237	0.08688777
95	0x3cabb8d3	0.020962154
96	0xbd6cd289	-0.05781797
97	0xbca972a3	-0.020684546
98	0xbdc8c477	-0.09803098
99	0xbda1282b	-0.078689896
100	0x3d1d1cf6	0.038357697
101	0xbd8c3b04	-0.06847194
102	0xbd50c207	-0.05096629
103	0xbd823105	-0.06357006
104	0xbc96a7a9	-0.018390493
105	0x3de79ab3	0.113088034
106	0xbd7dc774	-0.06195779
107	0x3df10a16	0.11769502
108	0x3c37be1f	0.011214762
109	0x3cfd1975	0.030895928
110	0x3d7cf94f	0.061761197
111	0x3cdc2a89	0.026875751
112	0x3dc95435	0.09830514
113	0x3d8218ca	0.063523844
114	0x3d963b2f	0.07335507
115	0xbd2bb935	-0.041924674
116	0x3ca524a3	0.020159071
117	0x3bb593b8	0.005541291
118	0x3d882512	0.066476956
119	0xbb9fe070	-0.00487905
120	0x3b50fe81	0.0031889977
121	0xbd480d58	-0.04884085
122	0xbbde0ffa	-0.006776807
123	0x3d89a9bf	0.067218296
124	0xb8f36b41	-0.000116071205
125	0xbc3356fd	-0.010946033
126	0xbda8e572	-0.08246888
127	0xbc664403	-0.014054301
128	0x3be74e7b	0.007058916
129	0x3ccb2228	0.02479656
130	0xbd85f634	-0.065411
131	0x3d292104	0.04129125
132	0x3d2405ce	0.0400446
133	0x3c877b1a	0.016538192
134	0xbcd3bac7	-0.025845898
135	0x3d1c238a	0.03811983
136	0x3d41ba63	0.047296893
137	0x3d4c9473	0.04994626
138	0xbcfa46c5	-0.030551324
139	0xbc1c5fd3	-0.009544331
140	0x3d988187	0.074465804
141	0x3d98ad18	0.0745489
142	0x3d6d327f	0.057909485
143	0x3c5885c1	0.013215483
144	0x3d020974	0.031747296
145	0xbc0d554c	-0.008626293
146	0x3d9240e7	0.071412854
147	0x3daa5bcf	0.08318292
148	0xbd9c1381	-0.076209076
149	0x3c9fc53a	0.019503225
150	0xbd943609	-0.07236869
151	0x3c8f3057	0.017479105
152	0xbdd3eb1d	-0.10347579
153	0xbd9e8ca1	-0.077416666
154	0xbcb35247	-0.021889819
155	0xbd8535c8	-0.065043986
156	0xbcd17d01	-0.025572302
157	0xbd25b687	-0.040457275
158	0xbd816668	-0.063183606
159	0xbce0da71	-0.027447911
160	0xbcafcc06	-0.02145959
161	0xbd2db7b6	-0.04241153
162	0xbd47b360	-0.04875505
163	0x3d1313a7	0.035907414
164	0x3d715d65	0.05892696
165	0xbc9b5350	-0.018960625
166	0x3d9f7414	0.07785812
167	0x3d705c5f	0.058681842
168	0xbd0eb1ff	-0.03483772
169	0x3dba3c3a	0.090935186
170	0x3d80f8d9	0.06297464
171	0xbceb37dc	-0.02871316
172	0xbd27e296	-0.040987574
173	0xbd11f2ac	-0.03563182
174	0xba7f8f2f	-0.0009748814
175	0x3d34d831	0.04415149
176	0xbbf98276	-0.007614429
177	0xbc57fba3	-0.013182553
178	0xbc33f6ed	-0.010984165
179	0xbcfe31e3	-0.031029647
180	0x3c7c10a2	0.015384825
181	0xbd1b339b	-0.03789101
182	0x3c9a601a	0.018844653
183	0x3d0e8fad	0.03480499
184	0x3d9047d4	0.0704495
185	0x3ca541ff	0.020173071
186	0xbd46bcfd	-0.048520077
187	0xbd8a0cd4	-0.06740728
188	0x3d4e5fe6	0.050384425
189	0xbc287c8c	-0.010283601
190	0x3d22de2d	0.039762665
191	0x3dad61b7	0.08465903
192	0x3d628666	0.055303954
193	0x3d4e4da0	0.050366998
194	0xbd7bd247	-0.061479833
195	0x3ab8bfb4	0.0014095218
196	0xbd3a55e8	-0.045492083
197	0x3b8be9c9	0.0042698127
198	0xbd1dda86	-0.03853848
199	0xbc2e2e26	-0.01063112
200	0x3cc11048	0.023567334
201	0x3baf2f3a	0.005346206
202	0x3da17865	0.078842916
203	0x3c843cab	0.01614221
204	0xbd2f575e	-0.04280793
205	0xbb9dd015	-0.004816065
206	0x3d75c526	0.06000247
207	0xbd5ad16b	-0.053422373
208	0xbd8f334d	-0.06992207
209	0x3c51c28c	0.012802731
210	0x3d9f2229	0.077701874
211	0x3d3b6ea2	0.045759805
212	0x3c6e86d1	0.01455851
213	0x3ca3778e	0.019954469
214	0xbd8570dd	-0.065156676
215	0xbd580916	-0.05274304
216	0xbd6df7a2	-0.05809749
217	0xbd2c2bb9	-0.042033885
218	0xbe18b410	-0.14912438
219	0x3ca0365a	0.019557167
220	0x3d1925f1	0.0373897
221	0x3d0082e7	0.03137484
222	0x3d7d588e	0.06185203
223	0x3c4333af	0.011914178
224	0xbd1ba8c9	-0.038002763
225	0x3d7913e7	0.060809996
226	0x3e1c38e6	0.1525608
227	0x3c941fde	0.018081602
228	0xbcd9c04d	-0.026580954
229	0x3d4def82	0.05027724
230	0xbdfa29fe	-0.122150406
231	0xbd5d367b	-0.054007035
232	0xbba8b39b	-0.0051483638
233	0x3d4a20a6	0.049347542
234	0xbcd9deb0	-0.026595443
235	0x3dd30b63	0.10304906
236	0x3d20f63b	0.039297324
237	0x3d59ce32	0.05317516
238	0xbd8c688d	-0.06855879
239	0xbd1c4d6f	-0.038159784
240	0x3dac9f96	0.08428876
241	0xbc98c401	-0.01864815
242	0x3c9e1bad	0.019300306
243	0x3d441e7c	0.047880635
244	0xbd16af2b	-0.036788147
245	0x3cebf557	0.02880351
246	0x3d9c7bc3	0.07640793
247	0x3d4138c1	0.047173265
248	0xbbe71dae	-0.0070530986
249	0xbd16f86a	-0.036858
250	0x3d90b6f8	0.070661485
251	0xbc0daa7c	-0.008646604
252	0x3d3761b6	0.04477092
253	0xbd3c62ce	-0.045992665
254	0xbd7a3eeb	-0.06109516
255	0xbb408677	-0.0029377022

main.13.weight f4 [128]
0	0x3f83ce1f	1.0297278
1	0x3f7ed2fd	0.9954069
2	0x3f8866b5	1.0656344
3	0x3f8252ca	1.0181515
4	0x3f8b104e	1.0864351
5	0x3f864608	1.0490122
6	0x3f930e2c	1.14887
7	0x3f90c273	1.1309341
8	0x3f8b85ac	1.0900168
9	0x3f86a5c7	1.0519341
10	0x3f8bc683	1.0919956
11	0x3f86e1e0	1.0537682
12	0x3f8ab329	1.0835925
13	0x3f905109	1.127473
14	0x3f8a78b5	1.0818087
15	0x3f873adb	1.0564836
16	0x3f8e67f6	1.1125476
17	0x3f83542e	1.0260065
18	0x3f8d0a2f	1.1018733
19	0x3f8473a9	1.0347797
20	0x3f88a38c	1.067491
21	0x3f93a780	1.1535492
22	0x3f88c725	1.0685774
23	0x3f85166c	1.0397468
24	0x3f844592	1.0333731
25	0x3f85a5be	1.0441206
26	0x3f862829	1.0481006
27	0x3f8ab591	1.083666
28	0x3f894177	1.0723103
29	0x3f8e6729	1.1125232
30	0x3f87307c	1.0561671
31	0x3f81f9a0	1.0154305
32	0x3f862ccc	1.0482421
33	0x3f892163	1.0713314
34	0x3f8b85a8	1.0900164
35	0x3f87f1bd	1.0620648
36	0x3f88160e	1.063173
37	0x3f875478	1.0572653
38	0x3f8844da	1.0646012
39	0x3f84c34e	1.0372102
40	0x3f84c452	1.0372412
41	0x3f8d986f	1.1062144
42	0x3f8876bc	1.0661235
43	0x3f8e64a7	1.1124467
44	0x3f91013e	1.1328504
45	0x3f84330a	1.0328076
46	0x3f873b32	1.056494
47	0x3f8d0825	1.101811
48	0x3f83e669	1.0304691
49	0x3f8cfa61	1.101391
50	0x3f869f37	1.0517339
51	0x3f8de27c	1.1084743
52	0x3f8bbfbe	1.091789
53	0x3f849a3f	1.0359572
54	0x3f88daf9	1.0691825
55	0x3f835575	1.0260454
56	0x3f894b0a	1.0726025
57	0x3f887367	1.0660218
58	0x3f8b93fd	1.0904537
59	0x3f8d05c8	1.1017389
60	0x3f88431b	1.0645479
61	0x3f8bda88	1.0926065
62	0x3f83c181	1.0293428
63	0x3f8740d6	1.0566661
64	0x3f8ce612	1.1007712
65	0x3f942202	1.1572878
66	0x3f89474c	1.0724883
67	0x3f888e06	1.0668342
68	0x3f887117	1.0659512
69	0x3f871dd2	1.0555975
70	0x3f8d364a	1.1032193
71	0x3f8c882e	1.0979059
72	0x3f8c4d35	1.0961062
73	0x3f875e03	1.0575565
74	0x3f8877d8	1.0661573
75	0x3f8e24fa	1.1105034
76	0x3f8213cf	1.0162295
77	0x3f87f69f	1.0622138
78	0x3f83a5b7	1.0284947
79	0x3f88143a	1.0631173
80	0x3f89dad9	1.0769912
81	0x3f824395	1.0176874
82	0x3f86b6c4	1.0524526
83	0x3f87a6ba	1.0597756
84	0x3f8af6d2	1.0856574
85	0x3f884e29	1.0648853
86	0x3f88b114	1.067904
87	0x3f8f68ad	1.120382
88	0x3f8c6006	1.0966804
89	0x3f911c3d	1.1336743
90	0x3f8c04d5	1.0938975
91	0x3f87ea89	1.061845
92	0x3f89c719	1.0763885
93	0x3f8a10ec	1.0786414
94	0x3f86b343	1.0523456
95	0x3f83d2f6	1.0298755
96	0x3f8840b2	1.0644743
97	0x3f8e316e	1.1108835
98	0x3f8dfdc7	1.1093072
99	0x3f91f894	1.1403985
100	0x3f933f56	1.1503704
101	0x3f859b67	1.043805
102	0x3f8b76c1	1.0895616
103	0x3f831bb5	1.024283
104	0x3f84b31a	1.0367157
105	0x3f85bf62	1.044903
106	0x3f88ffaf	1.0703028
107	0x3f8c8297	1.0977353
108	0x3f8822d1	1.0635625
109	0x3f88db29	1.0691882
110	0x3f8492e0	1.0357323
111	0x3f8d0b8e	1.1019151
112	0x3f8b28cb	1.0871824
113	0x3f84fd45	1.0389792
114	0x3f8af4a3	1.0855907
115	0x3f8f96db	1.1217912
116	0x3f84219a	1.0322754
117	0x3f828594	1.0197015
118	0x3f8865bc	1.0656047
119	0x3f8962c5	1.0733267
120	0x3f8b7b58	1.0897017
121	0x3f8612b9	1.0474464
122	0x3f8a1f7f	1.0790862
123	0x3f87f213	1.062075
124	0x3f8648f4	1.0491014
125	0x3f85e015	1.045901
126	0x3f8c7e8d	1.097612
127	0x3f896d3c	1.0736461
